<?xml version="1.0"?>
<net name="torch_jit" version="11">
	<layers>
		<layer id="0" name="data" type="Parameter" version="opset1">
			<data shape="1,3,224,224" element_type="f32" />
			<output>
				<port id="0" precision="FP32" names="data">
					<dim>1</dim>
					<dim>3</dim>
					<dim>224</dim>
					<dim>224</dim>
				</port>
			</output>
		</layer>
		<layer id="1" name="Gather_26452" type="Const" version="opset1">
			<data element_type="f32" shape="1, 3, 1, 1" offset="0" size="12" />
			<rt_info>
				<attribute name="preprocessing" version="0" />
			</rt_info>
			<output>
				<port id="0" precision="FP32">
					<dim>1</dim>
					<dim>3</dim>
					<dim>1</dim>
					<dim>1</dim>
				</port>
			</output>
		</layer>
		<layer id="2" name="Multiply_24710" type="Multiply" version="opset1">
			<data auto_broadcast="numpy" />
			<input>
				<port id="0" precision="FP32">
					<dim>1</dim>
					<dim>3</dim>
					<dim>224</dim>
					<dim>224</dim>
				</port>
				<port id="1" precision="FP32">
					<dim>1</dim>
					<dim>3</dim>
					<dim>1</dim>
					<dim>1</dim>
				</port>
			</input>
			<output>
				<port id="2" precision="FP32">
					<dim>1</dim>
					<dim>3</dim>
					<dim>224</dim>
					<dim>224</dim>
				</port>
			</output>
		</layer>
		<layer id="3" name="Gather_26455" type="Const" version="opset1">
			<data element_type="f32" shape="1, 3, 1, 1" offset="12" size="12" />
			<rt_info>
				<attribute name="preprocessing" version="0" />
			</rt_info>
			<output>
				<port id="0" precision="FP32">
					<dim>1</dim>
					<dim>3</dim>
					<dim>1</dim>
					<dim>1</dim>
				</port>
			</output>
		</layer>
		<layer id="4" name="Divide_5719" type="Add" version="opset1">
			<data auto_broadcast="numpy" />
			<input>
				<port id="0" precision="FP32">
					<dim>1</dim>
					<dim>3</dim>
					<dim>224</dim>
					<dim>224</dim>
				</port>
				<port id="1" precision="FP32">
					<dim>1</dim>
					<dim>3</dim>
					<dim>1</dim>
					<dim>1</dim>
				</port>
			</input>
			<output>
				<port id="2" precision="FP32">
					<dim>1</dim>
					<dim>3</dim>
					<dim>224</dim>
					<dim>224</dim>
				</port>
			</output>
		</layer>
		<layer id="5" name="Constant_80305" type="Const" version="opset1">
			<data element_type="f32" shape="" offset="24" size="4" />
			<output>
				<port id="0" precision="FP32" />
			</output>
		</layer>
		<layer id="6" name="Constant_80306" type="Const" version="opset1">
			<data element_type="f32" shape="" offset="28" size="4" />
			<output>
				<port id="0" precision="FP32" />
			</output>
		</layer>
		<layer id="7" name="Constant_80307" type="Const" version="opset1">
			<data element_type="f32" shape="" offset="24" size="4" />
			<output>
				<port id="0" precision="FP32" />
			</output>
		</layer>
		<layer id="8" name="Constant_80308" type="Const" version="opset1">
			<data element_type="f32" shape="" offset="28" size="4" />
			<output>
				<port id="0" precision="FP32" />
			</output>
		</layer>
		<layer id="9" name="Divide_5719/fq_output_0" type="FakeQuantize" version="opset1">
			<data levels="256" auto_broadcast="numpy" />
			<input>
				<port id="0" precision="FP32">
					<dim>1</dim>
					<dim>3</dim>
					<dim>224</dim>
					<dim>224</dim>
				</port>
				<port id="1" precision="FP32" />
				<port id="2" precision="FP32" />
				<port id="3" precision="FP32" />
				<port id="4" precision="FP32" />
			</input>
			<output>
				<port id="5" precision="FP32">
					<dim>1</dim>
					<dim>3</dim>
					<dim>224</dim>
					<dim>224</dim>
				</port>
			</output>
		</layer>
		<layer id="10" name="/backbone/conv_stem/Constant_3" type="Const" version="opset1">
			<data element_type="i64" shape="" offset="32" size="8" />
			<output>
				<port id="0" precision="I64" names="/backbone/conv_stem/Constant_3_output_0" />
			</output>
		</layer>
		<layer id="11" name="/backbone/conv_stem/Shape_1" type="ShapeOf" version="opset3">
			<data output_type="i64" />
			<input>
				<port id="0" precision="FP32">
					<dim>1</dim>
					<dim>3</dim>
					<dim>224</dim>
					<dim>224</dim>
				</port>
			</input>
			<output>
				<port id="1" precision="I64" names="/backbone/conv_stem/Shape_1_output_0,/backbone/conv_stem/Shape_output_0">
					<dim>4</dim>
				</port>
			</output>
		</layer>
		<layer id="12" name="/backbone/conv_stem/Constant_1" type="Const" version="opset1">
			<data element_type="i64" shape="" offset="40" size="8" />
			<output>
				<port id="0" precision="I64" names="/backbone/conv_stem/Constant_1_output_0" />
			</output>
		</layer>
		<layer id="13" name="Constant_350" type="Const" version="opset1">
			<data element_type="i64" shape="" offset="48" size="8" />
			<output>
				<port id="0" precision="I64" />
			</output>
		</layer>
		<layer id="14" name="/backbone/conv_stem/Gather_1" type="Gather" version="opset8">
			<data batch_dims="0" />
			<input>
				<port id="0" precision="I64">
					<dim>4</dim>
				</port>
				<port id="1" precision="I64" />
				<port id="2" precision="I64" />
			</input>
			<output>
				<port id="3" precision="I64" names="/backbone/conv_stem/Gather_1_output_0" />
			</output>
		</layer>
		<layer id="15" name="/backbone/conv_stem/Sub_1" type="Subtract" version="opset1">
			<data auto_broadcast="numpy" />
			<input>
				<port id="0" precision="I64" />
				<port id="1" precision="I64" />
			</input>
			<output>
				<port id="2" precision="I64" names="/backbone/conv_stem/Sub_1_output_0" />
			</output>
		</layer>
		<layer id="16" name="/backbone/conv_stem/Constant_4" type="Const" version="opset1">
			<data element_type="i64" shape="" offset="56" size="8" />
			<output>
				<port id="0" precision="I64" names="/backbone/conv_stem/Constant_4_output_0" />
			</output>
		</layer>
		<layer id="17" name="/backbone/conv_stem/Div" type="Divide" version="opset1">
			<data auto_broadcast="numpy" m_pythondiv="true" />
			<input>
				<port id="0" precision="I64" />
				<port id="1" precision="I64" />
			</input>
			<output>
				<port id="2" precision="I64" names="/backbone/conv_stem/Cast_1_output_0,/backbone/conv_stem/Cast_output_0,/backbone/conv_stem/Div_output_0" />
			</output>
		</layer>
		<layer id="18" name="Constant_375" type="Const" version="opset1">
			<data element_type="i64" shape="1" offset="48" size="8" />
			<output>
				<port id="0" precision="I64">
					<dim>1</dim>
				</port>
			</output>
		</layer>
		<layer id="19" name="/backbone/conv_stem/Unsqueeze_4" type="Unsqueeze" version="opset1">
			<input>
				<port id="0" precision="I64" />
				<port id="1" precision="I64">
					<dim>1</dim>
				</port>
			</input>
			<output>
				<port id="2" precision="I64" names="/backbone/conv_stem/Unsqueeze_4_output_0">
					<dim>1</dim>
				</port>
			</output>
		</layer>
		<layer id="20" name="/backbone/conv_stem/Sub_2" type="Subtract" version="opset1">
			<data auto_broadcast="numpy" />
			<input>
				<port id="0" precision="I64" />
				<port id="1" precision="I64" />
			</input>
			<output>
				<port id="2" precision="I64" names="/backbone/conv_stem/Sub_2_output_0" />
			</output>
		</layer>
		<layer id="21" name="Constant_377" type="Const" version="opset1">
			<data element_type="i64" shape="1" offset="48" size="8" />
			<output>
				<port id="0" precision="I64">
					<dim>1</dim>
				</port>
			</output>
		</layer>
		<layer id="22" name="/backbone/conv_stem/Unsqueeze_5" type="Unsqueeze" version="opset1">
			<input>
				<port id="0" precision="I64" />
				<port id="1" precision="I64">
					<dim>1</dim>
				</port>
			</input>
			<output>
				<port id="2" precision="I64" names="/backbone/conv_stem/Unsqueeze_5_output_0">
					<dim>1</dim>
				</port>
			</output>
		</layer>
		<layer id="23" name="/backbone/conv_stem/Constant_2" type="Const" version="opset1">
			<data element_type="i64" shape="" offset="32" size="8" />
			<output>
				<port id="0" precision="I64" names="/backbone/conv_stem/Constant_2_output_0" />
			</output>
		</layer>
		<layer id="24" name="/backbone/conv_stem/Constant" type="Const" version="opset1">
			<data element_type="i64" shape="" offset="56" size="8" />
			<output>
				<port id="0" precision="I64" names="/backbone/conv_stem/Constant_output_0" />
			</output>
		</layer>
		<layer id="25" name="Constant_346" type="Const" version="opset1">
			<data element_type="i64" shape="" offset="48" size="8" />
			<output>
				<port id="0" precision="I64" />
			</output>
		</layer>
		<layer id="26" name="/backbone/conv_stem/Gather" type="Gather" version="opset8">
			<data batch_dims="0" />
			<input>
				<port id="0" precision="I64">
					<dim>4</dim>
				</port>
				<port id="1" precision="I64" />
				<port id="2" precision="I64" />
			</input>
			<output>
				<port id="3" precision="I64" names="/backbone/conv_stem/Gather_output_0" />
			</output>
		</layer>
		<layer id="27" name="/backbone/conv_stem/Sub" type="Subtract" version="opset1">
			<data auto_broadcast="numpy" />
			<input>
				<port id="0" precision="I64" />
				<port id="1" precision="I64" />
			</input>
			<output>
				<port id="2" precision="I64" names="/backbone/conv_stem/Sub_output_0" />
			</output>
		</layer>
		<layer id="28" name="/backbone/conv_stem/Constant_5" type="Const" version="opset1">
			<data element_type="i64" shape="" offset="56" size="8" />
			<output>
				<port id="0" precision="I64" names="/backbone/conv_stem/Constant_5_output_0" />
			</output>
		</layer>
		<layer id="29" name="/backbone/conv_stem/Div_1" type="Divide" version="opset1">
			<data auto_broadcast="numpy" m_pythondiv="true" />
			<input>
				<port id="0" precision="I64" />
				<port id="1" precision="I64" />
			</input>
			<output>
				<port id="2" precision="I64" names="/backbone/conv_stem/Cast_2_output_0,/backbone/conv_stem/Cast_3_output_0,/backbone/conv_stem/Div_1_output_0" />
			</output>
		</layer>
		<layer id="30" name="Constant_379" type="Const" version="opset1">
			<data element_type="i64" shape="1" offset="48" size="8" />
			<output>
				<port id="0" precision="I64">
					<dim>1</dim>
				</port>
			</output>
		</layer>
		<layer id="31" name="/backbone/conv_stem/Unsqueeze_6" type="Unsqueeze" version="opset1">
			<input>
				<port id="0" precision="I64" />
				<port id="1" precision="I64">
					<dim>1</dim>
				</port>
			</input>
			<output>
				<port id="2" precision="I64" names="/backbone/conv_stem/Unsqueeze_6_output_0">
					<dim>1</dim>
				</port>
			</output>
		</layer>
		<layer id="32" name="/backbone/conv_stem/Sub_3" type="Subtract" version="opset1">
			<data auto_broadcast="numpy" />
			<input>
				<port id="0" precision="I64" />
				<port id="1" precision="I64" />
			</input>
			<output>
				<port id="2" precision="I64" names="/backbone/conv_stem/Sub_3_output_0" />
			</output>
		</layer>
		<layer id="33" name="Constant_381" type="Const" version="opset1">
			<data element_type="i64" shape="1" offset="48" size="8" />
			<output>
				<port id="0" precision="I64">
					<dim>1</dim>
				</port>
			</output>
		</layer>
		<layer id="34" name="/backbone/conv_stem/Unsqueeze_7" type="Unsqueeze" version="opset1">
			<input>
				<port id="0" precision="I64" />
				<port id="1" precision="I64">
					<dim>1</dim>
				</port>
			</input>
			<output>
				<port id="2" precision="I64" names="/backbone/conv_stem/Unsqueeze_7_output_0">
					<dim>1</dim>
				</port>
			</output>
		</layer>
		<layer id="35" name="/backbone/conv_stem/Concat_1" type="Concat" version="opset1">
			<data axis="0" />
			<input>
				<port id="0" precision="I64">
					<dim>1</dim>
				</port>
				<port id="1" precision="I64">
					<dim>1</dim>
				</port>
				<port id="2" precision="I64">
					<dim>1</dim>
				</port>
				<port id="3" precision="I64">
					<dim>1</dim>
				</port>
			</input>
			<output>
				<port id="4" precision="I64" names="/backbone/conv_stem/Cast_4_output_0,/backbone/conv_stem/Concat_1_output_0">
					<dim>4</dim>
				</port>
			</output>
		</layer>
		<layer id="36" name="/backbone/conv_stem/ConstantOfShape" type="Const" version="opset1">
			<data element_type="i64" shape="4" offset="64" size="32" />
			<output>
				<port id="0" precision="I64" names="/backbone/conv_stem/ConstantOfShape_output_0">
					<dim>4</dim>
				</port>
			</output>
		</layer>
		<layer id="37" name="/backbone/conv_stem/Concat_2" type="Concat" version="opset1">
			<data axis="0" />
			<input>
				<port id="0" precision="I64">
					<dim>4</dim>
				</port>
				<port id="1" precision="I64">
					<dim>4</dim>
				</port>
			</input>
			<output>
				<port id="2" precision="I64" names="/backbone/conv_stem/Concat_2_output_0">
					<dim>8</dim>
				</port>
			</output>
		</layer>
		<layer id="38" name="/backbone/conv_stem/Constant_8" type="Const" version="opset1">
			<data element_type="i64" shape="2" offset="96" size="16" />
			<output>
				<port id="0" precision="I64" names="/backbone/conv_stem/Constant_8_output_0">
					<dim>2</dim>
				</port>
			</output>
		</layer>
		<layer id="39" name="/backbone/conv_stem/Reshape" type="Reshape" version="opset1">
			<data special_zero="true" />
			<input>
				<port id="0" precision="I64">
					<dim>8</dim>
				</port>
				<port id="1" precision="I64">
					<dim>2</dim>
				</port>
			</input>
			<output>
				<port id="2" precision="I64" names="/backbone/conv_stem/Reshape_output_0">
					<dim>4</dim>
					<dim>2</dim>
				</port>
			</output>
		</layer>
		<layer id="40" name="/backbone/conv_stem/Constant_10" type="Const" version="opset1">
			<data element_type="i64" shape="1" offset="112" size="8" />
			<output>
				<port id="0" precision="I64" names="/backbone/conv_stem/Constant_10_output_0">
					<dim>1</dim>
				</port>
			</output>
		</layer>
		<layer id="41" name="/backbone/conv_stem/Constant_11" type="Const" version="opset1">
			<data element_type="i64" shape="1" offset="120" size="8" />
			<output>
				<port id="0" precision="I64" names="/backbone/conv_stem/Constant_11_output_0">
					<dim>1</dim>
				</port>
			</output>
		</layer>
		<layer id="42" name="/backbone/conv_stem/Constant_12" type="Const" version="opset1">
			<data element_type="i64" shape="1" offset="112" size="8" />
			<output>
				<port id="0" precision="I64" names="/backbone/conv_stem/Constant_12_output_0">
					<dim>1</dim>
				</port>
			</output>
		</layer>
		<layer id="43" name="/backbone/conv_stem/Slice" type="StridedSlice" version="opset1">
			<data begin_mask="0" end_mask="0" new_axis_mask="" shrink_axis_mask="" ellipsis_mask="" />
			<input>
				<port id="0" precision="I64">
					<dim>4</dim>
					<dim>2</dim>
				</port>
				<port id="1" precision="I64">
					<dim>1</dim>
				</port>
				<port id="2" precision="I64">
					<dim>1</dim>
				</port>
				<port id="3" precision="I64">
					<dim>1</dim>
				</port>
			</input>
			<output>
				<port id="4" precision="I64" names="/backbone/conv_stem/Slice_output_0">
					<dim>4</dim>
					<dim>2</dim>
				</port>
			</output>
		</layer>
		<layer id="44" name="Constant_406" type="Const" version="opset1">
			<data element_type="i64" shape="2" offset="128" size="16" />
			<output>
				<port id="0" precision="I64">
					<dim>2</dim>
				</port>
			</output>
		</layer>
		<layer id="45" name="/backbone/conv_stem/Transpose" type="Transpose" version="opset1">
			<input>
				<port id="0" precision="I64">
					<dim>4</dim>
					<dim>2</dim>
				</port>
				<port id="1" precision="I64">
					<dim>2</dim>
				</port>
			</input>
			<output>
				<port id="2" precision="I64" names="/backbone/conv_stem/Transpose_output_0">
					<dim>2</dim>
					<dim>4</dim>
				</port>
			</output>
		</layer>
		<layer id="46" name="Constant_8330" type="Const" version="opset1">
			<data element_type="i64" shape="1" offset="112" size="8" />
			<output>
				<port id="0" precision="I64">
					<dim>1</dim>
				</port>
			</output>
		</layer>
		<layer id="47" name="/backbone/conv_stem/Reshape_1" type="Reshape" version="opset1">
			<data special_zero="true" />
			<input>
				<port id="0" precision="I64">
					<dim>2</dim>
					<dim>4</dim>
				</port>
				<port id="1" precision="I64">
					<dim>1</dim>
				</port>
			</input>
			<output>
				<port id="2" precision="I64" names="/backbone/conv_stem/Cast_5_output_0,/backbone/conv_stem/Reshape_1_output_0">
					<dim>8</dim>
				</port>
			</output>
		</layer>
		<layer id="48" name="Constant_414" type="Const" version="opset1">
			<data element_type="i64" shape="" offset="48" size="8" />
			<output>
				<port id="0" precision="I64" />
			</output>
		</layer>
		<layer id="49" name="Split_415" type="Split" version="opset1">
			<data num_splits="2" />
			<input>
				<port id="0" precision="I64">
					<dim>8</dim>
				</port>
				<port id="1" precision="I64" />
			</input>
			<output>
				<port id="2" precision="I64">
					<dim>4</dim>
				</port>
				<port id="3" precision="I64">
					<dim>4</dim>
				</port>
			</output>
		</layer>
		<layer id="50" name="/backbone/conv_stem/Constant_14" type="Const" version="opset1">
			<data element_type="f32" shape="" offset="144" size="4" />
			<output>
				<port id="0" precision="FP32" names="/backbone/conv_stem/Constant_14_output_0" />
			</output>
		</layer>
		<layer id="51" name="/backbone/conv_stem/Pad" type="Pad" version="opset1">
			<data pad_mode="constant" />
			<input>
				<port id="0" precision="FP32">
					<dim>1</dim>
					<dim>3</dim>
					<dim>224</dim>
					<dim>224</dim>
				</port>
				<port id="1" precision="I64">
					<dim>4</dim>
				</port>
				<port id="2" precision="I64">
					<dim>4</dim>
				</port>
				<port id="3" precision="FP32" />
			</input>
			<output>
				<port id="4" precision="FP32" names="/backbone/conv_stem/Pad_output_0">
					<dim>1</dim>
					<dim>3</dim>
					<dim>225</dim>
					<dim>225</dim>
				</port>
			</output>
		</layer>
		<layer id="52" name="Gather_26458" type="Const" version="opset1">
			<data element_type="i8" shape="24, 3, 3, 3" offset="148" size="648" />
			<rt_info>
				<attribute name="preprocessing" version="0" />
			</rt_info>
			<output>
				<port id="0" precision="I8">
					<dim>24</dim>
					<dim>3</dim>
					<dim>3</dim>
					<dim>3</dim>
				</port>
			</output>
		</layer>
		<layer id="53" name="Convert_492997" type="Convert" version="opset1">
			<data destination_type="f32" />
			<rt_info>
				<attribute name="preprocessing" version="0" />
			</rt_info>
			<input>
				<port id="0" precision="I8">
					<dim>24</dim>
					<dim>3</dim>
					<dim>3</dim>
					<dim>3</dim>
				</port>
			</input>
			<output>
				<port id="1" precision="FP32">
					<dim>24</dim>
					<dim>3</dim>
					<dim>3</dim>
					<dim>3</dim>
				</port>
			</output>
		</layer>
		<layer id="54" name="Constant_492895" type="Const" version="opset1">
			<data element_type="f32" shape="24, 1, 1, 1" offset="796" size="96" />
			<rt_info>
				<attribute name="preprocessing" version="0" />
			</rt_info>
			<output>
				<port id="0" precision="FP32">
					<dim>24</dim>
					<dim>1</dim>
					<dim>1</dim>
					<dim>1</dim>
				</port>
			</output>
		</layer>
		<layer id="55" name="/backbone/conv_stem/Conv/WithoutBiases/fq_weights_1" type="Multiply" version="opset1">
			<data auto_broadcast="numpy" />
			<rt_info>
				<attribute name="preprocessing" version="0" />
			</rt_info>
			<input>
				<port id="0" precision="FP32">
					<dim>24</dim>
					<dim>3</dim>
					<dim>3</dim>
					<dim>3</dim>
				</port>
				<port id="1" precision="FP32">
					<dim>24</dim>
					<dim>1</dim>
					<dim>1</dim>
					<dim>1</dim>
				</port>
			</input>
			<output>
				<port id="2" precision="FP32">
					<dim>24</dim>
					<dim>3</dim>
					<dim>3</dim>
					<dim>3</dim>
				</port>
			</output>
		</layer>
		<layer id="56" name="/backbone/conv_stem/Conv/WithoutBiases" type="Convolution" version="opset1">
			<data strides="2, 2" dilations="1, 1" pads_begin="0, 0" pads_end="0, 0" auto_pad="explicit" />
			<input>
				<port id="0" precision="FP32">
					<dim>1</dim>
					<dim>3</dim>
					<dim>225</dim>
					<dim>225</dim>
				</port>
				<port id="1" precision="FP32">
					<dim>24</dim>
					<dim>3</dim>
					<dim>3</dim>
					<dim>3</dim>
				</port>
			</input>
			<output>
				<port id="2" precision="FP32">
					<dim>1</dim>
					<dim>24</dim>
					<dim>112</dim>
					<dim>112</dim>
				</port>
			</output>
		</layer>
		<layer id="57" name="Reshape_554" type="Const" version="opset1">
			<data element_type="f32" shape="1, 24, 1, 1" offset="892" size="96" />
			<output>
				<port id="0" precision="FP32">
					<dim>1</dim>
					<dim>24</dim>
					<dim>1</dim>
					<dim>1</dim>
				</port>
			</output>
		</layer>
		<layer id="58" name="/backbone/conv_stem/Conv" type="Add" version="opset1">
			<data auto_broadcast="numpy" />
			<input>
				<port id="0" precision="FP32">
					<dim>1</dim>
					<dim>24</dim>
					<dim>112</dim>
					<dim>112</dim>
				</port>
				<port id="1" precision="FP32">
					<dim>1</dim>
					<dim>24</dim>
					<dim>1</dim>
					<dim>1</dim>
				</port>
			</input>
			<output>
				<port id="2" precision="FP32" names="/backbone/conv_stem/Conv_output_0">
					<dim>1</dim>
					<dim>24</dim>
					<dim>112</dim>
					<dim>112</dim>
				</port>
			</output>
		</layer>
		<layer id="59" name="/backbone/bn1/act/Mul" type="Swish" version="opset4">
			<input>
				<port id="0" precision="FP32">
					<dim>1</dim>
					<dim>24</dim>
					<dim>112</dim>
					<dim>112</dim>
				</port>
			</input>
			<output>
				<port id="1" precision="FP32" names="/backbone/bn1/act/Mul_output_0">
					<dim>1</dim>
					<dim>24</dim>
					<dim>112</dim>
					<dim>112</dim>
				</port>
			</output>
		</layer>
		<layer id="60" name="Constant_80315" type="Const" version="opset1">
			<data element_type="f32" shape="" offset="988" size="4" />
			<output>
				<port id="0" precision="FP32" />
			</output>
		</layer>
		<layer id="61" name="Constant_80316" type="Const" version="opset1">
			<data element_type="f32" shape="" offset="992" size="4" />
			<output>
				<port id="0" precision="FP32" />
			</output>
		</layer>
		<layer id="62" name="Constant_80317" type="Const" version="opset1">
			<data element_type="f32" shape="" offset="988" size="4" />
			<output>
				<port id="0" precision="FP32" />
			</output>
		</layer>
		<layer id="63" name="Constant_80318" type="Const" version="opset1">
			<data element_type="f32" shape="" offset="992" size="4" />
			<output>
				<port id="0" precision="FP32" />
			</output>
		</layer>
		<layer id="64" name="/backbone/bn1/act/Mul/fq_output_0" type="FakeQuantize" version="opset1">
			<data levels="256" auto_broadcast="numpy" />
			<input>
				<port id="0" precision="FP32">
					<dim>1</dim>
					<dim>24</dim>
					<dim>112</dim>
					<dim>112</dim>
				</port>
				<port id="1" precision="FP32" />
				<port id="2" precision="FP32" />
				<port id="3" precision="FP32" />
				<port id="4" precision="FP32" />
			</input>
			<output>
				<port id="5" precision="FP32">
					<dim>1</dim>
					<dim>24</dim>
					<dim>112</dim>
					<dim>112</dim>
				</port>
			</output>
		</layer>
		<layer id="65" name="onnx::Conv_1664" type="Const" version="opset1">
			<data element_type="i8" shape="24, 24, 3, 3" offset="996" size="5184" />
			<output>
				<port id="0" precision="I8">
					<dim>24</dim>
					<dim>24</dim>
					<dim>3</dim>
					<dim>3</dim>
				</port>
			</output>
		</layer>
		<layer id="66" name="Convert_493151" type="Convert" version="opset1">
			<data destination_type="f32" />
			<input>
				<port id="0" precision="I8">
					<dim>24</dim>
					<dim>24</dim>
					<dim>3</dim>
					<dim>3</dim>
				</port>
			</input>
			<output>
				<port id="1" precision="FP32">
					<dim>24</dim>
					<dim>24</dim>
					<dim>3</dim>
					<dim>3</dim>
				</port>
			</output>
		</layer>
		<layer id="67" name="Constant_493049" type="Const" version="opset1">
			<data element_type="f32" shape="24, 1, 1, 1" offset="6180" size="96" />
			<output>
				<port id="0" precision="FP32">
					<dim>24</dim>
					<dim>1</dim>
					<dim>1</dim>
					<dim>1</dim>
				</port>
			</output>
		</layer>
		<layer id="68" name="/backbone/blocks/blocks.0/blocks.0.0/conv/Conv/WithoutBiases/fq_weights_1" type="Multiply" version="opset1">
			<data auto_broadcast="numpy" />
			<input>
				<port id="0" precision="FP32">
					<dim>24</dim>
					<dim>24</dim>
					<dim>3</dim>
					<dim>3</dim>
				</port>
				<port id="1" precision="FP32">
					<dim>24</dim>
					<dim>1</dim>
					<dim>1</dim>
					<dim>1</dim>
				</port>
			</input>
			<output>
				<port id="2" precision="FP32">
					<dim>24</dim>
					<dim>24</dim>
					<dim>3</dim>
					<dim>3</dim>
				</port>
			</output>
		</layer>
		<layer id="69" name="/backbone/blocks/blocks.0/blocks.0.0/conv/Conv/WithoutBiases" type="Convolution" version="opset1">
			<data strides="1, 1" dilations="1, 1" pads_begin="1, 1" pads_end="1, 1" auto_pad="explicit" />
			<input>
				<port id="0" precision="FP32">
					<dim>1</dim>
					<dim>24</dim>
					<dim>112</dim>
					<dim>112</dim>
				</port>
				<port id="1" precision="FP32">
					<dim>24</dim>
					<dim>24</dim>
					<dim>3</dim>
					<dim>3</dim>
				</port>
			</input>
			<output>
				<port id="2" precision="FP32">
					<dim>1</dim>
					<dim>24</dim>
					<dim>112</dim>
					<dim>112</dim>
				</port>
			</output>
		</layer>
		<layer id="70" name="Reshape_571" type="Const" version="opset1">
			<data element_type="f32" shape="1, 24, 1, 1" offset="6276" size="96" />
			<output>
				<port id="0" precision="FP32">
					<dim>1</dim>
					<dim>24</dim>
					<dim>1</dim>
					<dim>1</dim>
				</port>
			</output>
		</layer>
		<layer id="71" name="/backbone/blocks/blocks.0/blocks.0.0/conv/Conv" type="Add" version="opset1">
			<data auto_broadcast="numpy" />
			<input>
				<port id="0" precision="FP32">
					<dim>1</dim>
					<dim>24</dim>
					<dim>112</dim>
					<dim>112</dim>
				</port>
				<port id="1" precision="FP32">
					<dim>1</dim>
					<dim>24</dim>
					<dim>1</dim>
					<dim>1</dim>
				</port>
			</input>
			<output>
				<port id="2" precision="FP32" names="/backbone/blocks/blocks.0/blocks.0.0/conv/Conv_output_0">
					<dim>1</dim>
					<dim>24</dim>
					<dim>112</dim>
					<dim>112</dim>
				</port>
			</output>
		</layer>
		<layer id="72" name="/backbone/blocks/blocks.0/blocks.0.0/bn1/act/Mul" type="Swish" version="opset4">
			<input>
				<port id="0" precision="FP32">
					<dim>1</dim>
					<dim>24</dim>
					<dim>112</dim>
					<dim>112</dim>
				</port>
			</input>
			<output>
				<port id="1" precision="FP32" names="/backbone/blocks/blocks.0/blocks.0.0/bn1/act/Mul_output_0">
					<dim>1</dim>
					<dim>24</dim>
					<dim>112</dim>
					<dim>112</dim>
				</port>
			</output>
		</layer>
		<layer id="73" name="Constant_80325" type="Const" version="opset1">
			<data element_type="f32" shape="" offset="6372" size="4" />
			<output>
				<port id="0" precision="FP32" />
			</output>
		</layer>
		<layer id="74" name="Constant_80326" type="Const" version="opset1">
			<data element_type="f32" shape="" offset="6376" size="4" />
			<output>
				<port id="0" precision="FP32" />
			</output>
		</layer>
		<layer id="75" name="Constant_80327" type="Const" version="opset1">
			<data element_type="f32" shape="" offset="6372" size="4" />
			<output>
				<port id="0" precision="FP32" />
			</output>
		</layer>
		<layer id="76" name="Constant_80328" type="Const" version="opset1">
			<data element_type="f32" shape="" offset="6376" size="4" />
			<output>
				<port id="0" precision="FP32" />
			</output>
		</layer>
		<layer id="77" name="/backbone/blocks/blocks.0/blocks.0.0/bn1/act/Mul/fq_output_0" type="FakeQuantize" version="opset1">
			<data levels="256" auto_broadcast="numpy" />
			<input>
				<port id="0" precision="FP32">
					<dim>1</dim>
					<dim>24</dim>
					<dim>112</dim>
					<dim>112</dim>
				</port>
				<port id="1" precision="FP32" />
				<port id="2" precision="FP32" />
				<port id="3" precision="FP32" />
				<port id="4" precision="FP32" />
			</input>
			<output>
				<port id="5" precision="FP32">
					<dim>1</dim>
					<dim>24</dim>
					<dim>112</dim>
					<dim>112</dim>
				</port>
			</output>
		</layer>
		<layer id="78" name="/backbone/blocks/blocks.0/blocks.0.0/Add" type="Add" version="opset1">
			<data auto_broadcast="numpy" />
			<input>
				<port id="0" precision="FP32">
					<dim>1</dim>
					<dim>24</dim>
					<dim>112</dim>
					<dim>112</dim>
				</port>
				<port id="1" precision="FP32">
					<dim>1</dim>
					<dim>24</dim>
					<dim>112</dim>
					<dim>112</dim>
				</port>
			</input>
			<output>
				<port id="2" precision="FP32" names="/backbone/blocks/blocks.0/blocks.0.0/Add_output_0">
					<dim>1</dim>
					<dim>24</dim>
					<dim>112</dim>
					<dim>112</dim>
				</port>
			</output>
		</layer>
		<layer id="79" name="Constant_80330" type="Const" version="opset1">
			<data element_type="f32" shape="" offset="6380" size="4" />
			<output>
				<port id="0" precision="FP32" />
			</output>
		</layer>
		<layer id="80" name="Constant_80331" type="Const" version="opset1">
			<data element_type="f32" shape="" offset="6384" size="4" />
			<output>
				<port id="0" precision="FP32" />
			</output>
		</layer>
		<layer id="81" name="Constant_80332" type="Const" version="opset1">
			<data element_type="f32" shape="" offset="6380" size="4" />
			<output>
				<port id="0" precision="FP32" />
			</output>
		</layer>
		<layer id="82" name="Constant_80333" type="Const" version="opset1">
			<data element_type="f32" shape="" offset="6384" size="4" />
			<output>
				<port id="0" precision="FP32" />
			</output>
		</layer>
		<layer id="83" name="/backbone/blocks/blocks.0/blocks.0.0/Add/fq_output_0" type="FakeQuantize" version="opset1">
			<data levels="256" auto_broadcast="numpy" />
			<input>
				<port id="0" precision="FP32">
					<dim>1</dim>
					<dim>24</dim>
					<dim>112</dim>
					<dim>112</dim>
				</port>
				<port id="1" precision="FP32" />
				<port id="2" precision="FP32" />
				<port id="3" precision="FP32" />
				<port id="4" precision="FP32" />
			</input>
			<output>
				<port id="5" precision="FP32">
					<dim>1</dim>
					<dim>24</dim>
					<dim>112</dim>
					<dim>112</dim>
				</port>
			</output>
		</layer>
		<layer id="84" name="onnx::Conv_1667" type="Const" version="opset1">
			<data element_type="i8" shape="24, 24, 3, 3" offset="6388" size="5184" />
			<output>
				<port id="0" precision="I8">
					<dim>24</dim>
					<dim>24</dim>
					<dim>3</dim>
					<dim>3</dim>
				</port>
			</output>
		</layer>
		<layer id="85" name="Convert_493305" type="Convert" version="opset1">
			<data destination_type="f32" />
			<input>
				<port id="0" precision="I8">
					<dim>24</dim>
					<dim>24</dim>
					<dim>3</dim>
					<dim>3</dim>
				</port>
			</input>
			<output>
				<port id="1" precision="FP32">
					<dim>24</dim>
					<dim>24</dim>
					<dim>3</dim>
					<dim>3</dim>
				</port>
			</output>
		</layer>
		<layer id="86" name="Constant_493203" type="Const" version="opset1">
			<data element_type="f32" shape="24, 1, 1, 1" offset="11572" size="96" />
			<output>
				<port id="0" precision="FP32">
					<dim>24</dim>
					<dim>1</dim>
					<dim>1</dim>
					<dim>1</dim>
				</port>
			</output>
		</layer>
		<layer id="87" name="/backbone/blocks/blocks.0/blocks.0.1/conv/Conv/WithoutBiases/fq_weights_1" type="Multiply" version="opset1">
			<data auto_broadcast="numpy" />
			<input>
				<port id="0" precision="FP32">
					<dim>24</dim>
					<dim>24</dim>
					<dim>3</dim>
					<dim>3</dim>
				</port>
				<port id="1" precision="FP32">
					<dim>24</dim>
					<dim>1</dim>
					<dim>1</dim>
					<dim>1</dim>
				</port>
			</input>
			<output>
				<port id="2" precision="FP32">
					<dim>24</dim>
					<dim>24</dim>
					<dim>3</dim>
					<dim>3</dim>
				</port>
			</output>
		</layer>
		<layer id="88" name="/backbone/blocks/blocks.0/blocks.0.1/conv/Conv/WithoutBiases" type="Convolution" version="opset1">
			<data strides="1, 1" dilations="1, 1" pads_begin="1, 1" pads_end="1, 1" auto_pad="explicit" />
			<input>
				<port id="0" precision="FP32">
					<dim>1</dim>
					<dim>24</dim>
					<dim>112</dim>
					<dim>112</dim>
				</port>
				<port id="1" precision="FP32">
					<dim>24</dim>
					<dim>24</dim>
					<dim>3</dim>
					<dim>3</dim>
				</port>
			</input>
			<output>
				<port id="2" precision="FP32">
					<dim>1</dim>
					<dim>24</dim>
					<dim>112</dim>
					<dim>112</dim>
				</port>
			</output>
		</layer>
		<layer id="89" name="Reshape_589" type="Const" version="opset1">
			<data element_type="f32" shape="1, 24, 1, 1" offset="11668" size="96" />
			<output>
				<port id="0" precision="FP32">
					<dim>1</dim>
					<dim>24</dim>
					<dim>1</dim>
					<dim>1</dim>
				</port>
			</output>
		</layer>
		<layer id="90" name="/backbone/blocks/blocks.0/blocks.0.1/conv/Conv" type="Add" version="opset1">
			<data auto_broadcast="numpy" />
			<input>
				<port id="0" precision="FP32">
					<dim>1</dim>
					<dim>24</dim>
					<dim>112</dim>
					<dim>112</dim>
				</port>
				<port id="1" precision="FP32">
					<dim>1</dim>
					<dim>24</dim>
					<dim>1</dim>
					<dim>1</dim>
				</port>
			</input>
			<output>
				<port id="2" precision="FP32" names="/backbone/blocks/blocks.0/blocks.0.1/conv/Conv_output_0">
					<dim>1</dim>
					<dim>24</dim>
					<dim>112</dim>
					<dim>112</dim>
				</port>
			</output>
		</layer>
		<layer id="91" name="/backbone/blocks/blocks.0/blocks.0.1/bn1/act/Mul" type="Swish" version="opset4">
			<input>
				<port id="0" precision="FP32">
					<dim>1</dim>
					<dim>24</dim>
					<dim>112</dim>
					<dim>112</dim>
				</port>
			</input>
			<output>
				<port id="1" precision="FP32" names="/backbone/blocks/blocks.0/blocks.0.1/bn1/act/Mul_output_0">
					<dim>1</dim>
					<dim>24</dim>
					<dim>112</dim>
					<dim>112</dim>
				</port>
			</output>
		</layer>
		<layer id="92" name="Constant_80340" type="Const" version="opset1">
			<data element_type="f32" shape="" offset="11764" size="4" />
			<output>
				<port id="0" precision="FP32" />
			</output>
		</layer>
		<layer id="93" name="Constant_80341" type="Const" version="opset1">
			<data element_type="f32" shape="" offset="11768" size="4" />
			<output>
				<port id="0" precision="FP32" />
			</output>
		</layer>
		<layer id="94" name="Constant_80342" type="Const" version="opset1">
			<data element_type="f32" shape="" offset="11764" size="4" />
			<output>
				<port id="0" precision="FP32" />
			</output>
		</layer>
		<layer id="95" name="Constant_80343" type="Const" version="opset1">
			<data element_type="f32" shape="" offset="11768" size="4" />
			<output>
				<port id="0" precision="FP32" />
			</output>
		</layer>
		<layer id="96" name="/backbone/blocks/blocks.0/blocks.0.1/bn1/act/Mul/fq_output_0" type="FakeQuantize" version="opset1">
			<data levels="256" auto_broadcast="numpy" />
			<input>
				<port id="0" precision="FP32">
					<dim>1</dim>
					<dim>24</dim>
					<dim>112</dim>
					<dim>112</dim>
				</port>
				<port id="1" precision="FP32" />
				<port id="2" precision="FP32" />
				<port id="3" precision="FP32" />
				<port id="4" precision="FP32" />
			</input>
			<output>
				<port id="5" precision="FP32">
					<dim>1</dim>
					<dim>24</dim>
					<dim>112</dim>
					<dim>112</dim>
				</port>
			</output>
		</layer>
		<layer id="97" name="/backbone/blocks/blocks.0/blocks.0.1/Add" type="Add" version="opset1">
			<data auto_broadcast="numpy" />
			<input>
				<port id="0" precision="FP32">
					<dim>1</dim>
					<dim>24</dim>
					<dim>112</dim>
					<dim>112</dim>
				</port>
				<port id="1" precision="FP32">
					<dim>1</dim>
					<dim>24</dim>
					<dim>112</dim>
					<dim>112</dim>
				</port>
			</input>
			<output>
				<port id="2" precision="FP32" names="/backbone/blocks/blocks.0/blocks.0.1/Add_output_0">
					<dim>1</dim>
					<dim>24</dim>
					<dim>112</dim>
					<dim>112</dim>
				</port>
			</output>
		</layer>
		<layer id="98" name="Constant_80345" type="Const" version="opset1">
			<data element_type="f32" shape="" offset="11772" size="4" />
			<output>
				<port id="0" precision="FP32" />
			</output>
		</layer>
		<layer id="99" name="Constant_80346" type="Const" version="opset1">
			<data element_type="f32" shape="" offset="11776" size="4" />
			<output>
				<port id="0" precision="FP32" />
			</output>
		</layer>
		<layer id="100" name="Constant_80347" type="Const" version="opset1">
			<data element_type="f32" shape="" offset="11772" size="4" />
			<output>
				<port id="0" precision="FP32" />
			</output>
		</layer>
		<layer id="101" name="Constant_80348" type="Const" version="opset1">
			<data element_type="f32" shape="" offset="11776" size="4" />
			<output>
				<port id="0" precision="FP32" />
			</output>
		</layer>
		<layer id="102" name="/backbone/blocks/blocks.0/blocks.0.1/Add/fq_output_0" type="FakeQuantize" version="opset1">
			<data levels="256" auto_broadcast="numpy" />
			<input>
				<port id="0" precision="FP32">
					<dim>1</dim>
					<dim>24</dim>
					<dim>112</dim>
					<dim>112</dim>
				</port>
				<port id="1" precision="FP32" />
				<port id="2" precision="FP32" />
				<port id="3" precision="FP32" />
				<port id="4" precision="FP32" />
			</input>
			<output>
				<port id="5" precision="FP32">
					<dim>1</dim>
					<dim>24</dim>
					<dim>112</dim>
					<dim>112</dim>
				</port>
			</output>
		</layer>
		<layer id="103" name="/backbone/blocks/blocks.1/blocks.1.0/conv_exp/Constant_3" type="Const" version="opset1">
			<data element_type="i64" shape="" offset="11780" size="8" />
			<output>
				<port id="0" precision="I64" names="/backbone/blocks/blocks.1/blocks.1.0/conv_exp/Constant_3_output_0" />
			</output>
		</layer>
		<layer id="104" name="/backbone/blocks/blocks.1/blocks.1.0/conv_exp/Shape_1" type="ShapeOf" version="opset3">
			<data output_type="i64" />
			<input>
				<port id="0" precision="FP32">
					<dim>1</dim>
					<dim>24</dim>
					<dim>112</dim>
					<dim>112</dim>
				</port>
			</input>
			<output>
				<port id="1" precision="I64" names="/backbone/blocks/blocks.1/blocks.1.0/conv_exp/Shape_1_output_0,/backbone/blocks/blocks.1/blocks.1.0/conv_exp/Shape_output_0">
					<dim>4</dim>
				</port>
			</output>
		</layer>
		<layer id="105" name="/backbone/blocks/blocks.1/blocks.1.0/conv_exp/Constant_1" type="Const" version="opset1">
			<data element_type="i64" shape="" offset="40" size="8" />
			<output>
				<port id="0" precision="I64" names="/backbone/blocks/blocks.1/blocks.1.0/conv_exp/Constant_1_output_0" />
			</output>
		</layer>
		<layer id="106" name="Constant_602" type="Const" version="opset1">
			<data element_type="i64" shape="" offset="48" size="8" />
			<output>
				<port id="0" precision="I64" />
			</output>
		</layer>
		<layer id="107" name="/backbone/blocks/blocks.1/blocks.1.0/conv_exp/Gather_1" type="Gather" version="opset8">
			<data batch_dims="0" />
			<input>
				<port id="0" precision="I64">
					<dim>4</dim>
				</port>
				<port id="1" precision="I64" />
				<port id="2" precision="I64" />
			</input>
			<output>
				<port id="3" precision="I64" names="/backbone/blocks/blocks.1/blocks.1.0/conv_exp/Gather_1_output_0" />
			</output>
		</layer>
		<layer id="108" name="/backbone/blocks/blocks.1/blocks.1.0/conv_exp/Sub_1" type="Subtract" version="opset1">
			<data auto_broadcast="numpy" />
			<input>
				<port id="0" precision="I64" />
				<port id="1" precision="I64" />
			</input>
			<output>
				<port id="2" precision="I64" names="/backbone/blocks/blocks.1/blocks.1.0/conv_exp/Sub_1_output_0" />
			</output>
		</layer>
		<layer id="109" name="/backbone/blocks/blocks.1/blocks.1.0/conv_exp/Constant_4" type="Const" version="opset1">
			<data element_type="i64" shape="" offset="56" size="8" />
			<output>
				<port id="0" precision="I64" names="/backbone/blocks/blocks.1/blocks.1.0/conv_exp/Constant_4_output_0" />
			</output>
		</layer>
		<layer id="110" name="/backbone/blocks/blocks.1/blocks.1.0/conv_exp/Div" type="Divide" version="opset1">
			<data auto_broadcast="numpy" m_pythondiv="true" />
			<input>
				<port id="0" precision="I64" />
				<port id="1" precision="I64" />
			</input>
			<output>
				<port id="2" precision="I64" names="/backbone/blocks/blocks.1/blocks.1.0/conv_exp/Cast_1_output_0,/backbone/blocks/blocks.1/blocks.1.0/conv_exp/Cast_output_0,/backbone/blocks/blocks.1/blocks.1.0/conv_exp/Div_output_0" />
			</output>
		</layer>
		<layer id="111" name="Constant_627" type="Const" version="opset1">
			<data element_type="i64" shape="1" offset="48" size="8" />
			<output>
				<port id="0" precision="I64">
					<dim>1</dim>
				</port>
			</output>
		</layer>
		<layer id="112" name="/backbone/blocks/blocks.1/blocks.1.0/conv_exp/Unsqueeze_4" type="Unsqueeze" version="opset1">
			<input>
				<port id="0" precision="I64" />
				<port id="1" precision="I64">
					<dim>1</dim>
				</port>
			</input>
			<output>
				<port id="2" precision="I64" names="/backbone/blocks/blocks.1/blocks.1.0/conv_exp/Unsqueeze_4_output_0">
					<dim>1</dim>
				</port>
			</output>
		</layer>
		<layer id="113" name="/backbone/blocks/blocks.1/blocks.1.0/conv_exp/Sub_2" type="Subtract" version="opset1">
			<data auto_broadcast="numpy" />
			<input>
				<port id="0" precision="I64" />
				<port id="1" precision="I64" />
			</input>
			<output>
				<port id="2" precision="I64" names="/backbone/blocks/blocks.1/blocks.1.0/conv_exp/Sub_2_output_0" />
			</output>
		</layer>
		<layer id="114" name="Constant_629" type="Const" version="opset1">
			<data element_type="i64" shape="1" offset="48" size="8" />
			<output>
				<port id="0" precision="I64">
					<dim>1</dim>
				</port>
			</output>
		</layer>
		<layer id="115" name="/backbone/blocks/blocks.1/blocks.1.0/conv_exp/Unsqueeze_5" type="Unsqueeze" version="opset1">
			<input>
				<port id="0" precision="I64" />
				<port id="1" precision="I64">
					<dim>1</dim>
				</port>
			</input>
			<output>
				<port id="2" precision="I64" names="/backbone/blocks/blocks.1/blocks.1.0/conv_exp/Unsqueeze_5_output_0">
					<dim>1</dim>
				</port>
			</output>
		</layer>
		<layer id="116" name="/backbone/blocks/blocks.1/blocks.1.0/conv_exp/Constant_2" type="Const" version="opset1">
			<data element_type="i64" shape="" offset="11780" size="8" />
			<output>
				<port id="0" precision="I64" names="/backbone/blocks/blocks.1/blocks.1.0/conv_exp/Constant_2_output_0" />
			</output>
		</layer>
		<layer id="117" name="/backbone/blocks/blocks.1/blocks.1.0/conv_exp/Constant" type="Const" version="opset1">
			<data element_type="i64" shape="" offset="56" size="8" />
			<output>
				<port id="0" precision="I64" names="/backbone/blocks/blocks.1/blocks.1.0/conv_exp/Constant_output_0" />
			</output>
		</layer>
		<layer id="118" name="Constant_598" type="Const" version="opset1">
			<data element_type="i64" shape="" offset="48" size="8" />
			<output>
				<port id="0" precision="I64" />
			</output>
		</layer>
		<layer id="119" name="/backbone/blocks/blocks.1/blocks.1.0/conv_exp/Gather" type="Gather" version="opset8">
			<data batch_dims="0" />
			<input>
				<port id="0" precision="I64">
					<dim>4</dim>
				</port>
				<port id="1" precision="I64" />
				<port id="2" precision="I64" />
			</input>
			<output>
				<port id="3" precision="I64" names="/backbone/blocks/blocks.1/blocks.1.0/conv_exp/Gather_output_0" />
			</output>
		</layer>
		<layer id="120" name="/backbone/blocks/blocks.1/blocks.1.0/conv_exp/Sub" type="Subtract" version="opset1">
			<data auto_broadcast="numpy" />
			<input>
				<port id="0" precision="I64" />
				<port id="1" precision="I64" />
			</input>
			<output>
				<port id="2" precision="I64" names="/backbone/blocks/blocks.1/blocks.1.0/conv_exp/Sub_output_0" />
			</output>
		</layer>
		<layer id="121" name="/backbone/blocks/blocks.1/blocks.1.0/conv_exp/Constant_5" type="Const" version="opset1">
			<data element_type="i64" shape="" offset="56" size="8" />
			<output>
				<port id="0" precision="I64" names="/backbone/blocks/blocks.1/blocks.1.0/conv_exp/Constant_5_output_0" />
			</output>
		</layer>
		<layer id="122" name="/backbone/blocks/blocks.1/blocks.1.0/conv_exp/Div_1" type="Divide" version="opset1">
			<data auto_broadcast="numpy" m_pythondiv="true" />
			<input>
				<port id="0" precision="I64" />
				<port id="1" precision="I64" />
			</input>
			<output>
				<port id="2" precision="I64" names="/backbone/blocks/blocks.1/blocks.1.0/conv_exp/Cast_2_output_0,/backbone/blocks/blocks.1/blocks.1.0/conv_exp/Cast_3_output_0,/backbone/blocks/blocks.1/blocks.1.0/conv_exp/Div_1_output_0" />
			</output>
		</layer>
		<layer id="123" name="Constant_631" type="Const" version="opset1">
			<data element_type="i64" shape="1" offset="48" size="8" />
			<output>
				<port id="0" precision="I64">
					<dim>1</dim>
				</port>
			</output>
		</layer>
		<layer id="124" name="/backbone/blocks/blocks.1/blocks.1.0/conv_exp/Unsqueeze_6" type="Unsqueeze" version="opset1">
			<input>
				<port id="0" precision="I64" />
				<port id="1" precision="I64">
					<dim>1</dim>
				</port>
			</input>
			<output>
				<port id="2" precision="I64" names="/backbone/blocks/blocks.1/blocks.1.0/conv_exp/Unsqueeze_6_output_0">
					<dim>1</dim>
				</port>
			</output>
		</layer>
		<layer id="125" name="/backbone/blocks/blocks.1/blocks.1.0/conv_exp/Sub_3" type="Subtract" version="opset1">
			<data auto_broadcast="numpy" />
			<input>
				<port id="0" precision="I64" />
				<port id="1" precision="I64" />
			</input>
			<output>
				<port id="2" precision="I64" names="/backbone/blocks/blocks.1/blocks.1.0/conv_exp/Sub_3_output_0" />
			</output>
		</layer>
		<layer id="126" name="Constant_633" type="Const" version="opset1">
			<data element_type="i64" shape="1" offset="48" size="8" />
			<output>
				<port id="0" precision="I64">
					<dim>1</dim>
				</port>
			</output>
		</layer>
		<layer id="127" name="/backbone/blocks/blocks.1/blocks.1.0/conv_exp/Unsqueeze_7" type="Unsqueeze" version="opset1">
			<input>
				<port id="0" precision="I64" />
				<port id="1" precision="I64">
					<dim>1</dim>
				</port>
			</input>
			<output>
				<port id="2" precision="I64" names="/backbone/blocks/blocks.1/blocks.1.0/conv_exp/Unsqueeze_7_output_0">
					<dim>1</dim>
				</port>
			</output>
		</layer>
		<layer id="128" name="/backbone/blocks/blocks.1/blocks.1.0/conv_exp/Concat_1" type="Concat" version="opset1">
			<data axis="0" />
			<input>
				<port id="0" precision="I64">
					<dim>1</dim>
				</port>
				<port id="1" precision="I64">
					<dim>1</dim>
				</port>
				<port id="2" precision="I64">
					<dim>1</dim>
				</port>
				<port id="3" precision="I64">
					<dim>1</dim>
				</port>
			</input>
			<output>
				<port id="4" precision="I64" names="/backbone/blocks/blocks.1/blocks.1.0/conv_exp/Cast_4_output_0,/backbone/blocks/blocks.1/blocks.1.0/conv_exp/Concat_1_output_0">
					<dim>4</dim>
				</port>
			</output>
		</layer>
		<layer id="129" name="/backbone/blocks/blocks.1/blocks.1.0/conv_exp/ConstantOfShape" type="Const" version="opset1">
			<data element_type="i64" shape="4" offset="64" size="32" />
			<output>
				<port id="0" precision="I64" names="/backbone/blocks/blocks.1/blocks.1.0/conv_exp/ConstantOfShape_output_0">
					<dim>4</dim>
				</port>
			</output>
		</layer>
		<layer id="130" name="/backbone/blocks/blocks.1/blocks.1.0/conv_exp/Concat_2" type="Concat" version="opset1">
			<data axis="0" />
			<input>
				<port id="0" precision="I64">
					<dim>4</dim>
				</port>
				<port id="1" precision="I64">
					<dim>4</dim>
				</port>
			</input>
			<output>
				<port id="2" precision="I64" names="/backbone/blocks/blocks.1/blocks.1.0/conv_exp/Concat_2_output_0">
					<dim>8</dim>
				</port>
			</output>
		</layer>
		<layer id="131" name="/backbone/blocks/blocks.1/blocks.1.0/conv_exp/Constant_8" type="Const" version="opset1">
			<data element_type="i64" shape="2" offset="96" size="16" />
			<output>
				<port id="0" precision="I64" names="/backbone/blocks/blocks.1/blocks.1.0/conv_exp/Constant_8_output_0">
					<dim>2</dim>
				</port>
			</output>
		</layer>
		<layer id="132" name="/backbone/blocks/blocks.1/blocks.1.0/conv_exp/Reshape" type="Reshape" version="opset1">
			<data special_zero="true" />
			<input>
				<port id="0" precision="I64">
					<dim>8</dim>
				</port>
				<port id="1" precision="I64">
					<dim>2</dim>
				</port>
			</input>
			<output>
				<port id="2" precision="I64" names="/backbone/blocks/blocks.1/blocks.1.0/conv_exp/Reshape_output_0">
					<dim>4</dim>
					<dim>2</dim>
				</port>
			</output>
		</layer>
		<layer id="133" name="/backbone/blocks/blocks.1/blocks.1.0/conv_exp/Constant_10" type="Const" version="opset1">
			<data element_type="i64" shape="1" offset="112" size="8" />
			<output>
				<port id="0" precision="I64" names="/backbone/blocks/blocks.1/blocks.1.0/conv_exp/Constant_10_output_0">
					<dim>1</dim>
				</port>
			</output>
		</layer>
		<layer id="134" name="/backbone/blocks/blocks.1/blocks.1.0/conv_exp/Constant_11" type="Const" version="opset1">
			<data element_type="i64" shape="1" offset="120" size="8" />
			<output>
				<port id="0" precision="I64" names="/backbone/blocks/blocks.1/blocks.1.0/conv_exp/Constant_11_output_0">
					<dim>1</dim>
				</port>
			</output>
		</layer>
		<layer id="135" name="/backbone/blocks/blocks.1/blocks.1.0/conv_exp/Constant_12" type="Const" version="opset1">
			<data element_type="i64" shape="1" offset="112" size="8" />
			<output>
				<port id="0" precision="I64" names="/backbone/blocks/blocks.1/blocks.1.0/conv_exp/Constant_12_output_0">
					<dim>1</dim>
				</port>
			</output>
		</layer>
		<layer id="136" name="/backbone/blocks/blocks.1/blocks.1.0/conv_exp/Slice" type="StridedSlice" version="opset1">
			<data begin_mask="0" end_mask="0" new_axis_mask="" shrink_axis_mask="" ellipsis_mask="" />
			<input>
				<port id="0" precision="I64">
					<dim>4</dim>
					<dim>2</dim>
				</port>
				<port id="1" precision="I64">
					<dim>1</dim>
				</port>
				<port id="2" precision="I64">
					<dim>1</dim>
				</port>
				<port id="3" precision="I64">
					<dim>1</dim>
				</port>
			</input>
			<output>
				<port id="4" precision="I64" names="/backbone/blocks/blocks.1/blocks.1.0/conv_exp/Slice_output_0">
					<dim>4</dim>
					<dim>2</dim>
				</port>
			</output>
		</layer>
		<layer id="137" name="Constant_658" type="Const" version="opset1">
			<data element_type="i64" shape="2" offset="128" size="16" />
			<output>
				<port id="0" precision="I64">
					<dim>2</dim>
				</port>
			</output>
		</layer>
		<layer id="138" name="/backbone/blocks/blocks.1/blocks.1.0/conv_exp/Transpose" type="Transpose" version="opset1">
			<input>
				<port id="0" precision="I64">
					<dim>4</dim>
					<dim>2</dim>
				</port>
				<port id="1" precision="I64">
					<dim>2</dim>
				</port>
			</input>
			<output>
				<port id="2" precision="I64" names="/backbone/blocks/blocks.1/blocks.1.0/conv_exp/Transpose_output_0">
					<dim>2</dim>
					<dim>4</dim>
				</port>
			</output>
		</layer>
		<layer id="139" name="Constant_8331" type="Const" version="opset1">
			<data element_type="i64" shape="1" offset="112" size="8" />
			<output>
				<port id="0" precision="I64">
					<dim>1</dim>
				</port>
			</output>
		</layer>
		<layer id="140" name="/backbone/blocks/blocks.1/blocks.1.0/conv_exp/Reshape_1" type="Reshape" version="opset1">
			<data special_zero="true" />
			<input>
				<port id="0" precision="I64">
					<dim>2</dim>
					<dim>4</dim>
				</port>
				<port id="1" precision="I64">
					<dim>1</dim>
				</port>
			</input>
			<output>
				<port id="2" precision="I64" names="/backbone/blocks/blocks.1/blocks.1.0/conv_exp/Cast_5_output_0,/backbone/blocks/blocks.1/blocks.1.0/conv_exp/Reshape_1_output_0">
					<dim>8</dim>
				</port>
			</output>
		</layer>
		<layer id="141" name="Constant_666" type="Const" version="opset1">
			<data element_type="i64" shape="" offset="48" size="8" />
			<output>
				<port id="0" precision="I64" />
			</output>
		</layer>
		<layer id="142" name="Split_667" type="Split" version="opset1">
			<data num_splits="2" />
			<input>
				<port id="0" precision="I64">
					<dim>8</dim>
				</port>
				<port id="1" precision="I64" />
			</input>
			<output>
				<port id="2" precision="I64">
					<dim>4</dim>
				</port>
				<port id="3" precision="I64">
					<dim>4</dim>
				</port>
			</output>
		</layer>
		<layer id="143" name="/backbone/blocks/blocks.1/blocks.1.0/conv_exp/Constant_14" type="Const" version="opset1">
			<data element_type="f32" shape="" offset="144" size="4" />
			<output>
				<port id="0" precision="FP32" names="/backbone/blocks/blocks.1/blocks.1.0/conv_exp/Constant_14_output_0" />
			</output>
		</layer>
		<layer id="144" name="/backbone/blocks/blocks.1/blocks.1.0/conv_exp/Pad" type="Pad" version="opset1">
			<data pad_mode="constant" />
			<input>
				<port id="0" precision="FP32">
					<dim>1</dim>
					<dim>24</dim>
					<dim>112</dim>
					<dim>112</dim>
				</port>
				<port id="1" precision="I64">
					<dim>4</dim>
				</port>
				<port id="2" precision="I64">
					<dim>4</dim>
				</port>
				<port id="3" precision="FP32" />
			</input>
			<output>
				<port id="4" precision="FP32" names="/backbone/blocks/blocks.1/blocks.1.0/conv_exp/Pad_output_0">
					<dim>1</dim>
					<dim>24</dim>
					<dim>113</dim>
					<dim>113</dim>
				</port>
			</output>
		</layer>
		<layer id="145" name="onnx::Conv_1670" type="Const" version="opset1">
			<data element_type="i8" shape="96, 24, 3, 3" offset="11788" size="20736" />
			<output>
				<port id="0" precision="I8">
					<dim>96</dim>
					<dim>24</dim>
					<dim>3</dim>
					<dim>3</dim>
				</port>
			</output>
		</layer>
		<layer id="146" name="Convert_493459" type="Convert" version="opset1">
			<data destination_type="f32" />
			<input>
				<port id="0" precision="I8">
					<dim>96</dim>
					<dim>24</dim>
					<dim>3</dim>
					<dim>3</dim>
				</port>
			</input>
			<output>
				<port id="1" precision="FP32">
					<dim>96</dim>
					<dim>24</dim>
					<dim>3</dim>
					<dim>3</dim>
				</port>
			</output>
		</layer>
		<layer id="147" name="Constant_493357" type="Const" version="opset1">
			<data element_type="f32" shape="96, 1, 1, 1" offset="32524" size="384" />
			<output>
				<port id="0" precision="FP32">
					<dim>96</dim>
					<dim>1</dim>
					<dim>1</dim>
					<dim>1</dim>
				</port>
			</output>
		</layer>
		<layer id="148" name="/backbone/blocks/blocks.1/blocks.1.0/conv_exp/Conv/WithoutBiases/fq_weights_1" type="Multiply" version="opset1">
			<data auto_broadcast="numpy" />
			<input>
				<port id="0" precision="FP32">
					<dim>96</dim>
					<dim>24</dim>
					<dim>3</dim>
					<dim>3</dim>
				</port>
				<port id="1" precision="FP32">
					<dim>96</dim>
					<dim>1</dim>
					<dim>1</dim>
					<dim>1</dim>
				</port>
			</input>
			<output>
				<port id="2" precision="FP32">
					<dim>96</dim>
					<dim>24</dim>
					<dim>3</dim>
					<dim>3</dim>
				</port>
			</output>
		</layer>
		<layer id="149" name="/backbone/blocks/blocks.1/blocks.1.0/conv_exp/Conv/WithoutBiases" type="Convolution" version="opset1">
			<data strides="2, 2" dilations="1, 1" pads_begin="0, 0" pads_end="0, 0" auto_pad="explicit" />
			<input>
				<port id="0" precision="FP32">
					<dim>1</dim>
					<dim>24</dim>
					<dim>113</dim>
					<dim>113</dim>
				</port>
				<port id="1" precision="FP32">
					<dim>96</dim>
					<dim>24</dim>
					<dim>3</dim>
					<dim>3</dim>
				</port>
			</input>
			<output>
				<port id="2" precision="FP32">
					<dim>1</dim>
					<dim>96</dim>
					<dim>56</dim>
					<dim>56</dim>
				</port>
			</output>
		</layer>
		<layer id="150" name="Reshape_806" type="Const" version="opset1">
			<data element_type="f32" shape="1, 96, 1, 1" offset="32908" size="384" />
			<output>
				<port id="0" precision="FP32">
					<dim>1</dim>
					<dim>96</dim>
					<dim>1</dim>
					<dim>1</dim>
				</port>
			</output>
		</layer>
		<layer id="151" name="/backbone/blocks/blocks.1/blocks.1.0/conv_exp/Conv" type="Add" version="opset1">
			<data auto_broadcast="numpy" />
			<input>
				<port id="0" precision="FP32">
					<dim>1</dim>
					<dim>96</dim>
					<dim>56</dim>
					<dim>56</dim>
				</port>
				<port id="1" precision="FP32">
					<dim>1</dim>
					<dim>96</dim>
					<dim>1</dim>
					<dim>1</dim>
				</port>
			</input>
			<output>
				<port id="2" precision="FP32" names="/backbone/blocks/blocks.1/blocks.1.0/conv_exp/Conv_output_0">
					<dim>1</dim>
					<dim>96</dim>
					<dim>56</dim>
					<dim>56</dim>
				</port>
			</output>
		</layer>
		<layer id="152" name="/backbone/blocks/blocks.1/blocks.1.0/bn1/act/Mul" type="Swish" version="opset4">
			<input>
				<port id="0" precision="FP32">
					<dim>1</dim>
					<dim>96</dim>
					<dim>56</dim>
					<dim>56</dim>
				</port>
			</input>
			<output>
				<port id="1" precision="FP32" names="/backbone/blocks/blocks.1/blocks.1.0/bn1/act/Mul_output_0">
					<dim>1</dim>
					<dim>96</dim>
					<dim>56</dim>
					<dim>56</dim>
				</port>
			</output>
		</layer>
		<layer id="153" name="Constant_80355" type="Const" version="opset1">
			<data element_type="f32" shape="" offset="33292" size="4" />
			<output>
				<port id="0" precision="FP32" />
			</output>
		</layer>
		<layer id="154" name="Constant_80356" type="Const" version="opset1">
			<data element_type="f32" shape="" offset="33296" size="4" />
			<output>
				<port id="0" precision="FP32" />
			</output>
		</layer>
		<layer id="155" name="Constant_80357" type="Const" version="opset1">
			<data element_type="f32" shape="" offset="33292" size="4" />
			<output>
				<port id="0" precision="FP32" />
			</output>
		</layer>
		<layer id="156" name="Constant_80358" type="Const" version="opset1">
			<data element_type="f32" shape="" offset="33296" size="4" />
			<output>
				<port id="0" precision="FP32" />
			</output>
		</layer>
		<layer id="157" name="/backbone/blocks/blocks.1/blocks.1.0/bn1/act/Mul/fq_output_0" type="FakeQuantize" version="opset1">
			<data levels="256" auto_broadcast="numpy" />
			<input>
				<port id="0" precision="FP32">
					<dim>1</dim>
					<dim>96</dim>
					<dim>56</dim>
					<dim>56</dim>
				</port>
				<port id="1" precision="FP32" />
				<port id="2" precision="FP32" />
				<port id="3" precision="FP32" />
				<port id="4" precision="FP32" />
			</input>
			<output>
				<port id="5" precision="FP32">
					<dim>1</dim>
					<dim>96</dim>
					<dim>56</dim>
					<dim>56</dim>
				</port>
			</output>
		</layer>
		<layer id="158" name="onnx::Conv_1673" type="Const" version="opset1">
			<data element_type="i8" shape="48, 96, 1, 1" offset="33300" size="4608" />
			<output>
				<port id="0" precision="I8">
					<dim>48</dim>
					<dim>96</dim>
					<dim>1</dim>
					<dim>1</dim>
				</port>
			</output>
		</layer>
		<layer id="159" name="Convert_493613" type="Convert" version="opset1">
			<data destination_type="f32" />
			<input>
				<port id="0" precision="I8">
					<dim>48</dim>
					<dim>96</dim>
					<dim>1</dim>
					<dim>1</dim>
				</port>
			</input>
			<output>
				<port id="1" precision="FP32">
					<dim>48</dim>
					<dim>96</dim>
					<dim>1</dim>
					<dim>1</dim>
				</port>
			</output>
		</layer>
		<layer id="160" name="Constant_493511" type="Const" version="opset1">
			<data element_type="f32" shape="48, 1, 1, 1" offset="37908" size="192" />
			<output>
				<port id="0" precision="FP32">
					<dim>48</dim>
					<dim>1</dim>
					<dim>1</dim>
					<dim>1</dim>
				</port>
			</output>
		</layer>
		<layer id="161" name="/backbone/blocks/blocks.1/blocks.1.0/conv_pwl/Conv/WithoutBiases/fq_weights_1" type="Multiply" version="opset1">
			<data auto_broadcast="numpy" />
			<input>
				<port id="0" precision="FP32">
					<dim>48</dim>
					<dim>96</dim>
					<dim>1</dim>
					<dim>1</dim>
				</port>
				<port id="1" precision="FP32">
					<dim>48</dim>
					<dim>1</dim>
					<dim>1</dim>
					<dim>1</dim>
				</port>
			</input>
			<output>
				<port id="2" precision="FP32">
					<dim>48</dim>
					<dim>96</dim>
					<dim>1</dim>
					<dim>1</dim>
				</port>
			</output>
		</layer>
		<layer id="162" name="/backbone/blocks/blocks.1/blocks.1.0/conv_pwl/Conv/WithoutBiases" type="Convolution" version="opset1">
			<data strides="1, 1" dilations="1, 1" pads_begin="0, 0" pads_end="0, 0" auto_pad="explicit" />
			<input>
				<port id="0" precision="FP32">
					<dim>1</dim>
					<dim>96</dim>
					<dim>56</dim>
					<dim>56</dim>
				</port>
				<port id="1" precision="FP32">
					<dim>48</dim>
					<dim>96</dim>
					<dim>1</dim>
					<dim>1</dim>
				</port>
			</input>
			<output>
				<port id="2" precision="FP32">
					<dim>1</dim>
					<dim>48</dim>
					<dim>56</dim>
					<dim>56</dim>
				</port>
			</output>
		</layer>
		<layer id="163" name="Reshape_823" type="Const" version="opset1">
			<data element_type="f32" shape="1, 48, 1, 1" offset="38100" size="192" />
			<output>
				<port id="0" precision="FP32">
					<dim>1</dim>
					<dim>48</dim>
					<dim>1</dim>
					<dim>1</dim>
				</port>
			</output>
		</layer>
		<layer id="164" name="/backbone/blocks/blocks.1/blocks.1.0/conv_pwl/Conv" type="Add" version="opset1">
			<data auto_broadcast="numpy" />
			<input>
				<port id="0" precision="FP32">
					<dim>1</dim>
					<dim>48</dim>
					<dim>56</dim>
					<dim>56</dim>
				</port>
				<port id="1" precision="FP32">
					<dim>1</dim>
					<dim>48</dim>
					<dim>1</dim>
					<dim>1</dim>
				</port>
			</input>
			<output>
				<port id="2" precision="FP32" names="/backbone/blocks/blocks.1/blocks.1.0/conv_pwl/Conv_output_0">
					<dim>1</dim>
					<dim>48</dim>
					<dim>56</dim>
					<dim>56</dim>
				</port>
			</output>
		</layer>
		<layer id="165" name="Constant_80365" type="Const" version="opset1">
			<data element_type="f32" shape="" offset="38292" size="4" />
			<output>
				<port id="0" precision="FP32" />
			</output>
		</layer>
		<layer id="166" name="Constant_80366" type="Const" version="opset1">
			<data element_type="f32" shape="" offset="38296" size="4" />
			<output>
				<port id="0" precision="FP32" />
			</output>
		</layer>
		<layer id="167" name="Constant_80367" type="Const" version="opset1">
			<data element_type="f32" shape="" offset="38292" size="4" />
			<output>
				<port id="0" precision="FP32" />
			</output>
		</layer>
		<layer id="168" name="Constant_80368" type="Const" version="opset1">
			<data element_type="f32" shape="" offset="38296" size="4" />
			<output>
				<port id="0" precision="FP32" />
			</output>
		</layer>
		<layer id="169" name="/backbone/blocks/blocks.1/blocks.1.0/conv_pwl/Conv/fq_output_0" type="FakeQuantize" version="opset1">
			<data levels="256" auto_broadcast="numpy" />
			<input>
				<port id="0" precision="FP32">
					<dim>1</dim>
					<dim>48</dim>
					<dim>56</dim>
					<dim>56</dim>
				</port>
				<port id="1" precision="FP32" />
				<port id="2" precision="FP32" />
				<port id="3" precision="FP32" />
				<port id="4" precision="FP32" />
			</input>
			<output>
				<port id="5" precision="FP32">
					<dim>1</dim>
					<dim>48</dim>
					<dim>56</dim>
					<dim>56</dim>
				</port>
			</output>
		</layer>
		<layer id="170" name="onnx::Conv_1676" type="Const" version="opset1">
			<data element_type="i8" shape="192, 48, 3, 3" offset="38300" size="82944" />
			<output>
				<port id="0" precision="I8">
					<dim>192</dim>
					<dim>48</dim>
					<dim>3</dim>
					<dim>3</dim>
				</port>
			</output>
		</layer>
		<layer id="171" name="Convert_493767" type="Convert" version="opset1">
			<data destination_type="f32" />
			<input>
				<port id="0" precision="I8">
					<dim>192</dim>
					<dim>48</dim>
					<dim>3</dim>
					<dim>3</dim>
				</port>
			</input>
			<output>
				<port id="1" precision="FP32">
					<dim>192</dim>
					<dim>48</dim>
					<dim>3</dim>
					<dim>3</dim>
				</port>
			</output>
		</layer>
		<layer id="172" name="Constant_493665" type="Const" version="opset1">
			<data element_type="f32" shape="192, 1, 1, 1" offset="121244" size="768" />
			<output>
				<port id="0" precision="FP32">
					<dim>192</dim>
					<dim>1</dim>
					<dim>1</dim>
					<dim>1</dim>
				</port>
			</output>
		</layer>
		<layer id="173" name="/backbone/blocks/blocks.1/blocks.1.1/conv_exp/Conv/WithoutBiases/fq_weights_1" type="Multiply" version="opset1">
			<data auto_broadcast="numpy" />
			<input>
				<port id="0" precision="FP32">
					<dim>192</dim>
					<dim>48</dim>
					<dim>3</dim>
					<dim>3</dim>
				</port>
				<port id="1" precision="FP32">
					<dim>192</dim>
					<dim>1</dim>
					<dim>1</dim>
					<dim>1</dim>
				</port>
			</input>
			<output>
				<port id="2" precision="FP32">
					<dim>192</dim>
					<dim>48</dim>
					<dim>3</dim>
					<dim>3</dim>
				</port>
			</output>
		</layer>
		<layer id="174" name="/backbone/blocks/blocks.1/blocks.1.1/conv_exp/Conv/WithoutBiases" type="Convolution" version="opset1">
			<data strides="1, 1" dilations="1, 1" pads_begin="1, 1" pads_end="1, 1" auto_pad="explicit" />
			<input>
				<port id="0" precision="FP32">
					<dim>1</dim>
					<dim>48</dim>
					<dim>56</dim>
					<dim>56</dim>
				</port>
				<port id="1" precision="FP32">
					<dim>192</dim>
					<dim>48</dim>
					<dim>3</dim>
					<dim>3</dim>
				</port>
			</input>
			<output>
				<port id="2" precision="FP32">
					<dim>1</dim>
					<dim>192</dim>
					<dim>56</dim>
					<dim>56</dim>
				</port>
			</output>
		</layer>
		<layer id="175" name="Reshape_838" type="Const" version="opset1">
			<data element_type="f32" shape="1, 192, 1, 1" offset="122012" size="768" />
			<output>
				<port id="0" precision="FP32">
					<dim>1</dim>
					<dim>192</dim>
					<dim>1</dim>
					<dim>1</dim>
				</port>
			</output>
		</layer>
		<layer id="176" name="/backbone/blocks/blocks.1/blocks.1.1/conv_exp/Conv" type="Add" version="opset1">
			<data auto_broadcast="numpy" />
			<input>
				<port id="0" precision="FP32">
					<dim>1</dim>
					<dim>192</dim>
					<dim>56</dim>
					<dim>56</dim>
				</port>
				<port id="1" precision="FP32">
					<dim>1</dim>
					<dim>192</dim>
					<dim>1</dim>
					<dim>1</dim>
				</port>
			</input>
			<output>
				<port id="2" precision="FP32" names="/backbone/blocks/blocks.1/blocks.1.1/conv_exp/Conv_output_0">
					<dim>1</dim>
					<dim>192</dim>
					<dim>56</dim>
					<dim>56</dim>
				</port>
			</output>
		</layer>
		<layer id="177" name="/backbone/blocks/blocks.1/blocks.1.1/bn1/act/Mul" type="Swish" version="opset4">
			<input>
				<port id="0" precision="FP32">
					<dim>1</dim>
					<dim>192</dim>
					<dim>56</dim>
					<dim>56</dim>
				</port>
			</input>
			<output>
				<port id="1" precision="FP32" names="/backbone/blocks/blocks.1/blocks.1.1/bn1/act/Mul_output_0">
					<dim>1</dim>
					<dim>192</dim>
					<dim>56</dim>
					<dim>56</dim>
				</port>
			</output>
		</layer>
		<layer id="178" name="Constant_80375" type="Const" version="opset1">
			<data element_type="f32" shape="" offset="122780" size="4" />
			<output>
				<port id="0" precision="FP32" />
			</output>
		</layer>
		<layer id="179" name="Constant_80376" type="Const" version="opset1">
			<data element_type="f32" shape="" offset="122784" size="4" />
			<output>
				<port id="0" precision="FP32" />
			</output>
		</layer>
		<layer id="180" name="Constant_80377" type="Const" version="opset1">
			<data element_type="f32" shape="" offset="122780" size="4" />
			<output>
				<port id="0" precision="FP32" />
			</output>
		</layer>
		<layer id="181" name="Constant_80378" type="Const" version="opset1">
			<data element_type="f32" shape="" offset="122784" size="4" />
			<output>
				<port id="0" precision="FP32" />
			</output>
		</layer>
		<layer id="182" name="/backbone/blocks/blocks.1/blocks.1.1/bn1/act/Mul/fq_output_0" type="FakeQuantize" version="opset1">
			<data levels="256" auto_broadcast="numpy" />
			<input>
				<port id="0" precision="FP32">
					<dim>1</dim>
					<dim>192</dim>
					<dim>56</dim>
					<dim>56</dim>
				</port>
				<port id="1" precision="FP32" />
				<port id="2" precision="FP32" />
				<port id="3" precision="FP32" />
				<port id="4" precision="FP32" />
			</input>
			<output>
				<port id="5" precision="FP32">
					<dim>1</dim>
					<dim>192</dim>
					<dim>56</dim>
					<dim>56</dim>
				</port>
			</output>
		</layer>
		<layer id="183" name="onnx::Conv_1679" type="Const" version="opset1">
			<data element_type="i8" shape="48, 192, 1, 1" offset="122788" size="9216" />
			<output>
				<port id="0" precision="I8">
					<dim>48</dim>
					<dim>192</dim>
					<dim>1</dim>
					<dim>1</dim>
				</port>
			</output>
		</layer>
		<layer id="184" name="Convert_493921" type="Convert" version="opset1">
			<data destination_type="f32" />
			<input>
				<port id="0" precision="I8">
					<dim>48</dim>
					<dim>192</dim>
					<dim>1</dim>
					<dim>1</dim>
				</port>
			</input>
			<output>
				<port id="1" precision="FP32">
					<dim>48</dim>
					<dim>192</dim>
					<dim>1</dim>
					<dim>1</dim>
				</port>
			</output>
		</layer>
		<layer id="185" name="Constant_493819" type="Const" version="opset1">
			<data element_type="f32" shape="48, 1, 1, 1" offset="132004" size="192" />
			<output>
				<port id="0" precision="FP32">
					<dim>48</dim>
					<dim>1</dim>
					<dim>1</dim>
					<dim>1</dim>
				</port>
			</output>
		</layer>
		<layer id="186" name="/backbone/blocks/blocks.1/blocks.1.1/conv_pwl/Conv/WithoutBiases/fq_weights_1" type="Multiply" version="opset1">
			<data auto_broadcast="numpy" />
			<input>
				<port id="0" precision="FP32">
					<dim>48</dim>
					<dim>192</dim>
					<dim>1</dim>
					<dim>1</dim>
				</port>
				<port id="1" precision="FP32">
					<dim>48</dim>
					<dim>1</dim>
					<dim>1</dim>
					<dim>1</dim>
				</port>
			</input>
			<output>
				<port id="2" precision="FP32">
					<dim>48</dim>
					<dim>192</dim>
					<dim>1</dim>
					<dim>1</dim>
				</port>
			</output>
		</layer>
		<layer id="187" name="/backbone/blocks/blocks.1/blocks.1.1/conv_pwl/Conv/WithoutBiases" type="Convolution" version="opset1">
			<data strides="1, 1" dilations="1, 1" pads_begin="0, 0" pads_end="0, 0" auto_pad="explicit" />
			<input>
				<port id="0" precision="FP32">
					<dim>1</dim>
					<dim>192</dim>
					<dim>56</dim>
					<dim>56</dim>
				</port>
				<port id="1" precision="FP32">
					<dim>48</dim>
					<dim>192</dim>
					<dim>1</dim>
					<dim>1</dim>
				</port>
			</input>
			<output>
				<port id="2" precision="FP32">
					<dim>1</dim>
					<dim>48</dim>
					<dim>56</dim>
					<dim>56</dim>
				</port>
			</output>
		</layer>
		<layer id="188" name="Reshape_855" type="Const" version="opset1">
			<data element_type="f32" shape="1, 48, 1, 1" offset="132196" size="192" />
			<output>
				<port id="0" precision="FP32">
					<dim>1</dim>
					<dim>48</dim>
					<dim>1</dim>
					<dim>1</dim>
				</port>
			</output>
		</layer>
		<layer id="189" name="/backbone/blocks/blocks.1/blocks.1.1/conv_pwl/Conv" type="Add" version="opset1">
			<data auto_broadcast="numpy" />
			<input>
				<port id="0" precision="FP32">
					<dim>1</dim>
					<dim>48</dim>
					<dim>56</dim>
					<dim>56</dim>
				</port>
				<port id="1" precision="FP32">
					<dim>1</dim>
					<dim>48</dim>
					<dim>1</dim>
					<dim>1</dim>
				</port>
			</input>
			<output>
				<port id="2" precision="FP32" names="/backbone/blocks/blocks.1/blocks.1.1/conv_pwl/Conv_output_0">
					<dim>1</dim>
					<dim>48</dim>
					<dim>56</dim>
					<dim>56</dim>
				</port>
			</output>
		</layer>
		<layer id="190" name="Constant_80385" type="Const" version="opset1">
			<data element_type="f32" shape="" offset="132388" size="4" />
			<output>
				<port id="0" precision="FP32" />
			</output>
		</layer>
		<layer id="191" name="Constant_80386" type="Const" version="opset1">
			<data element_type="f32" shape="" offset="132392" size="4" />
			<output>
				<port id="0" precision="FP32" />
			</output>
		</layer>
		<layer id="192" name="Constant_80387" type="Const" version="opset1">
			<data element_type="f32" shape="" offset="132388" size="4" />
			<output>
				<port id="0" precision="FP32" />
			</output>
		</layer>
		<layer id="193" name="Constant_80388" type="Const" version="opset1">
			<data element_type="f32" shape="" offset="132392" size="4" />
			<output>
				<port id="0" precision="FP32" />
			</output>
		</layer>
		<layer id="194" name="/backbone/blocks/blocks.1/blocks.1.1/conv_pwl/Conv/fq_output_0" type="FakeQuantize" version="opset1">
			<data levels="256" auto_broadcast="numpy" />
			<input>
				<port id="0" precision="FP32">
					<dim>1</dim>
					<dim>48</dim>
					<dim>56</dim>
					<dim>56</dim>
				</port>
				<port id="1" precision="FP32" />
				<port id="2" precision="FP32" />
				<port id="3" precision="FP32" />
				<port id="4" precision="FP32" />
			</input>
			<output>
				<port id="5" precision="FP32">
					<dim>1</dim>
					<dim>48</dim>
					<dim>56</dim>
					<dim>56</dim>
				</port>
			</output>
		</layer>
		<layer id="195" name="/backbone/blocks/blocks.1/blocks.1.1/Add" type="Add" version="opset1">
			<data auto_broadcast="numpy" />
			<input>
				<port id="0" precision="FP32">
					<dim>1</dim>
					<dim>48</dim>
					<dim>56</dim>
					<dim>56</dim>
				</port>
				<port id="1" precision="FP32">
					<dim>1</dim>
					<dim>48</dim>
					<dim>56</dim>
					<dim>56</dim>
				</port>
			</input>
			<output>
				<port id="2" precision="FP32" names="/backbone/blocks/blocks.1/blocks.1.1/Add_output_0">
					<dim>1</dim>
					<dim>48</dim>
					<dim>56</dim>
					<dim>56</dim>
				</port>
			</output>
		</layer>
		<layer id="196" name="Constant_80390" type="Const" version="opset1">
			<data element_type="f32" shape="" offset="132396" size="4" />
			<output>
				<port id="0" precision="FP32" />
			</output>
		</layer>
		<layer id="197" name="Constant_80391" type="Const" version="opset1">
			<data element_type="f32" shape="" offset="132400" size="4" />
			<output>
				<port id="0" precision="FP32" />
			</output>
		</layer>
		<layer id="198" name="Constant_80392" type="Const" version="opset1">
			<data element_type="f32" shape="" offset="132396" size="4" />
			<output>
				<port id="0" precision="FP32" />
			</output>
		</layer>
		<layer id="199" name="Constant_80393" type="Const" version="opset1">
			<data element_type="f32" shape="" offset="132400" size="4" />
			<output>
				<port id="0" precision="FP32" />
			</output>
		</layer>
		<layer id="200" name="/backbone/blocks/blocks.1/blocks.1.1/Add/fq_output_0" type="FakeQuantize" version="opset1">
			<data levels="256" auto_broadcast="numpy" />
			<input>
				<port id="0" precision="FP32">
					<dim>1</dim>
					<dim>48</dim>
					<dim>56</dim>
					<dim>56</dim>
				</port>
				<port id="1" precision="FP32" />
				<port id="2" precision="FP32" />
				<port id="3" precision="FP32" />
				<port id="4" precision="FP32" />
			</input>
			<output>
				<port id="5" precision="FP32">
					<dim>1</dim>
					<dim>48</dim>
					<dim>56</dim>
					<dim>56</dim>
				</port>
			</output>
		</layer>
		<layer id="201" name="onnx::Conv_1682" type="Const" version="opset1">
			<data element_type="i8" shape="192, 48, 3, 3" offset="132404" size="82944" />
			<output>
				<port id="0" precision="I8">
					<dim>192</dim>
					<dim>48</dim>
					<dim>3</dim>
					<dim>3</dim>
				</port>
			</output>
		</layer>
		<layer id="202" name="Convert_494075" type="Convert" version="opset1">
			<data destination_type="f32" />
			<input>
				<port id="0" precision="I8">
					<dim>192</dim>
					<dim>48</dim>
					<dim>3</dim>
					<dim>3</dim>
				</port>
			</input>
			<output>
				<port id="1" precision="FP32">
					<dim>192</dim>
					<dim>48</dim>
					<dim>3</dim>
					<dim>3</dim>
				</port>
			</output>
		</layer>
		<layer id="203" name="Constant_493973" type="Const" version="opset1">
			<data element_type="f32" shape="192, 1, 1, 1" offset="215348" size="768" />
			<output>
				<port id="0" precision="FP32">
					<dim>192</dim>
					<dim>1</dim>
					<dim>1</dim>
					<dim>1</dim>
				</port>
			</output>
		</layer>
		<layer id="204" name="/backbone/blocks/blocks.1/blocks.1.2/conv_exp/Conv/WithoutBiases/fq_weights_1" type="Multiply" version="opset1">
			<data auto_broadcast="numpy" />
			<input>
				<port id="0" precision="FP32">
					<dim>192</dim>
					<dim>48</dim>
					<dim>3</dim>
					<dim>3</dim>
				</port>
				<port id="1" precision="FP32">
					<dim>192</dim>
					<dim>1</dim>
					<dim>1</dim>
					<dim>1</dim>
				</port>
			</input>
			<output>
				<port id="2" precision="FP32">
					<dim>192</dim>
					<dim>48</dim>
					<dim>3</dim>
					<dim>3</dim>
				</port>
			</output>
		</layer>
		<layer id="205" name="/backbone/blocks/blocks.1/blocks.1.2/conv_exp/Conv/WithoutBiases" type="Convolution" version="opset1">
			<data strides="1, 1" dilations="1, 1" pads_begin="1, 1" pads_end="1, 1" auto_pad="explicit" />
			<input>
				<port id="0" precision="FP32">
					<dim>1</dim>
					<dim>48</dim>
					<dim>56</dim>
					<dim>56</dim>
				</port>
				<port id="1" precision="FP32">
					<dim>192</dim>
					<dim>48</dim>
					<dim>3</dim>
					<dim>3</dim>
				</port>
			</input>
			<output>
				<port id="2" precision="FP32">
					<dim>1</dim>
					<dim>192</dim>
					<dim>56</dim>
					<dim>56</dim>
				</port>
			</output>
		</layer>
		<layer id="206" name="Reshape_871" type="Const" version="opset1">
			<data element_type="f32" shape="1, 192, 1, 1" offset="216116" size="768" />
			<output>
				<port id="0" precision="FP32">
					<dim>1</dim>
					<dim>192</dim>
					<dim>1</dim>
					<dim>1</dim>
				</port>
			</output>
		</layer>
		<layer id="207" name="/backbone/blocks/blocks.1/blocks.1.2/conv_exp/Conv" type="Add" version="opset1">
			<data auto_broadcast="numpy" />
			<input>
				<port id="0" precision="FP32">
					<dim>1</dim>
					<dim>192</dim>
					<dim>56</dim>
					<dim>56</dim>
				</port>
				<port id="1" precision="FP32">
					<dim>1</dim>
					<dim>192</dim>
					<dim>1</dim>
					<dim>1</dim>
				</port>
			</input>
			<output>
				<port id="2" precision="FP32" names="/backbone/blocks/blocks.1/blocks.1.2/conv_exp/Conv_output_0">
					<dim>1</dim>
					<dim>192</dim>
					<dim>56</dim>
					<dim>56</dim>
				</port>
			</output>
		</layer>
		<layer id="208" name="/backbone/blocks/blocks.1/blocks.1.2/bn1/act/Mul" type="Swish" version="opset4">
			<input>
				<port id="0" precision="FP32">
					<dim>1</dim>
					<dim>192</dim>
					<dim>56</dim>
					<dim>56</dim>
				</port>
			</input>
			<output>
				<port id="1" precision="FP32" names="/backbone/blocks/blocks.1/blocks.1.2/bn1/act/Mul_output_0">
					<dim>1</dim>
					<dim>192</dim>
					<dim>56</dim>
					<dim>56</dim>
				</port>
			</output>
		</layer>
		<layer id="209" name="Constant_80400" type="Const" version="opset1">
			<data element_type="f32" shape="" offset="216884" size="4" />
			<output>
				<port id="0" precision="FP32" />
			</output>
		</layer>
		<layer id="210" name="Constant_80401" type="Const" version="opset1">
			<data element_type="f32" shape="" offset="216888" size="4" />
			<output>
				<port id="0" precision="FP32" />
			</output>
		</layer>
		<layer id="211" name="Constant_80402" type="Const" version="opset1">
			<data element_type="f32" shape="" offset="216884" size="4" />
			<output>
				<port id="0" precision="FP32" />
			</output>
		</layer>
		<layer id="212" name="Constant_80403" type="Const" version="opset1">
			<data element_type="f32" shape="" offset="216888" size="4" />
			<output>
				<port id="0" precision="FP32" />
			</output>
		</layer>
		<layer id="213" name="/backbone/blocks/blocks.1/blocks.1.2/bn1/act/Mul/fq_output_0" type="FakeQuantize" version="opset1">
			<data levels="256" auto_broadcast="numpy" />
			<input>
				<port id="0" precision="FP32">
					<dim>1</dim>
					<dim>192</dim>
					<dim>56</dim>
					<dim>56</dim>
				</port>
				<port id="1" precision="FP32" />
				<port id="2" precision="FP32" />
				<port id="3" precision="FP32" />
				<port id="4" precision="FP32" />
			</input>
			<output>
				<port id="5" precision="FP32">
					<dim>1</dim>
					<dim>192</dim>
					<dim>56</dim>
					<dim>56</dim>
				</port>
			</output>
		</layer>
		<layer id="214" name="onnx::Conv_1685" type="Const" version="opset1">
			<data element_type="i8" shape="48, 192, 1, 1" offset="216892" size="9216" />
			<output>
				<port id="0" precision="I8">
					<dim>48</dim>
					<dim>192</dim>
					<dim>1</dim>
					<dim>1</dim>
				</port>
			</output>
		</layer>
		<layer id="215" name="Convert_494229" type="Convert" version="opset1">
			<data destination_type="f32" />
			<input>
				<port id="0" precision="I8">
					<dim>48</dim>
					<dim>192</dim>
					<dim>1</dim>
					<dim>1</dim>
				</port>
			</input>
			<output>
				<port id="1" precision="FP32">
					<dim>48</dim>
					<dim>192</dim>
					<dim>1</dim>
					<dim>1</dim>
				</port>
			</output>
		</layer>
		<layer id="216" name="Constant_494127" type="Const" version="opset1">
			<data element_type="f32" shape="48, 1, 1, 1" offset="226108" size="192" />
			<output>
				<port id="0" precision="FP32">
					<dim>48</dim>
					<dim>1</dim>
					<dim>1</dim>
					<dim>1</dim>
				</port>
			</output>
		</layer>
		<layer id="217" name="/backbone/blocks/blocks.1/blocks.1.2/conv_pwl/Conv/WithoutBiases/fq_weights_1" type="Multiply" version="opset1">
			<data auto_broadcast="numpy" />
			<input>
				<port id="0" precision="FP32">
					<dim>48</dim>
					<dim>192</dim>
					<dim>1</dim>
					<dim>1</dim>
				</port>
				<port id="1" precision="FP32">
					<dim>48</dim>
					<dim>1</dim>
					<dim>1</dim>
					<dim>1</dim>
				</port>
			</input>
			<output>
				<port id="2" precision="FP32">
					<dim>48</dim>
					<dim>192</dim>
					<dim>1</dim>
					<dim>1</dim>
				</port>
			</output>
		</layer>
		<layer id="218" name="/backbone/blocks/blocks.1/blocks.1.2/conv_pwl/Conv/WithoutBiases" type="Convolution" version="opset1">
			<data strides="1, 1" dilations="1, 1" pads_begin="0, 0" pads_end="0, 0" auto_pad="explicit" />
			<input>
				<port id="0" precision="FP32">
					<dim>1</dim>
					<dim>192</dim>
					<dim>56</dim>
					<dim>56</dim>
				</port>
				<port id="1" precision="FP32">
					<dim>48</dim>
					<dim>192</dim>
					<dim>1</dim>
					<dim>1</dim>
				</port>
			</input>
			<output>
				<port id="2" precision="FP32">
					<dim>1</dim>
					<dim>48</dim>
					<dim>56</dim>
					<dim>56</dim>
				</port>
			</output>
		</layer>
		<layer id="219" name="Reshape_888" type="Const" version="opset1">
			<data element_type="f32" shape="1, 48, 1, 1" offset="226300" size="192" />
			<output>
				<port id="0" precision="FP32">
					<dim>1</dim>
					<dim>48</dim>
					<dim>1</dim>
					<dim>1</dim>
				</port>
			</output>
		</layer>
		<layer id="220" name="/backbone/blocks/blocks.1/blocks.1.2/conv_pwl/Conv" type="Add" version="opset1">
			<data auto_broadcast="numpy" />
			<input>
				<port id="0" precision="FP32">
					<dim>1</dim>
					<dim>48</dim>
					<dim>56</dim>
					<dim>56</dim>
				</port>
				<port id="1" precision="FP32">
					<dim>1</dim>
					<dim>48</dim>
					<dim>1</dim>
					<dim>1</dim>
				</port>
			</input>
			<output>
				<port id="2" precision="FP32" names="/backbone/blocks/blocks.1/blocks.1.2/conv_pwl/Conv_output_0">
					<dim>1</dim>
					<dim>48</dim>
					<dim>56</dim>
					<dim>56</dim>
				</port>
			</output>
		</layer>
		<layer id="221" name="Constant_80410" type="Const" version="opset1">
			<data element_type="f32" shape="" offset="226492" size="4" />
			<output>
				<port id="0" precision="FP32" />
			</output>
		</layer>
		<layer id="222" name="Constant_80411" type="Const" version="opset1">
			<data element_type="f32" shape="" offset="226496" size="4" />
			<output>
				<port id="0" precision="FP32" />
			</output>
		</layer>
		<layer id="223" name="Constant_80412" type="Const" version="opset1">
			<data element_type="f32" shape="" offset="226492" size="4" />
			<output>
				<port id="0" precision="FP32" />
			</output>
		</layer>
		<layer id="224" name="Constant_80413" type="Const" version="opset1">
			<data element_type="f32" shape="" offset="226496" size="4" />
			<output>
				<port id="0" precision="FP32" />
			</output>
		</layer>
		<layer id="225" name="/backbone/blocks/blocks.1/blocks.1.2/conv_pwl/Conv/fq_output_0" type="FakeQuantize" version="opset1">
			<data levels="256" auto_broadcast="numpy" />
			<input>
				<port id="0" precision="FP32">
					<dim>1</dim>
					<dim>48</dim>
					<dim>56</dim>
					<dim>56</dim>
				</port>
				<port id="1" precision="FP32" />
				<port id="2" precision="FP32" />
				<port id="3" precision="FP32" />
				<port id="4" precision="FP32" />
			</input>
			<output>
				<port id="5" precision="FP32">
					<dim>1</dim>
					<dim>48</dim>
					<dim>56</dim>
					<dim>56</dim>
				</port>
			</output>
		</layer>
		<layer id="226" name="/backbone/blocks/blocks.1/blocks.1.2/Add" type="Add" version="opset1">
			<data auto_broadcast="numpy" />
			<input>
				<port id="0" precision="FP32">
					<dim>1</dim>
					<dim>48</dim>
					<dim>56</dim>
					<dim>56</dim>
				</port>
				<port id="1" precision="FP32">
					<dim>1</dim>
					<dim>48</dim>
					<dim>56</dim>
					<dim>56</dim>
				</port>
			</input>
			<output>
				<port id="2" precision="FP32" names="/backbone/blocks/blocks.1/blocks.1.2/Add_output_0">
					<dim>1</dim>
					<dim>48</dim>
					<dim>56</dim>
					<dim>56</dim>
				</port>
			</output>
		</layer>
		<layer id="227" name="Constant_80415" type="Const" version="opset1">
			<data element_type="f32" shape="" offset="226500" size="4" />
			<output>
				<port id="0" precision="FP32" />
			</output>
		</layer>
		<layer id="228" name="Constant_80416" type="Const" version="opset1">
			<data element_type="f32" shape="" offset="226504" size="4" />
			<output>
				<port id="0" precision="FP32" />
			</output>
		</layer>
		<layer id="229" name="Constant_80417" type="Const" version="opset1">
			<data element_type="f32" shape="" offset="226500" size="4" />
			<output>
				<port id="0" precision="FP32" />
			</output>
		</layer>
		<layer id="230" name="Constant_80418" type="Const" version="opset1">
			<data element_type="f32" shape="" offset="226504" size="4" />
			<output>
				<port id="0" precision="FP32" />
			</output>
		</layer>
		<layer id="231" name="/backbone/blocks/blocks.1/blocks.1.2/Add/fq_output_0" type="FakeQuantize" version="opset1">
			<data levels="256" auto_broadcast="numpy" />
			<input>
				<port id="0" precision="FP32">
					<dim>1</dim>
					<dim>48</dim>
					<dim>56</dim>
					<dim>56</dim>
				</port>
				<port id="1" precision="FP32" />
				<port id="2" precision="FP32" />
				<port id="3" precision="FP32" />
				<port id="4" precision="FP32" />
			</input>
			<output>
				<port id="5" precision="FP32">
					<dim>1</dim>
					<dim>48</dim>
					<dim>56</dim>
					<dim>56</dim>
				</port>
			</output>
		</layer>
		<layer id="232" name="onnx::Conv_1688" type="Const" version="opset1">
			<data element_type="i8" shape="192, 48, 3, 3" offset="226508" size="82944" />
			<output>
				<port id="0" precision="I8">
					<dim>192</dim>
					<dim>48</dim>
					<dim>3</dim>
					<dim>3</dim>
				</port>
			</output>
		</layer>
		<layer id="233" name="Convert_494383" type="Convert" version="opset1">
			<data destination_type="f32" />
			<input>
				<port id="0" precision="I8">
					<dim>192</dim>
					<dim>48</dim>
					<dim>3</dim>
					<dim>3</dim>
				</port>
			</input>
			<output>
				<port id="1" precision="FP32">
					<dim>192</dim>
					<dim>48</dim>
					<dim>3</dim>
					<dim>3</dim>
				</port>
			</output>
		</layer>
		<layer id="234" name="Constant_494281" type="Const" version="opset1">
			<data element_type="f32" shape="192, 1, 1, 1" offset="309452" size="768" />
			<output>
				<port id="0" precision="FP32">
					<dim>192</dim>
					<dim>1</dim>
					<dim>1</dim>
					<dim>1</dim>
				</port>
			</output>
		</layer>
		<layer id="235" name="/backbone/blocks/blocks.1/blocks.1.3/conv_exp/Conv/WithoutBiases/fq_weights_1" type="Multiply" version="opset1">
			<data auto_broadcast="numpy" />
			<input>
				<port id="0" precision="FP32">
					<dim>192</dim>
					<dim>48</dim>
					<dim>3</dim>
					<dim>3</dim>
				</port>
				<port id="1" precision="FP32">
					<dim>192</dim>
					<dim>1</dim>
					<dim>1</dim>
					<dim>1</dim>
				</port>
			</input>
			<output>
				<port id="2" precision="FP32">
					<dim>192</dim>
					<dim>48</dim>
					<dim>3</dim>
					<dim>3</dim>
				</port>
			</output>
		</layer>
		<layer id="236" name="/backbone/blocks/blocks.1/blocks.1.3/conv_exp/Conv/WithoutBiases" type="Convolution" version="opset1">
			<data strides="1, 1" dilations="1, 1" pads_begin="1, 1" pads_end="1, 1" auto_pad="explicit" />
			<input>
				<port id="0" precision="FP32">
					<dim>1</dim>
					<dim>48</dim>
					<dim>56</dim>
					<dim>56</dim>
				</port>
				<port id="1" precision="FP32">
					<dim>192</dim>
					<dim>48</dim>
					<dim>3</dim>
					<dim>3</dim>
				</port>
			</input>
			<output>
				<port id="2" precision="FP32">
					<dim>1</dim>
					<dim>192</dim>
					<dim>56</dim>
					<dim>56</dim>
				</port>
			</output>
		</layer>
		<layer id="237" name="Reshape_904" type="Const" version="opset1">
			<data element_type="f32" shape="1, 192, 1, 1" offset="310220" size="768" />
			<output>
				<port id="0" precision="FP32">
					<dim>1</dim>
					<dim>192</dim>
					<dim>1</dim>
					<dim>1</dim>
				</port>
			</output>
		</layer>
		<layer id="238" name="/backbone/blocks/blocks.1/blocks.1.3/conv_exp/Conv" type="Add" version="opset1">
			<data auto_broadcast="numpy" />
			<input>
				<port id="0" precision="FP32">
					<dim>1</dim>
					<dim>192</dim>
					<dim>56</dim>
					<dim>56</dim>
				</port>
				<port id="1" precision="FP32">
					<dim>1</dim>
					<dim>192</dim>
					<dim>1</dim>
					<dim>1</dim>
				</port>
			</input>
			<output>
				<port id="2" precision="FP32" names="/backbone/blocks/blocks.1/blocks.1.3/conv_exp/Conv_output_0">
					<dim>1</dim>
					<dim>192</dim>
					<dim>56</dim>
					<dim>56</dim>
				</port>
			</output>
		</layer>
		<layer id="239" name="/backbone/blocks/blocks.1/blocks.1.3/bn1/act/Mul" type="Swish" version="opset4">
			<input>
				<port id="0" precision="FP32">
					<dim>1</dim>
					<dim>192</dim>
					<dim>56</dim>
					<dim>56</dim>
				</port>
			</input>
			<output>
				<port id="1" precision="FP32" names="/backbone/blocks/blocks.1/blocks.1.3/bn1/act/Mul_output_0">
					<dim>1</dim>
					<dim>192</dim>
					<dim>56</dim>
					<dim>56</dim>
				</port>
			</output>
		</layer>
		<layer id="240" name="Constant_80425" type="Const" version="opset1">
			<data element_type="f32" shape="" offset="310988" size="4" />
			<output>
				<port id="0" precision="FP32" />
			</output>
		</layer>
		<layer id="241" name="Constant_80426" type="Const" version="opset1">
			<data element_type="f32" shape="" offset="310992" size="4" />
			<output>
				<port id="0" precision="FP32" />
			</output>
		</layer>
		<layer id="242" name="Constant_80427" type="Const" version="opset1">
			<data element_type="f32" shape="" offset="310988" size="4" />
			<output>
				<port id="0" precision="FP32" />
			</output>
		</layer>
		<layer id="243" name="Constant_80428" type="Const" version="opset1">
			<data element_type="f32" shape="" offset="310992" size="4" />
			<output>
				<port id="0" precision="FP32" />
			</output>
		</layer>
		<layer id="244" name="/backbone/blocks/blocks.1/blocks.1.3/bn1/act/Mul/fq_output_0" type="FakeQuantize" version="opset1">
			<data levels="256" auto_broadcast="numpy" />
			<input>
				<port id="0" precision="FP32">
					<dim>1</dim>
					<dim>192</dim>
					<dim>56</dim>
					<dim>56</dim>
				</port>
				<port id="1" precision="FP32" />
				<port id="2" precision="FP32" />
				<port id="3" precision="FP32" />
				<port id="4" precision="FP32" />
			</input>
			<output>
				<port id="5" precision="FP32">
					<dim>1</dim>
					<dim>192</dim>
					<dim>56</dim>
					<dim>56</dim>
				</port>
			</output>
		</layer>
		<layer id="245" name="onnx::Conv_1691" type="Const" version="opset1">
			<data element_type="i8" shape="48, 192, 1, 1" offset="310996" size="9216" />
			<output>
				<port id="0" precision="I8">
					<dim>48</dim>
					<dim>192</dim>
					<dim>1</dim>
					<dim>1</dim>
				</port>
			</output>
		</layer>
		<layer id="246" name="Convert_494537" type="Convert" version="opset1">
			<data destination_type="f32" />
			<input>
				<port id="0" precision="I8">
					<dim>48</dim>
					<dim>192</dim>
					<dim>1</dim>
					<dim>1</dim>
				</port>
			</input>
			<output>
				<port id="1" precision="FP32">
					<dim>48</dim>
					<dim>192</dim>
					<dim>1</dim>
					<dim>1</dim>
				</port>
			</output>
		</layer>
		<layer id="247" name="Constant_494435" type="Const" version="opset1">
			<data element_type="f32" shape="48, 1, 1, 1" offset="320212" size="192" />
			<output>
				<port id="0" precision="FP32">
					<dim>48</dim>
					<dim>1</dim>
					<dim>1</dim>
					<dim>1</dim>
				</port>
			</output>
		</layer>
		<layer id="248" name="/backbone/blocks/blocks.1/blocks.1.3/conv_pwl/Conv/WithoutBiases/fq_weights_1" type="Multiply" version="opset1">
			<data auto_broadcast="numpy" />
			<input>
				<port id="0" precision="FP32">
					<dim>48</dim>
					<dim>192</dim>
					<dim>1</dim>
					<dim>1</dim>
				</port>
				<port id="1" precision="FP32">
					<dim>48</dim>
					<dim>1</dim>
					<dim>1</dim>
					<dim>1</dim>
				</port>
			</input>
			<output>
				<port id="2" precision="FP32">
					<dim>48</dim>
					<dim>192</dim>
					<dim>1</dim>
					<dim>1</dim>
				</port>
			</output>
		</layer>
		<layer id="249" name="/backbone/blocks/blocks.1/blocks.1.3/conv_pwl/Conv/WithoutBiases" type="Convolution" version="opset1">
			<data strides="1, 1" dilations="1, 1" pads_begin="0, 0" pads_end="0, 0" auto_pad="explicit" />
			<input>
				<port id="0" precision="FP32">
					<dim>1</dim>
					<dim>192</dim>
					<dim>56</dim>
					<dim>56</dim>
				</port>
				<port id="1" precision="FP32">
					<dim>48</dim>
					<dim>192</dim>
					<dim>1</dim>
					<dim>1</dim>
				</port>
			</input>
			<output>
				<port id="2" precision="FP32">
					<dim>1</dim>
					<dim>48</dim>
					<dim>56</dim>
					<dim>56</dim>
				</port>
			</output>
		</layer>
		<layer id="250" name="Reshape_921" type="Const" version="opset1">
			<data element_type="f32" shape="1, 48, 1, 1" offset="320404" size="192" />
			<output>
				<port id="0" precision="FP32">
					<dim>1</dim>
					<dim>48</dim>
					<dim>1</dim>
					<dim>1</dim>
				</port>
			</output>
		</layer>
		<layer id="251" name="/backbone/blocks/blocks.1/blocks.1.3/conv_pwl/Conv" type="Add" version="opset1">
			<data auto_broadcast="numpy" />
			<input>
				<port id="0" precision="FP32">
					<dim>1</dim>
					<dim>48</dim>
					<dim>56</dim>
					<dim>56</dim>
				</port>
				<port id="1" precision="FP32">
					<dim>1</dim>
					<dim>48</dim>
					<dim>1</dim>
					<dim>1</dim>
				</port>
			</input>
			<output>
				<port id="2" precision="FP32" names="/backbone/blocks/blocks.1/blocks.1.3/conv_pwl/Conv_output_0">
					<dim>1</dim>
					<dim>48</dim>
					<dim>56</dim>
					<dim>56</dim>
				</port>
			</output>
		</layer>
		<layer id="252" name="Constant_80435" type="Const" version="opset1">
			<data element_type="f32" shape="" offset="320596" size="4" />
			<output>
				<port id="0" precision="FP32" />
			</output>
		</layer>
		<layer id="253" name="Constant_80436" type="Const" version="opset1">
			<data element_type="f32" shape="" offset="320600" size="4" />
			<output>
				<port id="0" precision="FP32" />
			</output>
		</layer>
		<layer id="254" name="Constant_80437" type="Const" version="opset1">
			<data element_type="f32" shape="" offset="320596" size="4" />
			<output>
				<port id="0" precision="FP32" />
			</output>
		</layer>
		<layer id="255" name="Constant_80438" type="Const" version="opset1">
			<data element_type="f32" shape="" offset="320600" size="4" />
			<output>
				<port id="0" precision="FP32" />
			</output>
		</layer>
		<layer id="256" name="/backbone/blocks/blocks.1/blocks.1.3/conv_pwl/Conv/fq_output_0" type="FakeQuantize" version="opset1">
			<data levels="256" auto_broadcast="numpy" />
			<input>
				<port id="0" precision="FP32">
					<dim>1</dim>
					<dim>48</dim>
					<dim>56</dim>
					<dim>56</dim>
				</port>
				<port id="1" precision="FP32" />
				<port id="2" precision="FP32" />
				<port id="3" precision="FP32" />
				<port id="4" precision="FP32" />
			</input>
			<output>
				<port id="5" precision="FP32">
					<dim>1</dim>
					<dim>48</dim>
					<dim>56</dim>
					<dim>56</dim>
				</port>
			</output>
		</layer>
		<layer id="257" name="/backbone/blocks/blocks.1/blocks.1.3/Add" type="Add" version="opset1">
			<data auto_broadcast="numpy" />
			<input>
				<port id="0" precision="FP32">
					<dim>1</dim>
					<dim>48</dim>
					<dim>56</dim>
					<dim>56</dim>
				</port>
				<port id="1" precision="FP32">
					<dim>1</dim>
					<dim>48</dim>
					<dim>56</dim>
					<dim>56</dim>
				</port>
			</input>
			<output>
				<port id="2" precision="FP32" names="/backbone/blocks/blocks.1/blocks.1.3/Add_output_0">
					<dim>1</dim>
					<dim>48</dim>
					<dim>56</dim>
					<dim>56</dim>
				</port>
			</output>
		</layer>
		<layer id="258" name="Constant_80440" type="Const" version="opset1">
			<data element_type="f32" shape="" offset="320604" size="4" />
			<output>
				<port id="0" precision="FP32" />
			</output>
		</layer>
		<layer id="259" name="Constant_80441" type="Const" version="opset1">
			<data element_type="f32" shape="" offset="320608" size="4" />
			<output>
				<port id="0" precision="FP32" />
			</output>
		</layer>
		<layer id="260" name="Constant_80442" type="Const" version="opset1">
			<data element_type="f32" shape="" offset="320604" size="4" />
			<output>
				<port id="0" precision="FP32" />
			</output>
		</layer>
		<layer id="261" name="Constant_80443" type="Const" version="opset1">
			<data element_type="f32" shape="" offset="320608" size="4" />
			<output>
				<port id="0" precision="FP32" />
			</output>
		</layer>
		<layer id="262" name="/backbone/blocks/blocks.1/blocks.1.3/Add/fq_output_0" type="FakeQuantize" version="opset1">
			<data levels="256" auto_broadcast="numpy" />
			<input>
				<port id="0" precision="FP32">
					<dim>1</dim>
					<dim>48</dim>
					<dim>56</dim>
					<dim>56</dim>
				</port>
				<port id="1" precision="FP32" />
				<port id="2" precision="FP32" />
				<port id="3" precision="FP32" />
				<port id="4" precision="FP32" />
			</input>
			<output>
				<port id="5" precision="FP32">
					<dim>1</dim>
					<dim>48</dim>
					<dim>56</dim>
					<dim>56</dim>
				</port>
			</output>
		</layer>
		<layer id="263" name="/backbone/blocks/blocks.2/blocks.2.0/conv_exp/Constant_3" type="Const" version="opset1">
			<data element_type="i64" shape="" offset="320612" size="8" />
			<output>
				<port id="0" precision="I64" names="/backbone/blocks/blocks.2/blocks.2.0/conv_exp/Constant_3_output_0" />
			</output>
		</layer>
		<layer id="264" name="/backbone/blocks/blocks.2/blocks.2.0/conv_exp/Shape_1" type="ShapeOf" version="opset3">
			<data output_type="i64" />
			<input>
				<port id="0" precision="FP32">
					<dim>1</dim>
					<dim>48</dim>
					<dim>56</dim>
					<dim>56</dim>
				</port>
			</input>
			<output>
				<port id="1" precision="I64" names="/backbone/blocks/blocks.2/blocks.2.0/conv_exp/Shape_1_output_0,/backbone/blocks/blocks.2/blocks.2.0/conv_exp/Shape_output_0">
					<dim>4</dim>
				</port>
			</output>
		</layer>
		<layer id="265" name="/backbone/blocks/blocks.2/blocks.2.0/conv_exp/Constant_1" type="Const" version="opset1">
			<data element_type="i64" shape="" offset="40" size="8" />
			<output>
				<port id="0" precision="I64" names="/backbone/blocks/blocks.2/blocks.2.0/conv_exp/Constant_1_output_0" />
			</output>
		</layer>
		<layer id="266" name="Constant_932" type="Const" version="opset1">
			<data element_type="i64" shape="" offset="48" size="8" />
			<output>
				<port id="0" precision="I64" />
			</output>
		</layer>
		<layer id="267" name="/backbone/blocks/blocks.2/blocks.2.0/conv_exp/Gather_1" type="Gather" version="opset8">
			<data batch_dims="0" />
			<input>
				<port id="0" precision="I64">
					<dim>4</dim>
				</port>
				<port id="1" precision="I64" />
				<port id="2" precision="I64" />
			</input>
			<output>
				<port id="3" precision="I64" names="/backbone/blocks/blocks.2/blocks.2.0/conv_exp/Gather_1_output_0" />
			</output>
		</layer>
		<layer id="268" name="/backbone/blocks/blocks.2/blocks.2.0/conv_exp/Sub_1" type="Subtract" version="opset1">
			<data auto_broadcast="numpy" />
			<input>
				<port id="0" precision="I64" />
				<port id="1" precision="I64" />
			</input>
			<output>
				<port id="2" precision="I64" names="/backbone/blocks/blocks.2/blocks.2.0/conv_exp/Sub_1_output_0" />
			</output>
		</layer>
		<layer id="269" name="/backbone/blocks/blocks.2/blocks.2.0/conv_exp/Constant_4" type="Const" version="opset1">
			<data element_type="i64" shape="" offset="56" size="8" />
			<output>
				<port id="0" precision="I64" names="/backbone/blocks/blocks.2/blocks.2.0/conv_exp/Constant_4_output_0" />
			</output>
		</layer>
		<layer id="270" name="/backbone/blocks/blocks.2/blocks.2.0/conv_exp/Div" type="Divide" version="opset1">
			<data auto_broadcast="numpy" m_pythondiv="true" />
			<input>
				<port id="0" precision="I64" />
				<port id="1" precision="I64" />
			</input>
			<output>
				<port id="2" precision="I64" names="/backbone/blocks/blocks.2/blocks.2.0/conv_exp/Cast_1_output_0,/backbone/blocks/blocks.2/blocks.2.0/conv_exp/Cast_output_0,/backbone/blocks/blocks.2/blocks.2.0/conv_exp/Div_output_0" />
			</output>
		</layer>
		<layer id="271" name="Constant_957" type="Const" version="opset1">
			<data element_type="i64" shape="1" offset="48" size="8" />
			<output>
				<port id="0" precision="I64">
					<dim>1</dim>
				</port>
			</output>
		</layer>
		<layer id="272" name="/backbone/blocks/blocks.2/blocks.2.0/conv_exp/Unsqueeze_4" type="Unsqueeze" version="opset1">
			<input>
				<port id="0" precision="I64" />
				<port id="1" precision="I64">
					<dim>1</dim>
				</port>
			</input>
			<output>
				<port id="2" precision="I64" names="/backbone/blocks/blocks.2/blocks.2.0/conv_exp/Unsqueeze_4_output_0">
					<dim>1</dim>
				</port>
			</output>
		</layer>
		<layer id="273" name="/backbone/blocks/blocks.2/blocks.2.0/conv_exp/Sub_2" type="Subtract" version="opset1">
			<data auto_broadcast="numpy" />
			<input>
				<port id="0" precision="I64" />
				<port id="1" precision="I64" />
			</input>
			<output>
				<port id="2" precision="I64" names="/backbone/blocks/blocks.2/blocks.2.0/conv_exp/Sub_2_output_0" />
			</output>
		</layer>
		<layer id="274" name="Constant_959" type="Const" version="opset1">
			<data element_type="i64" shape="1" offset="48" size="8" />
			<output>
				<port id="0" precision="I64">
					<dim>1</dim>
				</port>
			</output>
		</layer>
		<layer id="275" name="/backbone/blocks/blocks.2/blocks.2.0/conv_exp/Unsqueeze_5" type="Unsqueeze" version="opset1">
			<input>
				<port id="0" precision="I64" />
				<port id="1" precision="I64">
					<dim>1</dim>
				</port>
			</input>
			<output>
				<port id="2" precision="I64" names="/backbone/blocks/blocks.2/blocks.2.0/conv_exp/Unsqueeze_5_output_0">
					<dim>1</dim>
				</port>
			</output>
		</layer>
		<layer id="276" name="/backbone/blocks/blocks.2/blocks.2.0/conv_exp/Constant_2" type="Const" version="opset1">
			<data element_type="i64" shape="" offset="320612" size="8" />
			<output>
				<port id="0" precision="I64" names="/backbone/blocks/blocks.2/blocks.2.0/conv_exp/Constant_2_output_0" />
			</output>
		</layer>
		<layer id="277" name="/backbone/blocks/blocks.2/blocks.2.0/conv_exp/Constant" type="Const" version="opset1">
			<data element_type="i64" shape="" offset="56" size="8" />
			<output>
				<port id="0" precision="I64" names="/backbone/blocks/blocks.2/blocks.2.0/conv_exp/Constant_output_0" />
			</output>
		</layer>
		<layer id="278" name="Constant_928" type="Const" version="opset1">
			<data element_type="i64" shape="" offset="48" size="8" />
			<output>
				<port id="0" precision="I64" />
			</output>
		</layer>
		<layer id="279" name="/backbone/blocks/blocks.2/blocks.2.0/conv_exp/Gather" type="Gather" version="opset8">
			<data batch_dims="0" />
			<input>
				<port id="0" precision="I64">
					<dim>4</dim>
				</port>
				<port id="1" precision="I64" />
				<port id="2" precision="I64" />
			</input>
			<output>
				<port id="3" precision="I64" names="/backbone/blocks/blocks.2/blocks.2.0/conv_exp/Gather_output_0" />
			</output>
		</layer>
		<layer id="280" name="/backbone/blocks/blocks.2/blocks.2.0/conv_exp/Sub" type="Subtract" version="opset1">
			<data auto_broadcast="numpy" />
			<input>
				<port id="0" precision="I64" />
				<port id="1" precision="I64" />
			</input>
			<output>
				<port id="2" precision="I64" names="/backbone/blocks/blocks.2/blocks.2.0/conv_exp/Sub_output_0" />
			</output>
		</layer>
		<layer id="281" name="/backbone/blocks/blocks.2/blocks.2.0/conv_exp/Constant_5" type="Const" version="opset1">
			<data element_type="i64" shape="" offset="56" size="8" />
			<output>
				<port id="0" precision="I64" names="/backbone/blocks/blocks.2/blocks.2.0/conv_exp/Constant_5_output_0" />
			</output>
		</layer>
		<layer id="282" name="/backbone/blocks/blocks.2/blocks.2.0/conv_exp/Div_1" type="Divide" version="opset1">
			<data auto_broadcast="numpy" m_pythondiv="true" />
			<input>
				<port id="0" precision="I64" />
				<port id="1" precision="I64" />
			</input>
			<output>
				<port id="2" precision="I64" names="/backbone/blocks/blocks.2/blocks.2.0/conv_exp/Cast_2_output_0,/backbone/blocks/blocks.2/blocks.2.0/conv_exp/Cast_3_output_0,/backbone/blocks/blocks.2/blocks.2.0/conv_exp/Div_1_output_0" />
			</output>
		</layer>
		<layer id="283" name="Constant_961" type="Const" version="opset1">
			<data element_type="i64" shape="1" offset="48" size="8" />
			<output>
				<port id="0" precision="I64">
					<dim>1</dim>
				</port>
			</output>
		</layer>
		<layer id="284" name="/backbone/blocks/blocks.2/blocks.2.0/conv_exp/Unsqueeze_6" type="Unsqueeze" version="opset1">
			<input>
				<port id="0" precision="I64" />
				<port id="1" precision="I64">
					<dim>1</dim>
				</port>
			</input>
			<output>
				<port id="2" precision="I64" names="/backbone/blocks/blocks.2/blocks.2.0/conv_exp/Unsqueeze_6_output_0">
					<dim>1</dim>
				</port>
			</output>
		</layer>
		<layer id="285" name="/backbone/blocks/blocks.2/blocks.2.0/conv_exp/Sub_3" type="Subtract" version="opset1">
			<data auto_broadcast="numpy" />
			<input>
				<port id="0" precision="I64" />
				<port id="1" precision="I64" />
			</input>
			<output>
				<port id="2" precision="I64" names="/backbone/blocks/blocks.2/blocks.2.0/conv_exp/Sub_3_output_0" />
			</output>
		</layer>
		<layer id="286" name="Constant_963" type="Const" version="opset1">
			<data element_type="i64" shape="1" offset="48" size="8" />
			<output>
				<port id="0" precision="I64">
					<dim>1</dim>
				</port>
			</output>
		</layer>
		<layer id="287" name="/backbone/blocks/blocks.2/blocks.2.0/conv_exp/Unsqueeze_7" type="Unsqueeze" version="opset1">
			<input>
				<port id="0" precision="I64" />
				<port id="1" precision="I64">
					<dim>1</dim>
				</port>
			</input>
			<output>
				<port id="2" precision="I64" names="/backbone/blocks/blocks.2/blocks.2.0/conv_exp/Unsqueeze_7_output_0">
					<dim>1</dim>
				</port>
			</output>
		</layer>
		<layer id="288" name="/backbone/blocks/blocks.2/blocks.2.0/conv_exp/Concat_1" type="Concat" version="opset1">
			<data axis="0" />
			<input>
				<port id="0" precision="I64">
					<dim>1</dim>
				</port>
				<port id="1" precision="I64">
					<dim>1</dim>
				</port>
				<port id="2" precision="I64">
					<dim>1</dim>
				</port>
				<port id="3" precision="I64">
					<dim>1</dim>
				</port>
			</input>
			<output>
				<port id="4" precision="I64" names="/backbone/blocks/blocks.2/blocks.2.0/conv_exp/Cast_4_output_0,/backbone/blocks/blocks.2/blocks.2.0/conv_exp/Concat_1_output_0">
					<dim>4</dim>
				</port>
			</output>
		</layer>
		<layer id="289" name="/backbone/blocks/blocks.2/blocks.2.0/conv_exp/ConstantOfShape" type="Const" version="opset1">
			<data element_type="i64" shape="4" offset="64" size="32" />
			<output>
				<port id="0" precision="I64" names="/backbone/blocks/blocks.2/blocks.2.0/conv_exp/ConstantOfShape_output_0">
					<dim>4</dim>
				</port>
			</output>
		</layer>
		<layer id="290" name="/backbone/blocks/blocks.2/blocks.2.0/conv_exp/Concat_2" type="Concat" version="opset1">
			<data axis="0" />
			<input>
				<port id="0" precision="I64">
					<dim>4</dim>
				</port>
				<port id="1" precision="I64">
					<dim>4</dim>
				</port>
			</input>
			<output>
				<port id="2" precision="I64" names="/backbone/blocks/blocks.2/blocks.2.0/conv_exp/Concat_2_output_0">
					<dim>8</dim>
				</port>
			</output>
		</layer>
		<layer id="291" name="/backbone/blocks/blocks.2/blocks.2.0/conv_exp/Constant_8" type="Const" version="opset1">
			<data element_type="i64" shape="2" offset="96" size="16" />
			<output>
				<port id="0" precision="I64" names="/backbone/blocks/blocks.2/blocks.2.0/conv_exp/Constant_8_output_0">
					<dim>2</dim>
				</port>
			</output>
		</layer>
		<layer id="292" name="/backbone/blocks/blocks.2/blocks.2.0/conv_exp/Reshape" type="Reshape" version="opset1">
			<data special_zero="true" />
			<input>
				<port id="0" precision="I64">
					<dim>8</dim>
				</port>
				<port id="1" precision="I64">
					<dim>2</dim>
				</port>
			</input>
			<output>
				<port id="2" precision="I64" names="/backbone/blocks/blocks.2/blocks.2.0/conv_exp/Reshape_output_0">
					<dim>4</dim>
					<dim>2</dim>
				</port>
			</output>
		</layer>
		<layer id="293" name="/backbone/blocks/blocks.2/blocks.2.0/conv_exp/Constant_10" type="Const" version="opset1">
			<data element_type="i64" shape="1" offset="112" size="8" />
			<output>
				<port id="0" precision="I64" names="/backbone/blocks/blocks.2/blocks.2.0/conv_exp/Constant_10_output_0">
					<dim>1</dim>
				</port>
			</output>
		</layer>
		<layer id="294" name="/backbone/blocks/blocks.2/blocks.2.0/conv_exp/Constant_11" type="Const" version="opset1">
			<data element_type="i64" shape="1" offset="120" size="8" />
			<output>
				<port id="0" precision="I64" names="/backbone/blocks/blocks.2/blocks.2.0/conv_exp/Constant_11_output_0">
					<dim>1</dim>
				</port>
			</output>
		</layer>
		<layer id="295" name="/backbone/blocks/blocks.2/blocks.2.0/conv_exp/Constant_12" type="Const" version="opset1">
			<data element_type="i64" shape="1" offset="112" size="8" />
			<output>
				<port id="0" precision="I64" names="/backbone/blocks/blocks.2/blocks.2.0/conv_exp/Constant_12_output_0">
					<dim>1</dim>
				</port>
			</output>
		</layer>
		<layer id="296" name="/backbone/blocks/blocks.2/blocks.2.0/conv_exp/Slice" type="StridedSlice" version="opset1">
			<data begin_mask="0" end_mask="0" new_axis_mask="" shrink_axis_mask="" ellipsis_mask="" />
			<input>
				<port id="0" precision="I64">
					<dim>4</dim>
					<dim>2</dim>
				</port>
				<port id="1" precision="I64">
					<dim>1</dim>
				</port>
				<port id="2" precision="I64">
					<dim>1</dim>
				</port>
				<port id="3" precision="I64">
					<dim>1</dim>
				</port>
			</input>
			<output>
				<port id="4" precision="I64" names="/backbone/blocks/blocks.2/blocks.2.0/conv_exp/Slice_output_0">
					<dim>4</dim>
					<dim>2</dim>
				</port>
			</output>
		</layer>
		<layer id="297" name="Constant_988" type="Const" version="opset1">
			<data element_type="i64" shape="2" offset="128" size="16" />
			<output>
				<port id="0" precision="I64">
					<dim>2</dim>
				</port>
			</output>
		</layer>
		<layer id="298" name="/backbone/blocks/blocks.2/blocks.2.0/conv_exp/Transpose" type="Transpose" version="opset1">
			<input>
				<port id="0" precision="I64">
					<dim>4</dim>
					<dim>2</dim>
				</port>
				<port id="1" precision="I64">
					<dim>2</dim>
				</port>
			</input>
			<output>
				<port id="2" precision="I64" names="/backbone/blocks/blocks.2/blocks.2.0/conv_exp/Transpose_output_0">
					<dim>2</dim>
					<dim>4</dim>
				</port>
			</output>
		</layer>
		<layer id="299" name="Constant_8332" type="Const" version="opset1">
			<data element_type="i64" shape="1" offset="112" size="8" />
			<output>
				<port id="0" precision="I64">
					<dim>1</dim>
				</port>
			</output>
		</layer>
		<layer id="300" name="/backbone/blocks/blocks.2/blocks.2.0/conv_exp/Reshape_1" type="Reshape" version="opset1">
			<data special_zero="true" />
			<input>
				<port id="0" precision="I64">
					<dim>2</dim>
					<dim>4</dim>
				</port>
				<port id="1" precision="I64">
					<dim>1</dim>
				</port>
			</input>
			<output>
				<port id="2" precision="I64" names="/backbone/blocks/blocks.2/blocks.2.0/conv_exp/Cast_5_output_0,/backbone/blocks/blocks.2/blocks.2.0/conv_exp/Reshape_1_output_0">
					<dim>8</dim>
				</port>
			</output>
		</layer>
		<layer id="301" name="Constant_996" type="Const" version="opset1">
			<data element_type="i64" shape="" offset="48" size="8" />
			<output>
				<port id="0" precision="I64" />
			</output>
		</layer>
		<layer id="302" name="Split_997" type="Split" version="opset1">
			<data num_splits="2" />
			<input>
				<port id="0" precision="I64">
					<dim>8</dim>
				</port>
				<port id="1" precision="I64" />
			</input>
			<output>
				<port id="2" precision="I64">
					<dim>4</dim>
				</port>
				<port id="3" precision="I64">
					<dim>4</dim>
				</port>
			</output>
		</layer>
		<layer id="303" name="/backbone/blocks/blocks.2/blocks.2.0/conv_exp/Constant_14" type="Const" version="opset1">
			<data element_type="f32" shape="" offset="144" size="4" />
			<output>
				<port id="0" precision="FP32" names="/backbone/blocks/blocks.2/blocks.2.0/conv_exp/Constant_14_output_0" />
			</output>
		</layer>
		<layer id="304" name="/backbone/blocks/blocks.2/blocks.2.0/conv_exp/Pad" type="Pad" version="opset1">
			<data pad_mode="constant" />
			<input>
				<port id="0" precision="FP32">
					<dim>1</dim>
					<dim>48</dim>
					<dim>56</dim>
					<dim>56</dim>
				</port>
				<port id="1" precision="I64">
					<dim>4</dim>
				</port>
				<port id="2" precision="I64">
					<dim>4</dim>
				</port>
				<port id="3" precision="FP32" />
			</input>
			<output>
				<port id="4" precision="FP32" names="/backbone/blocks/blocks.2/blocks.2.0/conv_exp/Pad_output_0">
					<dim>1</dim>
					<dim>48</dim>
					<dim>57</dim>
					<dim>57</dim>
				</port>
			</output>
		</layer>
		<layer id="305" name="onnx::Conv_1694" type="Const" version="opset1">
			<data element_type="i8" shape="192, 48, 3, 3" offset="320620" size="82944" />
			<output>
				<port id="0" precision="I8">
					<dim>192</dim>
					<dim>48</dim>
					<dim>3</dim>
					<dim>3</dim>
				</port>
			</output>
		</layer>
		<layer id="306" name="Convert_494691" type="Convert" version="opset1">
			<data destination_type="f32" />
			<input>
				<port id="0" precision="I8">
					<dim>192</dim>
					<dim>48</dim>
					<dim>3</dim>
					<dim>3</dim>
				</port>
			</input>
			<output>
				<port id="1" precision="FP32">
					<dim>192</dim>
					<dim>48</dim>
					<dim>3</dim>
					<dim>3</dim>
				</port>
			</output>
		</layer>
		<layer id="307" name="Constant_494589" type="Const" version="opset1">
			<data element_type="f32" shape="192, 1, 1, 1" offset="403564" size="768" />
			<output>
				<port id="0" precision="FP32">
					<dim>192</dim>
					<dim>1</dim>
					<dim>1</dim>
					<dim>1</dim>
				</port>
			</output>
		</layer>
		<layer id="308" name="/backbone/blocks/blocks.2/blocks.2.0/conv_exp/Conv/WithoutBiases/fq_weights_1" type="Multiply" version="opset1">
			<data auto_broadcast="numpy" />
			<input>
				<port id="0" precision="FP32">
					<dim>192</dim>
					<dim>48</dim>
					<dim>3</dim>
					<dim>3</dim>
				</port>
				<port id="1" precision="FP32">
					<dim>192</dim>
					<dim>1</dim>
					<dim>1</dim>
					<dim>1</dim>
				</port>
			</input>
			<output>
				<port id="2" precision="FP32">
					<dim>192</dim>
					<dim>48</dim>
					<dim>3</dim>
					<dim>3</dim>
				</port>
			</output>
		</layer>
		<layer id="309" name="/backbone/blocks/blocks.2/blocks.2.0/conv_exp/Conv/WithoutBiases" type="Convolution" version="opset1">
			<data strides="2, 2" dilations="1, 1" pads_begin="0, 0" pads_end="0, 0" auto_pad="explicit" />
			<input>
				<port id="0" precision="FP32">
					<dim>1</dim>
					<dim>48</dim>
					<dim>57</dim>
					<dim>57</dim>
				</port>
				<port id="1" precision="FP32">
					<dim>192</dim>
					<dim>48</dim>
					<dim>3</dim>
					<dim>3</dim>
				</port>
			</input>
			<output>
				<port id="2" precision="FP32">
					<dim>1</dim>
					<dim>192</dim>
					<dim>28</dim>
					<dim>28</dim>
				</port>
			</output>
		</layer>
		<layer id="310" name="Reshape_1136" type="Const" version="opset1">
			<data element_type="f32" shape="1, 192, 1, 1" offset="404332" size="768" />
			<output>
				<port id="0" precision="FP32">
					<dim>1</dim>
					<dim>192</dim>
					<dim>1</dim>
					<dim>1</dim>
				</port>
			</output>
		</layer>
		<layer id="311" name="/backbone/blocks/blocks.2/blocks.2.0/conv_exp/Conv" type="Add" version="opset1">
			<data auto_broadcast="numpy" />
			<input>
				<port id="0" precision="FP32">
					<dim>1</dim>
					<dim>192</dim>
					<dim>28</dim>
					<dim>28</dim>
				</port>
				<port id="1" precision="FP32">
					<dim>1</dim>
					<dim>192</dim>
					<dim>1</dim>
					<dim>1</dim>
				</port>
			</input>
			<output>
				<port id="2" precision="FP32" names="/backbone/blocks/blocks.2/blocks.2.0/conv_exp/Conv_output_0">
					<dim>1</dim>
					<dim>192</dim>
					<dim>28</dim>
					<dim>28</dim>
				</port>
			</output>
		</layer>
		<layer id="312" name="/backbone/blocks/blocks.2/blocks.2.0/bn1/act/Mul" type="Swish" version="opset4">
			<input>
				<port id="0" precision="FP32">
					<dim>1</dim>
					<dim>192</dim>
					<dim>28</dim>
					<dim>28</dim>
				</port>
			</input>
			<output>
				<port id="1" precision="FP32" names="/backbone/blocks/blocks.2/blocks.2.0/bn1/act/Mul_output_0">
					<dim>1</dim>
					<dim>192</dim>
					<dim>28</dim>
					<dim>28</dim>
				</port>
			</output>
		</layer>
		<layer id="313" name="Constant_80450" type="Const" version="opset1">
			<data element_type="f32" shape="" offset="405100" size="4" />
			<output>
				<port id="0" precision="FP32" />
			</output>
		</layer>
		<layer id="314" name="Constant_80451" type="Const" version="opset1">
			<data element_type="f32" shape="" offset="405104" size="4" />
			<output>
				<port id="0" precision="FP32" />
			</output>
		</layer>
		<layer id="315" name="Constant_80452" type="Const" version="opset1">
			<data element_type="f32" shape="" offset="405100" size="4" />
			<output>
				<port id="0" precision="FP32" />
			</output>
		</layer>
		<layer id="316" name="Constant_80453" type="Const" version="opset1">
			<data element_type="f32" shape="" offset="405104" size="4" />
			<output>
				<port id="0" precision="FP32" />
			</output>
		</layer>
		<layer id="317" name="/backbone/blocks/blocks.2/blocks.2.0/bn1/act/Mul/fq_output_0" type="FakeQuantize" version="opset1">
			<data levels="256" auto_broadcast="numpy" />
			<input>
				<port id="0" precision="FP32">
					<dim>1</dim>
					<dim>192</dim>
					<dim>28</dim>
					<dim>28</dim>
				</port>
				<port id="1" precision="FP32" />
				<port id="2" precision="FP32" />
				<port id="3" precision="FP32" />
				<port id="4" precision="FP32" />
			</input>
			<output>
				<port id="5" precision="FP32">
					<dim>1</dim>
					<dim>192</dim>
					<dim>28</dim>
					<dim>28</dim>
				</port>
			</output>
		</layer>
		<layer id="318" name="onnx::Conv_1697" type="Const" version="opset1">
			<data element_type="i8" shape="64, 192, 1, 1" offset="405108" size="12288" />
			<output>
				<port id="0" precision="I8">
					<dim>64</dim>
					<dim>192</dim>
					<dim>1</dim>
					<dim>1</dim>
				</port>
			</output>
		</layer>
		<layer id="319" name="Convert_494845" type="Convert" version="opset1">
			<data destination_type="f32" />
			<input>
				<port id="0" precision="I8">
					<dim>64</dim>
					<dim>192</dim>
					<dim>1</dim>
					<dim>1</dim>
				</port>
			</input>
			<output>
				<port id="1" precision="FP32">
					<dim>64</dim>
					<dim>192</dim>
					<dim>1</dim>
					<dim>1</dim>
				</port>
			</output>
		</layer>
		<layer id="320" name="Constant_494743" type="Const" version="opset1">
			<data element_type="f32" shape="64, 1, 1, 1" offset="417396" size="256" />
			<output>
				<port id="0" precision="FP32">
					<dim>64</dim>
					<dim>1</dim>
					<dim>1</dim>
					<dim>1</dim>
				</port>
			</output>
		</layer>
		<layer id="321" name="/backbone/blocks/blocks.2/blocks.2.0/conv_pwl/Conv/WithoutBiases/fq_weights_1" type="Multiply" version="opset1">
			<data auto_broadcast="numpy" />
			<input>
				<port id="0" precision="FP32">
					<dim>64</dim>
					<dim>192</dim>
					<dim>1</dim>
					<dim>1</dim>
				</port>
				<port id="1" precision="FP32">
					<dim>64</dim>
					<dim>1</dim>
					<dim>1</dim>
					<dim>1</dim>
				</port>
			</input>
			<output>
				<port id="2" precision="FP32">
					<dim>64</dim>
					<dim>192</dim>
					<dim>1</dim>
					<dim>1</dim>
				</port>
			</output>
		</layer>
		<layer id="322" name="/backbone/blocks/blocks.2/blocks.2.0/conv_pwl/Conv/WithoutBiases" type="Convolution" version="opset1">
			<data strides="1, 1" dilations="1, 1" pads_begin="0, 0" pads_end="0, 0" auto_pad="explicit" />
			<input>
				<port id="0" precision="FP32">
					<dim>1</dim>
					<dim>192</dim>
					<dim>28</dim>
					<dim>28</dim>
				</port>
				<port id="1" precision="FP32">
					<dim>64</dim>
					<dim>192</dim>
					<dim>1</dim>
					<dim>1</dim>
				</port>
			</input>
			<output>
				<port id="2" precision="FP32">
					<dim>1</dim>
					<dim>64</dim>
					<dim>28</dim>
					<dim>28</dim>
				</port>
			</output>
		</layer>
		<layer id="323" name="Reshape_1153" type="Const" version="opset1">
			<data element_type="f32" shape="1, 64, 1, 1" offset="417652" size="256" />
			<output>
				<port id="0" precision="FP32">
					<dim>1</dim>
					<dim>64</dim>
					<dim>1</dim>
					<dim>1</dim>
				</port>
			</output>
		</layer>
		<layer id="324" name="/backbone/blocks/blocks.2/blocks.2.0/conv_pwl/Conv" type="Add" version="opset1">
			<data auto_broadcast="numpy" />
			<input>
				<port id="0" precision="FP32">
					<dim>1</dim>
					<dim>64</dim>
					<dim>28</dim>
					<dim>28</dim>
				</port>
				<port id="1" precision="FP32">
					<dim>1</dim>
					<dim>64</dim>
					<dim>1</dim>
					<dim>1</dim>
				</port>
			</input>
			<output>
				<port id="2" precision="FP32" names="/backbone/blocks/blocks.2/blocks.2.0/conv_pwl/Conv_output_0">
					<dim>1</dim>
					<dim>64</dim>
					<dim>28</dim>
					<dim>28</dim>
				</port>
			</output>
		</layer>
		<layer id="325" name="Constant_80460" type="Const" version="opset1">
			<data element_type="f32" shape="" offset="417908" size="4" />
			<output>
				<port id="0" precision="FP32" />
			</output>
		</layer>
		<layer id="326" name="Constant_80461" type="Const" version="opset1">
			<data element_type="f32" shape="" offset="417912" size="4" />
			<output>
				<port id="0" precision="FP32" />
			</output>
		</layer>
		<layer id="327" name="Constant_80462" type="Const" version="opset1">
			<data element_type="f32" shape="" offset="417908" size="4" />
			<output>
				<port id="0" precision="FP32" />
			</output>
		</layer>
		<layer id="328" name="Constant_80463" type="Const" version="opset1">
			<data element_type="f32" shape="" offset="417912" size="4" />
			<output>
				<port id="0" precision="FP32" />
			</output>
		</layer>
		<layer id="329" name="/backbone/blocks/blocks.2/blocks.2.0/conv_pwl/Conv/fq_output_0" type="FakeQuantize" version="opset1">
			<data levels="256" auto_broadcast="numpy" />
			<input>
				<port id="0" precision="FP32">
					<dim>1</dim>
					<dim>64</dim>
					<dim>28</dim>
					<dim>28</dim>
				</port>
				<port id="1" precision="FP32" />
				<port id="2" precision="FP32" />
				<port id="3" precision="FP32" />
				<port id="4" precision="FP32" />
			</input>
			<output>
				<port id="5" precision="FP32">
					<dim>1</dim>
					<dim>64</dim>
					<dim>28</dim>
					<dim>28</dim>
				</port>
			</output>
		</layer>
		<layer id="330" name="onnx::Conv_1700" type="Const" version="opset1">
			<data element_type="i8" shape="256, 64, 3, 3" offset="417916" size="147456" />
			<output>
				<port id="0" precision="I8">
					<dim>256</dim>
					<dim>64</dim>
					<dim>3</dim>
					<dim>3</dim>
				</port>
			</output>
		</layer>
		<layer id="331" name="Convert_494999" type="Convert" version="opset1">
			<data destination_type="f32" />
			<input>
				<port id="0" precision="I8">
					<dim>256</dim>
					<dim>64</dim>
					<dim>3</dim>
					<dim>3</dim>
				</port>
			</input>
			<output>
				<port id="1" precision="FP32">
					<dim>256</dim>
					<dim>64</dim>
					<dim>3</dim>
					<dim>3</dim>
				</port>
			</output>
		</layer>
		<layer id="332" name="Constant_494897" type="Const" version="opset1">
			<data element_type="f32" shape="256, 1, 1, 1" offset="565372" size="1024" />
			<output>
				<port id="0" precision="FP32">
					<dim>256</dim>
					<dim>1</dim>
					<dim>1</dim>
					<dim>1</dim>
				</port>
			</output>
		</layer>
		<layer id="333" name="/backbone/blocks/blocks.2/blocks.2.1/conv_exp/Conv/WithoutBiases/fq_weights_1" type="Multiply" version="opset1">
			<data auto_broadcast="numpy" />
			<input>
				<port id="0" precision="FP32">
					<dim>256</dim>
					<dim>64</dim>
					<dim>3</dim>
					<dim>3</dim>
				</port>
				<port id="1" precision="FP32">
					<dim>256</dim>
					<dim>1</dim>
					<dim>1</dim>
					<dim>1</dim>
				</port>
			</input>
			<output>
				<port id="2" precision="FP32">
					<dim>256</dim>
					<dim>64</dim>
					<dim>3</dim>
					<dim>3</dim>
				</port>
			</output>
		</layer>
		<layer id="334" name="/backbone/blocks/blocks.2/blocks.2.1/conv_exp/Conv/WithoutBiases" type="Convolution" version="opset1">
			<data strides="1, 1" dilations="1, 1" pads_begin="1, 1" pads_end="1, 1" auto_pad="explicit" />
			<input>
				<port id="0" precision="FP32">
					<dim>1</dim>
					<dim>64</dim>
					<dim>28</dim>
					<dim>28</dim>
				</port>
				<port id="1" precision="FP32">
					<dim>256</dim>
					<dim>64</dim>
					<dim>3</dim>
					<dim>3</dim>
				</port>
			</input>
			<output>
				<port id="2" precision="FP32">
					<dim>1</dim>
					<dim>256</dim>
					<dim>28</dim>
					<dim>28</dim>
				</port>
			</output>
		</layer>
		<layer id="335" name="Reshape_1168" type="Const" version="opset1">
			<data element_type="f32" shape="1, 256, 1, 1" offset="566396" size="1024" />
			<output>
				<port id="0" precision="FP32">
					<dim>1</dim>
					<dim>256</dim>
					<dim>1</dim>
					<dim>1</dim>
				</port>
			</output>
		</layer>
		<layer id="336" name="/backbone/blocks/blocks.2/blocks.2.1/conv_exp/Conv" type="Add" version="opset1">
			<data auto_broadcast="numpy" />
			<input>
				<port id="0" precision="FP32">
					<dim>1</dim>
					<dim>256</dim>
					<dim>28</dim>
					<dim>28</dim>
				</port>
				<port id="1" precision="FP32">
					<dim>1</dim>
					<dim>256</dim>
					<dim>1</dim>
					<dim>1</dim>
				</port>
			</input>
			<output>
				<port id="2" precision="FP32" names="/backbone/blocks/blocks.2/blocks.2.1/conv_exp/Conv_output_0">
					<dim>1</dim>
					<dim>256</dim>
					<dim>28</dim>
					<dim>28</dim>
				</port>
			</output>
		</layer>
		<layer id="337" name="/backbone/blocks/blocks.2/blocks.2.1/bn1/act/Mul" type="Swish" version="opset4">
			<input>
				<port id="0" precision="FP32">
					<dim>1</dim>
					<dim>256</dim>
					<dim>28</dim>
					<dim>28</dim>
				</port>
			</input>
			<output>
				<port id="1" precision="FP32" names="/backbone/blocks/blocks.2/blocks.2.1/bn1/act/Mul_output_0">
					<dim>1</dim>
					<dim>256</dim>
					<dim>28</dim>
					<dim>28</dim>
				</port>
			</output>
		</layer>
		<layer id="338" name="Constant_80470" type="Const" version="opset1">
			<data element_type="f32" shape="" offset="567420" size="4" />
			<output>
				<port id="0" precision="FP32" />
			</output>
		</layer>
		<layer id="339" name="Constant_80471" type="Const" version="opset1">
			<data element_type="f32" shape="" offset="567424" size="4" />
			<output>
				<port id="0" precision="FP32" />
			</output>
		</layer>
		<layer id="340" name="Constant_80472" type="Const" version="opset1">
			<data element_type="f32" shape="" offset="567420" size="4" />
			<output>
				<port id="0" precision="FP32" />
			</output>
		</layer>
		<layer id="341" name="Constant_80473" type="Const" version="opset1">
			<data element_type="f32" shape="" offset="567424" size="4" />
			<output>
				<port id="0" precision="FP32" />
			</output>
		</layer>
		<layer id="342" name="/backbone/blocks/blocks.2/blocks.2.1/bn1/act/Mul/fq_output_0" type="FakeQuantize" version="opset1">
			<data levels="256" auto_broadcast="numpy" />
			<input>
				<port id="0" precision="FP32">
					<dim>1</dim>
					<dim>256</dim>
					<dim>28</dim>
					<dim>28</dim>
				</port>
				<port id="1" precision="FP32" />
				<port id="2" precision="FP32" />
				<port id="3" precision="FP32" />
				<port id="4" precision="FP32" />
			</input>
			<output>
				<port id="5" precision="FP32">
					<dim>1</dim>
					<dim>256</dim>
					<dim>28</dim>
					<dim>28</dim>
				</port>
			</output>
		</layer>
		<layer id="343" name="onnx::Conv_1703" type="Const" version="opset1">
			<data element_type="i8" shape="64, 256, 1, 1" offset="567428" size="16384" />
			<output>
				<port id="0" precision="I8">
					<dim>64</dim>
					<dim>256</dim>
					<dim>1</dim>
					<dim>1</dim>
				</port>
			</output>
		</layer>
		<layer id="344" name="Convert_495153" type="Convert" version="opset1">
			<data destination_type="f32" />
			<input>
				<port id="0" precision="I8">
					<dim>64</dim>
					<dim>256</dim>
					<dim>1</dim>
					<dim>1</dim>
				</port>
			</input>
			<output>
				<port id="1" precision="FP32">
					<dim>64</dim>
					<dim>256</dim>
					<dim>1</dim>
					<dim>1</dim>
				</port>
			</output>
		</layer>
		<layer id="345" name="Constant_495051" type="Const" version="opset1">
			<data element_type="f32" shape="64, 1, 1, 1" offset="583812" size="256" />
			<output>
				<port id="0" precision="FP32">
					<dim>64</dim>
					<dim>1</dim>
					<dim>1</dim>
					<dim>1</dim>
				</port>
			</output>
		</layer>
		<layer id="346" name="/backbone/blocks/blocks.2/blocks.2.1/conv_pwl/Conv/WithoutBiases/fq_weights_1" type="Multiply" version="opset1">
			<data auto_broadcast="numpy" />
			<input>
				<port id="0" precision="FP32">
					<dim>64</dim>
					<dim>256</dim>
					<dim>1</dim>
					<dim>1</dim>
				</port>
				<port id="1" precision="FP32">
					<dim>64</dim>
					<dim>1</dim>
					<dim>1</dim>
					<dim>1</dim>
				</port>
			</input>
			<output>
				<port id="2" precision="FP32">
					<dim>64</dim>
					<dim>256</dim>
					<dim>1</dim>
					<dim>1</dim>
				</port>
			</output>
		</layer>
		<layer id="347" name="/backbone/blocks/blocks.2/blocks.2.1/conv_pwl/Conv/WithoutBiases" type="Convolution" version="opset1">
			<data strides="1, 1" dilations="1, 1" pads_begin="0, 0" pads_end="0, 0" auto_pad="explicit" />
			<input>
				<port id="0" precision="FP32">
					<dim>1</dim>
					<dim>256</dim>
					<dim>28</dim>
					<dim>28</dim>
				</port>
				<port id="1" precision="FP32">
					<dim>64</dim>
					<dim>256</dim>
					<dim>1</dim>
					<dim>1</dim>
				</port>
			</input>
			<output>
				<port id="2" precision="FP32">
					<dim>1</dim>
					<dim>64</dim>
					<dim>28</dim>
					<dim>28</dim>
				</port>
			</output>
		</layer>
		<layer id="348" name="Reshape_1185" type="Const" version="opset1">
			<data element_type="f32" shape="1, 64, 1, 1" offset="584068" size="256" />
			<output>
				<port id="0" precision="FP32">
					<dim>1</dim>
					<dim>64</dim>
					<dim>1</dim>
					<dim>1</dim>
				</port>
			</output>
		</layer>
		<layer id="349" name="/backbone/blocks/blocks.2/blocks.2.1/conv_pwl/Conv" type="Add" version="opset1">
			<data auto_broadcast="numpy" />
			<input>
				<port id="0" precision="FP32">
					<dim>1</dim>
					<dim>64</dim>
					<dim>28</dim>
					<dim>28</dim>
				</port>
				<port id="1" precision="FP32">
					<dim>1</dim>
					<dim>64</dim>
					<dim>1</dim>
					<dim>1</dim>
				</port>
			</input>
			<output>
				<port id="2" precision="FP32" names="/backbone/blocks/blocks.2/blocks.2.1/conv_pwl/Conv_output_0">
					<dim>1</dim>
					<dim>64</dim>
					<dim>28</dim>
					<dim>28</dim>
				</port>
			</output>
		</layer>
		<layer id="350" name="Constant_80480" type="Const" version="opset1">
			<data element_type="f32" shape="" offset="584324" size="4" />
			<output>
				<port id="0" precision="FP32" />
			</output>
		</layer>
		<layer id="351" name="Constant_80481" type="Const" version="opset1">
			<data element_type="f32" shape="" offset="584328" size="4" />
			<output>
				<port id="0" precision="FP32" />
			</output>
		</layer>
		<layer id="352" name="Constant_80482" type="Const" version="opset1">
			<data element_type="f32" shape="" offset="584324" size="4" />
			<output>
				<port id="0" precision="FP32" />
			</output>
		</layer>
		<layer id="353" name="Constant_80483" type="Const" version="opset1">
			<data element_type="f32" shape="" offset="584328" size="4" />
			<output>
				<port id="0" precision="FP32" />
			</output>
		</layer>
		<layer id="354" name="/backbone/blocks/blocks.2/blocks.2.1/conv_pwl/Conv/fq_output_0" type="FakeQuantize" version="opset1">
			<data levels="256" auto_broadcast="numpy" />
			<input>
				<port id="0" precision="FP32">
					<dim>1</dim>
					<dim>64</dim>
					<dim>28</dim>
					<dim>28</dim>
				</port>
				<port id="1" precision="FP32" />
				<port id="2" precision="FP32" />
				<port id="3" precision="FP32" />
				<port id="4" precision="FP32" />
			</input>
			<output>
				<port id="5" precision="FP32">
					<dim>1</dim>
					<dim>64</dim>
					<dim>28</dim>
					<dim>28</dim>
				</port>
			</output>
		</layer>
		<layer id="355" name="/backbone/blocks/blocks.2/blocks.2.1/Add" type="Add" version="opset1">
			<data auto_broadcast="numpy" />
			<input>
				<port id="0" precision="FP32">
					<dim>1</dim>
					<dim>64</dim>
					<dim>28</dim>
					<dim>28</dim>
				</port>
				<port id="1" precision="FP32">
					<dim>1</dim>
					<dim>64</dim>
					<dim>28</dim>
					<dim>28</dim>
				</port>
			</input>
			<output>
				<port id="2" precision="FP32" names="/backbone/blocks/blocks.2/blocks.2.1/Add_output_0">
					<dim>1</dim>
					<dim>64</dim>
					<dim>28</dim>
					<dim>28</dim>
				</port>
			</output>
		</layer>
		<layer id="356" name="Constant_80485" type="Const" version="opset1">
			<data element_type="f32" shape="" offset="584332" size="4" />
			<output>
				<port id="0" precision="FP32" />
			</output>
		</layer>
		<layer id="357" name="Constant_80486" type="Const" version="opset1">
			<data element_type="f32" shape="" offset="584336" size="4" />
			<output>
				<port id="0" precision="FP32" />
			</output>
		</layer>
		<layer id="358" name="Constant_80487" type="Const" version="opset1">
			<data element_type="f32" shape="" offset="584332" size="4" />
			<output>
				<port id="0" precision="FP32" />
			</output>
		</layer>
		<layer id="359" name="Constant_80488" type="Const" version="opset1">
			<data element_type="f32" shape="" offset="584336" size="4" />
			<output>
				<port id="0" precision="FP32" />
			</output>
		</layer>
		<layer id="360" name="/backbone/blocks/blocks.2/blocks.2.1/Add/fq_output_0" type="FakeQuantize" version="opset1">
			<data levels="256" auto_broadcast="numpy" />
			<input>
				<port id="0" precision="FP32">
					<dim>1</dim>
					<dim>64</dim>
					<dim>28</dim>
					<dim>28</dim>
				</port>
				<port id="1" precision="FP32" />
				<port id="2" precision="FP32" />
				<port id="3" precision="FP32" />
				<port id="4" precision="FP32" />
			</input>
			<output>
				<port id="5" precision="FP32">
					<dim>1</dim>
					<dim>64</dim>
					<dim>28</dim>
					<dim>28</dim>
				</port>
			</output>
		</layer>
		<layer id="361" name="onnx::Conv_1706" type="Const" version="opset1">
			<data element_type="i8" shape="256, 64, 3, 3" offset="584340" size="147456" />
			<output>
				<port id="0" precision="I8">
					<dim>256</dim>
					<dim>64</dim>
					<dim>3</dim>
					<dim>3</dim>
				</port>
			</output>
		</layer>
		<layer id="362" name="Convert_495307" type="Convert" version="opset1">
			<data destination_type="f32" />
			<input>
				<port id="0" precision="I8">
					<dim>256</dim>
					<dim>64</dim>
					<dim>3</dim>
					<dim>3</dim>
				</port>
			</input>
			<output>
				<port id="1" precision="FP32">
					<dim>256</dim>
					<dim>64</dim>
					<dim>3</dim>
					<dim>3</dim>
				</port>
			</output>
		</layer>
		<layer id="363" name="Constant_495205" type="Const" version="opset1">
			<data element_type="f32" shape="256, 1, 1, 1" offset="731796" size="1024" />
			<output>
				<port id="0" precision="FP32">
					<dim>256</dim>
					<dim>1</dim>
					<dim>1</dim>
					<dim>1</dim>
				</port>
			</output>
		</layer>
		<layer id="364" name="/backbone/blocks/blocks.2/blocks.2.2/conv_exp/Conv/WithoutBiases/fq_weights_1" type="Multiply" version="opset1">
			<data auto_broadcast="numpy" />
			<input>
				<port id="0" precision="FP32">
					<dim>256</dim>
					<dim>64</dim>
					<dim>3</dim>
					<dim>3</dim>
				</port>
				<port id="1" precision="FP32">
					<dim>256</dim>
					<dim>1</dim>
					<dim>1</dim>
					<dim>1</dim>
				</port>
			</input>
			<output>
				<port id="2" precision="FP32">
					<dim>256</dim>
					<dim>64</dim>
					<dim>3</dim>
					<dim>3</dim>
				</port>
			</output>
		</layer>
		<layer id="365" name="/backbone/blocks/blocks.2/blocks.2.2/conv_exp/Conv/WithoutBiases" type="Convolution" version="opset1">
			<data strides="1, 1" dilations="1, 1" pads_begin="1, 1" pads_end="1, 1" auto_pad="explicit" />
			<input>
				<port id="0" precision="FP32">
					<dim>1</dim>
					<dim>64</dim>
					<dim>28</dim>
					<dim>28</dim>
				</port>
				<port id="1" precision="FP32">
					<dim>256</dim>
					<dim>64</dim>
					<dim>3</dim>
					<dim>3</dim>
				</port>
			</input>
			<output>
				<port id="2" precision="FP32">
					<dim>1</dim>
					<dim>256</dim>
					<dim>28</dim>
					<dim>28</dim>
				</port>
			</output>
		</layer>
		<layer id="366" name="Reshape_1201" type="Const" version="opset1">
			<data element_type="f32" shape="1, 256, 1, 1" offset="732820" size="1024" />
			<output>
				<port id="0" precision="FP32">
					<dim>1</dim>
					<dim>256</dim>
					<dim>1</dim>
					<dim>1</dim>
				</port>
			</output>
		</layer>
		<layer id="367" name="/backbone/blocks/blocks.2/blocks.2.2/conv_exp/Conv" type="Add" version="opset1">
			<data auto_broadcast="numpy" />
			<input>
				<port id="0" precision="FP32">
					<dim>1</dim>
					<dim>256</dim>
					<dim>28</dim>
					<dim>28</dim>
				</port>
				<port id="1" precision="FP32">
					<dim>1</dim>
					<dim>256</dim>
					<dim>1</dim>
					<dim>1</dim>
				</port>
			</input>
			<output>
				<port id="2" precision="FP32" names="/backbone/blocks/blocks.2/blocks.2.2/conv_exp/Conv_output_0">
					<dim>1</dim>
					<dim>256</dim>
					<dim>28</dim>
					<dim>28</dim>
				</port>
			</output>
		</layer>
		<layer id="368" name="/backbone/blocks/blocks.2/blocks.2.2/bn1/act/Mul" type="Swish" version="opset4">
			<input>
				<port id="0" precision="FP32">
					<dim>1</dim>
					<dim>256</dim>
					<dim>28</dim>
					<dim>28</dim>
				</port>
			</input>
			<output>
				<port id="1" precision="FP32" names="/backbone/blocks/blocks.2/blocks.2.2/bn1/act/Mul_output_0">
					<dim>1</dim>
					<dim>256</dim>
					<dim>28</dim>
					<dim>28</dim>
				</port>
			</output>
		</layer>
		<layer id="369" name="Constant_80495" type="Const" version="opset1">
			<data element_type="f32" shape="" offset="733844" size="4" />
			<output>
				<port id="0" precision="FP32" />
			</output>
		</layer>
		<layer id="370" name="Constant_80496" type="Const" version="opset1">
			<data element_type="f32" shape="" offset="733848" size="4" />
			<output>
				<port id="0" precision="FP32" />
			</output>
		</layer>
		<layer id="371" name="Constant_80497" type="Const" version="opset1">
			<data element_type="f32" shape="" offset="733844" size="4" />
			<output>
				<port id="0" precision="FP32" />
			</output>
		</layer>
		<layer id="372" name="Constant_80498" type="Const" version="opset1">
			<data element_type="f32" shape="" offset="733848" size="4" />
			<output>
				<port id="0" precision="FP32" />
			</output>
		</layer>
		<layer id="373" name="/backbone/blocks/blocks.2/blocks.2.2/bn1/act/Mul/fq_output_0" type="FakeQuantize" version="opset1">
			<data levels="256" auto_broadcast="numpy" />
			<input>
				<port id="0" precision="FP32">
					<dim>1</dim>
					<dim>256</dim>
					<dim>28</dim>
					<dim>28</dim>
				</port>
				<port id="1" precision="FP32" />
				<port id="2" precision="FP32" />
				<port id="3" precision="FP32" />
				<port id="4" precision="FP32" />
			</input>
			<output>
				<port id="5" precision="FP32">
					<dim>1</dim>
					<dim>256</dim>
					<dim>28</dim>
					<dim>28</dim>
				</port>
			</output>
		</layer>
		<layer id="374" name="onnx::Conv_1709" type="Const" version="opset1">
			<data element_type="i8" shape="64, 256, 1, 1" offset="733852" size="16384" />
			<output>
				<port id="0" precision="I8">
					<dim>64</dim>
					<dim>256</dim>
					<dim>1</dim>
					<dim>1</dim>
				</port>
			</output>
		</layer>
		<layer id="375" name="Convert_495461" type="Convert" version="opset1">
			<data destination_type="f32" />
			<input>
				<port id="0" precision="I8">
					<dim>64</dim>
					<dim>256</dim>
					<dim>1</dim>
					<dim>1</dim>
				</port>
			</input>
			<output>
				<port id="1" precision="FP32">
					<dim>64</dim>
					<dim>256</dim>
					<dim>1</dim>
					<dim>1</dim>
				</port>
			</output>
		</layer>
		<layer id="376" name="Constant_495359" type="Const" version="opset1">
			<data element_type="f32" shape="64, 1, 1, 1" offset="750236" size="256" />
			<output>
				<port id="0" precision="FP32">
					<dim>64</dim>
					<dim>1</dim>
					<dim>1</dim>
					<dim>1</dim>
				</port>
			</output>
		</layer>
		<layer id="377" name="/backbone/blocks/blocks.2/blocks.2.2/conv_pwl/Conv/WithoutBiases/fq_weights_1" type="Multiply" version="opset1">
			<data auto_broadcast="numpy" />
			<input>
				<port id="0" precision="FP32">
					<dim>64</dim>
					<dim>256</dim>
					<dim>1</dim>
					<dim>1</dim>
				</port>
				<port id="1" precision="FP32">
					<dim>64</dim>
					<dim>1</dim>
					<dim>1</dim>
					<dim>1</dim>
				</port>
			</input>
			<output>
				<port id="2" precision="FP32">
					<dim>64</dim>
					<dim>256</dim>
					<dim>1</dim>
					<dim>1</dim>
				</port>
			</output>
		</layer>
		<layer id="378" name="/backbone/blocks/blocks.2/blocks.2.2/conv_pwl/Conv/WithoutBiases" type="Convolution" version="opset1">
			<data strides="1, 1" dilations="1, 1" pads_begin="0, 0" pads_end="0, 0" auto_pad="explicit" />
			<input>
				<port id="0" precision="FP32">
					<dim>1</dim>
					<dim>256</dim>
					<dim>28</dim>
					<dim>28</dim>
				</port>
				<port id="1" precision="FP32">
					<dim>64</dim>
					<dim>256</dim>
					<dim>1</dim>
					<dim>1</dim>
				</port>
			</input>
			<output>
				<port id="2" precision="FP32">
					<dim>1</dim>
					<dim>64</dim>
					<dim>28</dim>
					<dim>28</dim>
				</port>
			</output>
		</layer>
		<layer id="379" name="Reshape_1218" type="Const" version="opset1">
			<data element_type="f32" shape="1, 64, 1, 1" offset="750492" size="256" />
			<output>
				<port id="0" precision="FP32">
					<dim>1</dim>
					<dim>64</dim>
					<dim>1</dim>
					<dim>1</dim>
				</port>
			</output>
		</layer>
		<layer id="380" name="/backbone/blocks/blocks.2/blocks.2.2/conv_pwl/Conv" type="Add" version="opset1">
			<data auto_broadcast="numpy" />
			<input>
				<port id="0" precision="FP32">
					<dim>1</dim>
					<dim>64</dim>
					<dim>28</dim>
					<dim>28</dim>
				</port>
				<port id="1" precision="FP32">
					<dim>1</dim>
					<dim>64</dim>
					<dim>1</dim>
					<dim>1</dim>
				</port>
			</input>
			<output>
				<port id="2" precision="FP32" names="/backbone/blocks/blocks.2/blocks.2.2/conv_pwl/Conv_output_0">
					<dim>1</dim>
					<dim>64</dim>
					<dim>28</dim>
					<dim>28</dim>
				</port>
			</output>
		</layer>
		<layer id="381" name="Constant_80505" type="Const" version="opset1">
			<data element_type="f32" shape="" offset="750748" size="4" />
			<output>
				<port id="0" precision="FP32" />
			</output>
		</layer>
		<layer id="382" name="Constant_80506" type="Const" version="opset1">
			<data element_type="f32" shape="" offset="750752" size="4" />
			<output>
				<port id="0" precision="FP32" />
			</output>
		</layer>
		<layer id="383" name="Constant_80507" type="Const" version="opset1">
			<data element_type="f32" shape="" offset="750748" size="4" />
			<output>
				<port id="0" precision="FP32" />
			</output>
		</layer>
		<layer id="384" name="Constant_80508" type="Const" version="opset1">
			<data element_type="f32" shape="" offset="750752" size="4" />
			<output>
				<port id="0" precision="FP32" />
			</output>
		</layer>
		<layer id="385" name="/backbone/blocks/blocks.2/blocks.2.2/conv_pwl/Conv/fq_output_0" type="FakeQuantize" version="opset1">
			<data levels="256" auto_broadcast="numpy" />
			<input>
				<port id="0" precision="FP32">
					<dim>1</dim>
					<dim>64</dim>
					<dim>28</dim>
					<dim>28</dim>
				</port>
				<port id="1" precision="FP32" />
				<port id="2" precision="FP32" />
				<port id="3" precision="FP32" />
				<port id="4" precision="FP32" />
			</input>
			<output>
				<port id="5" precision="FP32">
					<dim>1</dim>
					<dim>64</dim>
					<dim>28</dim>
					<dim>28</dim>
				</port>
			</output>
		</layer>
		<layer id="386" name="/backbone/blocks/blocks.2/blocks.2.2/Add" type="Add" version="opset1">
			<data auto_broadcast="numpy" />
			<input>
				<port id="0" precision="FP32">
					<dim>1</dim>
					<dim>64</dim>
					<dim>28</dim>
					<dim>28</dim>
				</port>
				<port id="1" precision="FP32">
					<dim>1</dim>
					<dim>64</dim>
					<dim>28</dim>
					<dim>28</dim>
				</port>
			</input>
			<output>
				<port id="2" precision="FP32" names="/backbone/blocks/blocks.2/blocks.2.2/Add_output_0">
					<dim>1</dim>
					<dim>64</dim>
					<dim>28</dim>
					<dim>28</dim>
				</port>
			</output>
		</layer>
		<layer id="387" name="Constant_80510" type="Const" version="opset1">
			<data element_type="f32" shape="" offset="750756" size="4" />
			<output>
				<port id="0" precision="FP32" />
			</output>
		</layer>
		<layer id="388" name="Constant_80511" type="Const" version="opset1">
			<data element_type="f32" shape="" offset="750760" size="4" />
			<output>
				<port id="0" precision="FP32" />
			</output>
		</layer>
		<layer id="389" name="Constant_80512" type="Const" version="opset1">
			<data element_type="f32" shape="" offset="750756" size="4" />
			<output>
				<port id="0" precision="FP32" />
			</output>
		</layer>
		<layer id="390" name="Constant_80513" type="Const" version="opset1">
			<data element_type="f32" shape="" offset="750760" size="4" />
			<output>
				<port id="0" precision="FP32" />
			</output>
		</layer>
		<layer id="391" name="/backbone/blocks/blocks.2/blocks.2.2/Add/fq_output_0" type="FakeQuantize" version="opset1">
			<data levels="256" auto_broadcast="numpy" />
			<input>
				<port id="0" precision="FP32">
					<dim>1</dim>
					<dim>64</dim>
					<dim>28</dim>
					<dim>28</dim>
				</port>
				<port id="1" precision="FP32" />
				<port id="2" precision="FP32" />
				<port id="3" precision="FP32" />
				<port id="4" precision="FP32" />
			</input>
			<output>
				<port id="5" precision="FP32">
					<dim>1</dim>
					<dim>64</dim>
					<dim>28</dim>
					<dim>28</dim>
				</port>
			</output>
		</layer>
		<layer id="392" name="onnx::Conv_1712" type="Const" version="opset1">
			<data element_type="i8" shape="256, 64, 3, 3" offset="750764" size="147456" />
			<output>
				<port id="0" precision="I8">
					<dim>256</dim>
					<dim>64</dim>
					<dim>3</dim>
					<dim>3</dim>
				</port>
			</output>
		</layer>
		<layer id="393" name="Convert_495615" type="Convert" version="opset1">
			<data destination_type="f32" />
			<input>
				<port id="0" precision="I8">
					<dim>256</dim>
					<dim>64</dim>
					<dim>3</dim>
					<dim>3</dim>
				</port>
			</input>
			<output>
				<port id="1" precision="FP32">
					<dim>256</dim>
					<dim>64</dim>
					<dim>3</dim>
					<dim>3</dim>
				</port>
			</output>
		</layer>
		<layer id="394" name="Constant_495513" type="Const" version="opset1">
			<data element_type="f32" shape="256, 1, 1, 1" offset="898220" size="1024" />
			<output>
				<port id="0" precision="FP32">
					<dim>256</dim>
					<dim>1</dim>
					<dim>1</dim>
					<dim>1</dim>
				</port>
			</output>
		</layer>
		<layer id="395" name="/backbone/blocks/blocks.2/blocks.2.3/conv_exp/Conv/WithoutBiases/fq_weights_1" type="Multiply" version="opset1">
			<data auto_broadcast="numpy" />
			<input>
				<port id="0" precision="FP32">
					<dim>256</dim>
					<dim>64</dim>
					<dim>3</dim>
					<dim>3</dim>
				</port>
				<port id="1" precision="FP32">
					<dim>256</dim>
					<dim>1</dim>
					<dim>1</dim>
					<dim>1</dim>
				</port>
			</input>
			<output>
				<port id="2" precision="FP32">
					<dim>256</dim>
					<dim>64</dim>
					<dim>3</dim>
					<dim>3</dim>
				</port>
			</output>
		</layer>
		<layer id="396" name="/backbone/blocks/blocks.2/blocks.2.3/conv_exp/Conv/WithoutBiases" type="Convolution" version="opset1">
…
		<edge from-layer="1739" from-port="0" to-layer="1741" to-port="3" />
		<edge from-layer="1740" from-port="0" to-layer="1741" to-port="4" />
		<edge from-layer="1741" from-port="5" to-layer="1746" to-port="0" />
		<edge from-layer="1742" from-port="0" to-layer="1743" to-port="0" />
		<edge from-layer="1743" from-port="1" to-layer="1745" to-port="0" />
		<edge from-layer="1744" from-port="0" to-layer="1745" to-port="1" />
		<edge from-layer="1745" from-port="2" to-layer="1746" to-port="1" />
		<edge from-layer="1746" from-port="2" to-layer="1748" to-port="0" />
		<edge from-layer="1747" from-port="0" to-layer="1748" to-port="1" />
		<edge from-layer="1748" from-port="2" to-layer="1749" to-port="0" />
		<edge from-layer="1749" from-port="1" to-layer="1754" to-port="0" />
		<edge from-layer="1750" from-port="0" to-layer="1754" to-port="1" />
		<edge from-layer="1751" from-port="0" to-layer="1754" to-port="2" />
		<edge from-layer="1752" from-port="0" to-layer="1754" to-port="3" />
		<edge from-layer="1753" from-port="0" to-layer="1754" to-port="4" />
		<edge from-layer="1754" from-port="5" to-layer="1756" to-port="0" />
		<edge from-layer="1754" from-port="5" to-layer="1767" to-port="0" />
		<edge from-layer="1755" from-port="0" to-layer="1756" to-port="1" />
		<edge from-layer="1756" from-port="2" to-layer="1758" to-port="0" />
		<edge from-layer="1757" from-port="0" to-layer="1758" to-port="1" />
		<edge from-layer="1758" from-port="2" to-layer="1760" to-port="0" />
		<edge from-layer="1759" from-port="0" to-layer="1760" to-port="1" />
		<edge from-layer="1760" from-port="2" to-layer="1761" to-port="0" />
		<edge from-layer="1761" from-port="1" to-layer="1763" to-port="0" />
		<edge from-layer="1762" from-port="0" to-layer="1763" to-port="1" />
		<edge from-layer="1763" from-port="2" to-layer="1765" to-port="0" />
		<edge from-layer="1764" from-port="0" to-layer="1765" to-port="1" />
		<edge from-layer="1765" from-port="2" to-layer="1766" to-port="0" />
		<edge from-layer="1766" from-port="1" to-layer="1767" to-port="1" />
		<edge from-layer="1767" from-port="2" to-layer="1772" to-port="0" />
		<edge from-layer="1768" from-port="0" to-layer="1772" to-port="1" />
		<edge from-layer="1769" from-port="0" to-layer="1772" to-port="2" />
		<edge from-layer="1770" from-port="0" to-layer="1772" to-port="3" />
		<edge from-layer="1771" from-port="0" to-layer="1772" to-port="4" />
		<edge from-layer="1772" from-port="5" to-layer="1777" to-port="0" />
		<edge from-layer="1773" from-port="0" to-layer="1774" to-port="0" />
		<edge from-layer="1774" from-port="1" to-layer="1776" to-port="0" />
		<edge from-layer="1775" from-port="0" to-layer="1776" to-port="1" />
		<edge from-layer="1776" from-port="2" to-layer="1777" to-port="1" />
		<edge from-layer="1777" from-port="2" to-layer="1779" to-port="0" />
		<edge from-layer="1778" from-port="0" to-layer="1779" to-port="1" />
		<edge from-layer="1779" from-port="2" to-layer="1784" to-port="0" />
		<edge from-layer="1780" from-port="0" to-layer="1784" to-port="1" />
		<edge from-layer="1781" from-port="0" to-layer="1784" to-port="2" />
		<edge from-layer="1782" from-port="0" to-layer="1784" to-port="3" />
		<edge from-layer="1783" from-port="0" to-layer="1784" to-port="4" />
		<edge from-layer="1784" from-port="5" to-layer="1785" to-port="0" />
		<edge from-layer="1785" from-port="2" to-layer="1790" to-port="0" />
		<edge from-layer="1786" from-port="0" to-layer="1790" to-port="1" />
		<edge from-layer="1787" from-port="0" to-layer="1790" to-port="2" />
		<edge from-layer="1788" from-port="0" to-layer="1790" to-port="3" />
		<edge from-layer="1789" from-port="0" to-layer="1790" to-port="4" />
		<edge from-layer="1790" from-port="5" to-layer="1795" to-port="0" />
		<edge from-layer="1790" from-port="5" to-layer="1847" to-port="1" />
		<edge from-layer="1791" from-port="0" to-layer="1792" to-port="0" />
		<edge from-layer="1792" from-port="1" to-layer="1794" to-port="0" />
		<edge from-layer="1793" from-port="0" to-layer="1794" to-port="1" />
		<edge from-layer="1794" from-port="2" to-layer="1795" to-port="1" />
		<edge from-layer="1795" from-port="2" to-layer="1797" to-port="0" />
		<edge from-layer="1796" from-port="0" to-layer="1797" to-port="1" />
		<edge from-layer="1797" from-port="2" to-layer="1798" to-port="0" />
		<edge from-layer="1798" from-port="1" to-layer="1803" to-port="0" />
		<edge from-layer="1799" from-port="0" to-layer="1803" to-port="1" />
		<edge from-layer="1800" from-port="0" to-layer="1803" to-port="2" />
		<edge from-layer="1801" from-port="0" to-layer="1803" to-port="3" />
		<edge from-layer="1802" from-port="0" to-layer="1803" to-port="4" />
		<edge from-layer="1803" from-port="5" to-layer="1808" to-port="0" />
		<edge from-layer="1804" from-port="0" to-layer="1805" to-port="0" />
		<edge from-layer="1805" from-port="1" to-layer="1807" to-port="0" />
		<edge from-layer="1806" from-port="0" to-layer="1807" to-port="1" />
		<edge from-layer="1807" from-port="2" to-layer="1808" to-port="1" />
		<edge from-layer="1808" from-port="2" to-layer="1810" to-port="0" />
		<edge from-layer="1809" from-port="0" to-layer="1810" to-port="1" />
		<edge from-layer="1810" from-port="2" to-layer="1811" to-port="0" />
		<edge from-layer="1811" from-port="1" to-layer="1816" to-port="0" />
		<edge from-layer="1812" from-port="0" to-layer="1816" to-port="1" />
		<edge from-layer="1813" from-port="0" to-layer="1816" to-port="2" />
		<edge from-layer="1814" from-port="0" to-layer="1816" to-port="3" />
		<edge from-layer="1815" from-port="0" to-layer="1816" to-port="4" />
		<edge from-layer="1816" from-port="5" to-layer="1818" to-port="0" />
		<edge from-layer="1816" from-port="5" to-layer="1829" to-port="0" />
		<edge from-layer="1817" from-port="0" to-layer="1818" to-port="1" />
		<edge from-layer="1818" from-port="2" to-layer="1820" to-port="0" />
		<edge from-layer="1819" from-port="0" to-layer="1820" to-port="1" />
		<edge from-layer="1820" from-port="2" to-layer="1822" to-port="0" />
		<edge from-layer="1821" from-port="0" to-layer="1822" to-port="1" />
		<edge from-layer="1822" from-port="2" to-layer="1823" to-port="0" />
		<edge from-layer="1823" from-port="1" to-layer="1825" to-port="0" />
		<edge from-layer="1824" from-port="0" to-layer="1825" to-port="1" />
		<edge from-layer="1825" from-port="2" to-layer="1827" to-port="0" />
		<edge from-layer="1826" from-port="0" to-layer="1827" to-port="1" />
		<edge from-layer="1827" from-port="2" to-layer="1828" to-port="0" />
		<edge from-layer="1828" from-port="1" to-layer="1829" to-port="1" />
		<edge from-layer="1829" from-port="2" to-layer="1834" to-port="0" />
		<edge from-layer="1830" from-port="0" to-layer="1834" to-port="1" />
		<edge from-layer="1831" from-port="0" to-layer="1834" to-port="2" />
		<edge from-layer="1832" from-port="0" to-layer="1834" to-port="3" />
		<edge from-layer="1833" from-port="0" to-layer="1834" to-port="4" />
		<edge from-layer="1834" from-port="5" to-layer="1839" to-port="0" />
		<edge from-layer="1835" from-port="0" to-layer="1836" to-port="0" />
		<edge from-layer="1836" from-port="1" to-layer="1838" to-port="0" />
		<edge from-layer="1837" from-port="0" to-layer="1838" to-port="1" />
		<edge from-layer="1838" from-port="2" to-layer="1839" to-port="1" />
		<edge from-layer="1839" from-port="2" to-layer="1841" to-port="0" />
		<edge from-layer="1840" from-port="0" to-layer="1841" to-port="1" />
		<edge from-layer="1841" from-port="2" to-layer="1846" to-port="0" />
		<edge from-layer="1842" from-port="0" to-layer="1846" to-port="1" />
		<edge from-layer="1843" from-port="0" to-layer="1846" to-port="2" />
		<edge from-layer="1844" from-port="0" to-layer="1846" to-port="3" />
		<edge from-layer="1845" from-port="0" to-layer="1846" to-port="4" />
		<edge from-layer="1846" from-port="5" to-layer="1847" to-port="0" />
		<edge from-layer="1847" from-port="2" to-layer="1852" to-port="0" />
		<edge from-layer="1848" from-port="0" to-layer="1852" to-port="1" />
		<edge from-layer="1849" from-port="0" to-layer="1852" to-port="2" />
		<edge from-layer="1850" from-port="0" to-layer="1852" to-port="3" />
		<edge from-layer="1851" from-port="0" to-layer="1852" to-port="4" />
		<edge from-layer="1852" from-port="5" to-layer="1857" to-port="0" />
		<edge from-layer="1852" from-port="5" to-layer="1909" to-port="1" />
		<edge from-layer="1853" from-port="0" to-layer="1854" to-port="0" />
		<edge from-layer="1854" from-port="1" to-layer="1856" to-port="0" />
		<edge from-layer="1855" from-port="0" to-layer="1856" to-port="1" />
		<edge from-layer="1856" from-port="2" to-layer="1857" to-port="1" />
		<edge from-layer="1857" from-port="2" to-layer="1859" to-port="0" />
		<edge from-layer="1858" from-port="0" to-layer="1859" to-port="1" />
		<edge from-layer="1859" from-port="2" to-layer="1860" to-port="0" />
		<edge from-layer="1860" from-port="1" to-layer="1865" to-port="0" />
		<edge from-layer="1861" from-port="0" to-layer="1865" to-port="1" />
		<edge from-layer="1862" from-port="0" to-layer="1865" to-port="2" />
		<edge from-layer="1863" from-port="0" to-layer="1865" to-port="3" />
		<edge from-layer="1864" from-port="0" to-layer="1865" to-port="4" />
		<edge from-layer="1865" from-port="5" to-layer="1870" to-port="0" />
		<edge from-layer="1866" from-port="0" to-layer="1867" to-port="0" />
		<edge from-layer="1867" from-port="1" to-layer="1869" to-port="0" />
		<edge from-layer="1868" from-port="0" to-layer="1869" to-port="1" />
		<edge from-layer="1869" from-port="2" to-layer="1870" to-port="1" />
		<edge from-layer="1870" from-port="2" to-layer="1872" to-port="0" />
		<edge from-layer="1871" from-port="0" to-layer="1872" to-port="1" />
		<edge from-layer="1872" from-port="2" to-layer="1873" to-port="0" />
		<edge from-layer="1873" from-port="1" to-layer="1878" to-port="0" />
		<edge from-layer="1874" from-port="0" to-layer="1878" to-port="1" />
		<edge from-layer="1875" from-port="0" to-layer="1878" to-port="2" />
		<edge from-layer="1876" from-port="0" to-layer="1878" to-port="3" />
		<edge from-layer="1877" from-port="0" to-layer="1878" to-port="4" />
		<edge from-layer="1878" from-port="5" to-layer="1880" to-port="0" />
		<edge from-layer="1878" from-port="5" to-layer="1891" to-port="0" />
		<edge from-layer="1879" from-port="0" to-layer="1880" to-port="1" />
		<edge from-layer="1880" from-port="2" to-layer="1882" to-port="0" />
		<edge from-layer="1881" from-port="0" to-layer="1882" to-port="1" />
		<edge from-layer="1882" from-port="2" to-layer="1884" to-port="0" />
		<edge from-layer="1883" from-port="0" to-layer="1884" to-port="1" />
		<edge from-layer="1884" from-port="2" to-layer="1885" to-port="0" />
		<edge from-layer="1885" from-port="1" to-layer="1887" to-port="0" />
		<edge from-layer="1886" from-port="0" to-layer="1887" to-port="1" />
		<edge from-layer="1887" from-port="2" to-layer="1889" to-port="0" />
		<edge from-layer="1888" from-port="0" to-layer="1889" to-port="1" />
		<edge from-layer="1889" from-port="2" to-layer="1890" to-port="0" />
		<edge from-layer="1890" from-port="1" to-layer="1891" to-port="1" />
		<edge from-layer="1891" from-port="2" to-layer="1896" to-port="0" />
		<edge from-layer="1892" from-port="0" to-layer="1896" to-port="1" />
		<edge from-layer="1893" from-port="0" to-layer="1896" to-port="2" />
		<edge from-layer="1894" from-port="0" to-layer="1896" to-port="3" />
		<edge from-layer="1895" from-port="0" to-layer="1896" to-port="4" />
		<edge from-layer="1896" from-port="5" to-layer="1901" to-port="0" />
		<edge from-layer="1897" from-port="0" to-layer="1898" to-port="0" />
		<edge from-layer="1898" from-port="1" to-layer="1900" to-port="0" />
		<edge from-layer="1899" from-port="0" to-layer="1900" to-port="1" />
		<edge from-layer="1900" from-port="2" to-layer="1901" to-port="1" />
		<edge from-layer="1901" from-port="2" to-layer="1903" to-port="0" />
		<edge from-layer="1902" from-port="0" to-layer="1903" to-port="1" />
		<edge from-layer="1903" from-port="2" to-layer="1908" to-port="0" />
		<edge from-layer="1904" from-port="0" to-layer="1908" to-port="1" />
		<edge from-layer="1905" from-port="0" to-layer="1908" to-port="2" />
		<edge from-layer="1906" from-port="0" to-layer="1908" to-port="3" />
		<edge from-layer="1907" from-port="0" to-layer="1908" to-port="4" />
		<edge from-layer="1908" from-port="5" to-layer="1909" to-port="0" />
		<edge from-layer="1909" from-port="2" to-layer="1914" to-port="0" />
		<edge from-layer="1910" from-port="0" to-layer="1914" to-port="1" />
		<edge from-layer="1911" from-port="0" to-layer="1914" to-port="2" />
		<edge from-layer="1912" from-port="0" to-layer="1914" to-port="3" />
		<edge from-layer="1913" from-port="0" to-layer="1914" to-port="4" />
		<edge from-layer="1914" from-port="5" to-layer="1971" to-port="1" />
		<edge from-layer="1914" from-port="5" to-layer="1919" to-port="0" />
		<edge from-layer="1915" from-port="0" to-layer="1916" to-port="0" />
		<edge from-layer="1916" from-port="1" to-layer="1918" to-port="0" />
		<edge from-layer="1917" from-port="0" to-layer="1918" to-port="1" />
		<edge from-layer="1918" from-port="2" to-layer="1919" to-port="1" />
		<edge from-layer="1919" from-port="2" to-layer="1921" to-port="0" />
		<edge from-layer="1920" from-port="0" to-layer="1921" to-port="1" />
		<edge from-layer="1921" from-port="2" to-layer="1922" to-port="0" />
		<edge from-layer="1922" from-port="1" to-layer="1927" to-port="0" />
		<edge from-layer="1923" from-port="0" to-layer="1927" to-port="1" />
		<edge from-layer="1924" from-port="0" to-layer="1927" to-port="2" />
		<edge from-layer="1925" from-port="0" to-layer="1927" to-port="3" />
		<edge from-layer="1926" from-port="0" to-layer="1927" to-port="4" />
		<edge from-layer="1927" from-port="5" to-layer="1932" to-port="0" />
		<edge from-layer="1928" from-port="0" to-layer="1929" to-port="0" />
		<edge from-layer="1929" from-port="1" to-layer="1931" to-port="0" />
		<edge from-layer="1930" from-port="0" to-layer="1931" to-port="1" />
		<edge from-layer="1931" from-port="2" to-layer="1932" to-port="1" />
		<edge from-layer="1932" from-port="2" to-layer="1934" to-port="0" />
		<edge from-layer="1933" from-port="0" to-layer="1934" to-port="1" />
		<edge from-layer="1934" from-port="2" to-layer="1935" to-port="0" />
		<edge from-layer="1935" from-port="1" to-layer="1940" to-port="0" />
		<edge from-layer="1936" from-port="0" to-layer="1940" to-port="1" />
		<edge from-layer="1937" from-port="0" to-layer="1940" to-port="2" />
		<edge from-layer="1938" from-port="0" to-layer="1940" to-port="3" />
		<edge from-layer="1939" from-port="0" to-layer="1940" to-port="4" />
		<edge from-layer="1940" from-port="5" to-layer="1953" to-port="0" />
		<edge from-layer="1940" from-port="5" to-layer="1942" to-port="0" />
		<edge from-layer="1941" from-port="0" to-layer="1942" to-port="1" />
		<edge from-layer="1942" from-port="2" to-layer="1944" to-port="0" />
		<edge from-layer="1943" from-port="0" to-layer="1944" to-port="1" />
		<edge from-layer="1944" from-port="2" to-layer="1946" to-port="0" />
		<edge from-layer="1945" from-port="0" to-layer="1946" to-port="1" />
		<edge from-layer="1946" from-port="2" to-layer="1947" to-port="0" />
		<edge from-layer="1947" from-port="1" to-layer="1949" to-port="0" />
		<edge from-layer="1948" from-port="0" to-layer="1949" to-port="1" />
		<edge from-layer="1949" from-port="2" to-layer="1951" to-port="0" />
		<edge from-layer="1950" from-port="0" to-layer="1951" to-port="1" />
		<edge from-layer="1951" from-port="2" to-layer="1952" to-port="0" />
		<edge from-layer="1952" from-port="1" to-layer="1953" to-port="1" />
		<edge from-layer="1953" from-port="2" to-layer="1958" to-port="0" />
		<edge from-layer="1954" from-port="0" to-layer="1958" to-port="1" />
		<edge from-layer="1955" from-port="0" to-layer="1958" to-port="2" />
		<edge from-layer="1956" from-port="0" to-layer="1958" to-port="3" />
		<edge from-layer="1957" from-port="0" to-layer="1958" to-port="4" />
		<edge from-layer="1958" from-port="5" to-layer="1963" to-port="0" />
		<edge from-layer="1959" from-port="0" to-layer="1960" to-port="0" />
		<edge from-layer="1960" from-port="1" to-layer="1962" to-port="0" />
		<edge from-layer="1961" from-port="0" to-layer="1962" to-port="1" />
		<edge from-layer="1962" from-port="2" to-layer="1963" to-port="1" />
		<edge from-layer="1963" from-port="2" to-layer="1965" to-port="0" />
		<edge from-layer="1964" from-port="0" to-layer="1965" to-port="1" />
		<edge from-layer="1965" from-port="2" to-layer="1970" to-port="0" />
		<edge from-layer="1966" from-port="0" to-layer="1970" to-port="1" />
		<edge from-layer="1967" from-port="0" to-layer="1970" to-port="2" />
		<edge from-layer="1968" from-port="0" to-layer="1970" to-port="3" />
		<edge from-layer="1969" from-port="0" to-layer="1970" to-port="4" />
		<edge from-layer="1970" from-port="5" to-layer="1971" to-port="0" />
		<edge from-layer="1971" from-port="2" to-layer="1976" to-port="0" />
		<edge from-layer="1972" from-port="0" to-layer="1976" to-port="1" />
		<edge from-layer="1973" from-port="0" to-layer="1976" to-port="2" />
		<edge from-layer="1974" from-port="0" to-layer="1976" to-port="3" />
		<edge from-layer="1975" from-port="0" to-layer="1976" to-port="4" />
		<edge from-layer="1976" from-port="5" to-layer="1981" to-port="0" />
		<edge from-layer="1976" from-port="5" to-layer="2033" to-port="1" />
		<edge from-layer="1977" from-port="0" to-layer="1978" to-port="0" />
		<edge from-layer="1978" from-port="1" to-layer="1980" to-port="0" />
		<edge from-layer="1979" from-port="0" to-layer="1980" to-port="1" />
		<edge from-layer="1980" from-port="2" to-layer="1981" to-port="1" />
		<edge from-layer="1981" from-port="2" to-layer="1983" to-port="0" />
		<edge from-layer="1982" from-port="0" to-layer="1983" to-port="1" />
		<edge from-layer="1983" from-port="2" to-layer="1984" to-port="0" />
		<edge from-layer="1984" from-port="1" to-layer="1989" to-port="0" />
		<edge from-layer="1985" from-port="0" to-layer="1989" to-port="1" />
		<edge from-layer="1986" from-port="0" to-layer="1989" to-port="2" />
		<edge from-layer="1987" from-port="0" to-layer="1989" to-port="3" />
		<edge from-layer="1988" from-port="0" to-layer="1989" to-port="4" />
		<edge from-layer="1989" from-port="5" to-layer="1994" to-port="0" />
		<edge from-layer="1990" from-port="0" to-layer="1991" to-port="0" />
		<edge from-layer="1991" from-port="1" to-layer="1993" to-port="0" />
		<edge from-layer="1992" from-port="0" to-layer="1993" to-port="1" />
		<edge from-layer="1993" from-port="2" to-layer="1994" to-port="1" />
		<edge from-layer="1994" from-port="2" to-layer="1996" to-port="0" />
		<edge from-layer="1995" from-port="0" to-layer="1996" to-port="1" />
		<edge from-layer="1996" from-port="2" to-layer="1997" to-port="0" />
		<edge from-layer="1997" from-port="1" to-layer="2002" to-port="0" />
		<edge from-layer="1998" from-port="0" to-layer="2002" to-port="1" />
		<edge from-layer="1999" from-port="0" to-layer="2002" to-port="2" />
		<edge from-layer="2000" from-port="0" to-layer="2002" to-port="3" />
		<edge from-layer="2001" from-port="0" to-layer="2002" to-port="4" />
		<edge from-layer="2002" from-port="5" to-layer="2015" to-port="0" />
		<edge from-layer="2002" from-port="5" to-layer="2004" to-port="0" />
		<edge from-layer="2003" from-port="0" to-layer="2004" to-port="1" />
		<edge from-layer="2004" from-port="2" to-layer="2006" to-port="0" />
		<edge from-layer="2005" from-port="0" to-layer="2006" to-port="1" />
		<edge from-layer="2006" from-port="2" to-layer="2008" to-port="0" />
		<edge from-layer="2007" from-port="0" to-layer="2008" to-port="1" />
		<edge from-layer="2008" from-port="2" to-layer="2009" to-port="0" />
		<edge from-layer="2009" from-port="1" to-layer="2011" to-port="0" />
		<edge from-layer="2010" from-port="0" to-layer="2011" to-port="1" />
		<edge from-layer="2011" from-port="2" to-layer="2013" to-port="0" />
		<edge from-layer="2012" from-port="0" to-layer="2013" to-port="1" />
		<edge from-layer="2013" from-port="2" to-layer="2014" to-port="0" />
		<edge from-layer="2014" from-port="1" to-layer="2015" to-port="1" />
		<edge from-layer="2015" from-port="2" to-layer="2020" to-port="0" />
		<edge from-layer="2016" from-port="0" to-layer="2020" to-port="1" />
		<edge from-layer="2017" from-port="0" to-layer="2020" to-port="2" />
		<edge from-layer="2018" from-port="0" to-layer="2020" to-port="3" />
		<edge from-layer="2019" from-port="0" to-layer="2020" to-port="4" />
		<edge from-layer="2020" from-port="5" to-layer="2025" to-port="0" />
		<edge from-layer="2021" from-port="0" to-layer="2022" to-port="0" />
		<edge from-layer="2022" from-port="1" to-layer="2024" to-port="0" />
		<edge from-layer="2023" from-port="0" to-layer="2024" to-port="1" />
		<edge from-layer="2024" from-port="2" to-layer="2025" to-port="1" />
		<edge from-layer="2025" from-port="2" to-layer="2027" to-port="0" />
		<edge from-layer="2026" from-port="0" to-layer="2027" to-port="1" />
		<edge from-layer="2027" from-port="2" to-layer="2032" to-port="0" />
		<edge from-layer="2028" from-port="0" to-layer="2032" to-port="1" />
		<edge from-layer="2029" from-port="0" to-layer="2032" to-port="2" />
		<edge from-layer="2030" from-port="0" to-layer="2032" to-port="3" />
		<edge from-layer="2031" from-port="0" to-layer="2032" to-port="4" />
		<edge from-layer="2032" from-port="5" to-layer="2033" to-port="0" />
		<edge from-layer="2033" from-port="2" to-layer="2038" to-port="0" />
		<edge from-layer="2034" from-port="0" to-layer="2038" to-port="1" />
		<edge from-layer="2035" from-port="0" to-layer="2038" to-port="2" />
		<edge from-layer="2036" from-port="0" to-layer="2038" to-port="3" />
		<edge from-layer="2037" from-port="0" to-layer="2038" to-port="4" />
		<edge from-layer="2038" from-port="5" to-layer="2095" to-port="1" />
		<edge from-layer="2038" from-port="5" to-layer="2043" to-port="0" />
		<edge from-layer="2039" from-port="0" to-layer="2040" to-port="0" />
		<edge from-layer="2040" from-port="1" to-layer="2042" to-port="0" />
		<edge from-layer="2041" from-port="0" to-layer="2042" to-port="1" />
		<edge from-layer="2042" from-port="2" to-layer="2043" to-port="1" />
		<edge from-layer="2043" from-port="2" to-layer="2045" to-port="0" />
		<edge from-layer="2044" from-port="0" to-layer="2045" to-port="1" />
		<edge from-layer="2045" from-port="2" to-layer="2046" to-port="0" />
		<edge from-layer="2046" from-port="1" to-layer="2051" to-port="0" />
		<edge from-layer="2047" from-port="0" to-layer="2051" to-port="1" />
		<edge from-layer="2048" from-port="0" to-layer="2051" to-port="2" />
		<edge from-layer="2049" from-port="0" to-layer="2051" to-port="3" />
		<edge from-layer="2050" from-port="0" to-layer="2051" to-port="4" />
		<edge from-layer="2051" from-port="5" to-layer="2056" to-port="0" />
		<edge from-layer="2052" from-port="0" to-layer="2053" to-port="0" />
		<edge from-layer="2053" from-port="1" to-layer="2055" to-port="0" />
		<edge from-layer="2054" from-port="0" to-layer="2055" to-port="1" />
		<edge from-layer="2055" from-port="2" to-layer="2056" to-port="1" />
		<edge from-layer="2056" from-port="2" to-layer="2058" to-port="0" />
		<edge from-layer="2057" from-port="0" to-layer="2058" to-port="1" />
		<edge from-layer="2058" from-port="2" to-layer="2059" to-port="0" />
		<edge from-layer="2059" from-port="1" to-layer="2064" to-port="0" />
		<edge from-layer="2060" from-port="0" to-layer="2064" to-port="1" />
		<edge from-layer="2061" from-port="0" to-layer="2064" to-port="2" />
		<edge from-layer="2062" from-port="0" to-layer="2064" to-port="3" />
		<edge from-layer="2063" from-port="0" to-layer="2064" to-port="4" />
		<edge from-layer="2064" from-port="5" to-layer="2066" to-port="0" />
		<edge from-layer="2064" from-port="5" to-layer="2077" to-port="0" />
		<edge from-layer="2065" from-port="0" to-layer="2066" to-port="1" />
		<edge from-layer="2066" from-port="2" to-layer="2068" to-port="0" />
		<edge from-layer="2067" from-port="0" to-layer="2068" to-port="1" />
		<edge from-layer="2068" from-port="2" to-layer="2070" to-port="0" />
		<edge from-layer="2069" from-port="0" to-layer="2070" to-port="1" />
		<edge from-layer="2070" from-port="2" to-layer="2071" to-port="0" />
		<edge from-layer="2071" from-port="1" to-layer="2073" to-port="0" />
		<edge from-layer="2072" from-port="0" to-layer="2073" to-port="1" />
		<edge from-layer="2073" from-port="2" to-layer="2075" to-port="0" />
		<edge from-layer="2074" from-port="0" to-layer="2075" to-port="1" />
		<edge from-layer="2075" from-port="2" to-layer="2076" to-port="0" />
		<edge from-layer="2076" from-port="1" to-layer="2077" to-port="1" />
		<edge from-layer="2077" from-port="2" to-layer="2082" to-port="0" />
		<edge from-layer="2078" from-port="0" to-layer="2082" to-port="1" />
		<edge from-layer="2079" from-port="0" to-layer="2082" to-port="2" />
		<edge from-layer="2080" from-port="0" to-layer="2082" to-port="3" />
		<edge from-layer="2081" from-port="0" to-layer="2082" to-port="4" />
		<edge from-layer="2082" from-port="5" to-layer="2087" to-port="0" />
		<edge from-layer="2083" from-port="0" to-layer="2084" to-port="0" />
		<edge from-layer="2084" from-port="1" to-layer="2086" to-port="0" />
		<edge from-layer="2085" from-port="0" to-layer="2086" to-port="1" />
		<edge from-layer="2086" from-port="2" to-layer="2087" to-port="1" />
		<edge from-layer="2087" from-port="2" to-layer="2089" to-port="0" />
		<edge from-layer="2088" from-port="0" to-layer="2089" to-port="1" />
		<edge from-layer="2089" from-port="2" to-layer="2094" to-port="0" />
		<edge from-layer="2090" from-port="0" to-layer="2094" to-port="1" />
		<edge from-layer="2091" from-port="0" to-layer="2094" to-port="2" />
		<edge from-layer="2092" from-port="0" to-layer="2094" to-port="3" />
		<edge from-layer="2093" from-port="0" to-layer="2094" to-port="4" />
		<edge from-layer="2094" from-port="5" to-layer="2095" to-port="0" />
		<edge from-layer="2095" from-port="2" to-layer="2100" to-port="0" />
		<edge from-layer="2096" from-port="0" to-layer="2100" to-port="1" />
		<edge from-layer="2097" from-port="0" to-layer="2100" to-port="2" />
		<edge from-layer="2098" from-port="0" to-layer="2100" to-port="3" />
		<edge from-layer="2099" from-port="0" to-layer="2100" to-port="4" />
		<edge from-layer="2100" from-port="5" to-layer="2157" to-port="1" />
		<edge from-layer="2100" from-port="5" to-layer="2105" to-port="0" />
		<edge from-layer="2101" from-port="0" to-layer="2102" to-port="0" />
		<edge from-layer="2102" from-port="1" to-layer="2104" to-port="0" />
		<edge from-layer="2103" from-port="0" to-layer="2104" to-port="1" />
		<edge from-layer="2104" from-port="2" to-layer="2105" to-port="1" />
		<edge from-layer="2105" from-port="2" to-layer="2107" to-port="0" />
		<edge from-layer="2106" from-port="0" to-layer="2107" to-port="1" />
		<edge from-layer="2107" from-port="2" to-layer="2108" to-port="0" />
		<edge from-layer="2108" from-port="1" to-layer="2113" to-port="0" />
		<edge from-layer="2109" from-port="0" to-layer="2113" to-port="1" />
		<edge from-layer="2110" from-port="0" to-layer="2113" to-port="2" />
		<edge from-layer="2111" from-port="0" to-layer="2113" to-port="3" />
		<edge from-layer="2112" from-port="0" to-layer="2113" to-port="4" />
		<edge from-layer="2113" from-port="5" to-layer="2118" to-port="0" />
		<edge from-layer="2114" from-port="0" to-layer="2115" to-port="0" />
		<edge from-layer="2115" from-port="1" to-layer="2117" to-port="0" />
		<edge from-layer="2116" from-port="0" to-layer="2117" to-port="1" />
		<edge from-layer="2117" from-port="2" to-layer="2118" to-port="1" />
		<edge from-layer="2118" from-port="2" to-layer="2120" to-port="0" />
		<edge from-layer="2119" from-port="0" to-layer="2120" to-port="1" />
		<edge from-layer="2120" from-port="2" to-layer="2121" to-port="0" />
		<edge from-layer="2121" from-port="1" to-layer="2126" to-port="0" />
		<edge from-layer="2122" from-port="0" to-layer="2126" to-port="1" />
		<edge from-layer="2123" from-port="0" to-layer="2126" to-port="2" />
		<edge from-layer="2124" from-port="0" to-layer="2126" to-port="3" />
		<edge from-layer="2125" from-port="0" to-layer="2126" to-port="4" />
		<edge from-layer="2126" from-port="5" to-layer="2128" to-port="0" />
		<edge from-layer="2126" from-port="5" to-layer="2139" to-port="0" />
		<edge from-layer="2127" from-port="0" to-layer="2128" to-port="1" />
		<edge from-layer="2128" from-port="2" to-layer="2130" to-port="0" />
		<edge from-layer="2129" from-port="0" to-layer="2130" to-port="1" />
		<edge from-layer="2130" from-port="2" to-layer="2132" to-port="0" />
		<edge from-layer="2131" from-port="0" to-layer="2132" to-port="1" />
		<edge from-layer="2132" from-port="2" to-layer="2133" to-port="0" />
		<edge from-layer="2133" from-port="1" to-layer="2135" to-port="0" />
		<edge from-layer="2134" from-port="0" to-layer="2135" to-port="1" />
		<edge from-layer="2135" from-port="2" to-layer="2137" to-port="0" />
		<edge from-layer="2136" from-port="0" to-layer="2137" to-port="1" />
		<edge from-layer="2137" from-port="2" to-layer="2138" to-port="0" />
		<edge from-layer="2138" from-port="1" to-layer="2139" to-port="1" />
		<edge from-layer="2139" from-port="2" to-layer="2144" to-port="0" />
		<edge from-layer="2140" from-port="0" to-layer="2144" to-port="1" />
		<edge from-layer="2141" from-port="0" to-layer="2144" to-port="2" />
		<edge from-layer="2142" from-port="0" to-layer="2144" to-port="3" />
		<edge from-layer="2143" from-port="0" to-layer="2144" to-port="4" />
		<edge from-layer="2144" from-port="5" to-layer="2149" to-port="0" />
		<edge from-layer="2145" from-port="0" to-layer="2146" to-port="0" />
		<edge from-layer="2146" from-port="1" to-layer="2148" to-port="0" />
		<edge from-layer="2147" from-port="0" to-layer="2148" to-port="1" />
		<edge from-layer="2148" from-port="2" to-layer="2149" to-port="1" />
		<edge from-layer="2149" from-port="2" to-layer="2151" to-port="0" />
		<edge from-layer="2150" from-port="0" to-layer="2151" to-port="1" />
		<edge from-layer="2151" from-port="2" to-layer="2156" to-port="0" />
		<edge from-layer="2152" from-port="0" to-layer="2156" to-port="1" />
		<edge from-layer="2153" from-port="0" to-layer="2156" to-port="2" />
		<edge from-layer="2154" from-port="0" to-layer="2156" to-port="3" />
		<edge from-layer="2155" from-port="0" to-layer="2156" to-port="4" />
		<edge from-layer="2156" from-port="5" to-layer="2157" to-port="0" />
		<edge from-layer="2157" from-port="2" to-layer="2162" to-port="0" />
		<edge from-layer="2158" from-port="0" to-layer="2162" to-port="1" />
		<edge from-layer="2159" from-port="0" to-layer="2162" to-port="2" />
		<edge from-layer="2160" from-port="0" to-layer="2162" to-port="3" />
		<edge from-layer="2161" from-port="0" to-layer="2162" to-port="4" />
		<edge from-layer="2162" from-port="5" to-layer="2167" to-port="0" />
		<edge from-layer="2162" from-port="5" to-layer="2219" to-port="1" />
		<edge from-layer="2163" from-port="0" to-layer="2164" to-port="0" />
		<edge from-layer="2164" from-port="1" to-layer="2166" to-port="0" />
		<edge from-layer="2165" from-port="0" to-layer="2166" to-port="1" />
		<edge from-layer="2166" from-port="2" to-layer="2167" to-port="1" />
		<edge from-layer="2167" from-port="2" to-layer="2169" to-port="0" />
		<edge from-layer="2168" from-port="0" to-layer="2169" to-port="1" />
		<edge from-layer="2169" from-port="2" to-layer="2170" to-port="0" />
		<edge from-layer="2170" from-port="1" to-layer="2175" to-port="0" />
		<edge from-layer="2171" from-port="0" to-layer="2175" to-port="1" />
		<edge from-layer="2172" from-port="0" to-layer="2175" to-port="2" />
		<edge from-layer="2173" from-port="0" to-layer="2175" to-port="3" />
		<edge from-layer="2174" from-port="0" to-layer="2175" to-port="4" />
		<edge from-layer="2175" from-port="5" to-layer="2180" to-port="0" />
		<edge from-layer="2176" from-port="0" to-layer="2177" to-port="0" />
		<edge from-layer="2177" from-port="1" to-layer="2179" to-port="0" />
		<edge from-layer="2178" from-port="0" to-layer="2179" to-port="1" />
		<edge from-layer="2179" from-port="2" to-layer="2180" to-port="1" />
		<edge from-layer="2180" from-port="2" to-layer="2182" to-port="0" />
		<edge from-layer="2181" from-port="0" to-layer="2182" to-port="1" />
		<edge from-layer="2182" from-port="2" to-layer="2183" to-port="0" />
		<edge from-layer="2183" from-port="1" to-layer="2188" to-port="0" />
		<edge from-layer="2184" from-port="0" to-layer="2188" to-port="1" />
		<edge from-layer="2185" from-port="0" to-layer="2188" to-port="2" />
		<edge from-layer="2186" from-port="0" to-layer="2188" to-port="3" />
		<edge from-layer="2187" from-port="0" to-layer="2188" to-port="4" />
		<edge from-layer="2188" from-port="5" to-layer="2201" to-port="0" />
		<edge from-layer="2188" from-port="5" to-layer="2190" to-port="0" />
		<edge from-layer="2189" from-port="0" to-layer="2190" to-port="1" />
		<edge from-layer="2190" from-port="2" to-layer="2192" to-port="0" />
		<edge from-layer="2191" from-port="0" to-layer="2192" to-port="1" />
		<edge from-layer="2192" from-port="2" to-layer="2194" to-port="0" />
		<edge from-layer="2193" from-port="0" to-layer="2194" to-port="1" />
		<edge from-layer="2194" from-port="2" to-layer="2195" to-port="0" />
		<edge from-layer="2195" from-port="1" to-layer="2197" to-port="0" />
		<edge from-layer="2196" from-port="0" to-layer="2197" to-port="1" />
		<edge from-layer="2197" from-port="2" to-layer="2199" to-port="0" />
		<edge from-layer="2198" from-port="0" to-layer="2199" to-port="1" />
		<edge from-layer="2199" from-port="2" to-layer="2200" to-port="0" />
		<edge from-layer="2200" from-port="1" to-layer="2201" to-port="1" />
		<edge from-layer="2201" from-port="2" to-layer="2206" to-port="0" />
		<edge from-layer="2202" from-port="0" to-layer="2206" to-port="1" />
		<edge from-layer="2203" from-port="0" to-layer="2206" to-port="2" />
		<edge from-layer="2204" from-port="0" to-layer="2206" to-port="3" />
		<edge from-layer="2205" from-port="0" to-layer="2206" to-port="4" />
		<edge from-layer="2206" from-port="5" to-layer="2211" to-port="0" />
		<edge from-layer="2207" from-port="0" to-layer="2208" to-port="0" />
		<edge from-layer="2208" from-port="1" to-layer="2210" to-port="0" />
		<edge from-layer="2209" from-port="0" to-layer="2210" to-port="1" />
		<edge from-layer="2210" from-port="2" to-layer="2211" to-port="1" />
		<edge from-layer="2211" from-port="2" to-layer="2213" to-port="0" />
		<edge from-layer="2212" from-port="0" to-layer="2213" to-port="1" />
		<edge from-layer="2213" from-port="2" to-layer="2218" to-port="0" />
		<edge from-layer="2214" from-port="0" to-layer="2218" to-port="1" />
		<edge from-layer="2215" from-port="0" to-layer="2218" to-port="2" />
		<edge from-layer="2216" from-port="0" to-layer="2218" to-port="3" />
		<edge from-layer="2217" from-port="0" to-layer="2218" to-port="4" />
		<edge from-layer="2218" from-port="5" to-layer="2219" to-port="0" />
		<edge from-layer="2219" from-port="2" to-layer="2224" to-port="0" />
		<edge from-layer="2220" from-port="0" to-layer="2224" to-port="1" />
		<edge from-layer="2221" from-port="0" to-layer="2224" to-port="2" />
		<edge from-layer="2222" from-port="0" to-layer="2224" to-port="3" />
		<edge from-layer="2223" from-port="0" to-layer="2224" to-port="4" />
		<edge from-layer="2224" from-port="5" to-layer="2229" to-port="0" />
		<edge from-layer="2224" from-port="5" to-layer="2281" to-port="1" />
		<edge from-layer="2225" from-port="0" to-layer="2226" to-port="0" />
		<edge from-layer="2226" from-port="1" to-layer="2228" to-port="0" />
		<edge from-layer="2227" from-port="0" to-layer="2228" to-port="1" />
		<edge from-layer="2228" from-port="2" to-layer="2229" to-port="1" />
		<edge from-layer="2229" from-port="2" to-layer="2231" to-port="0" />
		<edge from-layer="2230" from-port="0" to-layer="2231" to-port="1" />
		<edge from-layer="2231" from-port="2" to-layer="2232" to-port="0" />
		<edge from-layer="2232" from-port="1" to-layer="2237" to-port="0" />
		<edge from-layer="2233" from-port="0" to-layer="2237" to-port="1" />
		<edge from-layer="2234" from-port="0" to-layer="2237" to-port="2" />
		<edge from-layer="2235" from-port="0" to-layer="2237" to-port="3" />
		<edge from-layer="2236" from-port="0" to-layer="2237" to-port="4" />
		<edge from-layer="2237" from-port="5" to-layer="2242" to-port="0" />
		<edge from-layer="2238" from-port="0" to-layer="2239" to-port="0" />
		<edge from-layer="2239" from-port="1" to-layer="2241" to-port="0" />
		<edge from-layer="2240" from-port="0" to-layer="2241" to-port="1" />
		<edge from-layer="2241" from-port="2" to-layer="2242" to-port="1" />
		<edge from-layer="2242" from-port="2" to-layer="2244" to-port="0" />
		<edge from-layer="2243" from-port="0" to-layer="2244" to-port="1" />
		<edge from-layer="2244" from-port="2" to-layer="2245" to-port="0" />
		<edge from-layer="2245" from-port="1" to-layer="2250" to-port="0" />
		<edge from-layer="2246" from-port="0" to-layer="2250" to-port="1" />
		<edge from-layer="2247" from-port="0" to-layer="2250" to-port="2" />
		<edge from-layer="2248" from-port="0" to-layer="2250" to-port="3" />
		<edge from-layer="2249" from-port="0" to-layer="2250" to-port="4" />
		<edge from-layer="2250" from-port="5" to-layer="2252" to-port="0" />
		<edge from-layer="2250" from-port="5" to-layer="2263" to-port="0" />
		<edge from-layer="2251" from-port="0" to-layer="2252" to-port="1" />
		<edge from-layer="2252" from-port="2" to-layer="2254" to-port="0" />
		<edge from-layer="2253" from-port="0" to-layer="2254" to-port="1" />
		<edge from-layer="2254" from-port="2" to-layer="2256" to-port="0" />
		<edge from-layer="2255" from-port="0" to-layer="2256" to-port="1" />
		<edge from-layer="2256" from-port="2" to-layer="2257" to-port="0" />
		<edge from-layer="2257" from-port="1" to-layer="2259" to-port="0" />
		<edge from-layer="2258" from-port="0" to-layer="2259" to-port="1" />
		<edge from-layer="2259" from-port="2" to-layer="2261" to-port="0" />
		<edge from-layer="2260" from-port="0" to-layer="2261" to-port="1" />
		<edge from-layer="2261" from-port="2" to-layer="2262" to-port="0" />
		<edge from-layer="2262" from-port="1" to-layer="2263" to-port="1" />
		<edge from-layer="2263" from-port="2" to-layer="2268" to-port="0" />
		<edge from-layer="2264" from-port="0" to-layer="2268" to-port="1" />
		<edge from-layer="2265" from-port="0" to-layer="2268" to-port="2" />
		<edge from-layer="2266" from-port="0" to-layer="2268" to-port="3" />
		<edge from-layer="2267" from-port="0" to-layer="2268" to-port="4" />
		<edge from-layer="2268" from-port="5" to-layer="2273" to-port="0" />
		<edge from-layer="2269" from-port="0" to-layer="2270" to-port="0" />
		<edge from-layer="2270" from-port="1" to-layer="2272" to-port="0" />
		<edge from-layer="2271" from-port="0" to-layer="2272" to-port="1" />
		<edge from-layer="2272" from-port="2" to-layer="2273" to-port="1" />
		<edge from-layer="2273" from-port="2" to-layer="2275" to-port="0" />
		<edge from-layer="2274" from-port="0" to-layer="2275" to-port="1" />
		<edge from-layer="2275" from-port="2" to-layer="2280" to-port="0" />
		<edge from-layer="2276" from-port="0" to-layer="2280" to-port="1" />
		<edge from-layer="2277" from-port="0" to-layer="2280" to-port="2" />
		<edge from-layer="2278" from-port="0" to-layer="2280" to-port="3" />
		<edge from-layer="2279" from-port="0" to-layer="2280" to-port="4" />
		<edge from-layer="2280" from-port="5" to-layer="2281" to-port="0" />
		<edge from-layer="2281" from-port="2" to-layer="2286" to-port="0" />
		<edge from-layer="2282" from-port="0" to-layer="2286" to-port="1" />
		<edge from-layer="2283" from-port="0" to-layer="2286" to-port="2" />
		<edge from-layer="2284" from-port="0" to-layer="2286" to-port="3" />
		<edge from-layer="2285" from-port="0" to-layer="2286" to-port="4" />
		<edge from-layer="2286" from-port="5" to-layer="2343" to-port="1" />
		<edge from-layer="2286" from-port="5" to-layer="2291" to-port="0" />
		<edge from-layer="2287" from-port="0" to-layer="2288" to-port="0" />
		<edge from-layer="2288" from-port="1" to-layer="2290" to-port="0" />
		<edge from-layer="2289" from-port="0" to-layer="2290" to-port="1" />
		<edge from-layer="2290" from-port="2" to-layer="2291" to-port="1" />
		<edge from-layer="2291" from-port="2" to-layer="2293" to-port="0" />
		<edge from-layer="2292" from-port="0" to-layer="2293" to-port="1" />
		<edge from-layer="2293" from-port="2" to-layer="2294" to-port="0" />
		<edge from-layer="2294" from-port="1" to-layer="2299" to-port="0" />
		<edge from-layer="2295" from-port="0" to-layer="2299" to-port="1" />
		<edge from-layer="2296" from-port="0" to-layer="2299" to-port="2" />
		<edge from-layer="2297" from-port="0" to-layer="2299" to-port="3" />
		<edge from-layer="2298" from-port="0" to-layer="2299" to-port="4" />
		<edge from-layer="2299" from-port="5" to-layer="2304" to-port="0" />
		<edge from-layer="2300" from-port="0" to-layer="2301" to-port="0" />
		<edge from-layer="2301" from-port="1" to-layer="2303" to-port="0" />
		<edge from-layer="2302" from-port="0" to-layer="2303" to-port="1" />
		<edge from-layer="2303" from-port="2" to-layer="2304" to-port="1" />
		<edge from-layer="2304" from-port="2" to-layer="2306" to-port="0" />
		<edge from-layer="2305" from-port="0" to-layer="2306" to-port="1" />
		<edge from-layer="2306" from-port="2" to-layer="2307" to-port="0" />
		<edge from-layer="2307" from-port="1" to-layer="2312" to-port="0" />
		<edge from-layer="2308" from-port="0" to-layer="2312" to-port="1" />
		<edge from-layer="2309" from-port="0" to-layer="2312" to-port="2" />
		<edge from-layer="2310" from-port="0" to-layer="2312" to-port="3" />
		<edge from-layer="2311" from-port="0" to-layer="2312" to-port="4" />
		<edge from-layer="2312" from-port="5" to-layer="2314" to-port="0" />
		<edge from-layer="2312" from-port="5" to-layer="2325" to-port="0" />
		<edge from-layer="2313" from-port="0" to-layer="2314" to-port="1" />
		<edge from-layer="2314" from-port="2" to-layer="2316" to-port="0" />
		<edge from-layer="2315" from-port="0" to-layer="2316" to-port="1" />
		<edge from-layer="2316" from-port="2" to-layer="2318" to-port="0" />
		<edge from-layer="2317" from-port="0" to-layer="2318" to-port="1" />
		<edge from-layer="2318" from-port="2" to-layer="2319" to-port="0" />
		<edge from-layer="2319" from-port="1" to-layer="2321" to-port="0" />
		<edge from-layer="2320" from-port="0" to-layer="2321" to-port="1" />
		<edge from-layer="2321" from-port="2" to-layer="2323" to-port="0" />
		<edge from-layer="2322" from-port="0" to-layer="2323" to-port="1" />
		<edge from-layer="2323" from-port="2" to-layer="2324" to-port="0" />
		<edge from-layer="2324" from-port="1" to-layer="2325" to-port="1" />
		<edge from-layer="2325" from-port="2" to-layer="2330" to-port="0" />
		<edge from-layer="2326" from-port="0" to-layer="2330" to-port="1" />
		<edge from-layer="2327" from-port="0" to-layer="2330" to-port="2" />
		<edge from-layer="2328" from-port="0" to-layer="2330" to-port="3" />
		<edge from-layer="2329" from-port="0" to-layer="2330" to-port="4" />
		<edge from-layer="2330" from-port="5" to-layer="2335" to-port="0" />
		<edge from-layer="2331" from-port="0" to-layer="2332" to-port="0" />
		<edge from-layer="2332" from-port="1" to-layer="2334" to-port="0" />
		<edge from-layer="2333" from-port="0" to-layer="2334" to-port="1" />
		<edge from-layer="2334" from-port="2" to-layer="2335" to-port="1" />
		<edge from-layer="2335" from-port="2" to-layer="2337" to-port="0" />
		<edge from-layer="2336" from-port="0" to-layer="2337" to-port="1" />
		<edge from-layer="2337" from-port="2" to-layer="2342" to-port="0" />
		<edge from-layer="2338" from-port="0" to-layer="2342" to-port="1" />
		<edge from-layer="2339" from-port="0" to-layer="2342" to-port="2" />
		<edge from-layer="2340" from-port="0" to-layer="2342" to-port="3" />
		<edge from-layer="2341" from-port="0" to-layer="2342" to-port="4" />
		<edge from-layer="2342" from-port="5" to-layer="2343" to-port="0" />
		<edge from-layer="2343" from-port="2" to-layer="2348" to-port="0" />
		<edge from-layer="2344" from-port="0" to-layer="2348" to-port="1" />
		<edge from-layer="2345" from-port="0" to-layer="2348" to-port="2" />
		<edge from-layer="2346" from-port="0" to-layer="2348" to-port="3" />
		<edge from-layer="2347" from-port="0" to-layer="2348" to-port="4" />
		<edge from-layer="2348" from-port="5" to-layer="2353" to-port="0" />
		<edge from-layer="2349" from-port="0" to-layer="2350" to-port="0" />
		<edge from-layer="2350" from-port="1" to-layer="2352" to-port="0" />
		<edge from-layer="2351" from-port="0" to-layer="2352" to-port="1" />
		<edge from-layer="2352" from-port="2" to-layer="2353" to-port="1" />
		<edge from-layer="2353" from-port="2" to-layer="2355" to-port="0" />
		<edge from-layer="2354" from-port="0" to-layer="2355" to-port="1" />
		<edge from-layer="2355" from-port="2" to-layer="2356" to-port="0" />
		<edge from-layer="2356" from-port="1" to-layer="2361" to-port="0" />
		<edge from-layer="2357" from-port="0" to-layer="2361" to-port="1" />
		<edge from-layer="2358" from-port="0" to-layer="2361" to-port="2" />
		<edge from-layer="2359" from-port="0" to-layer="2361" to-port="3" />
		<edge from-layer="2360" from-port="0" to-layer="2361" to-port="4" />
		<edge from-layer="2361" from-port="5" to-layer="2363" to-port="0" />
		<edge from-layer="2362" from-port="0" to-layer="2363" to-port="1" />
		<edge from-layer="2363" from-port="2" to-layer="2368" to-port="0" />
		<edge from-layer="2364" from-port="0" to-layer="2368" to-port="1" />
		<edge from-layer="2365" from-port="0" to-layer="2368" to-port="2" />
		<edge from-layer="2366" from-port="0" to-layer="2368" to-port="3" />
		<edge from-layer="2367" from-port="0" to-layer="2368" to-port="4" />
		<edge from-layer="2368" from-port="5" to-layer="2370" to-port="0" />
		<edge from-layer="2369" from-port="0" to-layer="2370" to-port="1" />
		<edge from-layer="2370" from-port="2" to-layer="2375" to-port="0" />
		<edge from-layer="2371" from-port="0" to-layer="2372" to-port="0" />
		<edge from-layer="2372" from-port="1" to-layer="2374" to-port="0" />
		<edge from-layer="2373" from-port="0" to-layer="2374" to-port="1" />
		<edge from-layer="2374" from-port="2" to-layer="2375" to-port="1" />
		<edge from-layer="2375" from-port="2" to-layer="2377" to-port="0" />
		<edge from-layer="2376" from-port="0" to-layer="2377" to-port="1" />
		<edge from-layer="2377" from-port="2" to-layer="2378" to-port="0" />
	</edges>
	<rt_info>
		<MO_version value="2023.0.0-10926-b4452d56304-releases/2023/0" />
		<Runtime_version value="2023.0.0-10926-b4452d56304-releases/2023/0" />
		<conversion_parameters>
			<input value="data" />
			<input_model value="DIR/model_ready.onnx" />
			<input_shape value="[1, 3, 224, 224]" />
			<is_python_api_used value="False" />
			<mean_values value="[123.675, 116.28, 103.53]" />
			<model_name value="model" />
			<output value="logits" />
			<output_dir value="DIR" />
			<reverse_input_channels value="True" />
			<scale_values value="[58.395, 57.12, 57.375]" />
		</conversion_parameters>
		<legacy_frontend value="False" />
		<model_info>
			<confidence_threshold value="0.5" />
			<hierarchical value="False" />
			<hierarchical_config value="{&quot;cls_heads_info&quot;: {&quot;num_multiclass_heads&quot;: 1, &quot;num_multilabel_classes&quot;: 0, &quot;head_idx_to_logits_range&quot;: {&quot;0&quot;: [0, 2]}, &quot;num_single_label_classes&quot;: 2, &quot;class_to_group_idx&quot;: {&quot;bad&quot;: [0, 0], &quot;good&quot;: [0, 1]}, &quot;all_groups&quot;: [[&quot;bad&quot;, &quot;good&quot;]], &quot;label_to_idx&quot;: {&quot;bad&quot;: 0, &quot;good&quot;: 1}, &quot;empty_multiclass_head_indices&quot;: []}, &quot;label_tree_edges&quot;: []}" />
			<labels value="bad good" />
			<model_type value="Classification" />
			<multilabel value="False" />
			<output_raw_scores value="True" />
		</model_info>
		<nncf>
			<quantization>
				<advanced_parameters value="{}" />
				<fast_bias_correction value="True" />
				<ignored_scope value="None" />
				<model_type value="None" />
				<preset value="performance" />
				<subset_size value="80" />
				<target_device value="ANY" />
			</quantization>
		</nncf>
		<otx_config value="{&quot;type_of_model&quot;: &quot;Classification&quot;, &quot;converter_type&quot;: &quot;CLASSIFICATION&quot;, &quot;model_parameters&quot;: {&quot;multilabel&quot;: false, &quot;hierarchical&quot;: false, &quot;multihead_class_info&quot;: {}, &quot;confidence_threshold&quot;: 0.5, &quot;labels&quot;: {&quot;label_tree&quot;: {&quot;type&quot;: &quot;tree&quot;, &quot;directed&quot;: true, &quot;nodes&quot;: [&quot;0&quot;, &quot;1&quot;], &quot;edges&quot;: []}, &quot;label_groups&quot;: [{&quot;_id&quot;: &quot;666c0992ec44656501329531&quot;, &quot;name&quot;: &quot;labels&quot;, &quot;label_ids&quot;: [&quot;0&quot;, &quot;1&quot;], &quot;relation_type&quot;: &quot;EXCLUSIVE&quot;}], &quot;all_labels&quot;: {&quot;0&quot;: {&quot;_id&quot;: &quot;0&quot;, &quot;name&quot;: &quot;bad&quot;, &quot;color&quot;: {&quot;red&quot;: 86, &quot;green&quot;: 166, &quot;blue&quot;: 110, &quot;alpha&quot;: 255}, &quot;hotkey&quot;: &quot;&quot;, &quot;domain&quot;: &quot;CLASSIFICATION&quot;, &quot;creation_date&quot;: &quot;2024-06-14T09:12:50.885000&quot;, &quot;is_empty&quot;: false, &quot;is_anomalous&quot;: false}, &quot;1&quot;: {&quot;_id&quot;: &quot;1&quot;, &quot;name&quot;: &quot;good&quot;, &quot;color&quot;: {&quot;red&quot;: 21, &quot;green&quot;: 210, &quot;blue&quot;: 180, &quot;alpha&quot;: 255}, &quot;hotkey&quot;: &quot;&quot;, &quot;domain&quot;: &quot;CLASSIFICATION&quot;, &quot;creation_date&quot;: &quot;2024-06-14T09:12:50.885000&quot;, &quot;is_empty&quot;: false, &quot;is_anomalous&quot;: false}}}}}" />
	</rt_info>
</net>
