<?xml version="1.0"?>
<net name="torch-jit-export" version="11">
	<layers>
		<layer id="0" name="actual_input" type="Parameter" version="opset1">
			<data shape="1,1,96,2000" element_type="f32" />
			<rt_info>
				<attribute name="old_api_map_element_type" version="0" value="f16" />
			</rt_info>
			<output>
				<port id="0" precision="FP32" names="actual_input">
					<dim>1</dim>
					<dim>1</dim>
					<dim>96</dim>
					<dim>2000</dim>
					<rt_info>
						<attribute name="layout" version="0" layout="[N,C,H,W]" />
					</rt_info>
				</port>
			</output>
		</layer>
		<layer id="1" name="Constant_2751_compressed" type="Const" version="opset1">
			<data element_type="f16" shape="1, 1, 1, 1" offset="0" size="2" />
			<output>
				<port id="0" precision="FP16">
					<dim>1</dim>
					<dim>1</dim>
					<dim>1</dim>
					<dim>1</dim>
				</port>
			</output>
		</layer>
		<layer id="2" name="Constant_2751" type="Convert" version="opset1">
			<data destination_type="f32" />
			<rt_info>
				<attribute name="decompression" version="0" />
			</rt_info>
			<input>
				<port id="0" precision="FP16">
					<dim>1</dim>
					<dim>1</dim>
					<dim>1</dim>
					<dim>1</dim>
				</port>
			</input>
			<output>
				<port id="1" precision="FP32">
					<dim>1</dim>
					<dim>1</dim>
					<dim>1</dim>
					<dim>1</dim>
				</port>
			</output>
		</layer>
		<layer id="3" name="Subtract_351" type="Subtract" version="opset1">
			<data auto_broadcast="numpy" />
			<rt_info>
				<attribute name="preprocessing" version="0" />
			</rt_info>
			<input>
				<port id="0" precision="FP32">
					<dim>1</dim>
					<dim>1</dim>
					<dim>96</dim>
					<dim>2000</dim>
				</port>
				<port id="1" precision="FP32">
					<dim>1</dim>
					<dim>1</dim>
					<dim>1</dim>
					<dim>1</dim>
				</port>
			</input>
			<output>
				<port id="2" precision="FP32">
					<dim>1</dim>
					<dim>1</dim>
					<dim>96</dim>
					<dim>2000</dim>
				</port>
			</output>
		</layer>
		<layer id="4" name="Multiply_2600_compressed" type="Const" version="opset1">
			<data element_type="f16" shape="64, 1, 3, 3" offset="2" size="1152" />
			<rt_info>
				<attribute name="preprocessing" version="0" />
			</rt_info>
			<output>
				<port id="0" precision="FP16">
					<dim>64</dim>
					<dim>1</dim>
					<dim>3</dim>
					<dim>3</dim>
				</port>
			</output>
		</layer>
		<layer id="5" name="Multiply_2600" type="Convert" version="opset1">
			<data destination_type="f32" />
			<rt_info>
				<attribute name="decompression" version="0" />
				<attribute name="preprocessing" version="0" />
			</rt_info>
			<input>
				<port id="0" precision="FP16">
					<dim>64</dim>
					<dim>1</dim>
					<dim>3</dim>
					<dim>3</dim>
				</port>
			</input>
			<output>
				<port id="1" precision="FP32">
					<dim>64</dim>
					<dim>1</dim>
					<dim>3</dim>
					<dim>3</dim>
				</port>
			</output>
		</layer>
		<layer id="6" name="Multiply_2466" type="Convolution" version="opset1">
			<data strides="1, 1" dilations="1, 1" pads_begin="1, 1" pads_end="1, 1" auto_pad="explicit" />
			<rt_info>
				<attribute name="preprocessing" version="0" />
			</rt_info>
			<input>
				<port id="0" precision="FP32">
					<dim>1</dim>
					<dim>1</dim>
					<dim>96</dim>
					<dim>2000</dim>
				</port>
				<port id="1" precision="FP32">
					<dim>64</dim>
					<dim>1</dim>
					<dim>3</dim>
					<dim>3</dim>
				</port>
			</input>
			<output>
				<port id="2" precision="FP32">
					<dim>1</dim>
					<dim>64</dim>
					<dim>96</dim>
					<dim>2000</dim>
				</port>
			</output>
		</layer>
		<layer id="7" name="Constant_2471_compressed" type="Const" version="opset1">
			<data element_type="f16" shape="1, 64, 1, 1" offset="1154" size="128" />
			<output>
				<port id="0" precision="FP16">
					<dim>1</dim>
					<dim>64</dim>
					<dim>1</dim>
					<dim>1</dim>
				</port>
			</output>
		</layer>
		<layer id="8" name="Constant_2471" type="Convert" version="opset1">
			<data destination_type="f32" />
			<rt_info>
				<attribute name="decompression" version="0" />
			</rt_info>
			<input>
				<port id="0" precision="FP16">
					<dim>1</dim>
					<dim>64</dim>
					<dim>1</dim>
					<dim>1</dim>
				</port>
			</input>
			<output>
				<port id="1" precision="FP32">
					<dim>1</dim>
					<dim>64</dim>
					<dim>1</dim>
					<dim>1</dim>
				</port>
			</output>
		</layer>
		<layer id="9" name="95" type="Add" version="opset1">
			<data auto_broadcast="numpy" />
			<input>
				<port id="0" precision="FP32">
					<dim>1</dim>
					<dim>64</dim>
					<dim>96</dim>
					<dim>2000</dim>
				</port>
				<port id="1" precision="FP32">
					<dim>1</dim>
					<dim>64</dim>
					<dim>1</dim>
					<dim>1</dim>
				</port>
			</input>
			<output>
				<port id="2" precision="FP32" names="95">
					<dim>1</dim>
					<dim>64</dim>
					<dim>96</dim>
					<dim>2000</dim>
				</port>
			</output>
		</layer>
		<layer id="10" name="96" type="ReLU" version="opset1">
			<input>
				<port id="0" precision="FP32">
					<dim>1</dim>
					<dim>64</dim>
					<dim>96</dim>
					<dim>2000</dim>
				</port>
			</input>
			<output>
				<port id="1" precision="FP32" names="96">
					<dim>1</dim>
					<dim>64</dim>
					<dim>96</dim>
					<dim>2000</dim>
				</port>
			</output>
		</layer>
		<layer id="11" name="Multiply_2606_compressed" type="Const" version="opset1">
			<data element_type="f16" shape="64, 64, 3, 3" offset="1282" size="73728" />
			<output>
				<port id="0" precision="FP16">
					<dim>64</dim>
					<dim>64</dim>
					<dim>3</dim>
					<dim>3</dim>
				</port>
			</output>
		</layer>
		<layer id="12" name="Multiply_2606" type="Convert" version="opset1">
			<data destination_type="f32" />
			<rt_info>
				<attribute name="decompression" version="0" />
			</rt_info>
			<input>
				<port id="0" precision="FP16">
					<dim>64</dim>
					<dim>64</dim>
					<dim>3</dim>
					<dim>3</dim>
				</port>
			</input>
			<output>
				<port id="1" precision="FP32">
					<dim>64</dim>
					<dim>64</dim>
					<dim>3</dim>
					<dim>3</dim>
				</port>
			</output>
		</layer>
		<layer id="13" name="Multiply_2476" type="Convolution" version="opset1">
			<data strides="1, 1" dilations="1, 1" pads_begin="1, 1" pads_end="1, 1" auto_pad="explicit" />
			<input>
				<port id="0" precision="FP32">
					<dim>1</dim>
					<dim>64</dim>
					<dim>96</dim>
					<dim>2000</dim>
				</port>
				<port id="1" precision="FP32">
					<dim>64</dim>
					<dim>64</dim>
					<dim>3</dim>
					<dim>3</dim>
				</port>
			</input>
			<output>
				<port id="2" precision="FP32">
					<dim>1</dim>
					<dim>64</dim>
					<dim>96</dim>
					<dim>2000</dim>
				</port>
			</output>
		</layer>
		<layer id="14" name="Constant_2481_compressed" type="Const" version="opset1">
			<data element_type="f16" shape="1, 64, 1, 1" offset="75010" size="128" />
			<output>
				<port id="0" precision="FP16">
					<dim>1</dim>
					<dim>64</dim>
					<dim>1</dim>
					<dim>1</dim>
				</port>
			</output>
		</layer>
		<layer id="15" name="Constant_2481" type="Convert" version="opset1">
			<data destination_type="f32" />
			<rt_info>
				<attribute name="decompression" version="0" />
			</rt_info>
			<input>
				<port id="0" precision="FP16">
					<dim>1</dim>
					<dim>64</dim>
					<dim>1</dim>
					<dim>1</dim>
				</port>
			</input>
			<output>
				<port id="1" precision="FP32">
					<dim>1</dim>
					<dim>64</dim>
					<dim>1</dim>
					<dim>1</dim>
				</port>
			</output>
		</layer>
		<layer id="16" name="98" type="Add" version="opset1">
			<data auto_broadcast="numpy" />
			<input>
				<port id="0" precision="FP32">
					<dim>1</dim>
					<dim>64</dim>
					<dim>96</dim>
					<dim>2000</dim>
				</port>
				<port id="1" precision="FP32">
					<dim>1</dim>
					<dim>64</dim>
					<dim>1</dim>
					<dim>1</dim>
				</port>
			</input>
			<output>
				<port id="2" precision="FP32" names="98">
					<dim>1</dim>
					<dim>64</dim>
					<dim>96</dim>
					<dim>2000</dim>
				</port>
			</output>
		</layer>
		<layer id="17" name="99" type="ReLU" version="opset1">
			<input>
				<port id="0" precision="FP32">
					<dim>1</dim>
					<dim>64</dim>
					<dim>96</dim>
					<dim>2000</dim>
				</port>
			</input>
			<output>
				<port id="1" precision="FP32" names="99">
					<dim>1</dim>
					<dim>64</dim>
					<dim>96</dim>
					<dim>2000</dim>
				</port>
			</output>
		</layer>
		<layer id="18" name="100" type="MaxPool" version="opset8">
			<data strides="2, 2" dilations="1, 1" pads_begin="0, 0" pads_end="0, 0" kernel="2, 2" rounding_type="floor" auto_pad="explicit" index_element_type="i64" axis="0" />
			<input>
				<port id="0" precision="FP32">
					<dim>1</dim>
					<dim>64</dim>
					<dim>96</dim>
					<dim>2000</dim>
				</port>
			</input>
			<output>
				<port id="1" precision="FP32" names="100">
					<dim>1</dim>
					<dim>64</dim>
					<dim>48</dim>
					<dim>1000</dim>
				</port>
				<port id="2" precision="I64">
					<dim>1</dim>
					<dim>64</dim>
					<dim>48</dim>
					<dim>1000</dim>
				</port>
			</output>
		</layer>
		<layer id="19" name="Multiply_2612_compressed" type="Const" version="opset1">
			<data element_type="f16" shape="128, 64, 3, 3" offset="75138" size="147456" />
			<output>
				<port id="0" precision="FP16">
					<dim>128</dim>
					<dim>64</dim>
					<dim>3</dim>
					<dim>3</dim>
				</port>
			</output>
		</layer>
		<layer id="20" name="Multiply_2612" type="Convert" version="opset1">
			<data destination_type="f32" />
			<rt_info>
				<attribute name="decompression" version="0" />
			</rt_info>
			<input>
				<port id="0" precision="FP16">
					<dim>128</dim>
					<dim>64</dim>
					<dim>3</dim>
					<dim>3</dim>
				</port>
			</input>
			<output>
				<port id="1" precision="FP32">
					<dim>128</dim>
					<dim>64</dim>
					<dim>3</dim>
					<dim>3</dim>
				</port>
			</output>
		</layer>
		<layer id="21" name="Multiply_2486" type="Convolution" version="opset1">
			<data strides="1, 1" dilations="1, 1" pads_begin="1, 1" pads_end="1, 1" auto_pad="explicit" />
			<input>
				<port id="0" precision="FP32">
					<dim>1</dim>
					<dim>64</dim>
					<dim>48</dim>
					<dim>1000</dim>
				</port>
				<port id="1" precision="FP32">
					<dim>128</dim>
					<dim>64</dim>
					<dim>3</dim>
					<dim>3</dim>
				</port>
			</input>
			<output>
				<port id="2" precision="FP32">
					<dim>1</dim>
					<dim>128</dim>
					<dim>48</dim>
					<dim>1000</dim>
				</port>
			</output>
		</layer>
		<layer id="22" name="Constant_2491_compressed" type="Const" version="opset1">
			<data element_type="f16" shape="1, 128, 1, 1" offset="222594" size="256" />
			<output>
				<port id="0" precision="FP16">
					<dim>1</dim>
					<dim>128</dim>
					<dim>1</dim>
					<dim>1</dim>
				</port>
			</output>
		</layer>
		<layer id="23" name="Constant_2491" type="Convert" version="opset1">
			<data destination_type="f32" />
			<rt_info>
				<attribute name="decompression" version="0" />
			</rt_info>
			<input>
				<port id="0" precision="FP16">
					<dim>1</dim>
					<dim>128</dim>
					<dim>1</dim>
					<dim>1</dim>
				</port>
			</input>
			<output>
				<port id="1" precision="FP32">
					<dim>1</dim>
					<dim>128</dim>
					<dim>1</dim>
					<dim>1</dim>
				</port>
			</output>
		</layer>
		<layer id="24" name="102" type="Add" version="opset1">
			<data auto_broadcast="numpy" />
			<input>
				<port id="0" precision="FP32">
					<dim>1</dim>
					<dim>128</dim>
					<dim>48</dim>
					<dim>1000</dim>
				</port>
				<port id="1" precision="FP32">
					<dim>1</dim>
					<dim>128</dim>
					<dim>1</dim>
					<dim>1</dim>
				</port>
			</input>
			<output>
				<port id="2" precision="FP32" names="102">
					<dim>1</dim>
					<dim>128</dim>
					<dim>48</dim>
					<dim>1000</dim>
				</port>
			</output>
		</layer>
		<layer id="25" name="103" type="ReLU" version="opset1">
			<input>
				<port id="0" precision="FP32">
					<dim>1</dim>
					<dim>128</dim>
					<dim>48</dim>
					<dim>1000</dim>
				</port>
			</input>
			<output>
				<port id="1" precision="FP32" names="103">
					<dim>1</dim>
					<dim>128</dim>
					<dim>48</dim>
					<dim>1000</dim>
				</port>
			</output>
		</layer>
		<layer id="26" name="Multiply_2618_compressed" type="Const" version="opset1">
			<data element_type="f16" shape="128, 128, 3, 3" offset="222850" size="294912" />
			<output>
				<port id="0" precision="FP16">
					<dim>128</dim>
					<dim>128</dim>
					<dim>3</dim>
					<dim>3</dim>
				</port>
			</output>
		</layer>
		<layer id="27" name="Multiply_2618" type="Convert" version="opset1">
			<data destination_type="f32" />
			<rt_info>
				<attribute name="decompression" version="0" />
			</rt_info>
			<input>
				<port id="0" precision="FP16">
					<dim>128</dim>
					<dim>128</dim>
					<dim>3</dim>
					<dim>3</dim>
				</port>
			</input>
			<output>
				<port id="1" precision="FP32">
					<dim>128</dim>
					<dim>128</dim>
					<dim>3</dim>
					<dim>3</dim>
				</port>
			</output>
		</layer>
		<layer id="28" name="Multiply_2496" type="Convolution" version="opset1">
			<data strides="1, 1" dilations="1, 1" pads_begin="1, 1" pads_end="1, 1" auto_pad="explicit" />
			<input>
				<port id="0" precision="FP32">
					<dim>1</dim>
					<dim>128</dim>
					<dim>48</dim>
					<dim>1000</dim>
				</port>
				<port id="1" precision="FP32">
					<dim>128</dim>
					<dim>128</dim>
					<dim>3</dim>
					<dim>3</dim>
				</port>
			</input>
			<output>
				<port id="2" precision="FP32">
					<dim>1</dim>
					<dim>128</dim>
					<dim>48</dim>
					<dim>1000</dim>
				</port>
			</output>
		</layer>
		<layer id="29" name="Constant_2501_compressed" type="Const" version="opset1">
			<data element_type="f16" shape="1, 128, 1, 1" offset="517762" size="256" />
			<output>
				<port id="0" precision="FP16">
					<dim>1</dim>
					<dim>128</dim>
					<dim>1</dim>
					<dim>1</dim>
				</port>
			</output>
		</layer>
		<layer id="30" name="Constant_2501" type="Convert" version="opset1">
			<data destination_type="f32" />
			<rt_info>
				<attribute name="decompression" version="0" />
			</rt_info>
			<input>
				<port id="0" precision="FP16">
					<dim>1</dim>
					<dim>128</dim>
					<dim>1</dim>
					<dim>1</dim>
				</port>
			</input>
			<output>
				<port id="1" precision="FP32">
					<dim>1</dim>
					<dim>128</dim>
					<dim>1</dim>
					<dim>1</dim>
				</port>
			</output>
		</layer>
		<layer id="31" name="105" type="Add" version="opset1">
			<data auto_broadcast="numpy" />
			<input>
				<port id="0" precision="FP32">
					<dim>1</dim>
					<dim>128</dim>
					<dim>48</dim>
					<dim>1000</dim>
				</port>
				<port id="1" precision="FP32">
					<dim>1</dim>
					<dim>128</dim>
					<dim>1</dim>
					<dim>1</dim>
				</port>
			</input>
			<output>
				<port id="2" precision="FP32" names="105">
					<dim>1</dim>
					<dim>128</dim>
					<dim>48</dim>
					<dim>1000</dim>
				</port>
			</output>
		</layer>
		<layer id="32" name="106" type="ReLU" version="opset1">
			<input>
				<port id="0" precision="FP32">
					<dim>1</dim>
					<dim>128</dim>
					<dim>48</dim>
					<dim>1000</dim>
				</port>
			</input>
			<output>
				<port id="1" precision="FP32" names="106">
					<dim>1</dim>
					<dim>128</dim>
					<dim>48</dim>
					<dim>1000</dim>
				</port>
			</output>
		</layer>
		<layer id="33" name="107" type="MaxPool" version="opset8">
			<data strides="2, 2" dilations="1, 1" pads_begin="0, 0" pads_end="0, 0" kernel="2, 2" rounding_type="floor" auto_pad="explicit" index_element_type="i64" axis="0" />
			<input>
				<port id="0" precision="FP32">
					<dim>1</dim>
					<dim>128</dim>
					<dim>48</dim>
					<dim>1000</dim>
				</port>
			</input>
			<output>
				<port id="1" precision="FP32" names="107">
					<dim>1</dim>
					<dim>128</dim>
					<dim>24</dim>
					<dim>500</dim>
				</port>
				<port id="2" precision="I64">
					<dim>1</dim>
					<dim>128</dim>
					<dim>24</dim>
					<dim>500</dim>
				</port>
			</output>
		</layer>
		<layer id="34" name="Multiply_2624_compressed" type="Const" version="opset1">
			<data element_type="f16" shape="256, 128, 3, 3" offset="518018" size="589824" />
			<output>
				<port id="0" precision="FP16">
					<dim>256</dim>
					<dim>128</dim>
					<dim>3</dim>
					<dim>3</dim>
				</port>
			</output>
		</layer>
		<layer id="35" name="Multiply_2624" type="Convert" version="opset1">
			<data destination_type="f32" />
			<rt_info>
				<attribute name="decompression" version="0" />
			</rt_info>
			<input>
				<port id="0" precision="FP16">
					<dim>256</dim>
					<dim>128</dim>
					<dim>3</dim>
					<dim>3</dim>
				</port>
			</input>
			<output>
				<port id="1" precision="FP32">
					<dim>256</dim>
					<dim>128</dim>
					<dim>3</dim>
					<dim>3</dim>
				</port>
			</output>
		</layer>
		<layer id="36" name="Multiply_2506" type="Convolution" version="opset1">
			<data strides="1, 1" dilations="1, 1" pads_begin="1, 1" pads_end="1, 1" auto_pad="explicit" />
			<input>
				<port id="0" precision="FP32">
					<dim>1</dim>
					<dim>128</dim>
					<dim>24</dim>
					<dim>500</dim>
				</port>
				<port id="1" precision="FP32">
					<dim>256</dim>
					<dim>128</dim>
					<dim>3</dim>
					<dim>3</dim>
				</port>
			</input>
			<output>
				<port id="2" precision="FP32">
					<dim>1</dim>
					<dim>256</dim>
					<dim>24</dim>
					<dim>500</dim>
				</port>
			</output>
		</layer>
		<layer id="37" name="Constant_2511_compressed" type="Const" version="opset1">
			<data element_type="f16" shape="1, 256, 1, 1" offset="1107842" size="512" />
			<output>
				<port id="0" precision="FP16">
					<dim>1</dim>
					<dim>256</dim>
					<dim>1</dim>
					<dim>1</dim>
				</port>
			</output>
		</layer>
		<layer id="38" name="Constant_2511" type="Convert" version="opset1">
			<data destination_type="f32" />
			<rt_info>
				<attribute name="decompression" version="0" />
			</rt_info>
			<input>
				<port id="0" precision="FP16">
					<dim>1</dim>
					<dim>256</dim>
					<dim>1</dim>
					<dim>1</dim>
				</port>
			</input>
			<output>
				<port id="1" precision="FP32">
					<dim>1</dim>
					<dim>256</dim>
					<dim>1</dim>
					<dim>1</dim>
				</port>
			</output>
		</layer>
		<layer id="39" name="109" type="Add" version="opset1">
			<data auto_broadcast="numpy" />
			<input>
				<port id="0" precision="FP32">
					<dim>1</dim>
					<dim>256</dim>
					<dim>24</dim>
					<dim>500</dim>
				</port>
				<port id="1" precision="FP32">
					<dim>1</dim>
					<dim>256</dim>
					<dim>1</dim>
					<dim>1</dim>
				</port>
			</input>
			<output>
				<port id="2" precision="FP32" names="109">
					<dim>1</dim>
					<dim>256</dim>
					<dim>24</dim>
					<dim>500</dim>
				</port>
			</output>
		</layer>
		<layer id="40" name="110" type="ReLU" version="opset1">
			<input>
				<port id="0" precision="FP32">
					<dim>1</dim>
					<dim>256</dim>
					<dim>24</dim>
					<dim>500</dim>
				</port>
			</input>
			<output>
				<port id="1" precision="FP32" names="110">
					<dim>1</dim>
					<dim>256</dim>
					<dim>24</dim>
					<dim>500</dim>
				</port>
			</output>
		</layer>
		<layer id="41" name="Multiply_2630_compressed" type="Const" version="opset1">
			<data element_type="f16" shape="256, 256, 3, 3" offset="1108354" size="1179648" />
			<output>
				<port id="0" precision="FP16">
					<dim>256</dim>
					<dim>256</dim>
					<dim>3</dim>
					<dim>3</dim>
				</port>
			</output>
		</layer>
		<layer id="42" name="Multiply_2630" type="Convert" version="opset1">
			<data destination_type="f32" />
			<rt_info>
				<attribute name="decompression" version="0" />
			</rt_info>
			<input>
				<port id="0" precision="FP16">
					<dim>256</dim>
					<dim>256</dim>
					<dim>3</dim>
					<dim>3</dim>
				</port>
			</input>
			<output>
				<port id="1" precision="FP32">
					<dim>256</dim>
					<dim>256</dim>
					<dim>3</dim>
					<dim>3</dim>
				</port>
			</output>
		</layer>
		<layer id="43" name="Multiply_2516" type="Convolution" version="opset1">
			<data strides="1, 1" dilations="1, 1" pads_begin="1, 1" pads_end="1, 1" auto_pad="explicit" />
			<input>
				<port id="0" precision="FP32">
					<dim>1</dim>
					<dim>256</dim>
					<dim>24</dim>
					<dim>500</dim>
				</port>
				<port id="1" precision="FP32">
					<dim>256</dim>
					<dim>256</dim>
					<dim>3</dim>
					<dim>3</dim>
				</port>
			</input>
			<output>
				<port id="2" precision="FP32">
					<dim>1</dim>
					<dim>256</dim>
					<dim>24</dim>
					<dim>500</dim>
				</port>
			</output>
		</layer>
		<layer id="44" name="Constant_2521_compressed" type="Const" version="opset1">
			<data element_type="f16" shape="1, 256, 1, 1" offset="2288002" size="512" />
			<output>
				<port id="0" precision="FP16">
					<dim>1</dim>
					<dim>256</dim>
					<dim>1</dim>
					<dim>1</dim>
				</port>
			</output>
		</layer>
		<layer id="45" name="Constant_2521" type="Convert" version="opset1">
			<data destination_type="f32" />
			<rt_info>
				<attribute name="decompression" version="0" />
			</rt_info>
			<input>
				<port id="0" precision="FP16">
					<dim>1</dim>
					<dim>256</dim>
					<dim>1</dim>
					<dim>1</dim>
				</port>
			</input>
			<output>
				<port id="1" precision="FP32">
					<dim>1</dim>
					<dim>256</dim>
					<dim>1</dim>
					<dim>1</dim>
				</port>
			</output>
		</layer>
		<layer id="46" name="112" type="Add" version="opset1">
			<data auto_broadcast="numpy" />
			<input>
				<port id="0" precision="FP32">
					<dim>1</dim>
					<dim>256</dim>
					<dim>24</dim>
					<dim>500</dim>
				</port>
				<port id="1" precision="FP32">
					<dim>1</dim>
					<dim>256</dim>
					<dim>1</dim>
					<dim>1</dim>
				</port>
			</input>
			<output>
				<port id="2" precision="FP32" names="112">
					<dim>1</dim>
					<dim>256</dim>
					<dim>24</dim>
					<dim>500</dim>
				</port>
			</output>
		</layer>
		<layer id="47" name="113" type="ReLU" version="opset1">
			<input>
				<port id="0" precision="FP32">
					<dim>1</dim>
					<dim>256</dim>
					<dim>24</dim>
					<dim>500</dim>
				</port>
			</input>
			<output>
				<port id="1" precision="FP32" names="113">
					<dim>1</dim>
					<dim>256</dim>
					<dim>24</dim>
					<dim>500</dim>
				</port>
			</output>
		</layer>
		<layer id="48" name="Multiply_2636_compressed" type="Const" version="opset1">
			<data element_type="f16" shape="256, 256, 3, 3" offset="2288514" size="1179648" />
			<output>
				<port id="0" precision="FP16">
					<dim>256</dim>
					<dim>256</dim>
					<dim>3</dim>
					<dim>3</dim>
				</port>
			</output>
		</layer>
		<layer id="49" name="Multiply_2636" type="Convert" version="opset1">
			<data destination_type="f32" />
			<rt_info>
				<attribute name="decompression" version="0" />
			</rt_info>
			<input>
				<port id="0" precision="FP16">
					<dim>256</dim>
					<dim>256</dim>
					<dim>3</dim>
					<dim>3</dim>
				</port>
			</input>
			<output>
				<port id="1" precision="FP32">
					<dim>256</dim>
					<dim>256</dim>
					<dim>3</dim>
					<dim>3</dim>
				</port>
			</output>
		</layer>
		<layer id="50" name="Multiply_2526" type="Convolution" version="opset1">
			<data strides="1, 1" dilations="1, 1" pads_begin="1, 1" pads_end="1, 1" auto_pad="explicit" />
			<input>
				<port id="0" precision="FP32">
					<dim>1</dim>
					<dim>256</dim>
					<dim>24</dim>
					<dim>500</dim>
				</port>
				<port id="1" precision="FP32">
					<dim>256</dim>
					<dim>256</dim>
					<dim>3</dim>
					<dim>3</dim>
				</port>
			</input>
			<output>
				<port id="2" precision="FP32">
					<dim>1</dim>
					<dim>256</dim>
					<dim>24</dim>
					<dim>500</dim>
				</port>
			</output>
		</layer>
		<layer id="51" name="Constant_2531_compressed" type="Const" version="opset1">
			<data element_type="f16" shape="1, 256, 1, 1" offset="3468162" size="512" />
			<output>
				<port id="0" precision="FP16">
					<dim>1</dim>
					<dim>256</dim>
					<dim>1</dim>
					<dim>1</dim>
				</port>
			</output>
		</layer>
		<layer id="52" name="Constant_2531" type="Convert" version="opset1">
			<data destination_type="f32" />
			<rt_info>
				<attribute name="decompression" version="0" />
			</rt_info>
			<input>
				<port id="0" precision="FP16">
					<dim>1</dim>
					<dim>256</dim>
					<dim>1</dim>
					<dim>1</dim>
				</port>
			</input>
			<output>
				<port id="1" precision="FP32">
					<dim>1</dim>
					<dim>256</dim>
					<dim>1</dim>
					<dim>1</dim>
				</port>
			</output>
		</layer>
		<layer id="53" name="115" type="Add" version="opset1">
			<data auto_broadcast="numpy" />
			<input>
				<port id="0" precision="FP32">
					<dim>1</dim>
					<dim>256</dim>
					<dim>24</dim>
					<dim>500</dim>
				</port>
				<port id="1" precision="FP32">
					<dim>1</dim>
					<dim>256</dim>
					<dim>1</dim>
					<dim>1</dim>
				</port>
			</input>
			<output>
				<port id="2" precision="FP32" names="115">
					<dim>1</dim>
					<dim>256</dim>
					<dim>24</dim>
					<dim>500</dim>
				</port>
			</output>
		</layer>
		<layer id="54" name="116" type="ReLU" version="opset1">
			<input>
				<port id="0" precision="FP32">
					<dim>1</dim>
					<dim>256</dim>
					<dim>24</dim>
					<dim>500</dim>
				</port>
			</input>
			<output>
				<port id="1" precision="FP32" names="116">
					<dim>1</dim>
					<dim>256</dim>
					<dim>24</dim>
					<dim>500</dim>
				</port>
			</output>
		</layer>
		<layer id="55" name="118" type="MaxPool" version="opset8">
			<data strides="2, 2" dilations="1, 1" pads_begin="0, 0" pads_end="0, 0" kernel="2, 2" rounding_type="floor" auto_pad="explicit" index_element_type="i64" axis="0" />
			<input>
				<port id="0" precision="FP32">
					<dim>1</dim>
					<dim>256</dim>
					<dim>24</dim>
					<dim>500</dim>
				</port>
			</input>
			<output>
				<port id="1" precision="FP32" names="118">
					<dim>1</dim>
					<dim>256</dim>
					<dim>12</dim>
					<dim>250</dim>
				</port>
				<port id="2" precision="I64">
					<dim>1</dim>
					<dim>256</dim>
					<dim>12</dim>
					<dim>250</dim>
				</port>
			</output>
		</layer>
		<layer id="56" name="Multiply_2642_compressed" type="Const" version="opset1">
			<data element_type="f16" shape="512, 256, 3, 3" offset="3468674" size="2359296" />
			<output>
				<port id="0" precision="FP16">
					<dim>512</dim>
					<dim>256</dim>
					<dim>3</dim>
					<dim>3</dim>
				</port>
			</output>
		</layer>
		<layer id="57" name="Multiply_2642" type="Convert" version="opset1">
			<data destination_type="f32" />
			<rt_info>
				<attribute name="decompression" version="0" />
			</rt_info>
			<input>
				<port id="0" precision="FP16">
					<dim>512</dim>
					<dim>256</dim>
					<dim>3</dim>
					<dim>3</dim>
				</port>
			</input>
			<output>
				<port id="1" precision="FP32">
					<dim>512</dim>
					<dim>256</dim>
					<dim>3</dim>
					<dim>3</dim>
				</port>
			</output>
		</layer>
		<layer id="58" name="Multiply_2536" type="Convolution" version="opset1">
			<data strides="1, 1" dilations="1, 1" pads_begin="1, 1" pads_end="1, 1" auto_pad="explicit" />
			<input>
				<port id="0" precision="FP32">
					<dim>1</dim>
					<dim>256</dim>
					<dim>12</dim>
					<dim>250</dim>
				</port>
				<port id="1" precision="FP32">
					<dim>512</dim>
					<dim>256</dim>
					<dim>3</dim>
					<dim>3</dim>
				</port>
			</input>
			<output>
				<port id="2" precision="FP32">
					<dim>1</dim>
					<dim>512</dim>
					<dim>12</dim>
					<dim>250</dim>
				</port>
			</output>
		</layer>
		<layer id="59" name="Constant_2541_compressed" type="Const" version="opset1">
			<data element_type="f16" shape="1, 512, 1, 1" offset="5827970" size="1024" />
			<output>
				<port id="0" precision="FP16">
					<dim>1</dim>
					<dim>512</dim>
					<dim>1</dim>
					<dim>1</dim>
				</port>
			</output>
		</layer>
		<layer id="60" name="Constant_2541" type="Convert" version="opset1">
			<data destination_type="f32" />
			<rt_info>
				<attribute name="decompression" version="0" />
			</rt_info>
			<input>
				<port id="0" precision="FP16">
					<dim>1</dim>
					<dim>512</dim>
					<dim>1</dim>
					<dim>1</dim>
				</port>
			</input>
			<output>
				<port id="1" precision="FP32">
					<dim>1</dim>
					<dim>512</dim>
					<dim>1</dim>
					<dim>1</dim>
				</port>
			</output>
		</layer>
		<layer id="61" name="121" type="Add" version="opset1">
			<data auto_broadcast="numpy" />
			<input>
				<port id="0" precision="FP32">
					<dim>1</dim>
					<dim>512</dim>
					<dim>12</dim>
					<dim>250</dim>
				</port>
				<port id="1" precision="FP32">
					<dim>1</dim>
					<dim>512</dim>
					<dim>1</dim>
					<dim>1</dim>
				</port>
			</input>
			<output>
				<port id="2" precision="FP32" names="121">
					<dim>1</dim>
					<dim>512</dim>
					<dim>12</dim>
					<dim>250</dim>
				</port>
			</output>
		</layer>
		<layer id="62" name="122" type="ReLU" version="opset1">
			<input>
				<port id="0" precision="FP32">
					<dim>1</dim>
					<dim>512</dim>
					<dim>12</dim>
					<dim>250</dim>
				</port>
			</input>
			<output>
				<port id="1" precision="FP32" names="122">
					<dim>1</dim>
					<dim>512</dim>
					<dim>12</dim>
					<dim>250</dim>
				</port>
			</output>
		</layer>
		<layer id="63" name="Multiply_2648_compressed" type="Const" version="opset1">
			<data element_type="f16" shape="512, 512, 3, 3" offset="5828994" size="4718592" />
			<output>
				<port id="0" precision="FP16">
					<dim>512</dim>
					<dim>512</dim>
					<dim>3</dim>
					<dim>3</dim>
				</port>
			</output>
		</layer>
		<layer id="64" name="Multiply_2648" type="Convert" version="opset1">
			<data destination_type="f32" />
			<rt_info>
				<attribute name="decompression" version="0" />
			</rt_info>
			<input>
				<port id="0" precision="FP16">
					<dim>512</dim>
					<dim>512</dim>
					<dim>3</dim>
					<dim>3</dim>
				</port>
			</input>
			<output>
				<port id="1" precision="FP32">
					<dim>512</dim>
					<dim>512</dim>
					<dim>3</dim>
					<dim>3</dim>
				</port>
			</output>
		</layer>
		<layer id="65" name="Multiply_2546" type="Convolution" version="opset1">
			<data strides="1, 1" dilations="1, 1" pads_begin="1, 1" pads_end="1, 1" auto_pad="explicit" />
			<input>
				<port id="0" precision="FP32">
					<dim>1</dim>
					<dim>512</dim>
					<dim>12</dim>
					<dim>250</dim>
				</port>
				<port id="1" precision="FP32">
					<dim>512</dim>
					<dim>512</dim>
					<dim>3</dim>
					<dim>3</dim>
				</port>
			</input>
			<output>
				<port id="2" precision="FP32">
					<dim>1</dim>
					<dim>512</dim>
					<dim>12</dim>
					<dim>250</dim>
				</port>
			</output>
		</layer>
		<layer id="66" name="Constant_2551_compressed" type="Const" version="opset1">
			<data element_type="f16" shape="1, 512, 1, 1" offset="10547586" size="1024" />
			<output>
				<port id="0" precision="FP16">
					<dim>1</dim>
					<dim>512</dim>
					<dim>1</dim>
					<dim>1</dim>
				</port>
			</output>
		</layer>
		<layer id="67" name="Constant_2551" type="Convert" version="opset1">
			<data destination_type="f32" />
			<rt_info>
				<attribute name="decompression" version="0" />
			</rt_info>
			<input>
				<port id="0" precision="FP16">
					<dim>1</dim>
					<dim>512</dim>
					<dim>1</dim>
					<dim>1</dim>
				</port>
			</input>
			<output>
				<port id="1" precision="FP32">
					<dim>1</dim>
					<dim>512</dim>
					<dim>1</dim>
					<dim>1</dim>
				</port>
			</output>
		</layer>
		<layer id="68" name="124" type="Add" version="opset1">
			<data auto_broadcast="numpy" />
			<input>
				<port id="0" precision="FP32">
					<dim>1</dim>
					<dim>512</dim>
					<dim>12</dim>
					<dim>250</dim>
				</port>
				<port id="1" precision="FP32">
					<dim>1</dim>
					<dim>512</dim>
					<dim>1</dim>
					<dim>1</dim>
				</port>
			</input>
			<output>
				<port id="2" precision="FP32" names="124">
					<dim>1</dim>
					<dim>512</dim>
					<dim>12</dim>
					<dim>250</dim>
				</port>
			</output>
		</layer>
		<layer id="69" name="125" type="ReLU" version="opset1">
			<input>
				<port id="0" precision="FP32">
					<dim>1</dim>
					<dim>512</dim>
					<dim>12</dim>
					<dim>250</dim>
				</port>
			</input>
			<output>
				<port id="1" precision="FP32" names="125">
					<dim>1</dim>
					<dim>512</dim>
					<dim>12</dim>
					<dim>250</dim>
				</port>
			</output>
		</layer>
		<layer id="70" name="Multiply_2654_compressed" type="Const" version="opset1">
			<data element_type="f16" shape="512, 512, 3, 3" offset="10548610" size="4718592" />
			<output>
				<port id="0" precision="FP16">
					<dim>512</dim>
					<dim>512</dim>
					<dim>3</dim>
					<dim>3</dim>
				</port>
			</output>
		</layer>
		<layer id="71" name="Multiply_2654" type="Convert" version="opset1">
			<data destination_type="f32" />
			<rt_info>
				<attribute name="decompression" version="0" />
			</rt_info>
			<input>
				<port id="0" precision="FP16">
					<dim>512</dim>
					<dim>512</dim>
					<dim>3</dim>
					<dim>3</dim>
				</port>
			</input>
			<output>
				<port id="1" precision="FP32">
					<dim>512</dim>
					<dim>512</dim>
					<dim>3</dim>
					<dim>3</dim>
				</port>
			</output>
		</layer>
		<layer id="72" name="Multiply_2556" type="Convolution" version="opset1">
			<data strides="1, 1" dilations="1, 1" pads_begin="1, 1" pads_end="1, 1" auto_pad="explicit" />
			<input>
				<port id="0" precision="FP32">
					<dim>1</dim>
					<dim>512</dim>
					<dim>12</dim>
					<dim>250</dim>
				</port>
				<port id="1" precision="FP32">
					<dim>512</dim>
					<dim>512</dim>
					<dim>3</dim>
					<dim>3</dim>
				</port>
			</input>
			<output>
				<port id="2" precision="FP32">
					<dim>1</dim>
					<dim>512</dim>
					<dim>12</dim>
					<dim>250</dim>
				</port>
			</output>
		</layer>
		<layer id="73" name="Constant_2561_compressed" type="Const" version="opset1">
			<data element_type="f16" shape="1, 512, 1, 1" offset="15267202" size="1024" />
			<output>
				<port id="0" precision="FP16">
					<dim>1</dim>
					<dim>512</dim>
					<dim>1</dim>
					<dim>1</dim>
				</port>
			</output>
		</layer>
		<layer id="74" name="Constant_2561" type="Convert" version="opset1">
			<data destination_type="f32" />
			<rt_info>
				<attribute name="decompression" version="0" />
			</rt_info>
			<input>
				<port id="0" precision="FP16">
					<dim>1</dim>
					<dim>512</dim>
					<dim>1</dim>
					<dim>1</dim>
				</port>
			</input>
			<output>
				<port id="1" precision="FP32">
					<dim>1</dim>
					<dim>512</dim>
					<dim>1</dim>
					<dim>1</dim>
				</port>
			</output>
		</layer>
		<layer id="75" name="127" type="Add" version="opset1">
			<data auto_broadcast="numpy" />
			<input>
				<port id="0" precision="FP32">
					<dim>1</dim>
					<dim>512</dim>
					<dim>12</dim>
					<dim>250</dim>
				</port>
				<port id="1" precision="FP32">
					<dim>1</dim>
					<dim>512</dim>
					<dim>1</dim>
					<dim>1</dim>
				</port>
			</input>
			<output>
				<port id="2" precision="FP32" names="127">
					<dim>1</dim>
					<dim>512</dim>
					<dim>12</dim>
					<dim>250</dim>
				</port>
			</output>
		</layer>
		<layer id="76" name="128" type="ReLU" version="opset1">
			<input>
				<port id="0" precision="FP32">
					<dim>1</dim>
					<dim>512</dim>
					<dim>12</dim>
					<dim>250</dim>
				</port>
			</input>
			<output>
				<port id="1" precision="FP32" names="128">
					<dim>1</dim>
					<dim>512</dim>
					<dim>12</dim>
					<dim>250</dim>
				</port>
			</output>
		</layer>
		<layer id="77" name="130" type="MaxPool" version="opset8">
			<data strides="2, 2" dilations="1, 1" pads_begin="0, 0" pads_end="0, 0" kernel="2, 2" rounding_type="floor" auto_pad="explicit" index_element_type="i64" axis="0" />
			<input>
				<port id="0" precision="FP32">
					<dim>1</dim>
					<dim>512</dim>
					<dim>12</dim>
					<dim>250</dim>
				</port>
			</input>
			<output>
				<port id="1" precision="FP32" names="130">
					<dim>1</dim>
					<dim>512</dim>
					<dim>6</dim>
					<dim>125</dim>
				</port>
				<port id="2" precision="I64">
					<dim>1</dim>
					<dim>512</dim>
					<dim>6</dim>
					<dim>125</dim>
				</port>
			</output>
		</layer>
		<layer id="78" name="Multiply_2660_compressed" type="Const" version="opset1">
			<data element_type="f16" shape="512, 512, 3, 3" offset="15268226" size="4718592" />
			<output>
				<port id="0" precision="FP16">
					<dim>512</dim>
					<dim>512</dim>
					<dim>3</dim>
					<dim>3</dim>
				</port>
			</output>
		</layer>
		<layer id="79" name="Multiply_2660" type="Convert" version="opset1">
			<data destination_type="f32" />
			<rt_info>
				<attribute name="decompression" version="0" />
			</rt_info>
			<input>
				<port id="0" precision="FP16">
					<dim>512</dim>
					<dim>512</dim>
					<dim>3</dim>
					<dim>3</dim>
				</port>
			</input>
			<output>
				<port id="1" precision="FP32">
					<dim>512</dim>
					<dim>512</dim>
					<dim>3</dim>
					<dim>3</dim>
				</port>
			</output>
		</layer>
		<layer id="80" name="Multiply_2566" type="Convolution" version="opset1">
			<data strides="1, 1" dilations="1, 1" pads_begin="1, 1" pads_end="1, 1" auto_pad="explicit" />
			<input>
				<port id="0" precision="FP32">
					<dim>1</dim>
					<dim>512</dim>
					<dim>6</dim>
					<dim>125</dim>
				</port>
				<port id="1" precision="FP32">
					<dim>512</dim>
					<dim>512</dim>
					<dim>3</dim>
					<dim>3</dim>
				</port>
			</input>
			<output>
				<port id="2" precision="FP32">
					<dim>1</dim>
					<dim>512</dim>
					<dim>6</dim>
					<dim>125</dim>
				</port>
			</output>
		</layer>
		<layer id="81" name="Constant_2571_compressed" type="Const" version="opset1">
			<data element_type="f16" shape="1, 512, 1, 1" offset="19986818" size="1024" />
			<output>
				<port id="0" precision="FP16">
					<dim>1</dim>
					<dim>512</dim>
					<dim>1</dim>
					<dim>1</dim>
				</port>
			</output>
		</layer>
		<layer id="82" name="Constant_2571" type="Convert" version="opset1">
			<data destination_type="f32" />
			<rt_info>
				<attribute name="decompression" version="0" />
			</rt_info>
			<input>
				<port id="0" precision="FP16">
					<dim>1</dim>
					<dim>512</dim>
					<dim>1</dim>
					<dim>1</dim>
				</port>
			</input>
			<output>
				<port id="1" precision="FP32">
					<dim>1</dim>
					<dim>512</dim>
					<dim>1</dim>
					<dim>1</dim>
				</port>
			</output>
		</layer>
		<layer id="83" name="133" type="Add" version="opset1">
			<data auto_broadcast="numpy" />
			<input>
				<port id="0" precision="FP32">
					<dim>1</dim>
					<dim>512</dim>
					<dim>6</dim>
					<dim>125</dim>
				</port>
				<port id="1" precision="FP32">
					<dim>1</dim>
					<dim>512</dim>
					<dim>1</dim>
					<dim>1</dim>
				</port>
			</input>
			<output>
				<port id="2" precision="FP32" names="133">
					<dim>1</dim>
					<dim>512</dim>
					<dim>6</dim>
					<dim>125</dim>
				</port>
			</output>
		</layer>
		<layer id="84" name="134" type="ReLU" version="opset1">
			<input>
				<port id="0" precision="FP32">
					<dim>1</dim>
					<dim>512</dim>
					<dim>6</dim>
					<dim>125</dim>
				</port>
			</input>
			<output>
				<port id="1" precision="FP32" names="134">
					<dim>1</dim>
					<dim>512</dim>
					<dim>6</dim>
					<dim>125</dim>
				</port>
			</output>
		</layer>
		<layer id="85" name="Multiply_2666_compressed" type="Const" version="opset1">
			<data element_type="f16" shape="512, 512, 3, 3" offset="19987842" size="4718592" />
			<output>
				<port id="0" precision="FP16">
					<dim>512</dim>
					<dim>512</dim>
					<dim>3</dim>
					<dim>3</dim>
				</port>
			</output>
		</layer>
		<layer id="86" name="Multiply_2666" type="Convert" version="opset1">
			<data destination_type="f32" />
			<rt_info>
				<attribute name="decompression" version="0" />
			</rt_info>
			<input>
				<port id="0" precision="FP16">
					<dim>512</dim>
					<dim>512</dim>
					<dim>3</dim>
					<dim>3</dim>
				</port>
			</input>
			<output>
				<port id="1" precision="FP32">
					<dim>512</dim>
					<dim>512</dim>
					<dim>3</dim>
					<dim>3</dim>
				</port>
			</output>
		</layer>
		<layer id="87" name="Multiply_2576" type="Convolution" version="opset1">
			<data strides="1, 1" dilations="1, 1" pads_begin="1, 1" pads_end="1, 1" auto_pad="explicit" />
			<input>
				<port id="0" precision="FP32">
					<dim>1</dim>
					<dim>512</dim>
					<dim>6</dim>
					<dim>125</dim>
				</port>
				<port id="1" precision="FP32">
					<dim>512</dim>
					<dim>512</dim>
					<dim>3</dim>
					<dim>3</dim>
				</port>
			</input>
			<output>
				<port id="2" precision="FP32">
					<dim>1</dim>
					<dim>512</dim>
					<dim>6</dim>
					<dim>125</dim>
				</port>
			</output>
		</layer>
		<layer id="88" name="Constant_2581_compressed" type="Const" version="opset1">
			<data element_type="f16" shape="1, 512, 1, 1" offset="24706434" size="1024" />
			<output>
				<port id="0" precision="FP16">
					<dim>1</dim>
					<dim>512</dim>
					<dim>1</dim>
					<dim>1</dim>
				</port>
			</output>
		</layer>
		<layer id="89" name="Constant_2581" type="Convert" version="opset1">
			<data destination_type="f32" />
			<rt_info>
				<attribute name="decompression" version="0" />
			</rt_info>
			<input>
				<port id="0" precision="FP16">
					<dim>1</dim>
					<dim>512</dim>
					<dim>1</dim>
					<dim>1</dim>
				</port>
			</input>
			<output>
				<port id="1" precision="FP32">
					<dim>1</dim>
					<dim>512</dim>
					<dim>1</dim>
					<dim>1</dim>
				</port>
			</output>
		</layer>
		<layer id="90" name="136" type="Add" version="opset1">
			<data auto_broadcast="numpy" />
			<input>
				<port id="0" precision="FP32">
					<dim>1</dim>
					<dim>512</dim>
					<dim>6</dim>
					<dim>125</dim>
				</port>
				<port id="1" precision="FP32">
					<dim>1</dim>
					<dim>512</dim>
					<dim>1</dim>
					<dim>1</dim>
				</port>
			</input>
			<output>
				<port id="2" precision="FP32" names="136">
					<dim>1</dim>
					<dim>512</dim>
					<dim>6</dim>
					<dim>125</dim>
				</port>
			</output>
		</layer>
		<layer id="91" name="137" type="ReLU" version="opset1">
			<input>
				<port id="0" precision="FP32">
					<dim>1</dim>
					<dim>512</dim>
					<dim>6</dim>
					<dim>125</dim>
				</port>
			</input>
			<output>
				<port id="1" precision="FP32" names="137">
					<dim>1</dim>
					<dim>512</dim>
					<dim>6</dim>
					<dim>125</dim>
				</port>
			</output>
		</layer>
		<layer id="92" name="Multiply_2672_compressed" type="Const" version="opset1">
			<data element_type="f16" shape="512, 512, 3, 3" offset="24707458" size="4718592" />
			<output>
				<port id="0" precision="FP16">
					<dim>512</dim>
					<dim>512</dim>
					<dim>3</dim>
					<dim>3</dim>
				</port>
			</output>
		</layer>
		<layer id="93" name="Multiply_2672" type="Convert" version="opset1">
			<data destination_type="f32" />
			<rt_info>
				<attribute name="decompression" version="0" />
			</rt_info>
			<input>
				<port id="0" precision="FP16">
					<dim>512</dim>
					<dim>512</dim>
					<dim>3</dim>
					<dim>3</dim>
				</port>
			</input>
			<output>
				<port id="1" precision="FP32">
					<dim>512</dim>
					<dim>512</dim>
					<dim>3</dim>
					<dim>3</dim>
				</port>
			</output>
		</layer>
		<layer id="94" name="Multiply_2586" type="Convolution" version="opset1">
			<data strides="1, 1" dilations="1, 1" pads_begin="1, 1" pads_end="1, 1" auto_pad="explicit" />
			<input>
				<port id="0" precision="FP32">
					<dim>1</dim>
					<dim>512</dim>
					<dim>6</dim>
					<dim>125</dim>
				</port>
				<port id="1" precision="FP32">
					<dim>512</dim>
					<dim>512</dim>
					<dim>3</dim>
					<dim>3</dim>
				</port>
			</input>
			<output>
				<port id="2" precision="FP32">
					<dim>1</dim>
					<dim>512</dim>
					<dim>6</dim>
					<dim>125</dim>
				</port>
			</output>
		</layer>
		<layer id="95" name="Constant_2591_compressed" type="Const" version="opset1">
			<data element_type="f16" shape="1, 512, 1, 1" offset="29426050" size="1024" />
			<output>
				<port id="0" precision="FP16">
					<dim>1</dim>
					<dim>512</dim>
					<dim>1</dim>
					<dim>1</dim>
				</port>
			</output>
		</layer>
		<layer id="96" name="Constant_2591" type="Convert" version="opset1">
			<data destination_type="f32" />
			<rt_info>
				<attribute name="decompression" version="0" />
			</rt_info>
			<input>
				<port id="0" precision="FP16">
					<dim>1</dim>
					<dim>512</dim>
					<dim>1</dim>
					<dim>1</dim>
				</port>
			</input>
			<output>
				<port id="1" precision="FP32">
					<dim>1</dim>
					<dim>512</dim>
					<dim>1</dim>
					<dim>1</dim>
				</port>
			</output>
		</layer>
		<layer id="97" name="139" type="Add" version="opset1">
			<data auto_broadcast="numpy" />
			<input>
				<port id="0" precision="FP32">
					<dim>1</dim>
					<dim>512</dim>
					<dim>6</dim>
					<dim>125</dim>
				</port>
				<port id="1" precision="FP32">
					<dim>1</dim>
					<dim>512</dim>
					<dim>1</dim>
					<dim>1</dim>
				</port>
			</input>
			<output>
				<port id="2" precision="FP32" names="139">
					<dim>1</dim>
					<dim>512</dim>
					<dim>6</dim>
					<dim>125</dim>
				</port>
			</output>
		</layer>
		<layer id="98" name="140" type="ReLU" version="opset1">
			<input>
				<port id="0" precision="FP32">
					<dim>1</dim>
					<dim>512</dim>
					<dim>6</dim>
					<dim>125</dim>
				</port>
			</input>
			<output>
				<port id="1" precision="FP32" names="140">
					<dim>1</dim>
					<dim>512</dim>
					<dim>6</dim>
					<dim>125</dim>
				</port>
			</output>
		</layer>
		<layer id="99" name="142" type="MaxPool" version="opset8">
			<data strides="2, 2" dilations="1, 1" pads_begin="0, 0" pads_end="0, 0" kernel="2, 2" rounding_type="floor" auto_pad="explicit" index_element_type="i64" axis="0" />
			<input>
				<port id="0" precision="FP32">
					<dim>1</dim>
					<dim>512</dim>
					<dim>6</dim>
					<dim>125</dim>
				</port>
			</input>
			<output>
				<port id="1" precision="FP32" names="142">
					<dim>1</dim>
					<dim>512</dim>
					<dim>3</dim>
					<dim>62</dim>
				</port>
				<port id="2" precision="I64">
					<dim>1</dim>
					<dim>512</dim>
					<dim>3</dim>
					<dim>62</dim>
				</port>
			</output>
		</layer>
		<layer id="100" name="144" type="Const" version="opset1">
			<data element_type="i64" shape="3" offset="29427074" size="24" />
			<output>
				<port id="0" precision="I64" names="144">
					<dim>3</dim>
				</port>
			</output>
		</layer>
		<layer id="101" name="145" type="Reshape" version="opset1">
			<data special_zero="true" />
			<input>
				<port id="0" precision="FP32">
					<dim>1</dim>
					<dim>512</dim>
					<dim>3</dim>
					<dim>62</dim>
				</port>
				<port id="1" precision="I64">
					<dim>3</dim>
				</port>
			</input>
			<output>
				<port id="2" precision="FP32" names="145">
					<dim>1</dim>
					<dim>512</dim>
					<dim>186</dim>
				</port>
			</output>
		</layer>
		<layer id="102" name="92_compressed" type="Const" version="opset1">
			<data element_type="f16" shape="4442, 512" offset="29427098" size="4548608" />
			<output>
				<port id="0" precision="FP16">
					<dim>4442</dim>
					<dim>512</dim>
				</port>
			</output>
		</layer>
		<layer id="103" name="92" type="Convert" version="opset1">
			<data destination_type="f32" />
			<rt_info>
				<attribute name="decompression" version="0" />
			</rt_info>
			<input>
				<port id="0" precision="FP16">
					<dim>4442</dim>
					<dim>512</dim>
				</port>
			</input>
			<output>
				<port id="1" precision="FP32" names="92">
					<dim>4442</dim>
					<dim>512</dim>
				</port>
			</output>
		</layer>
		<layer id="104" name="148" type="MatMul" version="opset1">
			<data transpose_a="true" transpose_b="true" />
			<input>
				<port id="0" precision="FP32">
					<dim>1</dim>
					<dim>512</dim>
					<dim>186</dim>
				</port>
				<port id="1" precision="FP32">
					<dim>4442</dim>
					<dim>512</dim>
				</port>
			</input>
			<output>
				<port id="2" precision="FP32" names="148">
					<dim>1</dim>
					<dim>186</dim>
					<dim>4442</dim>
				</port>
			</output>
		</layer>
		<layer id="105" name="Constant_2752_compressed" type="Const" version="opset1">
			<data element_type="f16" shape="1, 1, 4442" offset="33975706" size="8884" />
			<output>
				<port id="0" precision="FP16">
					<dim>1</dim>
					<dim>1</dim>
					<dim>4442</dim>
				</port>
			</output>
		</layer>
		<layer id="106" name="Constant_2752" type="Convert" version="opset1">
			<data destination_type="f32" />
			<rt_info>
				<attribute name="decompression" version="0" />
			</rt_info>
			<input>
				<port id="0" precision="FP16">
					<dim>1</dim>
					<dim>1</dim>
					<dim>4442</dim>
				</port>
			</input>
			<output>
				<port id="1" precision="FP32">
					<dim>1</dim>
					<dim>1</dim>
					<dim>4442</dim>
				</port>
			</output>
		</layer>
		<layer id="107" name="149" type="Add" version="opset1">
			<data auto_broadcast="numpy" />
			<input>
				<port id="0" precision="FP32">
					<dim>1</dim>
					<dim>186</dim>
					<dim>4442</dim>
				</port>
				<port id="1" precision="FP32">
					<dim>1</dim>
					<dim>1</dim>
					<dim>4442</dim>
				</port>
			</input>
			<output>
				<port id="2" precision="FP32" names="149">
					<dim>1</dim>
					<dim>186</dim>
					<dim>4442</dim>
				</port>
			</output>
		</layer>
		<layer id="108" name="Constant_1597" type="Const" version="opset1">
			<data element_type="i64" shape="3" offset="33984590" size="24" />
			<output>
				<port id="0" precision="I64">
					<dim>3</dim>
				</port>
			</output>
		</layer>
		<layer id="109" name="output" type="Reshape" version="opset1">
			<data special_zero="true" />
			<input>
				<port id="0" precision="FP32">
					<dim>1</dim>
					<dim>186</dim>
					<dim>4442</dim>
				</port>
				<port id="1" precision="I64">
					<dim>3</dim>
				</port>
			</input>
			<output>
				<port id="2" precision="FP32" names="output">
					<dim>186</dim>
					<dim>1</dim>
					<dim>4442</dim>
				</port>
			</output>
		</layer>
		<layer id="110" name="output/sink_port_0" type="Result" version="opset1">
			<input>
				<port id="0" precision="FP32">
					<dim>186</dim>
					<dim>1</dim>
					<dim>4442</dim>
				</port>
			</input>
		</layer>
	</layers>
	<edges>
		<edge from-layer="0" from-port="0" to-layer="3" to-port="0" />
		<edge from-layer="1" from-port="0" to-layer="2" to-port="0" />
		<edge from-layer="2" from-port="1" to-layer="3" to-port="1" />
		<edge from-layer="3" from-port="2" to-layer="6" to-port="0" />
		<edge from-layer="4" from-port="0" to-layer="5" to-port="0" />
		<edge from-layer="5" from-port="1" to-layer="6" to-port="1" />
		<edge from-layer="6" from-port="2" to-layer="9" to-port="0" />
		<edge from-layer="7" from-port="0" to-layer="8" to-port="0" />
		<edge from-layer="8" from-port="1" to-layer="9" to-port="1" />
		<edge from-layer="9" from-port="2" to-layer="10" to-port="0" />
		<edge from-layer="10" from-port="1" to-layer="13" to-port="0" />
		<edge from-layer="11" from-port="0" to-layer="12" to-port="0" />
		<edge from-layer="12" from-port="1" to-layer="13" to-port="1" />
		<edge from-layer="13" from-port="2" to-layer="16" to-port="0" />
		<edge from-layer="14" from-port="0" to-layer="15" to-port="0" />
		<edge from-layer="15" from-port="1" to-layer="16" to-port="1" />
		<edge from-layer="16" from-port="2" to-layer="17" to-port="0" />
		<edge from-layer="17" from-port="1" to-layer="18" to-port="0" />
		<edge from-layer="18" from-port="1" to-layer="21" to-port="0" />
		<edge from-layer="19" from-port="0" to-layer="20" to-port="0" />
		<edge from-layer="20" from-port="1" to-layer="21" to-port="1" />
		<edge from-layer="21" from-port="2" to-layer="24" to-port="0" />
		<edge from-layer="22" from-port="0" to-layer="23" to-port="0" />
		<edge from-layer="23" from-port="1" to-layer="24" to-port="1" />
		<edge from-layer="24" from-port="2" to-layer="25" to-port="0" />
		<edge from-layer="25" from-port="1" to-layer="28" to-port="0" />
		<edge from-layer="26" from-port="0" to-layer="27" to-port="0" />
		<edge from-layer="27" from-port="1" to-layer="28" to-port="1" />
		<edge from-layer="28" from-port="2" to-layer="31" to-port="0" />
		<edge from-layer="29" from-port="0" to-layer="30" to-port="0" />
		<edge from-layer="30" from-port="1" to-layer="31" to-port="1" />
		<edge from-layer="31" from-port="2" to-layer="32" to-port="0" />
		<edge from-layer="32" from-port="1" to-layer="33" to-port="0" />
		<edge from-layer="33" from-port="1" to-layer="36" to-port="0" />
		<edge from-layer="34" from-port="0" to-layer="35" to-port="0" />
		<edge from-layer="35" from-port="1" to-layer="36" to-port="1" />
		<edge from-layer="36" from-port="2" to-layer="39" to-port="0" />
		<edge from-layer="37" from-port="0" to-layer="38" to-port="0" />
		<edge from-layer="38" from-port="1" to-layer="39" to-port="1" />
		<edge from-layer="39" from-port="2" to-layer="40" to-port="0" />
		<edge from-layer="40" from-port="1" to-layer="43" to-port="0" />
		<edge from-layer="41" from-port="0" to-layer="42" to-port="0" />
		<edge from-layer="42" from-port="1" to-layer="43" to-port="1" />
		<edge from-layer="43" from-port="2" to-layer="46" to-port="0" />
		<edge from-layer="44" from-port="0" to-layer="45" to-port="0" />
		<edge from-layer="45" from-port="1" to-layer="46" to-port="1" />
		<edge from-layer="46" from-port="2" to-layer="47" to-port="0" />
		<edge from-layer="47" from-port="1" to-layer="50" to-port="0" />
		<edge from-layer="48" from-port="0" to-layer="49" to-port="0" />
		<edge from-layer="49" from-port="1" to-layer="50" to-port="1" />
		<edge from-layer="50" from-port="2" to-layer="53" to-port="0" />
		<edge from-layer="51" from-port="0" to-layer="52" to-port="0" />
		<edge from-layer="52" from-port="1" to-layer="53" to-port="1" />
		<edge from-layer="53" from-port="2" to-layer="54" to-port="0" />
		<edge from-layer="54" from-port="1" to-layer="55" to-port="0" />
		<edge from-layer="55" from-port="1" to-layer="58" to-port="0" />
		<edge from-layer="56" from-port="0" to-layer="57" to-port="0" />
		<edge from-layer="57" from-port="1" to-layer="58" to-port="1" />
		<edge from-layer="58" from-port="2" to-layer="61" to-port="0" />
		<edge from-layer="59" from-port="0" to-layer="60" to-port="0" />
		<edge from-layer="60" from-port="1" to-layer="61" to-port="1" />
		<edge from-layer="61" from-port="2" to-layer="62" to-port="0" />
		<edge from-layer="62" from-port="1" to-layer="65" to-port="0" />
		<edge from-layer="63" from-port="0" to-layer="64" to-port="0" />
		<edge from-layer="64" from-port="1" to-layer="65" to-port="1" />
		<edge from-layer="65" from-port="2" to-layer="68" to-port="0" />
		<edge from-layer="66" from-port="0" to-layer="67" to-port="0" />
		<edge from-layer="67" from-port="1" to-layer="68" to-port="1" />
		<edge from-layer="68" from-port="2" to-layer="69" to-port="0" />
		<edge from-layer="69" from-port="1" to-layer="72" to-port="0" />
		<edge from-layer="70" from-port="0" to-layer="71" to-port="0" />
		<edge from-layer="71" from-port="1" to-layer="72" to-port="1" />
		<edge from-layer="72" from-port="2" to-layer="75" to-port="0" />
		<edge from-layer="73" from-port="0" to-layer="74" to-port="0" />
		<edge from-layer="74" from-port="1" to-layer="75" to-port="1" />
		<edge from-layer="75" from-port="2" to-layer="76" to-port="0" />
		<edge from-layer="76" from-port="1" to-layer="77" to-port="0" />
		<edge from-layer="77" from-port="1" to-layer="80" to-port="0" />
		<edge from-layer="78" from-port="0" to-layer="79" to-port="0" />
		<edge from-layer="79" from-port="1" to-layer="80" to-port="1" />
		<edge from-layer="80" from-port="2" to-layer="83" to-port="0" />
		<edge from-layer="81" from-port="0" to-layer="82" to-port="0" />
		<edge from-layer="82" from-port="1" to-layer="83" to-port="1" />
		<edge from-layer="83" from-port="2" to-layer="84" to-port="0" />
		<edge from-layer="84" from-port="1" to-layer="87" to-port="0" />
		<edge from-layer="85" from-port="0" to-layer="86" to-port="0" />
		<edge from-layer="86" from-port="1" to-layer="87" to-port="1" />
		<edge from-layer="87" from-port="2" to-layer="90" to-port="0" />
		<edge from-layer="88" from-port="0" to-layer="89" to-port="0" />
		<edge from-layer="89" from-port="1" to-layer="90" to-port="1" />
		<edge from-layer="90" from-port="2" to-layer="91" to-port="0" />
		<edge from-layer="91" from-port="1" to-layer="94" to-port="0" />
		<edge from-layer="92" from-port="0" to-layer="93" to-port="0" />
		<edge from-layer="93" from-port="1" to-layer="94" to-port="1" />
		<edge from-layer="94" from-port="2" to-layer="97" to-port="0" />
		<edge from-layer="95" from-port="0" to-layer="96" to-port="0" />
		<edge from-layer="96" from-port="1" to-layer="97" to-port="1" />
		<edge from-layer="97" from-port="2" to-layer="98" to-port="0" />
		<edge from-layer="98" from-port="1" to-layer="99" to-port="0" />
		<edge from-layer="99" from-port="1" to-layer="101" to-port="0" />
		<edge from-layer="100" from-port="0" to-layer="101" to-port="1" />
		<edge from-layer="101" from-port="2" to-layer="104" to-port="0" />
		<edge from-layer="102" from-port="0" to-layer="103" to-port="0" />
		<edge from-layer="103" from-port="1" to-layer="104" to-port="1" />
		<edge from-layer="104" from-port="2" to-layer="107" to-port="0" />
		<edge from-layer="105" from-port="0" to-layer="106" to-port="0" />
		<edge from-layer="106" from-port="1" to-layer="107" to-port="1" />
		<edge from-layer="107" from-port="2" to-layer="109" to-port="0" />
		<edge from-layer="108" from-port="0" to-layer="109" to-port="1" />
		<edge from-layer="109" from-port="2" to-layer="110" to-port="0" />
	</edges>
	<rt_info>
		<MO_version value="custom_HEAD_f6ee6e92f846a8c665e4a7089c51481f9689a3b5" />
		<Runtime_version value="2023.0.0-10521-f6ee6e92f84-HEAD" />
		<conversion_parameters>
			<framework value="onnx" />
			<input value="actual_input" />
			<input_model value="DIR/handwritten-japanese-recognition-0001.onnx" />
			<input_shape value="[1,1,96,2000]" />
			<layout value="actual_input(nchw)" />
			<mean_values value="actual_input[127.5]" />
			<model_name value="handwritten-japanese-recognition-0001" />
			<output value="output" />
			<output_dir value="DIR" />
			<scale_values value="actual_input[127.5]" />
		</conversion_parameters>
		<legacy_frontend value="False" />
	</rt_info>
</net>
