<?xml version="1.0"?>
<net name="torch_jit" version="11">
	<layers>
		<layer id="0" name="data" type="Parameter" version="opset1">
			<data shape="1,3,224,224" element_type="f32" />
			<output>
				<port id="0" precision="FP32" names="data">
					<dim>1</dim>
					<dim>3</dim>
					<dim>224</dim>
					<dim>224</dim>
				</port>
			</output>
		</layer>
		<layer id="1" name="backbone.cls_token" type="Const" version="opset1">
			<data element_type="f32" shape="1, 1, 192" offset="0" size="768" />
			<output>
				<port id="0" precision="FP32" names="backbone.cls_token">
					<dim>1</dim>
					<dim>1</dim>
					<dim>192</dim>
				</port>
			</output>
		</layer>
		<layer id="2" name="Gather_4878" type="Const" version="opset1">
			<data element_type="f32" shape="1, 3, 1, 1" offset="768" size="12" />
			<rt_info>
				<attribute name="preprocessing" version="0" />
			</rt_info>
			<output>
				<port id="0" precision="FP32">
					<dim>1</dim>
					<dim>3</dim>
					<dim>1</dim>
					<dim>1</dim>
				</port>
			</output>
		</layer>
		<layer id="3" name="Multiply_4674" type="Multiply" version="opset1">
			<data auto_broadcast="numpy" />
			<input>
				<port id="0" precision="FP32">
					<dim>1</dim>
					<dim>3</dim>
					<dim>224</dim>
					<dim>224</dim>
				</port>
				<port id="1" precision="FP32">
					<dim>1</dim>
					<dim>3</dim>
					<dim>1</dim>
					<dim>1</dim>
				</port>
			</input>
			<output>
				<port id="2" precision="FP32">
					<dim>1</dim>
					<dim>3</dim>
					<dim>224</dim>
					<dim>224</dim>
				</port>
			</output>
		</layer>
		<layer id="4" name="Gather_4881" type="Const" version="opset1">
			<data element_type="f32" shape="1, 3, 1, 1" offset="780" size="12" />
			<rt_info>
				<attribute name="preprocessing" version="0" />
			</rt_info>
			<output>
				<port id="0" precision="FP32">
					<dim>1</dim>
					<dim>3</dim>
					<dim>1</dim>
					<dim>1</dim>
				</port>
			</output>
		</layer>
		<layer id="5" name="Divide_1340" type="Add" version="opset1">
			<data auto_broadcast="numpy" />
			<input>
				<port id="0" precision="FP32">
					<dim>1</dim>
					<dim>3</dim>
					<dim>224</dim>
					<dim>224</dim>
				</port>
				<port id="1" precision="FP32">
					<dim>1</dim>
					<dim>3</dim>
					<dim>1</dim>
					<dim>1</dim>
				</port>
			</input>
			<output>
				<port id="2" precision="FP32">
					<dim>1</dim>
					<dim>3</dim>
					<dim>224</dim>
					<dim>224</dim>
				</port>
			</output>
		</layer>
		<layer id="6" name="/Shape" type="ShapeOf" version="opset3">
			<data output_type="i64" />
			<input>
				<port id="0" precision="FP32">
					<dim>1</dim>
					<dim>3</dim>
					<dim>224</dim>
					<dim>224</dim>
				</port>
			</input>
			<output>
				<port id="1" precision="I64" names="/Shape_output_0">
					<dim>4</dim>
				</port>
			</output>
		</layer>
		<layer id="7" name="Constant_3523" type="Const" version="opset1">
			<data element_type="i64" shape="1" offset="792" size="8" />
			<output>
				<port id="0" precision="I64">
					<dim>1</dim>
				</port>
			</output>
		</layer>
		<layer id="8" name="Constant_157" type="Const" version="opset1">
			<data element_type="i64" shape="" offset="792" size="8" />
			<output>
				<port id="0" precision="I64" />
			</output>
		</layer>
		<layer id="9" name="/Gather" type="Gather" version="opset8">
			<data batch_dims="0" />
			<input>
				<port id="0" precision="I64">
					<dim>4</dim>
				</port>
				<port id="1" precision="I64">
					<dim>1</dim>
				</port>
				<port id="2" precision="I64" />
			</input>
			<output>
				<port id="3" precision="I64" names="/Unsqueeze_output_0">
					<dim>1</dim>
				</port>
			</output>
		</layer>
		<layer id="10" name="/Constant_2" type="Const" version="opset1">
			<data element_type="i64" shape="1" offset="800" size="8" />
			<output>
				<port id="0" precision="I64" names="/Constant_2_output_0">
					<dim>1</dim>
				</port>
			</output>
		</layer>
		<layer id="11" name="/Constant_3" type="Const" version="opset1">
			<data element_type="i64" shape="1" offset="800" size="8" />
			<output>
				<port id="0" precision="I64" names="/Constant_3_output_0">
					<dim>1</dim>
				</port>
			</output>
		</layer>
		<layer id="12" name="/Concat" type="Concat" version="opset1">
			<data axis="0" />
			<input>
				<port id="0" precision="I64">
					<dim>1</dim>
				</port>
				<port id="1" precision="I64">
					<dim>1</dim>
				</port>
				<port id="2" precision="I64">
					<dim>1</dim>
				</port>
			</input>
			<output>
				<port id="3" precision="I64" names="/Concat_output_0">
					<dim>3</dim>
				</port>
			</output>
		</layer>
		<layer id="13" name="Constant_1487" type="Const" version="opset1">
			<data element_type="i64" shape="1" offset="800" size="8" />
			<output>
				<port id="0" precision="I64">
					<dim>1</dim>
				</port>
			</output>
		</layer>
		<layer id="14" name="/Reshape" type="Reshape" version="opset1">
			<data special_zero="true" />
			<input>
				<port id="0" precision="I64">
					<dim>3</dim>
				</port>
				<port id="1" precision="I64">
					<dim>1</dim>
				</port>
			</input>
			<output>
				<port id="2" precision="I64" names="/Reshape_output_0">
					<dim>3</dim>
				</port>
			</output>
		</layer>
		<layer id="15" name="/Mul" type="Const" version="opset1">
			<data element_type="i64" shape="3" offset="808" size="24" />
			<output>
				<port id="0" precision="I64" names="/Mul_output_0">
					<dim>3</dim>
				</port>
			</output>
		</layer>
		<layer id="16" name="/Equal" type="Equal" version="opset1">
			<data auto_broadcast="numpy" />
			<input>
				<port id="0" precision="I64">
					<dim>3</dim>
				</port>
				<port id="1" precision="I64">
					<dim>3</dim>
				</port>
			</input>
			<output>
				<port id="2" precision="BOOL" names="/Equal_output_0">
					<dim>3</dim>
				</port>
			</output>
		</layer>
		<layer id="17" name="/ConstantOfShape" type="Const" version="opset1">
			<data element_type="i64" shape="3" offset="832" size="24" />
			<output>
				<port id="0" precision="I64" names="/ConstantOfShape_output_0">
					<dim>3</dim>
				</port>
			</output>
		</layer>
		<layer id="18" name="/Where" type="Select" version="opset1">
			<data auto_broadcast="numpy" />
			<input>
				<port id="0" precision="BOOL">
					<dim>3</dim>
				</port>
				<port id="1" precision="I64">
					<dim>3</dim>
				</port>
				<port id="2" precision="I64">
					<dim>3</dim>
				</port>
			</input>
			<output>
				<port id="3" precision="I64" names="/Where_output_0">
					<dim>3</dim>
				</port>
			</output>
		</layer>
		<layer id="19" name="/Expand" type="Broadcast" version="opset3">
			<data mode="bidirectional" />
			<input>
				<port id="0" precision="FP32">
					<dim>1</dim>
					<dim>1</dim>
					<dim>192</dim>
				</port>
				<port id="1" precision="I64">
					<dim>3</dim>
				</port>
			</input>
			<output>
				<port id="2" precision="FP32" names="/Expand_output_0">
					<dim>1</dim>
					<dim>1</dim>
					<dim>192</dim>
				</port>
			</output>
		</layer>
		<layer id="20" name="Gather_4884" type="Const" version="opset1">
			<data element_type="f32" shape="192, 3, 16, 16" offset="856" size="589824" />
			<rt_info>
				<attribute name="preprocessing" version="0" />
			</rt_info>
			<output>
				<port id="0" precision="FP32">
					<dim>192</dim>
					<dim>3</dim>
					<dim>16</dim>
					<dim>16</dim>
				</port>
			</output>
		</layer>
		<layer id="21" name="/patch_embed/projection/Conv/WithoutBiases" type="Convolution" version="opset1">
			<data strides="16, 16" dilations="1, 1" pads_begin="0, 0" pads_end="0, 0" auto_pad="explicit" />
			<input>
				<port id="0" precision="FP32">
					<dim>1</dim>
					<dim>3</dim>
					<dim>224</dim>
					<dim>224</dim>
				</port>
				<port id="1" precision="FP32">
					<dim>192</dim>
					<dim>3</dim>
					<dim>16</dim>
					<dim>16</dim>
				</port>
			</input>
			<output>
				<port id="2" precision="FP32">
					<dim>1</dim>
					<dim>192</dim>
					<dim>14</dim>
					<dim>14</dim>
				</port>
			</output>
		</layer>
		<layer id="22" name="Reshape_171" type="Const" version="opset1">
			<data element_type="f32" shape="1, 192, 1, 1" offset="590680" size="768" />
			<output>
				<port id="0" precision="FP32">
					<dim>1</dim>
					<dim>192</dim>
					<dim>1</dim>
					<dim>1</dim>
				</port>
			</output>
		</layer>
		<layer id="23" name="/patch_embed/projection/Conv" type="Add" version="opset1">
			<data auto_broadcast="numpy" />
			<input>
				<port id="0" precision="FP32">
					<dim>1</dim>
					<dim>192</dim>
					<dim>14</dim>
					<dim>14</dim>
				</port>
				<port id="1" precision="FP32">
					<dim>1</dim>
					<dim>192</dim>
					<dim>1</dim>
					<dim>1</dim>
				</port>
			</input>
			<output>
				<port id="2" precision="FP32" names="/patch_embed/projection/Conv_output_0">
					<dim>1</dim>
					<dim>192</dim>
					<dim>14</dim>
					<dim>14</dim>
				</port>
			</output>
		</layer>
		<layer id="24" name="/patch_embed/Shape" type="ShapeOf" version="opset3">
			<data output_type="i64" />
			<input>
				<port id="0" precision="FP32">
					<dim>1</dim>
					<dim>192</dim>
					<dim>14</dim>
					<dim>14</dim>
				</port>
			</input>
			<output>
				<port id="1" precision="I64" names="/patch_embed/Shape_output_0">
					<dim>4</dim>
				</port>
			</output>
		</layer>
		<layer id="25" name="/patch_embed/Constant_2" type="Const" version="opset1">
			<data element_type="i64" shape="1" offset="792" size="8" />
			<output>
				<port id="0" precision="I64" names="/patch_embed/Constant_2_output_0">
					<dim>1</dim>
				</port>
			</output>
		</layer>
		<layer id="26" name="/patch_embed/Constant_3" type="Const" version="opset1">
			<data element_type="i64" shape="1" offset="591448" size="8" />
			<output>
				<port id="0" precision="I64" names="/patch_embed/Constant_3_output_0">
					<dim>1</dim>
				</port>
			</output>
		</layer>
		<layer id="27" name="Broadcast_182" type="Const" version="opset1">
			<data element_type="i64" shape="1" offset="591456" size="8" />
			<output>
				<port id="0" precision="I64">
					<dim>1</dim>
				</port>
			</output>
		</layer>
		<layer id="28" name="/patch_embed/Slice" type="StridedSlice" version="opset1">
			<data begin_mask="0" end_mask="0" new_axis_mask="" shrink_axis_mask="" ellipsis_mask="" />
			<input>
				<port id="0" precision="I64">
					<dim>4</dim>
				</port>
				<port id="1" precision="I64">
					<dim>1</dim>
				</port>
				<port id="2" precision="I64">
					<dim>1</dim>
				</port>
				<port id="3" precision="I64">
					<dim>1</dim>
				</port>
			</input>
			<output>
				<port id="4" precision="I64" names="/patch_embed/Slice_output_0">
					<dim>2</dim>
				</port>
			</output>
		</layer>
		<layer id="29" name="/patch_embed/Constant_4" type="Const" version="opset1">
			<data element_type="i64" shape="1" offset="800" size="8" />
			<output>
				<port id="0" precision="I64" names="/patch_embed/Constant_4_output_0">
					<dim>1</dim>
				</port>
			</output>
		</layer>
		<layer id="30" name="/patch_embed/Concat" type="Concat" version="opset1">
			<data axis="0" />
			<input>
				<port id="0" precision="I64">
					<dim>2</dim>
				</port>
				<port id="1" precision="I64">
					<dim>1</dim>
				</port>
			</input>
			<output>
				<port id="2" precision="I64" names="/patch_embed/Concat_output_0">
					<dim>3</dim>
				</port>
			</output>
		</layer>
		<layer id="31" name="/patch_embed/Reshape" type="Reshape" version="opset1">
			<data special_zero="true" />
			<input>
				<port id="0" precision="FP32">
					<dim>1</dim>
					<dim>192</dim>
					<dim>14</dim>
					<dim>14</dim>
				</port>
				<port id="1" precision="I64">
					<dim>3</dim>
				</port>
			</input>
			<output>
				<port id="2" precision="FP32" names="/patch_embed/Reshape_output_0">
					<dim>1</dim>
					<dim>192</dim>
					<dim>196</dim>
				</port>
			</output>
		</layer>
		<layer id="32" name="Constant_192" type="Const" version="opset1">
			<data element_type="i64" shape="3" offset="591464" size="24" />
			<output>
				<port id="0" precision="I64">
					<dim>3</dim>
				</port>
			</output>
		</layer>
		<layer id="33" name="/patch_embed/Transpose" type="Transpose" version="opset1">
			<input>
				<port id="0" precision="FP32">
					<dim>1</dim>
					<dim>192</dim>
					<dim>196</dim>
				</port>
				<port id="1" precision="I64">
					<dim>3</dim>
				</port>
			</input>
			<output>
				<port id="2" precision="FP32" names="/patch_embed/Transpose_output_0">
					<dim>1</dim>
					<dim>196</dim>
					<dim>192</dim>
				</port>
			</output>
		</layer>
		<layer id="34" name="/Concat_1" type="Concat" version="opset1">
			<data axis="1" />
			<input>
				<port id="0" precision="FP32">
					<dim>1</dim>
					<dim>1</dim>
					<dim>192</dim>
				</port>
				<port id="1" precision="FP32">
					<dim>1</dim>
					<dim>196</dim>
					<dim>192</dim>
				</port>
			</input>
			<output>
				<port id="2" precision="FP32" names="/Concat_1_output_0">
					<dim>1</dim>
					<dim>197</dim>
					<dim>192</dim>
				</port>
			</output>
		</layer>
		<layer id="35" name="backbone.pos_embed" type="Const" version="opset1">
			<data element_type="f32" shape="1, 197, 192" offset="591488" size="151296" />
			<output>
				<port id="0" precision="FP32" names="backbone.pos_embed">
					<dim>1</dim>
					<dim>197</dim>
					<dim>192</dim>
				</port>
			</output>
		</layer>
		<layer id="36" name="/Add" type="Add" version="opset1">
			<data auto_broadcast="numpy" />
			<input>
				<port id="0" precision="FP32">
					<dim>1</dim>
					<dim>197</dim>
					<dim>192</dim>
				</port>
				<port id="1" precision="FP32">
					<dim>1</dim>
					<dim>197</dim>
					<dim>192</dim>
				</port>
			</input>
			<output>
				<port id="2" precision="FP32" names="/Add_output_0">
					<dim>1</dim>
					<dim>197</dim>
					<dim>192</dim>
				</port>
			</output>
		</layer>
		<layer id="37" name="Constant_4889" type="Const" version="opset1">
			<data element_type="f32" shape="1, 1, 192" offset="742784" size="768" />
			<output>
				<port id="0" precision="FP32">
					<dim>1</dim>
					<dim>1</dim>
					<dim>192</dim>
				</port>
			</output>
		</layer>
		<layer id="38" name="Constant_4887" type="Const" version="opset1">
			<data element_type="f32" shape="1, 1, 576" offset="743552" size="2304" />
			<output>
				<port id="0" precision="FP32">
					<dim>1</dim>
					<dim>1</dim>
					<dim>576</dim>
				</port>
			</output>
		</layer>
		<layer id="39" name="Constant_239" type="Const" version="opset1">
			<data element_type="i64" shape="1" offset="800" size="8" />
			<output>
				<port id="0" precision="I64">
					<dim>1</dim>
				</port>
			</output>
		</layer>
		<layer id="40" name="/layers.0/ln1/Div" type="MVN" version="opset6">
			<data eps="9.9999999747524271e-07" normalize_variance="true" eps_mode="INSIDE_SQRT" />
			<input>
				<port id="0" precision="FP32">
					<dim>1</dim>
					<dim>197</dim>
					<dim>192</dim>
				</port>
				<port id="1" precision="I64">
					<dim>1</dim>
				</port>
			</input>
			<output>
				<port id="2" precision="FP32" names="/layers.0/ln1/Div_output_0">
					<dim>1</dim>
					<dim>197</dim>
					<dim>192</dim>
				</port>
			</output>
		</layer>
		<layer id="41" name="Constant_4885" type="Const" version="opset1">
			<data element_type="f32" shape="1, 1, 192" offset="745856" size="768" />
			<output>
				<port id="0" precision="FP32">
					<dim>1</dim>
					<dim>1</dim>
					<dim>192</dim>
				</port>
			</output>
		</layer>
		<layer id="42" name="/layers.0/ln1/Mul" type="Multiply" version="opset1">
			<data auto_broadcast="numpy" />
			<input>
				<port id="0" precision="FP32">
					<dim>1</dim>
					<dim>197</dim>
					<dim>192</dim>
				</port>
				<port id="1" precision="FP32">
					<dim>1</dim>
					<dim>1</dim>
					<dim>192</dim>
				</port>
			</input>
			<output>
				<port id="2" precision="FP32" names="/layers.0/ln1/Mul_output_0">
					<dim>1</dim>
					<dim>197</dim>
					<dim>192</dim>
				</port>
			</output>
		</layer>
		<layer id="43" name="Constant_4886" type="Const" version="opset1">
			<data element_type="f32" shape="1, 1, 192" offset="746624" size="768" />
			<output>
				<port id="0" precision="FP32">
					<dim>1</dim>
					<dim>1</dim>
					<dim>192</dim>
				</port>
			</output>
		</layer>
		<layer id="44" name="/layers.0/ln1/Add_1" type="Add" version="opset1">
			<data auto_broadcast="numpy" />
			<input>
				<port id="0" precision="FP32">
					<dim>1</dim>
					<dim>197</dim>
					<dim>192</dim>
				</port>
				<port id="1" precision="FP32">
					<dim>1</dim>
					<dim>1</dim>
					<dim>192</dim>
				</port>
			</input>
			<output>
				<port id="2" precision="FP32" names="/layers.0/ln1/Add_1_output_0">
					<dim>1</dim>
					<dim>197</dim>
					<dim>192</dim>
				</port>
			</output>
		</layer>
		<layer id="45" name="Constant_4440" type="Const" version="opset1">
			<data element_type="f32" shape="576, 192" offset="747392" size="442368" />
			<output>
				<port id="0" precision="FP32">
					<dim>576</dim>
					<dim>192</dim>
				</port>
			</output>
		</layer>
		<layer id="46" name="/layers.0/attn/qkv/MatMul" type="MatMul" version="opset1">
			<data transpose_a="false" transpose_b="true" />
			<input>
				<port id="0" precision="FP32">
					<dim>1</dim>
					<dim>197</dim>
					<dim>192</dim>
				</port>
				<port id="1" precision="FP32">
					<dim>576</dim>
					<dim>192</dim>
				</port>
			</input>
			<output>
				<port id="2" precision="FP32" names="/layers.0/attn/qkv/MatMul_output_0">
					<dim>1</dim>
					<dim>197</dim>
					<dim>576</dim>
				</port>
			</output>
		</layer>
		<layer id="47" name="/layers.0/attn/qkv/Add" type="Add" version="opset1">
			<data auto_broadcast="numpy" />
			<input>
				<port id="0" precision="FP32">
					<dim>1</dim>
					<dim>1</dim>
					<dim>576</dim>
				</port>
				<port id="1" precision="FP32">
					<dim>1</dim>
					<dim>197</dim>
					<dim>576</dim>
				</port>
			</input>
			<output>
				<port id="2" precision="FP32" names="/layers.0/attn/qkv/Add_output_0">
					<dim>1</dim>
					<dim>197</dim>
					<dim>576</dim>
				</port>
			</output>
		</layer>
		<layer id="48" name="/layers.0/attn/Shape" type="ShapeOf" version="opset3">
			<data output_type="i64" />
			<input>
				<port id="0" precision="FP32">
					<dim>1</dim>
					<dim>197</dim>
					<dim>192</dim>
				</port>
			</input>
			<output>
				<port id="1" precision="I64" names="/layers.0/attn/Shape_1_output_0,/layers.0/attn/Shape_output_0">
					<dim>3</dim>
				</port>
			</output>
		</layer>
		<layer id="49" name="Constant_3814" type="Const" version="opset1">
			<data element_type="i64" shape="2" offset="1189760" size="16" />
			<output>
				<port id="0" precision="I64">
					<dim>2</dim>
				</port>
			</output>
		</layer>
		<layer id="50" name="Constant_3815" type="Const" version="opset1">
			<data element_type="i64" shape="" offset="792" size="8" />
			<output>
				<port id="0" precision="I64" />
			</output>
		</layer>
		<layer id="51" name="Gather_3816" type="Gather" version="opset8">
			<data batch_dims="0" />
			<input>
				<port id="0" precision="I64">
					<dim>3</dim>
				</port>
				<port id="1" precision="I64">
					<dim>2</dim>
				</port>
				<port id="2" precision="I64" />
			</input>
			<output>
				<port id="3" precision="I64">
					<dim>2</dim>
				</port>
			</output>
		</layer>
		<layer id="52" name="/layers.0/attn/Constant_2" type="Const" version="opset1">
			<data element_type="i64" shape="1" offset="1189776" size="8" />
			<output>
				<port id="0" precision="I64" names="/layers.0/attn/Constant_2_output_0">
					<dim>1</dim>
				</port>
			</output>
		</layer>
		<layer id="53" name="/layers.0/attn/Constant_3" type="Const" version="opset1">
			<data element_type="i64" shape="1" offset="1189776" size="8" />
			<output>
				<port id="0" precision="I64" names="/layers.0/attn/Constant_3_output_0">
					<dim>1</dim>
				</port>
			</output>
		</layer>
		<layer id="54" name="/layers.0/attn/Constant_4" type="Const" version="opset1">
			<data element_type="i64" shape="1" offset="1189784" size="8" />
			<output>
				<port id="0" precision="I64" names="/layers.0/attn/Constant_4_output_0">
					<dim>1</dim>
				</port>
			</output>
		</layer>
		<layer id="55" name="/layers.0/attn/Concat" type="Concat" version="opset1">
			<data axis="0" />
			<input>
				<port id="0" precision="I64">
					<dim>2</dim>
				</port>
				<port id="1" precision="I64">
					<dim>1</dim>
				</port>
				<port id="2" precision="I64">
					<dim>1</dim>
				</port>
				<port id="3" precision="I64">
					<dim>1</dim>
				</port>
			</input>
			<output>
				<port id="4" precision="I64" names="/layers.0/attn/Concat_output_0">
					<dim>5</dim>
				</port>
			</output>
		</layer>
		<layer id="56" name="/layers.0/attn/Reshape" type="Reshape" version="opset1">
			<data special_zero="true" />
			<input>
				<port id="0" precision="FP32">
					<dim>1</dim>
					<dim>197</dim>
					<dim>576</dim>
				</port>
				<port id="1" precision="I64">
					<dim>5</dim>
				</port>
			</input>
			<output>
				<port id="2" precision="FP32" names="/layers.0/attn/Reshape_output_0">
					<dim>1</dim>
					<dim>197</dim>
					<dim>3</dim>
					<dim>3</dim>
					<dim>64</dim>
				</port>
			</output>
		</layer>
		<layer id="57" name="Constant_273" type="Const" version="opset1">
			<data element_type="i64" shape="5" offset="1189792" size="40" />
			<output>
				<port id="0" precision="I64">
					<dim>5</dim>
				</port>
			</output>
		</layer>
		<layer id="58" name="/layers.0/attn/Transpose" type="Transpose" version="opset1">
			<input>
				<port id="0" precision="FP32">
					<dim>1</dim>
					<dim>197</dim>
					<dim>3</dim>
					<dim>3</dim>
					<dim>64</dim>
				</port>
				<port id="1" precision="I64">
					<dim>5</dim>
				</port>
			</input>
			<output>
				<port id="2" precision="FP32" names="/layers.0/attn/Transpose_output_0">
					<dim>3</dim>
					<dim>1</dim>
					<dim>3</dim>
					<dim>197</dim>
					<dim>64</dim>
				</port>
			</output>
		</layer>
		<layer id="59" name="/Constant" type="Const" version="opset1">
			<data element_type="i64" shape="" offset="792" size="8" />
			<output>
				<port id="0" precision="I64" names="/Constant_output_0" />
			</output>
		</layer>
		<layer id="60" name="Constant_275" type="Const" version="opset1">
			<data element_type="i64" shape="" offset="792" size="8" />
			<output>
				<port id="0" precision="I64" />
			</output>
		</layer>
		<layer id="61" name="/layers.0/attn/Gather_2" type="Gather" version="opset8">
			<data batch_dims="0" />
			<input>
				<port id="0" precision="FP32">
					<dim>3</dim>
					<dim>1</dim>
					<dim>3</dim>
					<dim>197</dim>
					<dim>64</dim>
				</port>
				<port id="1" precision="I64" />
				<port id="2" precision="I64" />
			</input>
			<output>
				<port id="3" precision="FP32" names="/layers.0/attn/Gather_2_output_0">
					<dim>1</dim>
					<dim>3</dim>
					<dim>197</dim>
					<dim>64</dim>
				</port>
			</output>
		</layer>
		<layer id="62" name="/patch_embed/projection/Constant" type="Const" version="opset1">
			<data element_type="i64" shape="" offset="591456" size="8" />
			<output>
				<port id="0" precision="I64" names="/patch_embed/projection/Constant_output_0" />
			</output>
		</layer>
		<layer id="63" name="Constant_277" type="Const" version="opset1">
			<data element_type="i64" shape="" offset="792" size="8" />
			<output>
				<port id="0" precision="I64" />
			</output>
		</layer>
		<layer id="64" name="/layers.0/attn/Gather_3" type="Gather" version="opset8">
			<data batch_dims="0" />
			<input>
				<port id="0" precision="FP32">
					<dim>3</dim>
					<dim>1</dim>
					<dim>3</dim>
					<dim>197</dim>
					<dim>64</dim>
				</port>
				<port id="1" precision="I64" />
				<port id="2" precision="I64" />
			</input>
			<output>
				<port id="3" precision="FP32" names="/layers.0/attn/Gather_3_output_0">
					<dim>1</dim>
					<dim>3</dim>
					<dim>197</dim>
					<dim>64</dim>
				</port>
			</output>
		</layer>
		<layer id="65" name="Constant_4888" type="Const" version="opset1">
			<data element_type="f32" shape="1, 1, 1, 1" offset="1189832" size="4" />
			<output>
				<port id="0" precision="FP32">
					<dim>1</dim>
					<dim>1</dim>
					<dim>1</dim>
					<dim>1</dim>
				</port>
			</output>
		</layer>
		<layer id="66" name="Multiply_4678" type="Multiply" version="opset1">
			<data auto_broadcast="numpy" />
			<input>
				<port id="0" precision="FP32">
					<dim>1</dim>
					<dim>3</dim>
					<dim>197</dim>
					<dim>64</dim>
				</port>
				<port id="1" precision="FP32">
					<dim>1</dim>
					<dim>1</dim>
					<dim>1</dim>
					<dim>1</dim>
				</port>
			</input>
			<output>
				<port id="2" precision="FP32">
					<dim>1</dim>
					<dim>3</dim>
					<dim>197</dim>
					<dim>64</dim>
				</port>
			</output>
		</layer>
		<layer id="67" name="/layers.0/attn/Mul" type="MatMul" version="opset1">
			<data transpose_a="false" transpose_b="true" />
			<input>
				<port id="0" precision="FP32">
					<dim>1</dim>
					<dim>3</dim>
					<dim>197</dim>
					<dim>64</dim>
				</port>
				<port id="1" precision="FP32">
					<dim>1</dim>
					<dim>3</dim>
					<dim>197</dim>
					<dim>64</dim>
				</port>
			</input>
			<output>
				<port id="2" precision="FP32" names="/layers.0/attn/Mul_output_0">
					<dim>1</dim>
					<dim>3</dim>
					<dim>197</dim>
					<dim>197</dim>
				</port>
			</output>
		</layer>
		<layer id="68" name="/layers.0/attn/Softmax" type="SoftMax" version="opset8">
			<data axis="3" />
			<input>
				<port id="0" precision="FP32">
					<dim>1</dim>
					<dim>3</dim>
					<dim>197</dim>
					<dim>197</dim>
				</port>
			</input>
			<output>
				<port id="1" precision="FP32" names="/layers.0/attn/Softmax_output_0">
					<dim>1</dim>
					<dim>3</dim>
					<dim>197</dim>
					<dim>197</dim>
				</port>
			</output>
		</layer>
		<layer id="69" name="/patch_embed/Constant" type="Const" version="opset1">
			<data element_type="i64" shape="" offset="591448" size="8" />
			<output>
				<port id="0" precision="I64" names="/patch_embed/Constant_output_0" />
			</output>
		</layer>
		<layer id="70" name="Constant_279" type="Const" version="opset1">
			<data element_type="i64" shape="" offset="792" size="8" />
			<output>
				<port id="0" precision="I64" />
			</output>
		</layer>
		<layer id="71" name="/layers.0/attn/Gather_4" type="Gather" version="opset8">
			<data batch_dims="0" />
			<input>
				<port id="0" precision="FP32">
					<dim>3</dim>
					<dim>1</dim>
					<dim>3</dim>
					<dim>197</dim>
					<dim>64</dim>
				</port>
				<port id="1" precision="I64" />
				<port id="2" precision="I64" />
			</input>
			<output>
				<port id="3" precision="FP32" names="/layers.0/attn/Gather_4_output_0">
					<dim>1</dim>
					<dim>3</dim>
					<dim>197</dim>
					<dim>64</dim>
				</port>
			</output>
		</layer>
		<layer id="72" name="/layers.0/attn/MatMul_1" type="MatMul" version="opset1">
			<data transpose_a="false" transpose_b="false" />
			<input>
				<port id="0" precision="FP32">
					<dim>1</dim>
					<dim>3</dim>
					<dim>197</dim>
					<dim>197</dim>
				</port>
				<port id="1" precision="FP32">
					<dim>1</dim>
					<dim>3</dim>
					<dim>197</dim>
					<dim>64</dim>
				</port>
			</input>
			<output>
				<port id="2" precision="FP32" names="/layers.0/attn/MatMul_1_output_0">
					<dim>1</dim>
					<dim>3</dim>
					<dim>197</dim>
					<dim>64</dim>
				</port>
			</output>
		</layer>
		<layer id="73" name="Constant_288" type="Const" version="opset1">
			<data element_type="i64" shape="4" offset="1189836" size="32" />
			<output>
				<port id="0" precision="I64">
					<dim>4</dim>
				</port>
			</output>
		</layer>
		<layer id="74" name="/layers.0/attn/Transpose_2" type="Transpose" version="opset1">
			<input>
				<port id="0" precision="FP32">
					<dim>1</dim>
					<dim>3</dim>
					<dim>197</dim>
					<dim>64</dim>
				</port>
				<port id="1" precision="I64">
					<dim>4</dim>
				</port>
			</input>
			<output>
				<port id="2" precision="FP32" names="/layers.0/attn/Transpose_2_output_0">
					<dim>1</dim>
					<dim>197</dim>
					<dim>3</dim>
					<dim>64</dim>
				</port>
			</output>
		</layer>
		<layer id="75" name="Constant_3819" type="Const" version="opset1">
			<data element_type="i64" shape="2" offset="1189760" size="16" />
			<output>
				<port id="0" precision="I64">
					<dim>2</dim>
				</port>
			</output>
		</layer>
		<layer id="76" name="Constant_3820" type="Const" version="opset1">
			<data element_type="i64" shape="" offset="792" size="8" />
			<output>
				<port id="0" precision="I64" />
			</output>
		</layer>
		<layer id="77" name="Gather_3821" type="Gather" version="opset8">
			<data batch_dims="0" />
			<input>
				<port id="0" precision="I64">
					<dim>3</dim>
				</port>
				<port id="1" precision="I64">
					<dim>2</dim>
				</port>
				<port id="2" precision="I64" />
			</input>
			<output>
				<port id="3" precision="I64">
					<dim>2</dim>
				</port>
			</output>
		</layer>
		<layer id="78" name="/layers.0/attn/Constant_6" type="Const" version="opset1">
			<data element_type="i64" shape="1" offset="1189868" size="8" />
			<output>
				<port id="0" precision="I64" names="/layers.0/attn/Constant_6_output_0">
					<dim>1</dim>
				</port>
			</output>
		</layer>
		<layer id="79" name="/layers.0/attn/Concat_1" type="Concat" version="opset1">
			<data axis="0" />
			<input>
				<port id="0" precision="I64">
					<dim>2</dim>
				</port>
				<port id="1" precision="I64">
					<dim>1</dim>
				</port>
			</input>
			<output>
				<port id="2" precision="I64" names="/layers.0/attn/Concat_1_output_0">
					<dim>3</dim>
				</port>
			</output>
		</layer>
		<layer id="80" name="/layers.0/attn/Reshape_1" type="Reshape" version="opset1">
			<data special_zero="true" />
			<input>
				<port id="0" precision="FP32">
					<dim>1</dim>
					<dim>197</dim>
					<dim>3</dim>
					<dim>64</dim>
				</port>
				<port id="1" precision="I64">
					<dim>3</dim>
				</port>
			</input>
			<output>
				<port id="2" precision="FP32" names="/layers.0/attn/Reshape_1_output_0">
					<dim>1</dim>
					<dim>197</dim>
					<dim>192</dim>
				</port>
			</output>
		</layer>
		<layer id="81" name="Constant_4444" type="Const" version="opset1">
			<data element_type="f32" shape="192, 192" offset="1189876" size="147456" />
			<output>
				<port id="0" precision="FP32">
					<dim>192</dim>
					<dim>192</dim>
				</port>
			</output>
		</layer>
		<layer id="82" name="/layers.0/attn/proj/MatMul" type="MatMul" version="opset1">
			<data transpose_a="false" transpose_b="true" />
			<input>
				<port id="0" precision="FP32">
					<dim>1</dim>
					<dim>197</dim>
					<dim>192</dim>
				</port>
				<port id="1" precision="FP32">
					<dim>192</dim>
					<dim>192</dim>
				</port>
			</input>
			<output>
				<port id="2" precision="FP32" names="/layers.0/attn/proj/MatMul_output_0">
					<dim>1</dim>
					<dim>197</dim>
					<dim>192</dim>
				</port>
			</output>
		</layer>
		<layer id="83" name="/layers.0/attn/proj/Add" type="Add" version="opset1">
			<data auto_broadcast="numpy" />
			<input>
				<port id="0" precision="FP32">
					<dim>1</dim>
					<dim>1</dim>
					<dim>192</dim>
				</port>
				<port id="1" precision="FP32">
					<dim>1</dim>
					<dim>197</dim>
					<dim>192</dim>
				</port>
			</input>
			<output>
				<port id="2" precision="FP32" names="/layers.0/attn/proj/Add_output_0">
					<dim>1</dim>
					<dim>197</dim>
					<dim>192</dim>
				</port>
			</output>
		</layer>
		<layer id="84" name="/layers.0/Add" type="Add" version="opset1">
			<data auto_broadcast="numpy" />
			<input>
				<port id="0" precision="FP32">
					<dim>1</dim>
					<dim>197</dim>
					<dim>192</dim>
				</port>
				<port id="1" precision="FP32">
					<dim>1</dim>
					<dim>197</dim>
					<dim>192</dim>
				</port>
			</input>
			<output>
				<port id="2" precision="FP32" names="/layers.0/Add_output_0">
					<dim>1</dim>
					<dim>197</dim>
					<dim>192</dim>
				</port>
			</output>
		</layer>
		<layer id="85" name="Constant_4893" type="Const" version="opset1">
			<data element_type="f32" shape="1, 1, 192" offset="1337332" size="768" />
			<output>
				<port id="0" precision="FP32">
					<dim>1</dim>
					<dim>1</dim>
					<dim>192</dim>
				</port>
			</output>
		</layer>
		<layer id="86" name="Constant_4892" type="Const" version="opset1">
			<data element_type="f32" shape="1, 1, 768" offset="1338100" size="3072" />
			<output>
				<port id="0" precision="FP32">
					<dim>1</dim>
					<dim>1</dim>
					<dim>768</dim>
				</port>
			</output>
		</layer>
		<layer id="87" name="Constant_302" type="Const" version="opset1">
			<data element_type="i64" shape="1" offset="800" size="8" />
			<output>
				<port id="0" precision="I64">
					<dim>1</dim>
				</port>
			</output>
		</layer>
		<layer id="88" name="/layers.0/ln2/Div" type="MVN" version="opset6">
			<data eps="9.9999999747524271e-07" normalize_variance="true" eps_mode="INSIDE_SQRT" />
			<input>
				<port id="0" precision="FP32">
					<dim>1</dim>
					<dim>197</dim>
					<dim>192</dim>
				</port>
				<port id="1" precision="I64">
					<dim>1</dim>
				</port>
			</input>
			<output>
				<port id="2" precision="FP32" names="/layers.0/ln2/Div_output_0">
					<dim>1</dim>
					<dim>197</dim>
					<dim>192</dim>
				</port>
			</output>
		</layer>
		<layer id="89" name="Constant_4890" type="Const" version="opset1">
			<data element_type="f32" shape="1, 1, 192" offset="1341172" size="768" />
			<output>
				<port id="0" precision="FP32">
					<dim>1</dim>
					<dim>1</dim>
					<dim>192</dim>
				</port>
			</output>
		</layer>
		<layer id="90" name="/layers.0/ln2/Mul" type="Multiply" version="opset1">
			<data auto_broadcast="numpy" />
			<input>
				<port id="0" precision="FP32">
					<dim>1</dim>
					<dim>197</dim>
					<dim>192</dim>
				</port>
				<port id="1" precision="FP32">
					<dim>1</dim>
					<dim>1</dim>
					<dim>192</dim>
				</port>
			</input>
			<output>
				<port id="2" precision="FP32" names="/layers.0/ln2/Mul_output_0">
					<dim>1</dim>
					<dim>197</dim>
					<dim>192</dim>
				</port>
			</output>
		</layer>
		<layer id="91" name="Constant_4891" type="Const" version="opset1">
			<data element_type="f32" shape="1, 1, 192" offset="1341940" size="768" />
			<output>
				<port id="0" precision="FP32">
					<dim>1</dim>
					<dim>1</dim>
					<dim>192</dim>
				</port>
			</output>
		</layer>
		<layer id="92" name="/layers.0/ln2/Add_1" type="Add" version="opset1">
			<data auto_broadcast="numpy" />
			<input>
				<port id="0" precision="FP32">
					<dim>1</dim>
					<dim>197</dim>
					<dim>192</dim>
				</port>
				<port id="1" precision="FP32">
					<dim>1</dim>
					<dim>1</dim>
					<dim>192</dim>
				</port>
			</input>
			<output>
				<port id="2" precision="FP32" names="/layers.0/ln2/Add_1_output_0">
					<dim>1</dim>
					<dim>197</dim>
					<dim>192</dim>
				</port>
			</output>
		</layer>
		<layer id="93" name="Constant_4449" type="Const" version="opset1">
			<data element_type="f32" shape="768, 192" offset="1342708" size="589824" />
			<output>
				<port id="0" precision="FP32">
					<dim>768</dim>
					<dim>192</dim>
				</port>
			</output>
		</layer>
		<layer id="94" name="/layers.0/ffn/layers/layers.0/layers.0.0/MatMul" type="MatMul" version="opset1">
			<data transpose_a="false" transpose_b="true" />
			<input>
				<port id="0" precision="FP32">
					<dim>1</dim>
					<dim>197</dim>
					<dim>192</dim>
				</port>
				<port id="1" precision="FP32">
					<dim>768</dim>
					<dim>192</dim>
				</port>
			</input>
			<output>
				<port id="2" precision="FP32" names="/layers.0/ffn/layers/layers.0/layers.0.0/MatMul_output_0">
					<dim>1</dim>
					<dim>197</dim>
					<dim>768</dim>
				</port>
			</output>
		</layer>
		<layer id="95" name="/layers.0/ffn/layers/layers.0/layers.0.0/Add" type="Add" version="opset1">
			<data auto_broadcast="numpy" />
			<input>
				<port id="0" precision="FP32">
					<dim>1</dim>
					<dim>1</dim>
					<dim>768</dim>
				</port>
				<port id="1" precision="FP32">
					<dim>1</dim>
					<dim>197</dim>
					<dim>768</dim>
				</port>
			</input>
			<output>
				<port id="2" precision="FP32" names="/layers.0/ffn/layers/layers.0/layers.0.0/Add_output_0">
					<dim>1</dim>
					<dim>197</dim>
					<dim>768</dim>
				</port>
			</output>
		</layer>
		<layer id="96" name="/layers.0/ffn/layers/layers.0/activate/Mul_1" type="Gelu" version="opset7">
			<data approximation_mode="ERF" />
			<input>
				<port id="0" precision="FP32">
					<dim>1</dim>
					<dim>197</dim>
					<dim>768</dim>
				</port>
			</input>
			<output>
				<port id="1" precision="FP32" names="/layers.0/ffn/layers/layers.0/activate/Mul_1_output_0">
					<dim>1</dim>
					<dim>197</dim>
					<dim>768</dim>
				</port>
			</output>
		</layer>
		<layer id="97" name="Constant_4454" type="Const" version="opset1">
			<data element_type="f32" shape="192, 768" offset="1932532" size="589824" />
			<output>
				<port id="0" precision="FP32">
					<dim>192</dim>
					<dim>768</dim>
				</port>
			</output>
		</layer>
		<layer id="98" name="/layers.0/ffn/layers/layers.1/MatMul" type="MatMul" version="opset1">
			<data transpose_a="false" transpose_b="true" />
			<input>
				<port id="0" precision="FP32">
					<dim>1</dim>
					<dim>197</dim>
					<dim>768</dim>
				</port>
				<port id="1" precision="FP32">
					<dim>192</dim>
					<dim>768</dim>
				</port>
			</input>
			<output>
				<port id="2" precision="FP32" names="/layers.0/ffn/layers/layers.1/MatMul_output_0">
					<dim>1</dim>
					<dim>197</dim>
					<dim>192</dim>
				</port>
			</output>
		</layer>
		<layer id="99" name="/layers.0/ffn/layers/layers.1/Add" type="Add" version="opset1">
			<data auto_broadcast="numpy" />
			<input>
				<port id="0" precision="FP32">
					<dim>1</dim>
					<dim>1</dim>
					<dim>192</dim>
				</port>
				<port id="1" precision="FP32">
					<dim>1</dim>
					<dim>197</dim>
					<dim>192</dim>
				</port>
			</input>
			<output>
				<port id="2" precision="FP32" names="/layers.0/ffn/layers/layers.1/Add_output_0">
					<dim>1</dim>
					<dim>197</dim>
					<dim>192</dim>
				</port>
			</output>
		</layer>
		<layer id="100" name="/layers.0/ffn/Add" type="Add" version="opset1">
			<data auto_broadcast="numpy" />
			<input>
				<port id="0" precision="FP32">
					<dim>1</dim>
					<dim>197</dim>
					<dim>192</dim>
				</port>
				<port id="1" precision="FP32">
					<dim>1</dim>
					<dim>197</dim>
					<dim>192</dim>
				</port>
			</input>
			<output>
				<port id="2" precision="FP32" names="/layers.0/ffn/Add_output_0">
					<dim>1</dim>
					<dim>197</dim>
					<dim>192</dim>
				</port>
			</output>
		</layer>
		<layer id="101" name="Constant_4898" type="Const" version="opset1">
			<data element_type="f32" shape="1, 1, 192" offset="2522356" size="768" />
			<output>
				<port id="0" precision="FP32">
					<dim>1</dim>
					<dim>1</dim>
					<dim>192</dim>
				</port>
			</output>
		</layer>
		<layer id="102" name="Constant_4896" type="Const" version="opset1">
			<data element_type="f32" shape="1, 1, 576" offset="2523124" size="2304" />
			<output>
				<port id="0" precision="FP32">
					<dim>1</dim>
					<dim>1</dim>
					<dim>576</dim>
				</port>
			</output>
		</layer>
		<layer id="103" name="Constant_328" type="Const" version="opset1">
			<data element_type="i64" shape="1" offset="800" size="8" />
			<output>
				<port id="0" precision="I64">
					<dim>1</dim>
				</port>
			</output>
		</layer>
		<layer id="104" name="/layers.1/ln1/Div" type="MVN" version="opset6">
			<data eps="9.9999999747524271e-07" normalize_variance="true" eps_mode="INSIDE_SQRT" />
			<input>
				<port id="0" precision="FP32">
					<dim>1</dim>
					<dim>197</dim>
					<dim>192</dim>
				</port>
				<port id="1" precision="I64">
					<dim>1</dim>
				</port>
			</input>
			<output>
				<port id="2" precision="FP32" names="/layers.1/ln1/Div_output_0">
					<dim>1</dim>
					<dim>197</dim>
					<dim>192</dim>
				</port>
			</output>
		</layer>
		<layer id="105" name="Constant_4894" type="Const" version="opset1">
			<data element_type="f32" shape="1, 1, 192" offset="2525428" size="768" />
			<output>
				<port id="0" precision="FP32">
					<dim>1</dim>
					<dim>1</dim>
					<dim>192</dim>
				</port>
			</output>
		</layer>
		<layer id="106" name="/layers.1/ln1/Mul" type="Multiply" version="opset1">
			<data auto_broadcast="numpy" />
			<input>
				<port id="0" precision="FP32">
					<dim>1</dim>
					<dim>197</dim>
					<dim>192</dim>
				</port>
				<port id="1" precision="FP32">
					<dim>1</dim>
					<dim>1</dim>
					<dim>192</dim>
				</port>
			</input>
			<output>
				<port id="2" precision="FP32" names="/layers.1/ln1/Mul_output_0">
					<dim>1</dim>
					<dim>197</dim>
					<dim>192</dim>
				</port>
			</output>
		</layer>
		<layer id="107" name="Constant_4895" type="Const" version="opset1">
			<data element_type="f32" shape="1, 1, 192" offset="2526196" size="768" />
			<output>
				<port id="0" precision="FP32">
					<dim>1</dim>
					<dim>1</dim>
					<dim>192</dim>
				</port>
			</output>
		</layer>
		<layer id="108" name="/layers.1/ln1/Add_1" type="Add" version="opset1">
			<data auto_broadcast="numpy" />
			<input>
				<port id="0" precision="FP32">
					<dim>1</dim>
					<dim>197</dim>
					<dim>192</dim>
				</port>
				<port id="1" precision="FP32">
					<dim>1</dim>
					<dim>1</dim>
					<dim>192</dim>
				</port>
			</input>
			<output>
				<port id="2" precision="FP32" names="/layers.1/ln1/Add_1_output_0">
					<dim>1</dim>
					<dim>197</dim>
					<dim>192</dim>
				</port>
			</output>
		</layer>
		<layer id="109" name="Constant_4459" type="Const" version="opset1">
			<data element_type="f32" shape="576, 192" offset="2526964" size="442368" />
			<output>
				<port id="0" precision="FP32">
					<dim>576</dim>
					<dim>192</dim>
				</port>
			</output>
		</layer>
		<layer id="110" name="/layers.1/attn/qkv/MatMul" type="MatMul" version="opset1">
			<data transpose_a="false" transpose_b="true" />
			<input>
				<port id="0" precision="FP32">
					<dim>1</dim>
					<dim>197</dim>
					<dim>192</dim>
				</port>
				<port id="1" precision="FP32">
					<dim>576</dim>
					<dim>192</dim>
				</port>
			</input>
			<output>
				<port id="2" precision="FP32" names="/layers.1/attn/qkv/MatMul_output_0">
					<dim>1</dim>
					<dim>197</dim>
					<dim>576</dim>
				</port>
			</output>
		</layer>
		<layer id="111" name="/layers.1/attn/qkv/Add" type="Add" version="opset1">
			<data auto_broadcast="numpy" />
			<input>
				<port id="0" precision="FP32">
					<dim>1</dim>
					<dim>1</dim>
					<dim>576</dim>
				</port>
				<port id="1" precision="FP32">
					<dim>1</dim>
					<dim>197</dim>
					<dim>576</dim>
				</port>
			</input>
			<output>
				<port id="2" precision="FP32" names="/layers.1/attn/qkv/Add_output_0">
					<dim>1</dim>
					<dim>197</dim>
					<dim>576</dim>
				</port>
			</output>
		</layer>
		<layer id="112" name="/layers.1/attn/Shape" type="ShapeOf" version="opset3">
			<data output_type="i64" />
			<input>
				<port id="0" precision="FP32">
					<dim>1</dim>
					<dim>197</dim>
					<dim>192</dim>
				</port>
			</input>
			<output>
				<port id="1" precision="I64" names="/layers.1/attn/Shape_1_output_0,/layers.1/attn/Shape_output_0">
					<dim>3</dim>
				</port>
			</output>
		</layer>
		<layer id="113" name="Constant_3824" type="Const" version="opset1">
			<data element_type="i64" shape="2" offset="1189760" size="16" />
			<output>
				<port id="0" precision="I64">
					<dim>2</dim>
				</port>
			</output>
		</layer>
		<layer id="114" name="Constant_3825" type="Const" version="opset1">
			<data element_type="i64" shape="" offset="792" size="8" />
			<output>
				<port id="0" precision="I64" />
			</output>
		</layer>
		<layer id="115" name="Gather_3826" type="Gather" version="opset8">
			<data batch_dims="0" />
			<input>
				<port id="0" precision="I64">
					<dim>3</dim>
				</port>
				<port id="1" precision="I64">
					<dim>2</dim>
				</port>
				<port id="2" precision="I64" />
			</input>
			<output>
				<port id="3" precision="I64">
					<dim>2</dim>
				</port>
			</output>
		</layer>
		<layer id="116" name="/layers.1/attn/Constant_2" type="Const" version="opset1">
			<data element_type="i64" shape="1" offset="1189776" size="8" />
			<output>
				<port id="0" precision="I64" names="/layers.1/attn/Constant_2_output_0">
					<dim>1</dim>
				</port>
			</output>
		</layer>
		<layer id="117" name="/layers.1/attn/Constant_3" type="Const" version="opset1">
			<data element_type="i64" shape="1" offset="1189776" size="8" />
			<output>
				<port id="0" precision="I64" names="/layers.1/attn/Constant_3_output_0">
					<dim>1</dim>
				</port>
			</output>
		</layer>
		<layer id="118" name="/layers.1/attn/Constant_4" type="Const" version="opset1">
			<data element_type="i64" shape="1" offset="1189784" size="8" />
			<output>
				<port id="0" precision="I64" names="/layers.1/attn/Constant_4_output_0">
					<dim>1</dim>
				</port>
			</output>
		</layer>
		<layer id="119" name="/layers.1/attn/Concat" type="Concat" version="opset1">
			<data axis="0" />
			<input>
				<port id="0" precision="I64">
					<dim>2</dim>
				</port>
				<port id="1" precision="I64">
					<dim>1</dim>
				</port>
				<port id="2" precision="I64">
					<dim>1</dim>
				</port>
				<port id="3" precision="I64">
					<dim>1</dim>
				</port>
			</input>
			<output>
				<port id="4" precision="I64" names="/layers.1/attn/Concat_output_0">
					<dim>5</dim>
				</port>
			</output>
		</layer>
		<layer id="120" name="/layers.1/attn/Reshape" type="Reshape" version="opset1">
			<data special_zero="true" />
			<input>
				<port id="0" precision="FP32">
					<dim>1</dim>
					<dim>197</dim>
					<dim>576</dim>
				</port>
				<port id="1" precision="I64">
					<dim>5</dim>
				</port>
			</input>
			<output>
				<port id="2" precision="FP32" names="/layers.1/attn/Reshape_output_0">
					<dim>1</dim>
					<dim>197</dim>
					<dim>3</dim>
					<dim>3</dim>
					<dim>64</dim>
				</port>
			</output>
		</layer>
		<layer id="121" name="Constant_362" type="Const" version="opset1">
			<data element_type="i64" shape="5" offset="1189792" size="40" />
			<output>
				<port id="0" precision="I64">
					<dim>5</dim>
				</port>
			</output>
		</layer>
		<layer id="122" name="/layers.1/attn/Transpose" type="Transpose" version="opset1">
			<input>
				<port id="0" precision="FP32">
					<dim>1</dim>
					<dim>197</dim>
					<dim>3</dim>
					<dim>3</dim>
					<dim>64</dim>
				</port>
				<port id="1" precision="I64">
					<dim>5</dim>
				</port>
			</input>
			<output>
				<port id="2" precision="FP32" names="/layers.1/attn/Transpose_output_0">
					<dim>3</dim>
					<dim>1</dim>
					<dim>3</dim>
					<dim>197</dim>
					<dim>64</dim>
				</port>
			</output>
		</layer>
		<layer id="123" name="Constant_364" type="Const" version="opset1">
			<data element_type="i64" shape="" offset="792" size="8" />
			<output>
				<port id="0" precision="I64" />
			</output>
		</layer>
		<layer id="124" name="/layers.1/attn/Gather_2" type="Gather" version="opset8">
			<data batch_dims="0" />
			<input>
				<port id="0" precision="FP32">
					<dim>3</dim>
					<dim>1</dim>
					<dim>3</dim>
					<dim>197</dim>
					<dim>64</dim>
				</port>
				<port id="1" precision="I64" />
				<port id="2" precision="I64" />
			</input>
			<output>
				<port id="3" precision="FP32" names="/layers.1/attn/Gather_2_output_0">
					<dim>1</dim>
					<dim>3</dim>
					<dim>197</dim>
					<dim>64</dim>
				</port>
			</output>
		</layer>
		<layer id="125" name="Constant_366" type="Const" version="opset1">
			<data element_type="i64" shape="" offset="792" size="8" />
			<output>
				<port id="0" precision="I64" />
			</output>
		</layer>
		<layer id="126" name="/layers.1/attn/Gather_3" type="Gather" version="opset8">
			<data batch_dims="0" />
			<input>
				<port id="0" precision="FP32">
					<dim>3</dim>
					<dim>1</dim>
					<dim>3</dim>
					<dim>197</dim>
					<dim>64</dim>
				</port>
				<port id="1" precision="I64" />
				<port id="2" precision="I64" />
			</input>
			<output>
				<port id="3" precision="FP32" names="/layers.1/attn/Gather_3_output_0">
					<dim>1</dim>
					<dim>3</dim>
					<dim>197</dim>
					<dim>64</dim>
				</port>
			</output>
		</layer>
		<layer id="127" name="Constant_4897" type="Const" version="opset1">
			<data element_type="f32" shape="1, 1, 1, 1" offset="1189832" size="4" />
			<output>
				<port id="0" precision="FP32">
					<dim>1</dim>
					<dim>1</dim>
					<dim>1</dim>
					<dim>1</dim>
				</port>
			</output>
		</layer>
		<layer id="128" name="Multiply_4680" type="Multiply" version="opset1">
			<data auto_broadcast="numpy" />
			<input>
				<port id="0" precision="FP32">
					<dim>1</dim>
					<dim>3</dim>
					<dim>197</dim>
					<dim>64</dim>
				</port>
				<port id="1" precision="FP32">
					<dim>1</dim>
					<dim>1</dim>
					<dim>1</dim>
					<dim>1</dim>
				</port>
			</input>
			<output>
				<port id="2" precision="FP32">
					<dim>1</dim>
					<dim>3</dim>
					<dim>197</dim>
					<dim>64</dim>
				</port>
			</output>
		</layer>
		<layer id="129" name="/layers.1/attn/Mul" type="MatMul" version="opset1">
			<data transpose_a="false" transpose_b="true" />
			<input>
				<port id="0" precision="FP32">
					<dim>1</dim>
					<dim>3</dim>
					<dim>197</dim>
					<dim>64</dim>
				</port>
				<port id="1" precision="FP32">
					<dim>1</dim>
					<dim>3</dim>
					<dim>197</dim>
					<dim>64</dim>
				</port>
			</input>
			<output>
				<port id="2" precision="FP32" names="/layers.1/attn/Mul_output_0">
					<dim>1</dim>
					<dim>3</dim>
					<dim>197</dim>
					<dim>197</dim>
				</port>
			</output>
		</layer>
		<layer id="130" name="/layers.1/attn/Softmax" type="SoftMax" version="opset8">
			<data axis="3" />
			<input>
				<port id="0" precision="FP32">
					<dim>1</dim>
					<dim>3</dim>
					<dim>197</dim>
					<dim>197</dim>
				</port>
			</input>
			<output>
				<port id="1" precision="FP32" names="/layers.1/attn/Softmax_output_0">
					<dim>1</dim>
					<dim>3</dim>
					<dim>197</dim>
					<dim>197</dim>
				</port>
			</output>
		</layer>
		<layer id="131" name="Constant_368" type="Const" version="opset1">
			<data element_type="i64" shape="" offset="792" size="8" />
			<output>
				<port id="0" precision="I64" />
			</output>
		</layer>
		<layer id="132" name="/layers.1/attn/Gather_4" type="Gather" version="opset8">
			<data batch_dims="0" />
			<input>
				<port id="0" precision="FP32">
					<dim>3</dim>
					<dim>1</dim>
					<dim>3</dim>
					<dim>197</dim>
					<dim>64</dim>
				</port>
				<port id="1" precision="I64" />
				<port id="2" precision="I64" />
			</input>
			<output>
				<port id="3" precision="FP32" names="/layers.1/attn/Gather_4_output_0">
					<dim>1</dim>
					<dim>3</dim>
					<dim>197</dim>
					<dim>64</dim>
				</port>
			</output>
		</layer>
		<layer id="133" name="/layers.1/attn/MatMul_1" type="MatMul" version="opset1">
			<data transpose_a="false" transpose_b="false" />
			<input>
				<port id="0" precision="FP32">
					<dim>1</dim>
					<dim>3</dim>
					<dim>197</dim>
					<dim>197</dim>
				</port>
				<port id="1" precision="FP32">
					<dim>1</dim>
					<dim>3</dim>
					<dim>197</dim>
					<dim>64</dim>
				</port>
			</input>
			<output>
				<port id="2" precision="FP32" names="/layers.1/attn/MatMul_1_output_0">
					<dim>1</dim>
					<dim>3</dim>
					<dim>197</dim>
					<dim>64</dim>
				</port>
			</output>
		</layer>
		<layer id="134" name="Constant_377" type="Const" version="opset1">
			<data element_type="i64" shape="4" offset="1189836" size="32" />
			<output>
				<port id="0" precision="I64">
					<dim>4</dim>
				</port>
			</output>
		</layer>
		<layer id="135" name="/layers.1/attn/Transpose_2" type="Transpose" version="opset1">
			<input>
				<port id="0" precision="FP32">
					<dim>1</dim>
					<dim>3</dim>
					<dim>197</dim>
					<dim>64</dim>
				</port>
				<port id="1" precision="I64">
					<dim>4</dim>
				</port>
			</input>
			<output>
				<port id="2" precision="FP32" names="/layers.1/attn/Transpose_2_output_0">
					<dim>1</dim>
					<dim>197</dim>
					<dim>3</dim>
					<dim>64</dim>
				</port>
			</output>
		</layer>
		<layer id="136" name="Constant_3829" type="Const" version="opset1">
			<data element_type="i64" shape="2" offset="1189760" size="16" />
			<output>
				<port id="0" precision="I64">
					<dim>2</dim>
				</port>
			</output>
		</layer>
		<layer id="137" name="Constant_3830" type="Const" version="opset1">
			<data element_type="i64" shape="" offset="792" size="8" />
			<output>
				<port id="0" precision="I64" />
			</output>
		</layer>
		<layer id="138" name="Gather_3831" type="Gather" version="opset8">
			<data batch_dims="0" />
			<input>
				<port id="0" precision="I64">
					<dim>3</dim>
				</port>
				<port id="1" precision="I64">
					<dim>2</dim>
				</port>
				<port id="2" precision="I64" />
			</input>
			<output>
				<port id="3" precision="I64">
					<dim>2</dim>
				</port>
			</output>
		</layer>
		<layer id="139" name="/layers.1/attn/Constant_6" type="Const" version="opset1">
			<data element_type="i64" shape="1" offset="1189868" size="8" />
			<output>
				<port id="0" precision="I64" names="/layers.1/attn/Constant_6_output_0">
					<dim>1</dim>
				</port>
			</output>
		</layer>
		<layer id="140" name="/layers.1/attn/Concat_1" type="Concat" version="opset1">
			<data axis="0" />
			<input>
				<port id="0" precision="I64">
					<dim>2</dim>
				</port>
				<port id="1" precision="I64">
					<dim>1</dim>
				</port>
			</input>
			<output>
				<port id="2" precision="I64" names="/layers.1/attn/Concat_1_output_0">
					<dim>3</dim>
				</port>
			</output>
		</layer>
		<layer id="141" name="/layers.1/attn/Reshape_1" type="Reshape" version="opset1">
			<data special_zero="true" />
			<input>
				<port id="0" precision="FP32">
					<dim>1</dim>
					<dim>197</dim>
					<dim>3</dim>
					<dim>64</dim>
				</port>
				<port id="1" precision="I64">
					<dim>3</dim>
				</port>
			</input>
			<output>
				<port id="2" precision="FP32" names="/layers.1/attn/Reshape_1_output_0">
					<dim>1</dim>
					<dim>197</dim>
					<dim>192</dim>
				</port>
			</output>
		</layer>
		<layer id="142" name="Constant_4463" type="Const" version="opset1">
			<data element_type="f32" shape="192, 192" offset="2969332" size="147456" />
			<output>
				<port id="0" precision="FP32">
					<dim>192</dim>
					<dim>192</dim>
				</port>
			</output>
		</layer>
		<layer id="143" name="/layers.1/attn/proj/MatMul" type="MatMul" version="opset1">
			<data transpose_a="false" transpose_b="true" />
			<input>
				<port id="0" precision="FP32">
					<dim>1</dim>
					<dim>197</dim>
					<dim>192</dim>
				</port>
				<port id="1" precision="FP32">
					<dim>192</dim>
					<dim>192</dim>
				</port>
			</input>
			<output>
				<port id="2" precision="FP32" names="/layers.1/attn/proj/MatMul_output_0">
					<dim>1</dim>
					<dim>197</dim>
					<dim>192</dim>
				</port>
			</output>
		</layer>
		<layer id="144" name="/layers.1/attn/proj/Add" type="Add" version="opset1">
			<data auto_broadcast="numpy" />
			<input>
				<port id="0" precision="FP32">
					<dim>1</dim>
					<dim>1</dim>
					<dim>192</dim>
				</port>
				<port id="1" precision="FP32">
					<dim>1</dim>
					<dim>197</dim>
					<dim>192</dim>
				</port>
			</input>
			<output>
				<port id="2" precision="FP32" names="/layers.1/attn/proj/Add_output_0">
					<dim>1</dim>
					<dim>197</dim>
					<dim>192</dim>
				</port>
			</output>
		</layer>
		<layer id="145" name="/layers.1/Add" type="Add" version="opset1">
			<data auto_broadcast="numpy" />
			<input>
				<port id="0" precision="FP32">
					<dim>1</dim>
					<dim>197</dim>
					<dim>192</dim>
				</port>
				<port id="1" precision="FP32">
					<dim>1</dim>
					<dim>197</dim>
					<dim>192</dim>
				</port>
			</input>
			<output>
				<port id="2" precision="FP32" names="/layers.1/Add_output_0">
					<dim>1</dim>
					<dim>197</dim>
					<dim>192</dim>
				</port>
			</output>
		</layer>
		<layer id="146" name="Constant_4902" type="Const" version="opset1">
			<data element_type="f32" shape="1, 1, 192" offset="3116788" size="768" />
			<output>
				<port id="0" precision="FP32">
					<dim>1</dim>
					<dim>1</dim>
					<dim>192</dim>
				</port>
			</output>
		</layer>
		<layer id="147" name="Constant_4901" type="Const" version="opset1">
			<data element_type="f32" shape="1, 1, 768" offset="3117556" size="3072" />
			<output>
				<port id="0" precision="FP32">
					<dim>1</dim>
					<dim>1</dim>
					<dim>768</dim>
				</port>
			</output>
		</layer>
		<layer id="148" name="Constant_391" type="Const" version="opset1">
			<data element_type="i64" shape="1" offset="800" size="8" />
			<output>
				<port id="0" precision="I64">
					<dim>1</dim>
				</port>
			</output>
		</layer>
		<layer id="149" name="/layers.1/ln2/Div" type="MVN" version="opset6">
			<data eps="9.9999999747524271e-07" normalize_variance="true" eps_mode="INSIDE_SQRT" />
			<input>
				<port id="0" precision="FP32">
					<dim>1</dim>
					<dim>197</dim>
					<dim>192</dim>
				</port>
				<port id="1" precision="I64">
					<dim>1</dim>
				</port>
			</input>
			<output>
				<port id="2" precision="FP32" names="/layers.1/ln2/Div_output_0">
					<dim>1</dim>
					<dim>197</dim>
					<dim>192</dim>
				</port>
			</output>
		</layer>
		<layer id="150" name="Constant_4899" type="Const" version="opset1">
			<data element_type="f32" shape="1, 1, 192" offset="3120628" size="768" />
			<output>
				<port id="0" precision="FP32">
					<dim>1</dim>
					<dim>1</dim>
					<dim>192</dim>
				</port>
			</output>
		</layer>
		<layer id="151" name="/layers.1/ln2/Mul" type="Multiply" version="opset1">
			<data auto_broadcast="numpy" />
			<input>
				<port id="0" precision="FP32">
					<dim>1</dim>
					<dim>197</dim>
					<dim>192</dim>
				</port>
				<port id="1" precision="FP32">
					<dim>1</dim>
					<dim>1</dim>
					<dim>192</dim>
				</port>
			</input>
			<output>
				<port id="2" precision="FP32" names="/layers.1/ln2/Mul_output_0">
					<dim>1</dim>
					<dim>197</dim>
					<dim>192</dim>
				</port>
			</output>
		</layer>
		<layer id="152" name="Constant_4900" type="Const" version="opset1">
			<data element_type="f32" shape="1, 1, 192" offset="3121396" size="768" />
			<output>
				<port id="0" precision="FP32">
					<dim>1</dim>
					<dim>1</dim>
					<dim>192</dim>
				</port>
			</output>
		</layer>
		<layer id="153" name="/layers.1/ln2/Add_1" type="Add" version="opset1">
			<data auto_broadcast="numpy" />
			<input>
				<port id="0" precision="FP32">
					<dim>1</dim>
					<dim>197</dim>
					<dim>192</dim>
				</port>
				<port id="1" precision="FP32">
					<dim>1</dim>
					<dim>1</dim>
					<dim>192</dim>
				</port>
			</input>
			<output>
				<port id="2" precision="FP32" names="/layers.1/ln2/Add_1_output_0">
					<dim>1</dim>
					<dim>197</dim>
					<dim>192</dim>
				</port>
			</output>
		</layer>
		<layer id="154" name="Constant_4468" type="Const" version="opset1">
			<data element_type="f32" shape="768, 192" offset="3122164" size="589824" />
			<output>
				<port id="0" precision="FP32">
					<dim>768</dim>
					<dim>192</dim>
				</port>
			</output>
		</layer>
		<layer id="155" name="/layers.1/ffn/layers/layers.0/layers.0.0/MatMul" type="MatMul" version="opset1">
			<data transpose_a="false" transpose_b="true" />
			<input>
				<port id="0" precision="FP32">
					<dim>1</dim>
					<dim>197</dim>
					<dim>192</dim>
				</port>
				<port id="1" precision="FP32">
					<dim>768</dim>
					<dim>192</dim>
				</port>
			</input>
			<output>
				<port id="2" precision="FP32" names="/layers.1/ffn/layers/layers.0/layers.0.0/MatMul_output_0">
					<dim>1</dim>
					<dim>197</dim>
					<dim>768</dim>
				</port>
			</output>
		</layer>
		<layer id="156" name="/layers.1/ffn/layers/layers.0/layers.0.0/Add" type="Add" version="opset1">
			<data auto_broadcast="numpy" />
			<input>
				<port id="0" precision="FP32">
					<dim>1</dim>
					<dim>1</dim>
					<dim>768</dim>
				</port>
				<port id="1" precision="FP32">
					<dim>1</dim>
					<dim>197</dim>
					<dim>768</dim>
				</port>
			</input>
			<output>
				<port id="2" precision="FP32" names="/layers.1/ffn/layers/layers.0/layers.0.0/Add_output_0">
					<dim>1</dim>
					<dim>197</dim>
					<dim>768</dim>
				</port>
			</output>
		</layer>
		<layer id="157" name="/layers.1/ffn/layers/layers.0/activate/Mul_1" type="Gelu" version="opset7">
			<data approximation_mode="ERF" />
			<input>
				<port id="0" precision="FP32">
					<dim>1</dim>
					<dim>197</dim>
					<dim>768</dim>
				</port>
			</input>
			<output>
				<port id="1" precision="FP32" names="/layers.1/ffn/layers/layers.0/activate/Mul_1_output_0">
					<dim>1</dim>
					<dim>197</dim>
					<dim>768</dim>
				</port>
			</output>
		</layer>
		<layer id="158" name="Constant_4473" type="Const" version="opset1">
			<data element_type="f32" shape="192, 768" offset="3711988" size="589824" />
			<output>
				<port id="0" precision="FP32">
					<dim>192</dim>
					<dim>768</dim>
				</port>
			</output>
		</layer>
		<layer id="159" name="/layers.1/ffn/layers/layers.1/MatMul" type="MatMul" version="opset1">
			<data transpose_a="false" transpose_b="true" />
			<input>
				<port id="0" precision="FP32">
					<dim>1</dim>
					<dim>197</dim>
					<dim>768</dim>
				</port>
				<port id="1" precision="FP32">
					<dim>192</dim>
					<dim>768</dim>
				</port>
			</input>
			<output>
				<port id="2" precision="FP32" names="/layers.1/ffn/layers/layers.1/MatMul_output_0">
					<dim>1</dim>
					<dim>197</dim>
					<dim>192</dim>
				</port>
			</output>
		</layer>
		<layer id="160" name="/layers.1/ffn/layers/layers.1/Add" type="Add" version="opset1">
			<data auto_broadcast="numpy" />
			<input>
				<port id="0" precision="FP32">
					<dim>1</dim>
					<dim>1</dim>
					<dim>192</dim>
				</port>
				<port id="1" precision="FP32">
					<dim>1</dim>
					<dim>197</dim>
					<dim>192</dim>
				</port>
			</input>
			<output>
				<port id="2" precision="FP32" names="/layers.1/ffn/layers/layers.1/Add_output_0">
					<dim>1</dim>
					<dim>197</dim>
					<dim>192</dim>
				</port>
			</output>
		</layer>
		<layer id="161" name="/layers.1/ffn/Add" type="Add" version="opset1">
			<data auto_broadcast="numpy" />
			<input>
				<port id="0" precision="FP32">
					<dim>1</dim>
					<dim>197</dim>
					<dim>192</dim>
				</port>
				<port id="1" precision="FP32">
					<dim>1</dim>
					<dim>197</dim>
					<dim>192</dim>
				</port>
			</input>
			<output>
				<port id="2" precision="FP32" names="/layers.1/ffn/Add_output_0">
					<dim>1</dim>
					<dim>197</dim>
					<dim>192</dim>
				</port>
			</output>
		</layer>
		<layer id="162" name="Constant_4907" type="Const" version="opset1">
			<data element_type="f32" shape="1, 1, 192" offset="4301812" size="768" />
			<output>
				<port id="0" precision="FP32">
					<dim>1</dim>
					<dim>1</dim>
					<dim>192</dim>
				</port>
			</output>
		</layer>
		<layer id="163" name="Constant_4905" type="Const" version="opset1">
			<data element_type="f32" shape="1, 1, 576" offset="4302580" size="2304" />
			<output>
				<port id="0" precision="FP32">
					<dim>1</dim>
					<dim>1</dim>
					<dim>576</dim>
				</port>
			</output>
		</layer>
		<layer id="164" name="Constant_417" type="Const" version="opset1">
			<data element_type="i64" shape="1" offset="800" size="8" />
			<output>
				<port id="0" precision="I64">
					<dim>1</dim>
				</port>
			</output>
		</layer>
		<layer id="165" name="/layers.2/ln1/Div" type="MVN" version="opset6">
			<data eps="9.9999999747524271e-07" normalize_variance="true" eps_mode="INSIDE_SQRT" />
			<input>
				<port id="0" precision="FP32">
					<dim>1</dim>
					<dim>197</dim>
					<dim>192</dim>
				</port>
				<port id="1" precision="I64">
					<dim>1</dim>
				</port>
			</input>
			<output>
				<port id="2" precision="FP32" names="/layers.2/ln1/Div_output_0">
					<dim>1</dim>
					<dim>197</dim>
					<dim>192</dim>
				</port>
			</output>
		</layer>
		<layer id="166" name="Constant_4903" type="Const" version="opset1">
			<data element_type="f32" shape="1, 1, 192" offset="4304884" size="768" />
			<output>
				<port id="0" precision="FP32">
					<dim>1</dim>
					<dim>1</dim>
					<dim>192</dim>
				</port>
			</output>
		</layer>
		<layer id="167" name="/layers.2/ln1/Mul" type="Multiply" version="opset1">
			<data auto_broadcast="numpy" />
			<input>
				<port id="0" precision="FP32">
					<dim>1</dim>
					<dim>197</dim>
					<dim>192</dim>
				</port>
				<port id="1" precision="FP32">
					<dim>1</dim>
					<dim>1</dim>
					<dim>192</dim>
				</port>
			</input>
			<output>
				<port id="2" precision="FP32" names="/layers.2/ln1/Mul_output_0">
					<dim>1</dim>
					<dim>197</dim>
					<dim>192</dim>
				</port>
			</output>
		</layer>
		<layer id="168" name="Constant_4904" type="Const" version="opset1">
			<data element_type="f32" shape="1, 1, 192" offset="4305652" size="768" />
			<output>
				<port id="0" precision="FP32">
					<dim>1</dim>
					<dim>1</dim>
					<dim>192</dim>
				</port>
			</output>
		</layer>
		<layer id="169" name="/layers.2/ln1/Add_1" type="Add" version="opset1">
			<data auto_broadcast="numpy" />
			<input>
				<port id="0" precision="FP32">
					<dim>1</dim>
					<dim>197</dim>
					<dim>192</dim>
				</port>
				<port id="1" precision="FP32">
					<dim>1</dim>
					<dim>1</dim>
					<dim>192</dim>
				</port>
			</input>
			<output>
				<port id="2" precision="FP32" names="/layers.2/ln1/Add_1_output_0">
					<dim>1</dim>
					<dim>197</dim>
					<dim>192</dim>
				</port>
			</output>
		</layer>
		<layer id="170" name="Constant_4478" type="Const" version="opset1">
			<data element_type="f32" shape="576, 192" offset="4306420" size="442368" />
			<output>
				<port id="0" precision="FP32">
					<dim>576</dim>
					<dim>192</dim>
				</port>
			</output>
		</layer>
		<layer id="171" name="/layers.2/attn/qkv/MatMul" type="MatMul" version="opset1">
			<data transpose_a="false" transpose_b="true" />
			<input>
				<port id="0" precision="FP32">
					<dim>1</dim>
					<dim>197</dim>
					<dim>192</dim>
				</port>
				<port id="1" precision="FP32">
					<dim>576</dim>
					<dim>192</dim>
				</port>
			</input>
			<output>
				<port id="2" precision="FP32" names="/layers.2/attn/qkv/MatMul_output_0">
					<dim>1</dim>
					<dim>197</dim>
					<dim>576</dim>
				</port>
			</output>
		</layer>
		<layer id="172" name="/layers.2/attn/qkv/Add" type="Add" version="opset1">
			<data auto_broadcast="numpy" />
			<input>
				<port id="0" precision="FP32">
					<dim>1</dim>
					<dim>1</dim>
					<dim>576</dim>
				</port>
				<port id="1" precision="FP32">
					<dim>1</dim>
					<dim>197</dim>
					<dim>576</dim>
				</port>
			</input>
			<output>
				<port id="2" precision="FP32" names="/layers.2/attn/qkv/Add_output_0">
					<dim>1</dim>
					<dim>197</dim>
					<dim>576</dim>
				</port>
			</output>
		</layer>
		<layer id="173" name="/layers.2/attn/Shape" type="ShapeOf" version="opset3">
			<data output_type="i64" />
			<input>
				<port id="0" precision="FP32">
					<dim>1</dim>
					<dim>197</dim>
					<dim>192</dim>
				</port>
			</input>
			<output>
				<port id="1" precision="I64" names="/layers.2/attn/Shape_1_output_0,/layers.2/attn/Shape_output_0">
					<dim>3</dim>
				</port>
			</output>
		</layer>
		<layer id="174" name="Constant_3834" type="Const" version="opset1">
			<data element_type="i64" shape="2" offset="1189760" size="16" />
			<output>
				<port id="0" precision="I64">
					<dim>2</dim>
				</port>
			</output>
		</layer>
		<layer id="175" name="Constant_3835" type="Const" version="opset1">
			<data element_type="i64" shape="" offset="792" size="8" />
			<output>
				<port id="0" precision="I64" />
			</output>
		</layer>
		<layer id="176" name="Gather_3836" type="Gather" version="opset8">
			<data batch_dims="0" />
			<input>
				<port id="0" precision="I64">
					<dim>3</dim>
				</port>
				<port id="1" precision="I64">
					<dim>2</dim>
				</port>
				<port id="2" precision="I64" />
			</input>
			<output>
				<port id="3" precision="I64">
					<dim>2</dim>
				</port>
			</output>
		</layer>
		<layer id="177" name="/layers.2/attn/Constant_2" type="Const" version="opset1">
			<data element_type="i64" shape="1" offset="1189776" size="8" />
			<output>
				<port id="0" precision="I64" names="/layers.2/attn/Constant_2_output_0">
					<dim>1</dim>
				</port>
			</output>
		</layer>
		<layer id="178" name="/layers.2/attn/Constant_3" type="Const" version="opset1">
			<data element_type="i64" shape="1" offset="1189776" size="8" />
			<output>
				<port id="0" precision="I64" names="/layers.2/attn/Constant_3_output_0">
					<dim>1</dim>
				</port>
			</output>
		</layer>
		<layer id="179" name="/layers.2/attn/Constant_4" type="Const" version="opset1">
			<data element_type="i64" shape="1" offset="1189784" size="8" />
			<output>
				<port id="0" precision="I64" names="/layers.2/attn/Constant_4_output_0">
					<dim>1</dim>
				</port>
			</output>
		</layer>
		<layer id="180" name="/layers.2/attn/Concat" type="Concat" version="opset1">
			<data axis="0" />
			<input>
				<port id="0" precision="I64">
					<dim>2</dim>
				</port>
				<port id="1" precision="I64">
					<dim>1</dim>
				</port>
				<port id="2" precision="I64">
					<dim>1</dim>
				</port>
				<port id="3" precision="I64">
					<dim>1</dim>
				</port>
			</input>
			<output>
				<port id="4" precision="I64" names="/layers.2/attn/Concat_output_0">
					<dim>5</dim>
				</port>
			</output>
		</layer>
		<layer id="181" name="/layers.2/attn/Reshape" type="Reshape" version="opset1">
			<data special_zero="true" />
			<input>
				<port id="0" precision="FP32">
					<dim>1</dim>
					<dim>197</dim>
					<dim>576</dim>
				</port>
				<port id="1" precision="I64">
					<dim>5</dim>
				</port>
			</input>
			<output>
				<port id="2" precision="FP32" names="/layers.2/attn/Reshape_output_0">
					<dim>1</dim>
					<dim>197</dim>
					<dim>3</dim>
					<dim>3</dim>
					<dim>64</dim>
				</port>
			</output>
		</layer>
		<layer id="182" name="Constant_451" type="Const" version="opset1">
			<data element_type="i64" shape="5" offset="1189792" size="40" />
			<output>
				<port id="0" precision="I64">
					<dim>5</dim>
				</port>
			</output>
		</layer>
		<layer id="183" name="/layers.2/attn/Transpose" type="Transpose" version="opset1">
			<input>
				<port id="0" precision="FP32">
					<dim>1</dim>
					<dim>197</dim>
					<dim>3</dim>
					<dim>3</dim>
					<dim>64</dim>
				</port>
				<port id="1" precision="I64">
					<dim>5</dim>
				</port>
			</input>
			<output>
				<port id="2" precision="FP32" names="/layers.2/attn/Transpose_output_0">
					<dim>3</dim>
					<dim>1</dim>
					<dim>3</dim>
					<dim>197</dim>
					<dim>64</dim>
				</port>
			</output>
		</layer>
		<layer id="184" name="Constant_453" type="Const" version="opset1">
			<data element_type="i64" shape="" offset="792" size="8" />
			<output>
				<port id="0" precision="I64" />
			</output>
		</layer>
		<layer id="185" name="/layers.2/attn/Gather_2" type="Gather" version="opset8">
			<data batch_dims="0" />
			<input>
				<port id="0" precision="FP32">
					<dim>3</dim>
					<dim>1</dim>
					<dim>3</dim>
					<dim>197</dim>
					<dim>64</dim>
				</port>
				<port id="1" precision="I64" />
				<port id="2" precision="I64" />
			</input>
			<output>
				<port id="3" precision="FP32" names="/layers.2/attn/Gather_2_output_0">
					<dim>1</dim>
					<dim>3</dim>
					<dim>197</dim>
					<dim>64</dim>
				</port>
			</output>
		</layer>
		<layer id="186" name="Constant_455" type="Const" version="opset1">
			<data element_type="i64" shape="" offset="792" size="8" />
			<output>
				<port id="0" precision="I64" />
			</output>
		</layer>
		<layer id="187" name="/layers.2/attn/Gather_3" type="Gather" version="opset8">
			<data batch_dims="0" />
			<input>
				<port id="0" precision="FP32">
					<dim>3</dim>
					<dim>1</dim>
					<dim>3</dim>
					<dim>197</dim>
					<dim>64</dim>
				</port>
				<port id="1" precision="I64" />
				<port id="2" precision="I64" />
			</input>
			<output>
				<port id="3" precision="FP32" names="/layers.2/attn/Gather_3_output_0">
					<dim>1</dim>
					<dim>3</dim>
					<dim>197</dim>
					<dim>64</dim>
				</port>
			</output>
		</layer>
		<layer id="188" name="Constant_4906" type="Const" version="opset1">
			<data element_type="f32" shape="1, 1, 1, 1" offset="1189832" size="4" />
			<output>
				<port id="0" precision="FP32">
					<dim>1</dim>
					<dim>1</dim>
					<dim>1</dim>
					<dim>1</dim>
				</port>
			</output>
		</layer>
		<layer id="189" name="Multiply_4682" type="Multiply" version="opset1">
			<data auto_broadcast="numpy" />
			<input>
				<port id="0" precision="FP32">
					<dim>1</dim>
					<dim>3</dim>
					<dim>197</dim>
					<dim>64</dim>
				</port>
				<port id="1" precision="FP32">
					<dim>1</dim>
					<dim>1</dim>
					<dim>1</dim>
					<dim>1</dim>
				</port>
			</input>
			<output>
				<port id="2" precision="FP32">
					<dim>1</dim>
					<dim>3</dim>
					<dim>197</dim>
					<dim>64</dim>
				</port>
			</output>
		</layer>
		<layer id="190" name="/layers.2/attn/Mul" type="MatMul" version="opset1">
			<data transpose_a="false" transpose_b="true" />
			<input>
				<port id="0" precision="FP32">
					<dim>1</dim>
					<dim>3</dim>
					<dim>197</dim>
					<dim>64</dim>
				</port>
				<port id="1" precision="FP32">
					<dim>1</dim>
					<dim>3</dim>
					<dim>197</dim>
					<dim>64</dim>
				</port>
			</input>
			<output>
				<port id="2" precision="FP32" names="/layers.2/attn/Mul_output_0">
					<dim>1</dim>
					<dim>3</dim>
					<dim>197</dim>
					<dim>197</dim>
				</port>
			</output>
		</layer>
		<layer id="191" name="/layers.2/attn/Softmax" type="SoftMax" version="opset8">
			<data axis="3" />
			<input>
				<port id="0" precision="FP32">
					<dim>1</dim>
					<dim>3</dim>
					<dim>197</dim>
					<dim>197</dim>
				</port>
			</input>
			<output>
				<port id="1" precision="FP32" names="/layers.2/attn/Softmax_output_0">
					<dim>1</dim>
					<dim>3</dim>
					<dim>197</dim>
					<dim>197</dim>
				</port>
			</output>
		</layer>
		<layer id="192" name="Constant_457" type="Const" version="opset1">
			<data element_type="i64" shape="" offset="792" size="8" />
			<output>
				<port id="0" precision="I64" />
			</output>
		</layer>
		<layer id="193" name="/layers.2/attn/Gather_4" type="Gather" version="opset8">
			<data batch_dims="0" />
			<input>
				<port id="0" precision="FP32">
					<dim>3</dim>
					<dim>1</dim>
					<dim>3</dim>
					<dim>197</dim>
					<dim>64</dim>
				</port>
				<port id="1" precision="I64" />
				<port id="2" precision="I64" />
			</input>
			<output>
				<port id="3" precision="FP32" names="/layers.2/attn/Gather_4_output_0">
					<dim>1</dim>
					<dim>3</dim>
					<dim>197</dim>
					<dim>64</dim>
				</port>
			</output>
		</layer>
		<layer id="194" name="/layers.2/attn/MatMul_1" type="MatMul" version="opset1">
			<data transpose_a="false" transpose_b="false" />
			<input>
				<port id="0" precision="FP32">
					<dim>1</dim>
					<dim>3</dim>
					<dim>197</dim>
					<dim>197</dim>
				</port>
				<port id="1" precision="FP32">
					<dim>1</dim>
					<dim>3</dim>
					<dim>197</dim>
					<dim>64</dim>
				</port>
			</input>
			<output>
				<port id="2" precision="FP32" names="/layers.2/attn/MatMul_1_output_0">
					<dim>1</dim>
					<dim>3</dim>
					<dim>197</dim>
					<dim>64</dim>
				</port>
			</output>
		</layer>
		<layer id="195" name="Constant_466" type="Const" version="opset1">
			<data element_type="i64" shape="4" offset="1189836" size="32" />
			<output>
				<port id="0" precision="I64">
					<dim>4</dim>
				</port>
			</output>
		</layer>
		<layer id="196" name="/layers.2/attn/Transpose_2" type="Transpose" version="opset1">
			<input>
				<port id="0" precision="FP32">
					<dim>1</dim>
					<dim>3</dim>
					<dim>197</dim>
					<dim>64</dim>
				</port>
				<port id="1" precision="I64">
					<dim>4</dim>
				</port>
			</input>
			<output>
				<port id="2" precision="FP32" names="/layers.2/attn/Transpose_2_output_0">
					<dim>1</dim>
					<dim>197</dim>
					<dim>3</dim>
					<dim>64</dim>
				</port>
			</output>
		</layer>
		<layer id="197" name="Constant_3839" type="Const" version="opset1">
			<data element_type="i64" shape="2" offset="1189760" size="16" />
			<output>
				<port id="0" precision="I64">
					<dim>2</dim>
				</port>
			</output>
		</layer>
		<layer id="198" name="Constant_3840" type="Const" version="opset1">
			<data element_type="i64" shape="" offset="792" size="8" />
			<output>
				<port id="0" precision="I64" />
			</output>
		</layer>
		<layer id="199" name="Gather_3841" type="Gather" version="opset8">
			<data batch_dims="0" />
			<input>
				<port id="0" precision="I64">
					<dim>3</dim>
				</port>
				<port id="1" precision="I64">
					<dim>2</dim>
				</port>
				<port id="2" precision="I64" />
			</input>
			<output>
				<port id="3" precision="I64">
					<dim>2</dim>
				</port>
			</output>
		</layer>
		<layer id="200" name="/layers.2/attn/Constant_6" type="Const" version="opset1">
			<data element_type="i64" shape="1" offset="1189868" size="8" />
			<output>
				<port id="0" precision="I64" names="/layers.2/attn/Constant_6_output_0">
					<dim>1</dim>
				</port>
			</output>
		</layer>
		<layer id="201" name="/layers.2/attn/Concat_1" type="Concat" version="opset1">
			<data axis="0" />
			<input>
				<port id="0" precision="I64">
					<dim>2</dim>
				</port>
				<port id="1" precision="I64">
					<dim>1</dim>
				</port>
			</input>
			<output>
				<port id="2" precision="I64" names="/layers.2/attn/Concat_1_output_0">
					<dim>3</dim>
				</port>
			</output>
		</layer>
		<layer id="202" name="/layers.2/attn/Reshape_1" type="Reshape" version="opset1">
			<data special_zero="true" />
			<input>
				<port id="0" precision="FP32">
					<dim>1</dim>
					<dim>197</dim>
					<dim>3</dim>
					<dim>64</dim>
				</port>
				<port id="1" precision="I64">
					<dim>3</dim>
				</port>
			</input>
			<output>
				<port id="2" precision="FP32" names="/layers.2/attn/Reshape_1_output_0">
					<dim>1</dim>
					<dim>197</dim>
					<dim>192</dim>
				</port>
			</output>
		</layer>
		<layer id="203" name="Constant_4482" type="Const" version="opset1">
			<data element_type="f32" shape="192, 192" offset="4748788" size="147456" />
			<output>
				<port id="0" precision="FP32">
					<dim>192</dim>
					<dim>192</dim>
				</port>
			</output>
		</layer>
		<layer id="204" name="/layers.2/attn/proj/MatMul" type="MatMul" version="opset1">
			<data transpose_a="false" transpose_b="true" />
			<input>
				<port id="0" precision="FP32">
					<dim>1</dim>
					<dim>197</dim>
					<dim>192</dim>
				</port>
				<port id="1" precision="FP32">
					<dim>192</dim>
					<dim>192</dim>
				</port>
			</input>
			<output>
				<port id="2" precision="FP32" names="/layers.2/attn/proj/MatMul_output_0">
					<dim>1</dim>
					<dim>197</dim>
					<dim>192</dim>
				</port>
			</output>
		</layer>
		<layer id="205" name="/layers.2/attn/proj/Add" type="Add" version="opset1">
			<data auto_broadcast="numpy" />
			<input>
				<port id="0" precision="FP32">
					<dim>1</dim>
					<dim>1</dim>
					<dim>192</dim>
				</port>
				<port id="1" precision="FP32">
					<dim>1</dim>
					<dim>197</dim>
					<dim>192</dim>
				</port>
			</input>
			<output>
				<port id="2" precision="FP32" names="/layers.2/attn/proj/Add_output_0">
					<dim>1</dim>
					<dim>197</dim>
					<dim>192</dim>
				</port>
			</output>
		</layer>
		<layer id="206" name="/layers.2/Add" type="Add" version="opset1">
			<data auto_broadcast="numpy" />
			<input>
				<port id="0" precision="FP32">
					<dim>1</dim>
					<dim>197</dim>
					<dim>192</dim>
				</port>
				<port id="1" precision="FP32">
					<dim>1</dim>
					<dim>197</dim>
					<dim>192</dim>
				</port>
			</input>
			<output>
				<port id="2" precision="FP32" names="/layers.2/Add_output_0">
					<dim>1</dim>
					<dim>197</dim>
					<dim>192</dim>
				</port>
			</output>
		</layer>
		<layer id="207" name="Constant_4911" type="Const" version="opset1">
			<data element_type="f32" shape="1, 1, 192" offset="4896244" size="768" />
			<output>
				<port id="0" precision="FP32">
					<dim>1</dim>
					<dim>1</dim>
					<dim>192</dim>
				</port>
			</output>
		</layer>
		<layer id="208" name="Constant_4910" type="Const" version="opset1">
			<data element_type="f32" shape="1, 1, 768" offset="4897012" size="3072" />
			<output>
				<port id="0" precision="FP32">
					<dim>1</dim>
					<dim>1</dim>
					<dim>768</dim>
				</port>
			</output>
		</layer>
		<layer id="209" name="Constant_480" type="Const" version="opset1">
			<data element_type="i64" shape="1" offset="800" size="8" />
			<output>
				<port id="0" precision="I64">
					<dim>1</dim>
				</port>
			</output>
		</layer>
		<layer id="210" name="/layers.2/ln2/Div" type="MVN" version="opset6">
			<data eps="9.9999999747524271e-07" normalize_variance="true" eps_mode="INSIDE_SQRT" />
			<input>
				<port id="0" precision="FP32">
					<dim>1</dim>
					<dim>197</dim>
					<dim>192</dim>
				</port>
				<port id="1" precision="I64">
					<dim>1</dim>
				</port>
			</input>
			<output>
				<port id="2" precision="FP32" names="/layers.2/ln2/Div_output_0">
					<dim>1</dim>
					<dim>197</dim>
					<dim>192</dim>
				</port>
			</output>
		</layer>
		<layer id="211" name="Constant_4908" type="Const" version="opset1">
			<data element_type="f32" shape="1, 1, 192" offset="4900084" size="768" />
			<output>
				<port id="0" precision="FP32">
					<dim>1</dim>
					<dim>1</dim>
					<dim>192</dim>
				</port>
			</output>
		</layer>
		<layer id="212" name="/layers.2/ln2/Mul" type="Multiply" version="opset1">
			<data auto_broadcast="numpy" />
			<input>
				<port id="0" precision="FP32">
					<dim>1</dim>
					<dim>197</dim>
					<dim>192</dim>
				</port>
				<port id="1" precision="FP32">
					<dim>1</dim>
					<dim>1</dim>
					<dim>192</dim>
				</port>
			</input>
			<output>
				<port id="2" precision="FP32" names="/layers.2/ln2/Mul_output_0">
					<dim>1</dim>
					<dim>197</dim>
					<dim>192</dim>
				</port>
			</output>
		</layer>
		<layer id="213" name="Constant_4909" type="Const" version="opset1">
			<data element_type="f32" shape="1, 1, 192" offset="4900852" size="768" />
			<output>
				<port id="0" precision="FP32">
					<dim>1</dim>
					<dim>1</dim>
					<dim>192</dim>
				</port>
			</output>
		</layer>
		<layer id="214" name="/layers.2/ln2/Add_1" type="Add" version="opset1">
			<data auto_broadcast="numpy" />
			<input>
				<port id="0" precision="FP32">
					<dim>1</dim>
					<dim>197</dim>
					<dim>192</dim>
				</port>
				<port id="1" precision="FP32">
					<dim>1</dim>
					<dim>1</dim>
					<dim>192</dim>
				</port>
			</input>
			<output>
				<port id="2" precision="FP32" names="/layers.2/ln2/Add_1_output_0">
					<dim>1</dim>
					<dim>197</dim>
					<dim>192</dim>
				</port>
			</output>
		</layer>
		<layer id="215" name="Constant_4487" type="Const" version="opset1">
			<data element_type="f32" shape="768, 192" offset="4901620" size="589824" />
			<output>
				<port id="0" precision="FP32">
					<dim>768</dim>
					<dim>192</dim>
				</port>
			</output>
		</layer>
		<layer id="216" name="/layers.2/ffn/layers/layers.0/layers.0.0/MatMul" type="MatMul" version="opset1">
			<data transpose_a="false" transpose_b="true" />
			<input>
				<port id="0" precision="FP32">
					<dim>1</dim>
					<dim>197</dim>
					<dim>192</dim>
				</port>
				<port id="1" precision="FP32">
					<dim>768</dim>
					<dim>192</dim>
				</port>
			</input>
			<output>
				<port id="2" precision="FP32" names="/layers.2/ffn/layers/layers.0/layers.0.0/MatMul_output_0">
					<dim>1</dim>
					<dim>197</dim>
					<dim>768</dim>
				</port>
			</output>
		</layer>
		<layer id="217" name="/layers.2/ffn/layers/layers.0/layers.0.0/Add" type="Add" version="opset1">
			<data auto_broadcast="numpy" />
			<input>
				<port id="0" precision="FP32">
					<dim>1</dim>
					<dim>1</dim>
					<dim>768</dim>
				</port>
				<port id="1" precision="FP32">
					<dim>1</dim>
					<dim>197</dim>
					<dim>768</dim>
				</port>
			</input>
			<output>
				<port id="2" precision="FP32" names="/layers.2/ffn/layers/layers.0/layers.0.0/Add_output_0">
					<dim>1</dim>
					<dim>197</dim>
					<dim>768</dim>
				</port>
			</output>
		</layer>
		<layer id="218" name="/layers.2/ffn/layers/layers.0/activate/Mul_1" type="Gelu" version="opset7">
			<data approximation_mode="ERF" />
			<input>
				<port id="0" precision="FP32">
					<dim>1</dim>
					<dim>197</dim>
					<dim>768</dim>
				</port>
			</input>
			<output>
				<port id="1" precision="FP32" names="/layers.2/ffn/layers/layers.0/activate/Mul_1_output_0">
					<dim>1</dim>
					<dim>197</dim>
					<dim>768</dim>
				</port>
			</output>
		</layer>
		<layer id="219" name="Constant_4492" type="Const" version="opset1">
			<data element_type="f32" shape="192, 768" offset="5491444" size="589824" />
			<output>
				<port id="0" precision="FP32">
					<dim>192</dim>
					<dim>768</dim>
				</port>
			</output>
		</layer>
		<layer id="220" name="/layers.2/ffn/layers/layers.1/MatMul" type="MatMul" version="opset1">
			<data transpose_a="false" transpose_b="true" />
			<input>
				<port id="0" precision="FP32">
					<dim>1</dim>
					<dim>197</dim>
					<dim>768</dim>
				</port>
				<port id="1" precision="FP32">
					<dim>192</dim>
					<dim>768</dim>
				</port>
			</input>
			<output>
				<port id="2" precision="FP32" names="/layers.2/ffn/layers/layers.1/MatMul_output_0">
					<dim>1</dim>
					<dim>197</dim>
					<dim>192</dim>
				</port>
			</output>
		</layer>
		<layer id="221" name="/layers.2/ffn/layers/layers.1/Add" type="Add" version="opset1">
			<data auto_broadcast="numpy" />
			<input>
				<port id="0" precision="FP32">
					<dim>1</dim>
					<dim>1</dim>
					<dim>192</dim>
				</port>
				<port id="1" precision="FP32">
					<dim>1</dim>
					<dim>197</dim>
					<dim>192</dim>
				</port>
			</input>
			<output>
				<port id="2" precision="FP32" names="/layers.2/ffn/layers/layers.1/Add_output_0">
					<dim>1</dim>
					<dim>197</dim>
					<dim>192</dim>
				</port>
			</output>
		</layer>
		<layer id="222" name="/layers.2/ffn/Add" type="Add" version="opset1">
			<data auto_broadcast="numpy" />
			<input>
				<port id="0" precision="FP32">
					<dim>1</dim>
					<dim>197</dim>
					<dim>192</dim>
				</port>
				<port id="1" precision="FP32">
					<dim>1</dim>
					<dim>197</dim>
					<dim>192</dim>
				</port>
			</input>
			<output>
				<port id="2" precision="FP32" names="/layers.2/ffn/Add_output_0">
					<dim>1</dim>
					<dim>197</dim>
					<dim>192</dim>
				</port>
			</output>
		</layer>
		<layer id="223" name="Constant_4916" type="Const" version="opset1">
			<data element_type="f32" shape="1, 1, 192" offset="6081268" size="768" />
			<output>
				<port id="0" precision="FP32">
					<dim>1</dim>
					<dim>1</dim>
					<dim>192</dim>
				</port>
			</output>
		</layer>
		<layer id="224" name="Constant_4914" type="Const" version="opset1">
			<data element_type="f32" shape="1, 1, 576" offset="6082036" size="2304" />
			<output>
				<port id="0" precision="FP32">
					<dim>1</dim>
					<dim>1</dim>
					<dim>576</dim>
				</port>
			</output>
		</layer>
		<layer id="225" name="Constant_506" type="Const" version="opset1">
			<data element_type="i64" shape="1" offset="800" size="8" />
			<output>
				<port id="0" precision="I64">
					<dim>1</dim>
				</port>
			</output>
		</layer>
		<layer id="226" name="/layers.3/ln1/Div" type="MVN" version="opset6">
			<data eps="9.9999999747524271e-07" normalize_variance="true" eps_mode="INSIDE_SQRT" />
			<input>
				<port id="0" precision="FP32">
					<dim>1</dim>
					<dim>197</dim>
					<dim>192</dim>
				</port>
				<port id="1" precision="I64">
					<dim>1</dim>
				</port>
			</input>
			<output>
				<port id="2" precision="FP32" names="/layers.3/ln1/Div_output_0">
					<dim>1</dim>
					<dim>197</dim>
					<dim>192</dim>
				</port>
			</output>
		</layer>
		<layer id="227" name="Constant_4912" type="Const" version="opset1">
			<data element_type="f32" shape="1, 1, 192" offset="6084340" size="768" />
			<output>
				<port id="0" precision="FP32">
					<dim>1</dim>
					<dim>1</dim>
					<dim>192</dim>
				</port>
			</output>
		</layer>
		<layer id="228" name="/layers.3/ln1/Mul" type="Multiply" version="opset1">
			<data auto_broadcast="numpy" />
			<input>
				<port id="0" precision="FP32">
					<dim>1</dim>
					<dim>197</dim>
					<dim>192</dim>
				</port>
				<port id="1" precision="FP32">
					<dim>1</dim>
					<dim>1</dim>
					<dim>192</dim>
				</port>
			</input>
			<output>
				<port id="2" precision="FP32" names="/layers.3/ln1/Mul_output_0">
					<dim>1</dim>
					<dim>197</dim>
					<dim>192</dim>
				</port>
			</output>
		</layer>
		<layer id="229" name="Constant_4913" type="Const" version="opset1">
			<data element_type="f32" shape="1, 1, 192" offset="6085108" size="768" />
			<output>
				<port id="0" precision="FP32">
					<dim>1</dim>
					<dim>1</dim>
					<dim>192</dim>
				</port>
			</output>
		</layer>
		<layer id="230" name="/layers.3/ln1/Add_1" type="Add" version="opset1">
			<data auto_broadcast="numpy" />
			<input>
				<port id="0" precision="FP32">
					<dim>1</dim>
					<dim>197</dim>
					<dim>192</dim>
				</port>
				<port id="1" precision="FP32">
					<dim>1</dim>
					<dim>1</dim>
					<dim>192</dim>
				</port>
			</input>
			<output>
				<port id="2" precision="FP32" names="/layers.3/ln1/Add_1_output_0">
					<dim>1</dim>
					<dim>197</dim>
					<dim>192</dim>
				</port>
			</output>
		</layer>
		<layer id="231" name="Constant_4497" type="Const" version="opset1">
			<data element_type="f32" shape="576, 192" offset="6085876" size="442368" />
			<output>
				<port id="0" precision="FP32">
					<dim>576</dim>
					<dim>192</dim>
				</port>
			</output>
		</layer>
		<layer id="232" name="/layers.3/attn/qkv/MatMul" type="MatMul" version="opset1">
			<data transpose_a="false" transpose_b="true" />
			<input>
				<port id="0" precision="FP32">
					<dim>1</dim>
					<dim>197</dim>
					<dim>192</dim>
				</port>
				<port id="1" precision="FP32">
					<dim>576</dim>
					<dim>192</dim>
				</port>
			</input>
			<output>
				<port id="2" precision="FP32" names="/layers.3/attn/qkv/MatMul_output_0">
					<dim>1</dim>
					<dim>197</dim>
					<dim>576</dim>
				</port>
			</output>
		</layer>
		<layer id="233" name="/layers.3/attn/qkv/Add" type="Add" version="opset1">
			<data auto_broadcast="numpy" />
			<input>
				<port id="0" precision="FP32">
					<dim>1</dim>
					<dim>1</dim>
					<dim>576</dim>
				</port>
				<port id="1" precision="FP32">
					<dim>1</dim>
					<dim>197</dim>
					<dim>576</dim>
				</port>
			</input>
			<output>
				<port id="2" precision="FP32" names="/layers.3/attn/qkv/Add_output_0">
					<dim>1</dim>
					<dim>197</dim>
					<dim>576</dim>
				</port>
			</output>
		</layer>
		<layer id="234" name="/layers.3/attn/Shape" type="ShapeOf" version="opset3">
			<data output_type="i64" />
			<input>
				<port id="0" precision="FP32">
					<dim>1</dim>
					<dim>197</dim>
					<dim>192</dim>
				</port>
			</input>
			<output>
				<port id="1" precision="I64" names="/layers.3/attn/Shape_1_output_0,/layers.3/attn/Shape_output_0">
					<dim>3</dim>
				</port>
			</output>
		</layer>
		<layer id="235" name="Constant_3844" type="Const" version="opset1">
			<data element_type="i64" shape="2" offset="1189760" size="16" />
			<output>
				<port id="0" precision="I64">
					<dim>2</dim>
				</port>
			</output>
		</layer>
		<layer id="236" name="Constant_3845" type="Const" version="opset1">
			<data element_type="i64" shape="" offset="792" size="8" />
			<output>
				<port id="0" precision="I64" />
			</output>
		</layer>
		<layer id="237" name="Gather_3846" type="Gather" version="opset8">
			<data batch_dims="0" />
			<input>
				<port id="0" precision="I64">
					<dim>3</dim>
				</port>
				<port id="1" precision="I64">
					<dim>2</dim>
				</port>
				<port id="2" precision="I64" />
			</input>
			<output>
				<port id="3" precision="I64">
					<dim>2</dim>
				</port>
			</output>
		</layer>
		<layer id="238" name="/layers.3/attn/Constant_2" type="Const" version="opset1">
			<data element_type="i64" shape="1" offset="1189776" size="8" />
			<output>
				<port id="0" precision="I64" names="/layers.3/attn/Constant_2_output_0">
					<dim>1</dim>
				</port>
			</output>
		</layer>
		<layer id="239" name="/layers.3/attn/Constant_3" type="Const" version="opset1">
			<data element_type="i64" shape="1" offset="1189776" size="8" />
			<output>
				<port id="0" precision="I64" names="/layers.3/attn/Constant_3_output_0">
					<dim>1</dim>
				</port>
			</output>
		</layer>
		<layer id="240" name="/layers.3/attn/Constant_4" type="Const" version="opset1">
			<data element_type="i64" shape="1" offset="1189784" size="8" />
			<output>
				<port id="0" precision="I64" names="/layers.3/attn/Constant_4_output_0">
					<dim>1</dim>
				</port>
			</output>
		</layer>
		<layer id="241" name="/layers.3/attn/Concat" type="Concat" version="opset1">
			<data axis="0" />
			<input>
				<port id="0" precision="I64">
					<dim>2</dim>
				</port>
				<port id="1" precision="I64">
					<dim>1</dim>
				</port>
				<port id="2" precision="I64">
					<dim>1</dim>
				</port>
				<port id="3" precision="I64">
					<dim>1</dim>
				</port>
			</input>
			<output>
				<port id="4" precision="I64" names="/layers.3/attn/Concat_output_0">
					<dim>5</dim>
				</port>
			</output>
		</layer>
		<layer id="242" name="/layers.3/attn/Reshape" type="Reshape" version="opset1">
			<data special_zero="true" />
			<input>
				<port id="0" precision="FP32">
					<dim>1</dim>
					<dim>197</dim>
					<dim>576</dim>
				</port>
				<port id="1" precision="I64">
					<dim>5</dim>
				</port>
			</input>
			<output>
				<port id="2" precision="FP32" names="/layers.3/attn/Reshape_output_0">
					<dim>1</dim>
					<dim>197</dim>
					<dim>3</dim>
					<dim>3</dim>
					<dim>64</dim>
				</port>
			</output>
		</layer>
		<layer id="243" name="Constant_540" type="Const" version="opset1">
			<data element_type="i64" shape="5" offset="1189792" size="40" />
			<output>
				<port id="0" precision="I64">
					<dim>5</dim>
				</port>
			</output>
		</layer>
		<layer id="244" name="/layers.3/attn/Transpose" type="Transpose" version="opset1">
			<input>
				<port id="0" precision="FP32">
					<dim>1</dim>
					<dim>197</dim>
					<dim>3</dim>
					<dim>3</dim>
					<dim>64</dim>
				</port>
				<port id="1" precision="I64">
					<dim>5</dim>
				</port>
			</input>
			<output>
				<port id="2" precision="FP32" names="/layers.3/attn/Transpose_output_0">
					<dim>3</dim>
					<dim>1</dim>
					<dim>3</dim>
					<dim>197</dim>
					<dim>64</dim>
				</port>
			</output>
		</layer>
		<layer id="245" name="Constant_542" type="Const" version="opset1">
			<data element_type="i64" shape="" offset="792" size="8" />
			<output>
				<port id="0" precision="I64" />
			</output>
		</layer>
		<layer id="246" name="/layers.3/attn/Gather_2" type="Gather" version="opset8">
			<data batch_dims="0" />
			<input>
				<port id="0" precision="FP32">
					<dim>3</dim>
					<dim>1</dim>
					<dim>3</dim>
					<dim>197</dim>
					<dim>64</dim>
				</port>
				<port id="1" precision="I64" />
				<port id="2" precision="I64" />
			</input>
			<output>
				<port id="3" precision="FP32" names="/layers.3/attn/Gather_2_output_0">
					<dim>1</dim>
					<dim>3</dim>
					<dim>197</dim>
					<dim>64</dim>
				</port>
			</output>
		</layer>
		<layer id="247" name="Constant_544" type="Const" version="opset1">
			<data element_type="i64" shape="" offset="792" size="8" />
			<output>
				<port id="0" precision="I64" />
			</output>
		</layer>
		<layer id="248" name="/layers.3/attn/Gather_3" type="Gather" version="opset8">
			<data batch_dims="0" />
			<input>
				<port id="0" precision="FP32">
					<dim>3</dim>
					<dim>1</dim>
					<dim>3</dim>
					<dim>197</dim>
					<dim>64</dim>
				</port>
				<port id="1" precision="I64" />
				<port id="2" precision="I64" />
			</input>
			<output>
				<port id="3" precision="FP32" names="/layers.3/attn/Gather_3_output_0">
					<dim>1</dim>
					<dim>3</dim>
					<dim>197</dim>
					<dim>64</dim>
				</port>
			</output>
		</layer>
		<layer id="249" name="Constant_4915" type="Const" version="opset1">
			<data element_type="f32" shape="1, 1, 1, 1" offset="1189832" size="4" />
			<output>
				<port id="0" precision="FP32">
					<dim>1</dim>
					<dim>1</dim>
					<dim>1</dim>
					<dim>1</dim>
				</port>
			</output>
		</layer>
		<layer id="250" name="Multiply_4684" type="Multiply" version="opset1">
			<data auto_broadcast="numpy" />
			<input>
				<port id="0" precision="FP32">
					<dim>1</dim>
					<dim>3</dim>
					<dim>197</dim>
					<dim>64</dim>
				</port>
				<port id="1" precision="FP32">
					<dim>1</dim>
					<dim>1</dim>
					<dim>1</dim>
					<dim>1</dim>
				</port>
			</input>
			<output>
				<port id="2" precision="FP32">
					<dim>1</dim>
					<dim>3</dim>
					<dim>197</dim>
					<dim>64</dim>
				</port>
			</output>
		</layer>
		<layer id="251" name="/layers.3/attn/Mul" type="MatMul" version="opset1">
			<data transpose_a="false" transpose_b="true" />
			<input>
				<port id="0" precision="FP32">
					<dim>1</dim>
					<dim>3</dim>
					<dim>197</dim>
					<dim>64</dim>
				</port>
				<port id="1" precision="FP32">
					<dim>1</dim>
					<dim>3</dim>
					<dim>197</dim>
					<dim>64</dim>
				</port>
			</input>
			<output>
				<port id="2" precision="FP32" names="/layers.3/attn/Mul_output_0">
					<dim>1</dim>
					<dim>3</dim>
					<dim>197</dim>
					<dim>197</dim>
				</port>
			</output>
		</layer>
		<layer id="252" name="/layers.3/attn/Softmax" type="SoftMax" version="opset8">
			<data axis="3" />
			<input>
				<port id="0" precision="FP32">
					<dim>1</dim>
					<dim>3</dim>
					<dim>197</dim>
					<dim>197</dim>
				</port>
			</input>
			<output>
				<port id="1" precision="FP32" names="/layers.3/attn/Softmax_output_0">
					<dim>1</dim>
					<dim>3</dim>
					<dim>197</dim>
					<dim>197</dim>
				</port>
			</output>
		</layer>
		<layer id="253" name="Constant_546" type="Const" version="opset1">
			<data element_type="i64" shape="" offset="792" size="8" />
			<output>
				<port id="0" precision="I64" />
			</output>
		</layer>
		<layer id="254" name="/layers.3/attn/Gather_4" type="Gather" version="opset8">
			<data batch_dims="0" />
			<input>
				<port id="0" precision="FP32">
					<dim>3</dim>
					<dim>1</dim>
					<dim>3</dim>
					<dim>197</dim>
					<dim>64</dim>
				</port>
				<port id="1" precision="I64" />
				<port id="2" precision="I64" />
			</input>
			<output>
				<port id="3" precision="FP32" names="/layers.3/attn/Gather_4_output_0">
					<dim>1</dim>
					<dim>3</dim>
					<dim>197</dim>
					<dim>64</dim>
				</port>
			</output>
		</layer>
		<layer id="255" name="/layers.3/attn/MatMul_1" type="MatMul" version="opset1">
			<data transpose_a="false" transpose_b="false" />
			<input>
				<port id="0" precision="FP32">
					<dim>1</dim>
					<dim>3</dim>
					<dim>197</dim>
					<dim>197</dim>
				</port>
				<port id="1" precision="FP32">
					<dim>1</dim>
					<dim>3</dim>
					<dim>197</dim>
					<dim>64</dim>
				</port>
			</input>
			<output>
				<port id="2" precision="FP32" names="/layers.3/attn/MatMul_1_output_0">
					<dim>1</dim>
					<dim>3</dim>
					<dim>197</dim>
					<dim>64</dim>
				</port>
			</output>
		</layer>
		<layer id="256" name="Constant_555" type="Const" version="opset1">
			<data element_type="i64" shape="4" offset="1189836" size="32" />
			<output>
				<port id="0" precision="I64">
					<dim>4</dim>
				</port>
			</output>
		</layer>
		<layer id="257" name="/layers.3/attn/Transpose_2" type="Transpose" version="opset1">
			<input>
				<port id="0" precision="FP32">
					<dim>1</dim>
					<dim>3</dim>
					<dim>197</dim>
					<dim>64</dim>
				</port>
				<port id="1" precision="I64">
					<dim>4</dim>
				</port>
			</input>
			<output>
				<port id="2" precision="FP32" names="/layers.3/attn/Transpose_2_output_0">
					<dim>1</dim>
					<dim>197</dim>
					<dim>3</dim>
					<dim>64</dim>
				</port>
			</output>
		</layer>
		<layer id="258" name="Constant_3849" type="Const" version="opset1">
			<data element_type="i64" shape="2" offset="1189760" size="16" />
			<output>
				<port id="0" precision="I64">
					<dim>2</dim>
				</port>
			</output>
		</layer>
		<layer id="259" name="Constant_3850" type="Const" version="opset1">
			<data element_type="i64" shape="" offset="792" size="8" />
			<output>
				<port id="0" precision="I64" />
			</output>
		</layer>
		<layer id="260" name="Gather_3851" type="Gather" version="opset8">
			<data batch_dims="0" />
			<input>
				<port id="0" precision="I64">
					<dim>3</dim>
				</port>
				<port id="1" precision="I64">
					<dim>2</dim>
				</port>
				<port id="2" precision="I64" />
			</input>
			<output>
				<port id="3" precision="I64">
					<dim>2</dim>
				</port>
			</output>
		</layer>
		<layer id="261" name="/layers.3/attn/Constant_6" type="Const" version="opset1">
			<data element_type="i64" shape="1" offset="1189868" size="8" />
			<output>
				<port id="0" precision="I64" names="/layers.3/attn/Constant_6_output_0">
					<dim>1</dim>
				</port>
			</output>
		</layer>
		<layer id="262" name="/layers.3/attn/Concat_1" type="Concat" version="opset1">
			<data axis="0" />
			<input>
				<port id="0" precision="I64">
					<dim>2</dim>
				</port>
				<port id="1" precision="I64">
					<dim>1</dim>
				</port>
			</input>
			<output>
				<port id="2" precision="I64" names="/layers.3/attn/Concat_1_output_0">
					<dim>3</dim>
				</port>
			</output>
		</layer>
		<layer id="263" name="/layers.3/attn/Reshape_1" type="Reshape" version="opset1">
			<data special_zero="true" />
			<input>
				<port id="0" precision="FP32">
					<dim>1</dim>
					<dim>197</dim>
					<dim>3</dim>
					<dim>64</dim>
				</port>
				<port id="1" precision="I64">
					<dim>3</dim>
				</port>
			</input>
			<output>
				<port id="2" precision="FP32" names="/layers.3/attn/Reshape_1_output_0">
					<dim>1</dim>
					<dim>197</dim>
					<dim>192</dim>
				</port>
			</output>
		</layer>
		<layer id="264" name="Constant_4501" type="Const" version="opset1">
			<data element_type="f32" shape="192, 192" offset="6528244" size="147456" />
			<output>
				<port id="0" precision="FP32">
					<dim>192</dim>
					<dim>192</dim>
				</port>
			</output>
		</layer>
		<layer id="265" name="/layers.3/attn/proj/MatMul" type="MatMul" version="opset1">
			<data transpose_a="false" transpose_b="true" />
			<input>
				<port id="0" precision="FP32">
					<dim>1</dim>
					<dim>197</dim>
					<dim>192</dim>
				</port>
				<port id="1" precision="FP32">
					<dim>192</dim>
					<dim>192</dim>
				</port>
			</input>
			<output>
				<port id="2" precision="FP32" names="/layers.3/attn/proj/MatMul_output_0">
					<dim>1</dim>
					<dim>197</dim>
					<dim>192</dim>
				</port>
			</output>
		</layer>
		<layer id="266" name="/layers.3/attn/proj/Add" type="Add" version="opset1">
			<data auto_broadcast="numpy" />
			<input>
				<port id="0" precision="FP32">
					<dim>1</dim>
					<dim>1</dim>
					<dim>192</dim>
				</port>
				<port id="1" precision="FP32">
					<dim>1</dim>
					<dim>197</dim>
					<dim>192</dim>
				</port>
			</input>
			<output>
				<port id="2" precision="FP32" names="/layers.3/attn/proj/Add_output_0">
					<dim>1</dim>
					<dim>197</dim>
					<dim>192</dim>
				</port>
			</output>
		</layer>
		<layer id="267" name="/layers.3/Add" type="Add" version="opset1">
			<data auto_broadcast="numpy" />
			<input>
				<port id="0" precision="FP32">
					<dim>1</dim>
					<dim>197</dim>
					<dim>192</dim>
				</port>
				<port id="1" precision="FP32">
					<dim>1</dim>
					<dim>197</dim>
					<dim>192</dim>
				</port>
			</input>
			<output>
				<port id="2" precision="FP32" names="/layers.3/Add_output_0">
					<dim>1</dim>
					<dim>197</dim>
					<dim>192</dim>
				</port>
			</output>
		</layer>
		<layer id="268" name="Constant_4920" type="Const" version="opset1">
			<data element_type="f32" shape="1, 1, 192" offset="6675700" size="768" />
			<output>
				<port id="0" precision="FP32">
					<dim>1</dim>
					<dim>1</dim>
					<dim>192</dim>
				</port>
			</output>
		</layer>
		<layer id="269" name="Constant_4919" type="Const" version="opset1">
			<data element_type="f32" shape="1, 1, 768" offset="6676468" size="3072" />
			<output>
				<port id="0" precision="FP32">
					<dim>1</dim>
					<dim>1</dim>
					<dim>768</dim>
				</port>
			</output>
		</layer>
		<layer id="270" name="Constant_569" type="Const" version="opset1">
			<data element_type="i64" shape="1" offset="800" size="8" />
			<output>
				<port id="0" precision="I64">
					<dim>1</dim>
				</port>
			</output>
		</layer>
		<layer id="271" name="/layers.3/ln2/Div" type="MVN" version="opset6">
			<data eps="9.9999999747524271e-07" normalize_variance="true" eps_mode="INSIDE_SQRT" />
			<input>
				<port id="0" precision="FP32">
					<dim>1</dim>
					<dim>197</dim>
					<dim>192</dim>
				</port>
				<port id="1" precision="I64">
					<dim>1</dim>
				</port>
			</input>
			<output>
				<port id="2" precision="FP32" names="/layers.3/ln2/Div_output_0">
					<dim>1</dim>
					<dim>197</dim>
					<dim>192</dim>
				</port>
			</output>
		</layer>
		<layer id="272" name="Constant_4917" type="Const" version="opset1">
			<data element_type="f32" shape="1, 1, 192" offset="6679540" size="768" />
			<output>
				<port id="0" precision="FP32">
					<dim>1</dim>
					<dim>1</dim>
					<dim>192</dim>
				</port>
			</output>
		</layer>
		<layer id="273" name="/layers.3/ln2/Mul" type="Multiply" version="opset1">
			<data auto_broadcast="numpy" />
			<input>
				<port id="0" precision="FP32">
					<dim>1</dim>
					<dim>197</dim>
					<dim>192</dim>
				</port>
				<port id="1" precision="FP32">
					<dim>1</dim>
					<dim>1</dim>
					<dim>192</dim>
				</port>
			</input>
			<output>
				<port id="2" precision="FP32" names="/layers.3/ln2/Mul_output_0">
					<dim>1</dim>
					<dim>197</dim>
					<dim>192</dim>
				</port>
			</output>
		</layer>
		<layer id="274" name="Constant_4918" type="Const" version="opset1">
			<data element_type="f32" shape="1, 1, 192" offset="6680308" size="768" />
			<output>
				<port id="0" precision="FP32">
					<dim>1</dim>
					<dim>1</dim>
					<dim>192</dim>
				</port>
			</output>
		</layer>
		<layer id="275" name="/layers.3/ln2/Add_1" type="Add" version="opset1">
			<data auto_broadcast="numpy" />
			<input>
				<port id="0" precision="FP32">
					<dim>1</dim>
					<dim>197</dim>
					<dim>192</dim>
				</port>
				<port id="1" precision="FP32">
					<dim>1</dim>
					<dim>1</dim>
					<dim>192</dim>
				</port>
			</input>
			<output>
				<port id="2" precision="FP32" names="/layers.3/ln2/Add_1_output_0">
					<dim>1</dim>
					<dim>197</dim>
					<dim>192</dim>
				</port>
			</output>
		</layer>
		<layer id="276" name="Constant_4506" type="Const" version="opset1">
			<data element_type="f32" shape="768, 192" offset="6681076" size="589824" />
			<output>
				<port id="0" precision="FP32">
					<dim>768</dim>
					<dim>192</dim>
				</port>
			</output>
		</layer>
		<layer id="277" name="/layers.3/ffn/layers/layers.0/layers.0.0/MatMul" type="MatMul" version="opset1">
			<data transpose_a="false" transpose_b="true" />
			<input>
				<port id="0" precision="FP32">
					<dim>1</dim>
					<dim>197</dim>
					<dim>192</dim>
				</port>
				<port id="1" precision="FP32">
					<dim>768</dim>
					<dim>192</dim>
				</port>
			</input>
			<output>
				<port id="2" precision="FP32" names="/layers.3/ffn/layers/layers.0/layers.0.0/MatMul_output_0">
					<dim>1</dim>
					<dim>197</dim>
					<dim>768</dim>
				</port>
			</output>
		</layer>
		<layer id="278" name="/layers.3/ffn/layers/layers.0/layers.0.0/Add" type="Add" version="opset1">
			<data auto_broadcast="numpy" />
			<input>
				<port id="0" precision="FP32">
					<dim>1</dim>
					<dim>1</dim>
					<dim>768</dim>
				</port>
				<port id="1" precision="FP32">
					<dim>1</dim>
					<dim>197</dim>
					<dim>768</dim>
				</port>
			</input>
			<output>
				<port id="2" precision="FP32" names="/layers.3/ffn/layers/layers.0/layers.0.0/Add_output_0">
					<dim>1</dim>
					<dim>197</dim>
					<dim>768</dim>
				</port>
			</output>
		</layer>
		<layer id="279" name="/layers.3/ffn/layers/layers.0/activate/Mul_1" type="Gelu" version="opset7">
			<data approximation_mode="ERF" />
			<input>
				<port id="0" precision="FP32">
					<dim>1</dim>
					<dim>197</dim>
					<dim>768</dim>
				</port>
			</input>
			<output>
				<port id="1" precision="FP32" names="/layers.3/ffn/layers/layers.0/activate/Mul_1_output_0">
					<dim>1</dim>
					<dim>197</dim>
					<dim>768</dim>
				</port>
			</output>
		</layer>
		<layer id="280" name="Constant_4511" type="Const" version="opset1">
			<data element_type="f32" shape="192, 768" offset="7270900" size="589824" />
			<output>
				<port id="0" precision="FP32">
					<dim>192</dim>
					<dim>768</dim>
				</port>
			</output>
		</layer>
		<layer id="281" name="/layers.3/ffn/layers/layers.1/MatMul" type="MatMul" version="opset1">
			<data transpose_a="false" transpose_b="true" />
			<input>
				<port id="0" precision="FP32">
					<dim>1</dim>
					<dim>197</dim>
					<dim>768</dim>
				</port>
				<port id="1" precision="FP32">
					<dim>192</dim>
					<dim>768</dim>
				</port>
			</input>
			<output>
				<port id="2" precision="FP32" names="/layers.3/ffn/layers/layers.1/MatMul_output_0">
					<dim>1</dim>
					<dim>197</dim>
					<dim>192</dim>
				</port>
			</output>
		</layer>
		<layer id="282" name="/layers.3/ffn/layers/layers.1/Add" type="Add" version="opset1">
			<data auto_broadcast="numpy" />
			<input>
				<port id="0" precision="FP32">
					<dim>1</dim>
					<dim>1</dim>
					<dim>192</dim>
				</port>
				<port id="1" precision="FP32">
					<dim>1</dim>
					<dim>197</dim>
					<dim>192</dim>
				</port>
			</input>
			<output>
				<port id="2" precision="FP32" names="/layers.3/ffn/layers/layers.1/Add_output_0">
					<dim>1</dim>
					<dim>197</dim>
					<dim>192</dim>
				</port>
			</output>
		</layer>
		<layer id="283" name="/layers.3/ffn/Add" type="Add" version="opset1">
			<data auto_broadcast="numpy" />
			<input>
				<port id="0" precision="FP32">
					<dim>1</dim>
					<dim>197</dim>
					<dim>192</dim>
				</port>
				<port id="1" precision="FP32">
					<dim>1</dim>
					<dim>197</dim>
					<dim>192</dim>
				</port>
			</input>
			<output>
				<port id="2" precision="FP32" names="/layers.3/ffn/Add_output_0">
					<dim>1</dim>
					<dim>197</dim>
					<dim>192</dim>
				</port>
			</output>
		</layer>
		<layer id="284" name="Constant_4925" type="Const" version="opset1">
			<data element_type="f32" shape="1, 1, 192" offset="7860724" size="768" />
			<output>
				<port id="0" precision="FP32">
					<dim>1</dim>
					<dim>1</dim>
					<dim>192</dim>
				</port>
			</output>
		</layer>
		<layer id="285" name="Constant_4923" type="Const" version="opset1">
			<data element_type="f32" shape="1, 1, 576" offset="7861492" size="2304" />
			<output>
				<port id="0" precision="FP32">
					<dim>1</dim>
					<dim>1</dim>
					<dim>576</dim>
				</port>
			</output>
		</layer>
		<layer id="286" name="Constant_595" type="Const" version="opset1">
			<data element_type="i64" shape="1" offset="800" size="8" />
			<output>
				<port id="0" precision="I64">
					<dim>1</dim>
				</port>
			</output>
		</layer>
		<layer id="287" name="/layers.4/ln1/Div" type="MVN" version="opset6">
			<data eps="9.9999999747524271e-07" normalize_variance="true" eps_mode="INSIDE_SQRT" />
			<input>
				<port id="0" precision="FP32">
					<dim>1</dim>
					<dim>197</dim>
					<dim>192</dim>
				</port>
				<port id="1" precision="I64">
					<dim>1</dim>
				</port>
			</input>
			<output>
				<port id="2" precision="FP32" names="/layers.4/ln1/Div_output_0">
					<dim>1</dim>
					<dim>197</dim>
					<dim>192</dim>
				</port>
			</output>
		</layer>
		<layer id="288" name="Constant_4921" type="Const" version="opset1">
			<data element_type="f32" shape="1, 1, 192" offset="7863796" size="768" />
			<output>
				<port id="0" precision="FP32">
					<dim>1</dim>
					<dim>1</dim>
					<dim>192</dim>
				</port>
			</output>
		</layer>
		<layer id="289" name="/layers.4/ln1/Mul" type="Multiply" version="opset1">
			<data auto_broadcast="numpy" />
			<input>
				<port id="0" precision="FP32">
					<dim>1</dim>
					<dim>197</dim>
					<dim>192</dim>
				</port>
				<port id="1" precision="FP32">
					<dim>1</dim>
					<dim>1</dim>
					<dim>192</dim>
				</port>
			</input>
			<output>
				<port id="2" precision="FP32" names="/layers.4/ln1/Mul_output_0">
					<dim>1</dim>
					<dim>197</dim>
					<dim>192</dim>
				</port>
			</output>
		</layer>
		<layer id="290" name="Constant_4922" type="Const" version="opset1">
			<data element_type="f32" shape="1, 1, 192" offset="7864564" size="768" />
			<output>
				<port id="0" precision="FP32">
					<dim>1</dim>
					<dim>1</dim>
					<dim>192</dim>
				</port>
			</output>
		</layer>
		<layer id="291" name="/layers.4/ln1/Add_1" type="Add" version="opset1">
			<data auto_broadcast="numpy" />
			<input>
				<port id="0" precision="FP32">
					<dim>1</dim>
					<dim>197</dim>
					<dim>192</dim>
				</port>
				<port id="1" precision="FP32">
					<dim>1</dim>
					<dim>1</dim>
					<dim>192</dim>
				</port>
			</input>
			<output>
				<port id="2" precision="FP32" names="/layers.4/ln1/Add_1_output_0">
					<dim>1</dim>
					<dim>197</dim>
					<dim>192</dim>
				</port>
			</output>
		</layer>
		<layer id="292" name="Constant_4516" type="Const" version="opset1">
			<data element_type="f32" shape="576, 192" offset="7865332" size="442368" />
			<output>
				<port id="0" precision="FP32">
					<dim>576</dim>
					<dim>192</dim>
				</port>
			</output>
		</layer>
		<layer id="293" name="/layers.4/attn/qkv/MatMul" type="MatMul" version="opset1">
			<data transpose_a="false" transpose_b="true" />
			<input>
				<port id="0" precision="FP32">
					<dim>1</dim>
					<dim>197</dim>
					<dim>192</dim>
				</port>
				<port id="1" precision="FP32">
					<dim>576</dim>
					<dim>192</dim>
				</port>
			</input>
			<output>
				<port id="2" precision="FP32" names="/layers.4/attn/qkv/MatMul_output_0">
					<dim>1</dim>
					<dim>197</dim>
					<dim>576</dim>
				</port>
			</output>
		</layer>
		<layer id="294" name="/layers.4/attn/qkv/Add" type="Add" version="opset1">
			<data auto_broadcast="numpy" />
			<input>
				<port id="0" precision="FP32">
					<dim>1</dim>
					<dim>1</dim>
					<dim>576</dim>
				</port>
				<port id="1" precision="FP32">
					<dim>1</dim>
					<dim>197</dim>
					<dim>576</dim>
				</port>
			</input>
			<output>
				<port id="2" precision="FP32" names="/layers.4/attn/qkv/Add_output_0">
					<dim>1</dim>
					<dim>197</dim>
					<dim>576</dim>
				</port>
			</output>
		</layer>
		<layer id="295" name="/layers.4/attn/Shape" type="ShapeOf" version="opset3">
			<data output_type="i64" />
			<input>
				<port id="0" precision="FP32">
					<dim>1</dim>
					<dim>197</dim>
					<dim>192</dim>
				</port>
			</input>
			<output>
				<port id="1" precision="I64" names="/layers.4/attn/Shape_1_output_0,/layers.4/attn/Shape_output_0">
					<dim>3</dim>
				</port>
			</output>
		</layer>
		<layer id="296" name="Constant_3854" type="Const" version="opset1">
			<data element_type="i64" shape="2" offset="1189760" size="16" />
			<output>
				<port id="0" precision="I64">
					<dim>2</dim>
				</port>
			</output>
		</layer>
		<layer id="297" name="Constant_3855" type="Const" version="opset1">
			<data element_type="i64" shape="" offset="792" size="8" />
			<output>
				<port id="0" precision="I64" />
			</output>
		</layer>
		<layer id="298" name="Gather_3856" type="Gather" version="opset8">
			<data batch_dims="0" />
			<input>
				<port id="0" precision="I64">
					<dim>3</dim>
				</port>
				<port id="1" precision="I64">
					<dim>2</dim>
				</port>
				<port id="2" precision="I64" />
			</input>
			<output>
				<port id="3" precision="I64">
					<dim>2</dim>
				</port>
			</output>
		</layer>
		<layer id="299" name="/layers.4/attn/Constant_2" type="Const" version="opset1">
			<data element_type="i64" shape="1" offset="1189776" size="8" />
			<output>
				<port id="0" precision="I64" names="/layers.4/attn/Constant_2_output_0">
					<dim>1</dim>
				</port>
			</output>
		</layer>
		<layer id="300" name="/layers.4/attn/Constant_3" type="Const" version="opset1">
			<data element_type="i64" shape="1" offset="1189776" size="8" />
			<output>
				<port id="0" precision="I64" names="/layers.4/attn/Constant_3_output_0">
					<dim>1</dim>
				</port>
			</output>
		</layer>
		<layer id="301" name="/layers.4/attn/Constant_4" type="Const" version="opset1">
			<data element_type="i64" shape="1" offset="1189784" size="8" />
			<output>
				<port id="0" precision="I64" names="/layers.4/attn/Constant_4_output_0">
					<dim>1</dim>
				</port>
			</output>
		</layer>
		<layer id="302" name="/layers.4/attn/Concat" type="Concat" version="opset1">
			<data axis="0" />
			<input>
				<port id="0" precision="I64">
					<dim>2</dim>
				</port>
				<port id="1" precision="I64">
					<dim>1</dim>
				</port>
				<port id="2" precision="I64">
					<dim>1</dim>
				</port>
				<port id="3" precision="I64">
					<dim>1</dim>
				</port>
			</input>
			<output>
				<port id="4" precision="I64" names="/layers.4/attn/Concat_output_0">
					<dim>5</dim>
				</port>
			</output>
		</layer>
		<layer id="303" name="/layers.4/attn/Reshape" type="Reshape" version="opset1">
			<data special_zero="true" />
			<input>
				<port id="0" precision="FP32">
					<dim>1</dim>
					<dim>197</dim>
					<dim>576</dim>
				</port>
				<port id="1" precision="I64">
					<dim>5</dim>
				</port>
			</input>
			<output>
				<port id="2" precision="FP32" names="/layers.4/attn/Reshape_output_0">
					<dim>1</dim>
					<dim>197</dim>
					<dim>3</dim>
					<dim>3</dim>
					<dim>64</dim>
				</port>
			</output>
		</layer>
		<layer id="304" name="Constant_629" type="Const" version="opset1">
			<data element_type="i64" shape="5" offset="1189792" size="40" />
			<output>
				<port id="0" precision="I64">
					<dim>5</dim>
				</port>
			</output>
		</layer>
		<layer id="305" name="/layers.4/attn/Transpose" type="Transpose" version="opset1">
			<input>
				<port id="0" precision="FP32">
					<dim>1</dim>
					<dim>197</dim>
					<dim>3</dim>
					<dim>3</dim>
					<dim>64</dim>
				</port>
				<port id="1" precision="I64">
					<dim>5</dim>
				</port>
			</input>
			<output>
				<port id="2" precision="FP32" names="/layers.4/attn/Transpose_output_0">
					<dim>3</dim>
					<dim>1</dim>
					<dim>3</dim>
					<dim>197</dim>
					<dim>64</dim>
				</port>
			</output>
		</layer>
		<layer id="306" name="Constant_631" type="Const" version="opset1">
			<data element_type="i64" shape="" offset="792" size="8" />
			<output>
				<port id="0" precision="I64" />
			</output>
		</layer>
		<layer id="307" name="/layers.4/attn/Gather_2" type="Gather" version="opset8">
			<data batch_dims="0" />
			<input>
				<port id="0" precision="FP32">
					<dim>3</dim>
					<dim>1</dim>
					<dim>3</dim>
					<dim>197</dim>
					<dim>64</dim>
				</port>
				<port id="1" precision="I64" />
				<port id="2" precision="I64" />
			</input>
			<output>
				<port id="3" precision="FP32" names="/layers.4/attn/Gather_2_output_0">
					<dim>1</dim>
					<dim>3</dim>
					<dim>197</dim>
					<dim>64</dim>
				</port>
			</output>
		</layer>
		<layer id="308" name="Constant_633" type="Const" version="opset1">
			<data element_type="i64" shape="" offset="792" size="8" />
			<output>
				<port id="0" precision="I64" />
			</output>
		</layer>
		<layer id="309" name="/layers.4/attn/Gather_3" type="Gather" version="opset8">
			<data batch_dims="0" />
			<input>
				<port id="0" precision="FP32">
					<dim>3</dim>
					<dim>1</dim>
					<dim>3</dim>
					<dim>197</dim>
					<dim>64</dim>
				</port>
				<port id="1" precision="I64" />
				<port id="2" precision="I64" />
			</input>
			<output>
				<port id="3" precision="FP32" names="/layers.4/attn/Gather_3_output_0">
					<dim>1</dim>
					<dim>3</dim>
					<dim>197</dim>
					<dim>64</dim>
				</port>
			</output>
		</layer>
		<layer id="310" name="Constant_4924" type="Const" version="opset1">
			<data element_type="f32" shape="1, 1, 1, 1" offset="1189832" size="4" />
			<output>
				<port id="0" precision="FP32">
					<dim>1</dim>
					<dim>1</dim>
					<dim>1</dim>
					<dim>1</dim>
				</port>
			</output>
		</layer>
		<layer id="311" name="Multiply_4686" type="Multiply" version="opset1">
			<data auto_broadcast="numpy" />
			<input>
				<port id="0" precision="FP32">
					<dim>1</dim>
					<dim>3</dim>
					<dim>197</dim>
					<dim>64</dim>
				</port>
				<port id="1" precision="FP32">
					<dim>1</dim>
					<dim>1</dim>
					<dim>1</dim>
					<dim>1</dim>
				</port>
			</input>
			<output>
				<port id="2" precision="FP32">
					<dim>1</dim>
					<dim>3</dim>
					<dim>197</dim>
					<dim>64</dim>
				</port>
			</output>
		</layer>
		<layer id="312" name="/layers.4/attn/Mul" type="MatMul" version="opset1">
			<data transpose_a="false" transpose_b="true" />
			<input>
				<port id="0" precision="FP32">
					<dim>1</dim>
					<dim>3</dim>
					<dim>197</dim>
					<dim>64</dim>
				</port>
				<port id="1" precision="FP32">
					<dim>1</dim>
					<dim>3</dim>
					<dim>197</dim>
					<dim>64</dim>
				</port>
			</input>
			<output>
				<port id="2" precision="FP32" names="/layers.4/attn/Mul_output_0">
					<dim>1</dim>
					<dim>3</dim>
					<dim>197</dim>
					<dim>197</dim>
				</port>
			</output>
		</layer>
		<layer id="313" name="/layers.4/attn/Softmax" type="SoftMax" version="opset8">
			<data axis="3" />
			<input>
				<port id="0" precision="FP32">
					<dim>1</dim>
					<dim>3</dim>
					<dim>197</dim>
					<dim>197</dim>
				</port>
			</input>
			<output>
				<port id="1" precision="FP32" names="/layers.4/attn/Softmax_output_0">
					<dim>1</dim>
					<dim>3</dim>
					<dim>197</dim>
					<dim>197</dim>
				</port>
			</output>
		</layer>
		<layer id="314" name="Constant_635" type="Const" version="opset1">
			<data element_type="i64" shape="" offset="792" size="8" />
			<output>
				<port id="0" precision="I64" />
			</output>
		</layer>
		<layer id="315" name="/layers.4/attn/Gather_4" type="Gather" version="opset8">
			<data batch_dims="0" />
			<input>
				<port id="0" precision="FP32">
					<dim>3</dim>
					<dim>1</dim>
					<dim>3</dim>
					<dim>197</dim>
					<dim>64</dim>
				</port>
				<port id="1" precision="I64" />
				<port id="2" precision="I64" />
			</input>
			<output>
				<port id="3" precision="FP32" names="/layers.4/attn/Gather_4_output_0">
					<dim>1</dim>
					<dim>3</dim>
					<dim>197</dim>
					<dim>64</dim>
				</port>
			</output>
		</layer>
		<layer id="316" name="/layers.4/attn/MatMul_1" type="MatMul" version="opset1">
			<data transpose_a="false" transpose_b="false" />
			<input>
				<port id="0" precision="FP32">
					<dim>1</dim>
					<dim>3</dim>
					<dim>197</dim>
					<dim>197</dim>
				</port>
				<port id="1" precision="FP32">
					<dim>1</dim>
					<dim>3</dim>
					<dim>197</dim>
					<dim>64</dim>
				</port>
			</input>
			<output>
				<port id="2" precision="FP32" names="/layers.4/attn/MatMul_1_output_0">
					<dim>1</dim>
					<dim>3</dim>
					<dim>197</dim>
					<dim>64</dim>
				</port>
			</output>
		</layer>
		<layer id="317" name="Constant_644" type="Const" version="opset1">
			<data element_type="i64" shape="4" offset="1189836" size="32" />
			<output>
				<port id="0" precision="I64">
					<dim>4</dim>
				</port>
			</output>
		</layer>
		<layer id="318" name="/layers.4/attn/Transpose_2" type="Transpose" version="opset1">
			<input>
				<port id="0" precision="FP32">
					<dim>1</dim>
					<dim>3</dim>
					<dim>197</dim>
					<dim>64</dim>
				</port>
				<port id="1" precision="I64">
					<dim>4</dim>
				</port>
			</input>
			<output>
				<port id="2" precision="FP32" names="/layers.4/attn/Transpose_2_output_0">
					<dim>1</dim>
					<dim>197</dim>
					<dim>3</dim>
					<dim>64</dim>
				</port>
			</output>
		</layer>
		<layer id="319" name="Constant_3859" type="Const" version="opset1">
			<data element_type="i64" shape="2" offset="1189760" size="16" />
			<output>
				<port id="0" precision="I64">
					<dim>2</dim>
				</port>
			</output>
		</layer>
		<layer id="320" name="Constant_3860" type="Const" version="opset1">
			<data element_type="i64" shape="" offset="792" size="8" />
			<output>
				<port id="0" precision="I64" />
			</output>
		</layer>
		<layer id="321" name="Gather_3861" type="Gather" version="opset8">
			<data batch_dims="0" />
			<input>
				<port id="0" precision="I64">
					<dim>3</dim>
				</port>
				<port id="1" precision="I64">
					<dim>2</dim>
				</port>
				<port id="2" precision="I64" />
			</input>
			<output>
				<port id="3" precision="I64">
					<dim>2</dim>
				</port>
			</output>
		</layer>
		<layer id="322" name="/layers.4/attn/Constant_6" type="Const" version="opset1">
			<data element_type="i64" shape="1" offset="1189868" size="8" />
			<output>
				<port id="0" precision="I64" names="/layers.4/attn/Constant_6_output_0">
					<dim>1</dim>
				</port>
			</output>
		</layer>
		<layer id="323" name="/layers.4/attn/Concat_1" type="Concat" version="opset1">
			<data axis="0" />
			<input>
				<port id="0" precision="I64">
					<dim>2</dim>
				</port>
				<port id="1" precision="I64">
					<dim>1</dim>
				</port>
			</input>
			<output>
				<port id="2" precision="I64" names="/layers.4/attn/Concat_1_output_0">
					<dim>3</dim>
				</port>
			</output>
		</layer>
		<layer id="324" name="/layers.4/attn/Reshape_1" type="Reshape" version="opset1">
			<data special_zero="true" />
			<input>
				<port id="0" precision="FP32">
					<dim>1</dim>
					<dim>197</dim>
					<dim>3</dim>
					<dim>64</dim>
				</port>
				<port id="1" precision="I64">
					<dim>3</dim>
				</port>
			</input>
			<output>
				<port id="2" precision="FP32" names="/layers.4/attn/Reshape_1_output_0">
					<dim>1</dim>
					<dim>197</dim>
					<dim>192</dim>
				</port>
			</output>
		</layer>
		<layer id="325" name="Constant_4520" type="Const" version="opset1">
			<data element_type="f32" shape="192, 192" offset="8307700" size="147456" />
			<output>
				<port id="0" precision="FP32">
					<dim>192</dim>
					<dim>192</dim>
				</port>
			</output>
		</layer>
		<layer id="326" name="/layers.4/attn/proj/MatMul" type="MatMul" version="opset1">
			<data transpose_a="false" transpose_b="true" />
			<input>
				<port id="0" precision="FP32">
					<dim>1</dim>
					<dim>197</dim>
					<dim>192</dim>
				</port>
				<port id="1" precision="FP32">
					<dim>192</dim>
					<dim>192</dim>
				</port>
			</input>
			<output>
				<port id="2" precision="FP32" names="/layers.4/attn/proj/MatMul_output_0">
					<dim>1</dim>
					<dim>197</dim>
					<dim>192</dim>
				</port>
			</output>
		</layer>
		<layer id="327" name="/layers.4/attn/proj/Add" type="Add" version="opset1">
			<data auto_broadcast="numpy" />
			<input>
				<port id="0" precision="FP32">
					<dim>1</dim>
					<dim>1</dim>
					<dim>192</dim>
				</port>
				<port id="1" precision="FP32">
					<dim>1</dim>
					<dim>197</dim>
					<dim>192</dim>
				</port>
			</input>
			<output>
				<port id="2" precision="FP32" names="/layers.4/attn/proj/Add_output_0">
					<dim>1</dim>
					<dim>197</dim>
					<dim>192</dim>
				</port>
			</output>
		</layer>
		<layer id="328" name="/layers.4/Add" type="Add" version="opset1">
			<data auto_broadcast="numpy" />
			<input>
				<port id="0" precision="FP32">
					<dim>1</dim>
					<dim>197</dim>
					<dim>192</dim>
				</port>
				<port id="1" precision="FP32">
					<dim>1</dim>
					<dim>197</dim>
					<dim>192</dim>
				</port>
			</input>
			<output>
				<port id="2" precision="FP32" names="/layers.4/Add_output_0">
					<dim>1</dim>
					<dim>197</dim>
					<dim>192</dim>
				</port>
			</output>
		</layer>
		<layer id="329" name="Constant_4929" type="Const" version="opset1">
			<data element_type="f32" shape="1, 1, 192" offset="8455156" size="768" />
			<output>
				<port id="0" precision="FP32">
					<dim>1</dim>
					<dim>1</dim>
					<dim>192</dim>
				</port>
			</output>
		</layer>
		<layer id="330" name="Constant_4928" type="Const" version="opset1">
			<data element_type="f32" shape="1, 1, 768" offset="8455924" size="3072" />
			<output>
				<port id="0" precision="FP32">
					<dim>1</dim>
					<dim>1</dim>
					<dim>768</dim>
				</port>
			</output>
		</layer>
		<layer id="331" name="Constant_658" type="Const" version="opset1">
			<data element_type="i64" shape="1" offset="800" size="8" />
			<output>
				<port id="0" precision="I64">
					<dim>1</dim>
				</port>
			</output>
		</layer>
		<layer id="332" name="/layers.4/ln2/Div" type="MVN" version="opset6">
			<data eps="9.9999999747524271e-07" normalize_variance="true" eps_mode="INSIDE_SQRT" />
			<input>
				<port id="0" precision="FP32">
					<dim>1</dim>
					<dim>197</dim>
					<dim>192</dim>
				</port>
				<port id="1" precision="I64">
					<dim>1</dim>
				</port>
			</input>
			<output>
				<port id="2" precision="FP32" names="/layers.4/ln2/Div_output_0">
					<dim>1</dim>
					<dim>197</dim>
					<dim>192</dim>
				</port>
			</output>
		</layer>
		<layer id="333" name="Constant_4926" type="Const" version="opset1">
			<data element_type="f32" shape="1, 1, 192" offset="8458996" size="768" />
			<output>
				<port id="0" precision="FP32">
					<dim>1</dim>
					<dim>1</dim>
					<dim>192</dim>
				</port>
			</output>
		</layer>
		<layer id="334" name="/layers.4/ln2/Mul" type="Multiply" version="opset1">
			<data auto_broadcast="numpy" />
			<input>
				<port id="0" precision="FP32">
					<dim>1</dim>
					<dim>197</dim>
					<dim>192</dim>
				</port>
				<port id="1" precision="FP32">
					<dim>1</dim>
					<dim>1</dim>
					<dim>192</dim>
				</port>
			</input>
			<output>
				<port id="2" precision="FP32" names="/layers.4/ln2/Mul_output_0">
					<dim>1</dim>
					<dim>197</dim>
					<dim>192</dim>
				</port>
			</output>
		</layer>
		<layer id="335" name="Constant_4927" type="Const" version="opset1">
			<data element_type="f32" shape="1, 1, 192" offset="8459764" size="768" />
			<output>
				<port id="0" precision="FP32">
					<dim>1</dim>
					<dim>1</dim>
					<dim>192</dim>
				</port>
			</output>
		</layer>
		<layer id="336" name="/layers.4/ln2/Add_1" type="Add" version="opset1">
			<data auto_broadcast="numpy" />
			<input>
				<port id="0" precision="FP32">
					<dim>1</dim>
					<dim>197</dim>
					<dim>192</dim>
				</port>
				<port id="1" precision="FP32">
					<dim>1</dim>
					<dim>1</dim>
					<dim>192</dim>
				</port>
			</input>
			<output>
				<port id="2" precision="FP32" names="/layers.4/ln2/Add_1_output_0">
					<dim>1</dim>
					<dim>197</dim>
					<dim>192</dim>
				</port>
			</output>
		</layer>
		<layer id="337" name="Constant_4525" type="Const" version="opset1">
			<data element_type="f32" shape="768, 192" offset="8460532" size="589824" />
			<output>
				<port id="0" precision="FP32">
					<dim>768</dim>
					<dim>192</dim>
				</port>
			</output>
		</layer>
		<layer id="338" name="/layers.4/ffn/layers/layers.0/layers.0.0/MatMul" type="MatMul" version="opset1">
			<data transpose_a="false" transpose_b="true" />
			<input>
				<port id="0" precision="FP32">
					<dim>1</dim>
					<dim>197</dim>
					<dim>192</dim>
				</port>
				<port id="1" precision="FP32">
					<dim>768</dim>
					<dim>192</dim>
				</port>
			</input>
			<output>
				<port id="2" precision="FP32" names="/layers.4/ffn/layers/layers.0/layers.0.0/MatMul_output_0">
					<dim>1</dim>
					<dim>197</dim>
					<dim>768</dim>
				</port>
			</output>
		</layer>
		<layer id="339" name="/layers.4/ffn/layers/layers.0/layers.0.0/Add" type="Add" version="opset1">
			<data auto_broadcast="numpy" />
			<input>
				<port id="0" precision="FP32">
					<dim>1</dim>
					<dim>1</dim>
					<dim>768</dim>
				</port>
				<port id="1" precision="FP32">
					<dim>1</dim>
					<dim>197</dim>
					<dim>768</dim>
				</port>
			</input>
			<output>
				<port id="2" precision="FP32" names="/layers.4/ffn/layers/layers.0/layers.0.0/Add_output_0">
					<dim>1</dim>
					<dim>197</dim>
					<dim>768</dim>
				</port>
			</output>
		</layer>
		<layer id="340" name="/layers.4/ffn/layers/layers.0/activate/Mul_1" type="Gelu" version="opset7">
			<data approximation_mode="ERF" />
			<input>
				<port id="0" precision="FP32">
					<dim>1</dim>
					<dim>197</dim>
					<dim>768</dim>
				</port>
			</input>
			<output>
				<port id="1" precision="FP32" names="/layers.4/ffn/layers/layers.0/activate/Mul_1_output_0">
					<dim>1</dim>
					<dim>197</dim>
					<dim>768</dim>
				</port>
			</output>
		</layer>
		<layer id="341" name="Constant_4530" type="Const" version="opset1">
			<data element_type="f32" shape="192, 768" offset="9050356" size="589824" />
			<output>
				<port id="0" precision="FP32">
					<dim>192</dim>
					<dim>768</dim>
				</port>
			</output>
		</layer>
		<layer id="342" name="/layers.4/ffn/layers/layers.1/MatMul" type="MatMul" version="opset1">
			<data transpose_a="false" transpose_b="true" />
			<input>
				<port id="0" precision="FP32">
					<dim>1</dim>
					<dim>197</dim>
					<dim>768</dim>
				</port>
				<port id="1" precision="FP32">
					<dim>192</dim>
					<dim>768</dim>
				</port>
			</input>
			<output>
				<port id="2" precision="FP32" names="/layers.4/ffn/layers/layers.1/MatMul_output_0">
					<dim>1</dim>
					<dim>197</dim>
					<dim>192</dim>
				</port>
			</output>
		</layer>
		<layer id="343" name="/layers.4/ffn/layers/layers.1/Add" type="Add" version="opset1">
			<data auto_broadcast="numpy" />
			<input>
				<port id="0" precision="FP32">
					<dim>1</dim>
					<dim>1</dim>
					<dim>192</dim>
				</port>
				<port id="1" precision="FP32">
					<dim>1</dim>
					<dim>197</dim>
					<dim>192</dim>
				</port>
			</input>
			<output>
				<port id="2" precision="FP32" names="/layers.4/ffn/layers/layers.1/Add_output_0">
					<dim>1</dim>
					<dim>197</dim>
					<dim>192</dim>
				</port>
			</output>
		</layer>
		<layer id="344" name="/layers.4/ffn/Add" type="Add" version="opset1">
			<data auto_broadcast="numpy" />
			<input>
				<port id="0" precision="FP32">
					<dim>1</dim>
					<dim>197</dim>
					<dim>192</dim>
				</port>
				<port id="1" precision="FP32">
					<dim>1</dim>
					<dim>197</dim>
					<dim>192</dim>
				</port>
			</input>
			<output>
				<port id="2" precision="FP32" names="/layers.4/ffn/Add_output_0">
					<dim>1</dim>
					<dim>197</dim>
					<dim>192</dim>
				</port>
			</output>
		</layer>
		<layer id="345" name="Constant_4934" type="Const" version="opset1">
			<data element_type="f32" shape="1, 1, 192" offset="9640180" size="768" />
			<output>
				<port id="0" precision="FP32">
					<dim>1</dim>
					<dim>1</dim>
					<dim>192</dim>
				</port>
			</output>
		</layer>
		<layer id="346" name="Constant_4932" type="Const" version="opset1">
			<data element_type="f32" shape="1, 1, 576" offset="9640948" size="2304" />
			<output>
				<port id="0" precision="FP32">
					<dim>1</dim>
					<dim>1</dim>
					<dim>576</dim>
				</port>
			</output>
		</layer>
		<layer id="347" name="Constant_684" type="Const" version="opset1">
			<data element_type="i64" shape="1" offset="800" size="8" />
			<output>
				<port id="0" precision="I64">
					<dim>1</dim>
				</port>
			</output>
		</layer>
		<layer id="348" name="/layers.5/ln1/Div" type="MVN" version="opset6">
			<data eps="9.9999999747524271e-07" normalize_variance="true" eps_mode="INSIDE_SQRT" />
			<input>
				<port id="0" precision="FP32">
					<dim>1</dim>
					<dim>197</dim>
					<dim>192</dim>
				</port>
				<port id="1" precision="I64">
					<dim>1</dim>
				</port>
			</input>
			<output>
				<port id="2" precision="FP32" names="/layers.5/ln1/Div_output_0">
					<dim>1</dim>
					<dim>197</dim>
					<dim>192</dim>
				</port>
			</output>
		</layer>
		<layer id="349" name="Constant_4930" type="Const" version="opset1">
			<data element_type="f32" shape="1, 1, 192" offset="9643252" size="768" />
			<output>
				<port id="0" precision="FP32">
					<dim>1</dim>
					<dim>1</dim>
					<dim>192</dim>
				</port>
			</output>
		</layer>
		<layer id="350" name="/layers.5/ln1/Mul" type="Multiply" version="opset1">
			<data auto_broadcast="numpy" />
			<input>
				<port id="0" precision="FP32">
					<dim>1</dim>
					<dim>197</dim>
					<dim>192</dim>
				</port>
				<port id="1" precision="FP32">
					<dim>1</dim>
					<dim>1</dim>
					<dim>192</dim>
				</port>
			</input>
			<output>
				<port id="2" precision="FP32" names="/layers.5/ln1/Mul_output_0">
					<dim>1</dim>
					<dim>197</dim>
					<dim>192</dim>
				</port>
			</output>
		</layer>
		<layer id="351" name="Constant_4931" type="Const" version="opset1">
			<data element_type="f32" shape="1, 1, 192" offset="9644020" size="768" />
			<output>
				<port id="0" precision="FP32">
					<dim>1</dim>
					<dim>1</dim>
					<dim>192</dim>
				</port>
			</output>
		</layer>
		<layer id="352" name="/layers.5/ln1/Add_1" type="Add" version="opset1">
			<data auto_broadcast="numpy" />
			<input>
				<port id="0" precision="FP32">
					<dim>1</dim>
					<dim>197</dim>
					<dim>192</dim>
				</port>
				<port id="1" precision="FP32">
					<dim>1</dim>
					<dim>1</dim>
					<dim>192</dim>
				</port>
			</input>
			<output>
				<port id="2" precision="FP32" names="/layers.5/ln1/Add_1_output_0">
					<dim>1</dim>
					<dim>197</dim>
					<dim>192</dim>
				</port>
			</output>
		</layer>
		<layer id="353" name="Constant_4535" type="Const" version="opset1">
			<data element_type="f32" shape="576, 192" offset="9644788" size="442368" />
			<output>
				<port id="0" precision="FP32">
					<dim>576</dim>
					<dim>192</dim>
				</port>
			</output>
		</layer>
		<layer id="354" name="/layers.5/attn/qkv/MatMul" type="MatMul" version="opset1">
			<data transpose_a="false" transpose_b="true" />
			<input>
				<port id="0" precision="FP32">
					<dim>1</dim>
					<dim>197</dim>
					<dim>192</dim>
				</port>
				<port id="1" precision="FP32">
					<dim>576</dim>
					<dim>192</dim>
				</port>
			</input>
			<output>
				<port id="2" precision="FP32" names="/layers.5/attn/qkv/MatMul_output_0">
					<dim>1</dim>
					<dim>197</dim>
					<dim>576</dim>
				</port>
			</output>
		</layer>
		<layer id="355" name="/layers.5/attn/qkv/Add" type="Add" version="opset1">
			<data auto_broadcast="numpy" />
			<input>
				<port id="0" precision="FP32">
					<dim>1</dim>
					<dim>1</dim>
					<dim>576</dim>
				</port>
				<port id="1" precision="FP32">
					<dim>1</dim>
					<dim>197</dim>
					<dim>576</dim>
				</port>
			</input>
			<output>
				<port id="2" precision="FP32" names="/layers.5/attn/qkv/Add_output_0">
					<dim>1</dim>
					<dim>197</dim>
					<dim>576</dim>
				</port>
			</output>
		</layer>
		<layer id="356" name="/layers.5/attn/Shape" type="ShapeOf" version="opset3">
			<data output_type="i64" />
			<input>
				<port id="0" precision="FP32">
					<dim>1</dim>
					<dim>197</dim>
					<dim>192</dim>
				</port>
			</input>
			<output>
				<port id="1" precision="I64" names="/layers.5/attn/Shape_1_output_0,/layers.5/attn/Shape_output_0">
					<dim>3</dim>
				</port>
			</output>
		</layer>
		<layer id="357" name="Constant_3864" type="Const" version="opset1">
			<data element_type="i64" shape="2" offset="1189760" size="16" />
			<output>
				<port id="0" precision="I64">
					<dim>2</dim>
				</port>
			</output>
		</layer>
		<layer id="358" name="Constant_3865" type="Const" version="opset1">
			<data element_type="i64" shape="" offset="792" size="8" />
			<output>
				<port id="0" precision="I64" />
			</output>
		</layer>
		<layer id="359" name="Gather_3866" type="Gather" version="opset8">
			<data batch_dims="0" />
			<input>
				<port id="0" precision="I64">
					<dim>3</dim>
				</port>
				<port id="1" precision="I64">
					<dim>2</dim>
				</port>
				<port id="2" precision="I64" />
			</input>
			<output>
				<port id="3" precision="I64">
					<dim>2</dim>
				</port>
			</output>
		</layer>
		<layer id="360" name="/layers.5/attn/Constant_2" type="Const" version="opset1">
			<data element_type="i64" shape="1" offset="1189776" size="8" />
			<output>
				<port id="0" precision="I64" names="/layers.5/attn/Constant_2_output_0">
					<dim>1</dim>
				</port>
			</output>
		</layer>
		<layer id="361" name="/layers.5/attn/Constant_3" type="Const" version="opset1">
			<data element_type="i64" shape="1" offset="1189776" size="8" />
			<output>
				<port id="0" precision="I64" names="/layers.5/attn/Constant_3_output_0">
					<dim>1</dim>
				</port>
			</output>
		</layer>
		<layer id="362" name="/layers.5/attn/Constant_4" type="Const" version="opset1">
			<data element_type="i64" shape="1" offset="1189784" size="8" />
			<output>
				<port id="0" precision="I64" names="/layers.5/attn/Constant_4_output_0">
					<dim>1</dim>
				</port>
			</output>
		</layer>
		<layer id="363" name="/layers.5/attn/Concat" type="Concat" version="opset1">
			<data axis="0" />
			<input>
				<port id="0" precision="I64">
					<dim>2</dim>
				</port>
				<port id="1" precision="I64">
					<dim>1</dim>
				</port>
				<port id="2" precision="I64">
					<dim>1</dim>
				</port>
				<port id="3" precision="I64">
					<dim>1</dim>
				</port>
			</input>
			<output>
				<port id="4" precision="I64" names="/layers.5/attn/Concat_output_0">
					<dim>5</dim>
				</port>
			</output>
		</layer>
		<layer id="364" name="/layers.5/attn/Reshape" type="Reshape" version="opset1">
			<data special_zero="true" />
			<input>
				<port id="0" precision="FP32">
					<dim>1</dim>
					<dim>197</dim>
					<dim>576</dim>
				</port>
				<port id="1" precision="I64">
					<dim>5</dim>
				</port>
			</input>
			<output>
				<port id="2" precision="FP32" names="/layers.5/attn/Reshape_output_0">
					<dim>1</dim>
					<dim>197</dim>
					<dim>3</dim>
					<dim>3</dim>
					<dim>64</dim>
				</port>
			</output>
		</layer>
		<layer id="365" name="Constant_718" type="Const" version="opset1">
			<data element_type="i64" shape="5" offset="1189792" size="40" />
			<output>
				<port id="0" precision="I64">
					<dim>5</dim>
				</port>
			</output>
		</layer>
		<layer id="366" name="/layers.5/attn/Transpose" type="Transpose" version="opset1">
			<input>
				<port id="0" precision="FP32">
					<dim>1</dim>
					<dim>197</dim>
					<dim>3</dim>
					<dim>3</dim>
					<dim>64</dim>
				</port>
				<port id="1" precision="I64">
					<dim>5</dim>
				</port>
			</input>
			<output>
				<port id="2" precision="FP32" names="/layers.5/attn/Transpose_output_0">
					<dim>3</dim>
					<dim>1</dim>
					<dim>3</dim>
					<dim>197</dim>
					<dim>64</dim>
				</port>
			</output>
		</layer>
		<layer id="367" name="Constant_720" type="Const" version="opset1">
			<data element_type="i64" shape="" offset="792" size="8" />
			<output>
				<port id="0" precision="I64" />
			</output>
		</layer>
		<layer id="368" name="/layers.5/attn/Gather_2" type="Gather" version="opset8">
			<data batch_dims="0" />
			<input>
				<port id="0" precision="FP32">
					<dim>3</dim>
					<dim>1</dim>
					<dim>3</dim>
					<dim>197</dim>
					<dim>64</dim>
				</port>
				<port id="1" precision="I64" />
				<port id="2" precision="I64" />
			</input>
			<output>
				<port id="3" precision="FP32" names="/layers.5/attn/Gather_2_output_0">
					<dim>1</dim>
					<dim>3</dim>
					<dim>197</dim>
					<dim>64</dim>
				</port>
			</output>
		</layer>
		<layer id="369" name="Constant_722" type="Const" version="opset1">
			<data element_type="i64" shape="" offset="792" size="8" />
			<output>
				<port id="0" precision="I64" />
			</output>
		</layer>
		<layer id="370" name="/layers.5/attn/Gather_3" type="Gather" version="opset8">
			<data batch_dims="0" />
			<input>
				<port id="0" precision="FP32">
					<dim>3</dim>
					<dim>1</dim>
					<dim>3</dim>
					<dim>197</dim>
					<dim>64</dim>
				</port>
				<port id="1" precision="I64" />
				<port id="2" precision="I64" />
			</input>
			<output>
				<port id="3" precision="FP32" names="/layers.5/attn/Gather_3_output_0">
					<dim>1</dim>
					<dim>3</dim>
					<dim>197</dim>
					<dim>64</dim>
				</port>
			</output>
		</layer>
		<layer id="371" name="Constant_4933" type="Const" version="opset1">
			<data element_type="f32" shape="1, 1, 1, 1" offset="1189832" size="4" />
			<output>
				<port id="0" precision="FP32">
					<dim>1</dim>
					<dim>1</dim>
					<dim>1</dim>
					<dim>1</dim>
				</port>
			</output>
		</layer>
		<layer id="372" name="Multiply_4688" type="Multiply" version="opset1">
			<data auto_broadcast="numpy" />
			<input>
				<port id="0" precision="FP32">
					<dim>1</dim>
					<dim>3</dim>
					<dim>197</dim>
					<dim>64</dim>
				</port>
				<port id="1" precision="FP32">
					<dim>1</dim>
					<dim>1</dim>
					<dim>1</dim>
					<dim>1</dim>
				</port>
			</input>
			<output>
				<port id="2" precision="FP32">
					<dim>1</dim>
					<dim>3</dim>
					<dim>197</dim>
					<dim>64</dim>
				</port>
			</output>
		</layer>
		<layer id="373" name="/layers.5/attn/Mul" type="MatMul" version="opset1">
			<data transpose_a="false" transpose_b="true" />
			<input>
				<port id="0" precision="FP32">
					<dim>1</dim>
					<dim>3</dim>
					<dim>197</dim>
					<dim>64</dim>
				</port>
				<port id="1" precision="FP32">
					<dim>1</dim>
					<dim>3</dim>
					<dim>197</dim>
					<dim>64</dim>
				</port>
			</input>
			<output>
				<port id="2" precision="FP32" names="/layers.5/attn/Mul_output_0">
					<dim>1</dim>
					<dim>3</dim>
					<dim>197</dim>
					<dim>197</dim>
				</port>
			</output>
		</layer>
		<layer id="374" name="/layers.5/attn/Softmax" type="SoftMax" version="opset8">
			<data axis="3" />
			<input>
				<port id="0" precision="FP32">
					<dim>1</dim>
					<dim>3</dim>
					<dim>197</dim>
					<dim>197</dim>
				</port>
			</input>
			<output>
				<port id="1" precision="FP32" names="/layers.5/attn/Softmax_output_0">
					<dim>1</dim>
					<dim>3</dim>
					<dim>197</dim>
					<dim>197</dim>
				</port>
			</output>
		</layer>
		<layer id="375" name="Constant_724" type="Const" version="opset1">
			<data element_type="i64" shape="" offset="792" size="8" />
			<output>
				<port id="0" precision="I64" />
			</output>
		</layer>
		<layer id="376" name="/layers.5/attn/Gather_4" type="Gather" version="opset8">
			<data batch_dims="0" />
			<input>
				<port id="0" precision="FP32">
					<dim>3</dim>
					<dim>1</dim>
					<dim>3</dim>
					<dim>197</dim>
					<dim>64</dim>
				</port>
				<port id="1" precision="I64" />
				<port id="2" precision="I64" />
			</input>
			<output>
				<port id="3" precision="FP32" names="/layers.5/attn/Gather_4_output_0">
					<dim>1</dim>
					<dim>3</dim>
					<dim>197</dim>
					<dim>64</dim>
				</port>
			</output>
		</layer>
		<layer id="377" name="/layers.5/attn/MatMul_1" type="MatMul" version="opset1">
			<data transpose_a="false" transpose_b="false" />
			<input>
				<port id="0" precision="FP32">
					<dim>1</dim>
					<dim>3</dim>
					<dim>197</dim>
					<dim>197</dim>
				</port>
				<port id="1" precision="FP32">
					<dim>1</dim>
					<dim>3</dim>
					<dim>197</dim>
					<dim>64</dim>
				</port>
			</input>
			<output>
				<port id="2" precision="FP32" names="/layers.5/attn/MatMul_1_output_0">
					<dim>1</dim>
					<dim>3</dim>
					<dim>197</dim>
					<dim>64</dim>
				</port>
			</output>
		</layer>
		<layer id="378" name="Constant_733" type="Const" version="opset1">
			<data element_type="i64" shape="4" offset="1189836" size="32" />
			<output>
				<port id="0" precision="I64">
					<dim>4</dim>
				</port>
			</output>
		</layer>
		<layer id="379" name="/layers.5/attn/Transpose_2" type="Transpose" version="opset1">
			<input>
				<port id="0" precision="FP32">
					<dim>1</dim>
					<dim>3</dim>
					<dim>197</dim>
					<dim>64</dim>
				</port>
				<port id="1" precision="I64">
					<dim>4</dim>
				</port>
			</input>
			<output>
				<port id="2" precision="FP32" names="/layers.5/attn/Transpose_2_output_0">
					<dim>1</dim>
					<dim>197</dim>
					<dim>3</dim>
					<dim>64</dim>
				</port>
			</output>
		</layer>
		<layer id="380" name="Constant_3869" type="Const" version="opset1">
			<data element_type="i64" shape="2" offset="1189760" size="16" />
			<output>
				<port id="0" precision="I64">
					<dim>2</dim>
				</port>
			</output>
		</layer>
		<layer id="381" name="Constant_3870" type="Const" version="opset1">
			<data element_type="i64" shape="" offset="792" size="8" />
			<output>
				<port id="0" precision="I64" />
			</output>
		</layer>
		<layer id="382" name="Gather_3871" type="Gather" version="opset8">
			<data batch_dims="0" />
			<input>
				<port id="0" precision="I64">
					<dim>3</dim>
				</port>
				<port id="1" precision="I64">
					<dim>2</dim>
				</port>
				<port id="2" precision="I64" />
			</input>
			<output>
				<port id="3" precision="I64">
					<dim>2</dim>
				</port>
			</output>
		</layer>
…
		<edge from-layer="163" from-port="0" to-layer="172" to-port="0" />
		<edge from-layer="164" from-port="0" to-layer="165" to-port="1" />
		<edge from-layer="165" from-port="2" to-layer="167" to-port="0" />
		<edge from-layer="166" from-port="0" to-layer="167" to-port="1" />
		<edge from-layer="167" from-port="2" to-layer="169" to-port="0" />
		<edge from-layer="168" from-port="0" to-layer="169" to-port="1" />
		<edge from-layer="169" from-port="2" to-layer="171" to-port="0" />
		<edge from-layer="169" from-port="2" to-layer="173" to-port="0" />
		<edge from-layer="170" from-port="0" to-layer="171" to-port="1" />
		<edge from-layer="171" from-port="2" to-layer="172" to-port="1" />
		<edge from-layer="172" from-port="2" to-layer="181" to-port="0" />
		<edge from-layer="173" from-port="1" to-layer="199" to-port="0" />
		<edge from-layer="173" from-port="1" to-layer="176" to-port="0" />
		<edge from-layer="174" from-port="0" to-layer="176" to-port="1" />
		<edge from-layer="175" from-port="0" to-layer="176" to-port="2" />
		<edge from-layer="176" from-port="3" to-layer="180" to-port="0" />
		<edge from-layer="177" from-port="0" to-layer="180" to-port="1" />
		<edge from-layer="178" from-port="0" to-layer="180" to-port="2" />
		<edge from-layer="179" from-port="0" to-layer="180" to-port="3" />
		<edge from-layer="180" from-port="4" to-layer="181" to-port="1" />
		<edge from-layer="181" from-port="2" to-layer="183" to-port="0" />
		<edge from-layer="182" from-port="0" to-layer="183" to-port="1" />
		<edge from-layer="183" from-port="2" to-layer="193" to-port="0" />
		<edge from-layer="183" from-port="2" to-layer="187" to-port="0" />
		<edge from-layer="183" from-port="2" to-layer="185" to-port="0" />
		<edge from-layer="184" from-port="0" to-layer="185" to-port="2" />
		<edge from-layer="185" from-port="3" to-layer="190" to-port="0" />
		<edge from-layer="186" from-port="0" to-layer="187" to-port="2" />
		<edge from-layer="187" from-port="3" to-layer="189" to-port="0" />
		<edge from-layer="188" from-port="0" to-layer="189" to-port="1" />
		<edge from-layer="189" from-port="2" to-layer="190" to-port="1" />
		<edge from-layer="190" from-port="2" to-layer="191" to-port="0" />
		<edge from-layer="191" from-port="1" to-layer="194" to-port="0" />
		<edge from-layer="192" from-port="0" to-layer="193" to-port="2" />
		<edge from-layer="193" from-port="3" to-layer="194" to-port="1" />
		<edge from-layer="194" from-port="2" to-layer="196" to-port="0" />
		<edge from-layer="195" from-port="0" to-layer="196" to-port="1" />
		<edge from-layer="196" from-port="2" to-layer="202" to-port="0" />
		<edge from-layer="197" from-port="0" to-layer="199" to-port="1" />
		<edge from-layer="198" from-port="0" to-layer="199" to-port="2" />
		<edge from-layer="199" from-port="3" to-layer="201" to-port="0" />
		<edge from-layer="200" from-port="0" to-layer="201" to-port="1" />
		<edge from-layer="201" from-port="2" to-layer="202" to-port="1" />
		<edge from-layer="202" from-port="2" to-layer="204" to-port="0" />
		<edge from-layer="203" from-port="0" to-layer="204" to-port="1" />
		<edge from-layer="204" from-port="2" to-layer="205" to-port="1" />
		<edge from-layer="205" from-port="2" to-layer="206" to-port="1" />
		<edge from-layer="206" from-port="2" to-layer="222" to-port="0" />
		<edge from-layer="206" from-port="2" to-layer="210" to-port="0" />
		<edge from-layer="207" from-port="0" to-layer="221" to-port="0" />
		<edge from-layer="208" from-port="0" to-layer="217" to-port="0" />
		<edge from-layer="209" from-port="0" to-layer="210" to-port="1" />
		<edge from-layer="210" from-port="2" to-layer="212" to-port="0" />
		<edge from-layer="211" from-port="0" to-layer="212" to-port="1" />
		<edge from-layer="212" from-port="2" to-layer="214" to-port="0" />
		<edge from-layer="213" from-port="0" to-layer="214" to-port="1" />
		<edge from-layer="214" from-port="2" to-layer="216" to-port="0" />
		<edge from-layer="215" from-port="0" to-layer="216" to-port="1" />
		<edge from-layer="216" from-port="2" to-layer="217" to-port="1" />
		<edge from-layer="217" from-port="2" to-layer="218" to-port="0" />
		<edge from-layer="218" from-port="1" to-layer="220" to-port="0" />
		<edge from-layer="219" from-port="0" to-layer="220" to-port="1" />
		<edge from-layer="220" from-port="2" to-layer="221" to-port="1" />
		<edge from-layer="221" from-port="2" to-layer="222" to-port="1" />
		<edge from-layer="222" from-port="2" to-layer="267" to-port="0" />
		<edge from-layer="222" from-port="2" to-layer="226" to-port="0" />
		<edge from-layer="223" from-port="0" to-layer="266" to-port="0" />
		<edge from-layer="224" from-port="0" to-layer="233" to-port="0" />
		<edge from-layer="225" from-port="0" to-layer="226" to-port="1" />
		<edge from-layer="226" from-port="2" to-layer="228" to-port="0" />
		<edge from-layer="227" from-port="0" to-layer="228" to-port="1" />
		<edge from-layer="228" from-port="2" to-layer="230" to-port="0" />
		<edge from-layer="229" from-port="0" to-layer="230" to-port="1" />
		<edge from-layer="230" from-port="2" to-layer="232" to-port="0" />
		<edge from-layer="230" from-port="2" to-layer="234" to-port="0" />
		<edge from-layer="231" from-port="0" to-layer="232" to-port="1" />
		<edge from-layer="232" from-port="2" to-layer="233" to-port="1" />
		<edge from-layer="233" from-port="2" to-layer="242" to-port="0" />
		<edge from-layer="234" from-port="1" to-layer="260" to-port="0" />
		<edge from-layer="234" from-port="1" to-layer="237" to-port="0" />
		<edge from-layer="235" from-port="0" to-layer="237" to-port="1" />
		<edge from-layer="236" from-port="0" to-layer="237" to-port="2" />
		<edge from-layer="237" from-port="3" to-layer="241" to-port="0" />
		<edge from-layer="238" from-port="0" to-layer="241" to-port="1" />
		<edge from-layer="239" from-port="0" to-layer="241" to-port="2" />
		<edge from-layer="240" from-port="0" to-layer="241" to-port="3" />
		<edge from-layer="241" from-port="4" to-layer="242" to-port="1" />
		<edge from-layer="242" from-port="2" to-layer="244" to-port="0" />
		<edge from-layer="243" from-port="0" to-layer="244" to-port="1" />
		<edge from-layer="244" from-port="2" to-layer="248" to-port="0" />
		<edge from-layer="244" from-port="2" to-layer="246" to-port="0" />
		<edge from-layer="244" from-port="2" to-layer="254" to-port="0" />
		<edge from-layer="245" from-port="0" to-layer="246" to-port="2" />
		<edge from-layer="246" from-port="3" to-layer="251" to-port="0" />
		<edge from-layer="247" from-port="0" to-layer="248" to-port="2" />
		<edge from-layer="248" from-port="3" to-layer="250" to-port="0" />
		<edge from-layer="249" from-port="0" to-layer="250" to-port="1" />
		<edge from-layer="250" from-port="2" to-layer="251" to-port="1" />
		<edge from-layer="251" from-port="2" to-layer="252" to-port="0" />
		<edge from-layer="252" from-port="1" to-layer="255" to-port="0" />
		<edge from-layer="253" from-port="0" to-layer="254" to-port="2" />
		<edge from-layer="254" from-port="3" to-layer="255" to-port="1" />
		<edge from-layer="255" from-port="2" to-layer="257" to-port="0" />
		<edge from-layer="256" from-port="0" to-layer="257" to-port="1" />
		<edge from-layer="257" from-port="2" to-layer="263" to-port="0" />
		<edge from-layer="258" from-port="0" to-layer="260" to-port="1" />
		<edge from-layer="259" from-port="0" to-layer="260" to-port="2" />
		<edge from-layer="260" from-port="3" to-layer="262" to-port="0" />
		<edge from-layer="261" from-port="0" to-layer="262" to-port="1" />
		<edge from-layer="262" from-port="2" to-layer="263" to-port="1" />
		<edge from-layer="263" from-port="2" to-layer="265" to-port="0" />
		<edge from-layer="264" from-port="0" to-layer="265" to-port="1" />
		<edge from-layer="265" from-port="2" to-layer="266" to-port="1" />
		<edge from-layer="266" from-port="2" to-layer="267" to-port="1" />
		<edge from-layer="267" from-port="2" to-layer="283" to-port="0" />
		<edge from-layer="267" from-port="2" to-layer="271" to-port="0" />
		<edge from-layer="268" from-port="0" to-layer="282" to-port="0" />
		<edge from-layer="269" from-port="0" to-layer="278" to-port="0" />
		<edge from-layer="270" from-port="0" to-layer="271" to-port="1" />
		<edge from-layer="271" from-port="2" to-layer="273" to-port="0" />
		<edge from-layer="272" from-port="0" to-layer="273" to-port="1" />
		<edge from-layer="273" from-port="2" to-layer="275" to-port="0" />
		<edge from-layer="274" from-port="0" to-layer="275" to-port="1" />
		<edge from-layer="275" from-port="2" to-layer="277" to-port="0" />
		<edge from-layer="276" from-port="0" to-layer="277" to-port="1" />
		<edge from-layer="277" from-port="2" to-layer="278" to-port="1" />
		<edge from-layer="278" from-port="2" to-layer="279" to-port="0" />
		<edge from-layer="279" from-port="1" to-layer="281" to-port="0" />
		<edge from-layer="280" from-port="0" to-layer="281" to-port="1" />
		<edge from-layer="281" from-port="2" to-layer="282" to-port="1" />
		<edge from-layer="282" from-port="2" to-layer="283" to-port="1" />
		<edge from-layer="283" from-port="2" to-layer="328" to-port="0" />
		<edge from-layer="283" from-port="2" to-layer="287" to-port="0" />
		<edge from-layer="284" from-port="0" to-layer="327" to-port="0" />
		<edge from-layer="285" from-port="0" to-layer="294" to-port="0" />
		<edge from-layer="286" from-port="0" to-layer="287" to-port="1" />
		<edge from-layer="287" from-port="2" to-layer="289" to-port="0" />
		<edge from-layer="288" from-port="0" to-layer="289" to-port="1" />
		<edge from-layer="289" from-port="2" to-layer="291" to-port="0" />
		<edge from-layer="290" from-port="0" to-layer="291" to-port="1" />
		<edge from-layer="291" from-port="2" to-layer="295" to-port="0" />
		<edge from-layer="291" from-port="2" to-layer="293" to-port="0" />
		<edge from-layer="292" from-port="0" to-layer="293" to-port="1" />
		<edge from-layer="293" from-port="2" to-layer="294" to-port="1" />
		<edge from-layer="294" from-port="2" to-layer="303" to-port="0" />
		<edge from-layer="295" from-port="1" to-layer="298" to-port="0" />
		<edge from-layer="295" from-port="1" to-layer="321" to-port="0" />
		<edge from-layer="296" from-port="0" to-layer="298" to-port="1" />
		<edge from-layer="297" from-port="0" to-layer="298" to-port="2" />
		<edge from-layer="298" from-port="3" to-layer="302" to-port="0" />
		<edge from-layer="299" from-port="0" to-layer="302" to-port="1" />
		<edge from-layer="300" from-port="0" to-layer="302" to-port="2" />
		<edge from-layer="301" from-port="0" to-layer="302" to-port="3" />
		<edge from-layer="302" from-port="4" to-layer="303" to-port="1" />
		<edge from-layer="303" from-port="2" to-layer="305" to-port="0" />
		<edge from-layer="304" from-port="0" to-layer="305" to-port="1" />
		<edge from-layer="305" from-port="2" to-layer="309" to-port="0" />
		<edge from-layer="305" from-port="2" to-layer="315" to-port="0" />
		<edge from-layer="305" from-port="2" to-layer="307" to-port="0" />
		<edge from-layer="306" from-port="0" to-layer="307" to-port="2" />
		<edge from-layer="307" from-port="3" to-layer="312" to-port="0" />
		<edge from-layer="308" from-port="0" to-layer="309" to-port="2" />
		<edge from-layer="309" from-port="3" to-layer="311" to-port="0" />
		<edge from-layer="310" from-port="0" to-layer="311" to-port="1" />
		<edge from-layer="311" from-port="2" to-layer="312" to-port="1" />
		<edge from-layer="312" from-port="2" to-layer="313" to-port="0" />
		<edge from-layer="313" from-port="1" to-layer="316" to-port="0" />
		<edge from-layer="314" from-port="0" to-layer="315" to-port="2" />
		<edge from-layer="315" from-port="3" to-layer="316" to-port="1" />
		<edge from-layer="316" from-port="2" to-layer="318" to-port="0" />
		<edge from-layer="317" from-port="0" to-layer="318" to-port="1" />
		<edge from-layer="318" from-port="2" to-layer="324" to-port="0" />
		<edge from-layer="319" from-port="0" to-layer="321" to-port="1" />
		<edge from-layer="320" from-port="0" to-layer="321" to-port="2" />
		<edge from-layer="321" from-port="3" to-layer="323" to-port="0" />
		<edge from-layer="322" from-port="0" to-layer="323" to-port="1" />
		<edge from-layer="323" from-port="2" to-layer="324" to-port="1" />
		<edge from-layer="324" from-port="2" to-layer="326" to-port="0" />
		<edge from-layer="325" from-port="0" to-layer="326" to-port="1" />
		<edge from-layer="326" from-port="2" to-layer="327" to-port="1" />
		<edge from-layer="327" from-port="2" to-layer="328" to-port="1" />
		<edge from-layer="328" from-port="2" to-layer="344" to-port="0" />
		<edge from-layer="328" from-port="2" to-layer="332" to-port="0" />
		<edge from-layer="329" from-port="0" to-layer="343" to-port="0" />
		<edge from-layer="330" from-port="0" to-layer="339" to-port="0" />
		<edge from-layer="331" from-port="0" to-layer="332" to-port="1" />
		<edge from-layer="332" from-port="2" to-layer="334" to-port="0" />
		<edge from-layer="333" from-port="0" to-layer="334" to-port="1" />
		<edge from-layer="334" from-port="2" to-layer="336" to-port="0" />
		<edge from-layer="335" from-port="0" to-layer="336" to-port="1" />
		<edge from-layer="336" from-port="2" to-layer="338" to-port="0" />
		<edge from-layer="337" from-port="0" to-layer="338" to-port="1" />
		<edge from-layer="338" from-port="2" to-layer="339" to-port="1" />
		<edge from-layer="339" from-port="2" to-layer="340" to-port="0" />
		<edge from-layer="340" from-port="1" to-layer="342" to-port="0" />
		<edge from-layer="341" from-port="0" to-layer="342" to-port="1" />
		<edge from-layer="342" from-port="2" to-layer="343" to-port="1" />
		<edge from-layer="343" from-port="2" to-layer="344" to-port="1" />
		<edge from-layer="344" from-port="2" to-layer="389" to-port="0" />
		<edge from-layer="344" from-port="2" to-layer="348" to-port="0" />
		<edge from-layer="345" from-port="0" to-layer="388" to-port="0" />
		<edge from-layer="346" from-port="0" to-layer="355" to-port="0" />
		<edge from-layer="347" from-port="0" to-layer="348" to-port="1" />
		<edge from-layer="348" from-port="2" to-layer="350" to-port="0" />
		<edge from-layer="349" from-port="0" to-layer="350" to-port="1" />
		<edge from-layer="350" from-port="2" to-layer="352" to-port="0" />
		<edge from-layer="351" from-port="0" to-layer="352" to-port="1" />
		<edge from-layer="352" from-port="2" to-layer="356" to-port="0" />
		<edge from-layer="352" from-port="2" to-layer="354" to-port="0" />
		<edge from-layer="353" from-port="0" to-layer="354" to-port="1" />
		<edge from-layer="354" from-port="2" to-layer="355" to-port="1" />
		<edge from-layer="355" from-port="2" to-layer="364" to-port="0" />
		<edge from-layer="356" from-port="1" to-layer="359" to-port="0" />
		<edge from-layer="356" from-port="1" to-layer="382" to-port="0" />
		<edge from-layer="357" from-port="0" to-layer="359" to-port="1" />
		<edge from-layer="358" from-port="0" to-layer="359" to-port="2" />
		<edge from-layer="359" from-port="3" to-layer="363" to-port="0" />
		<edge from-layer="360" from-port="0" to-layer="363" to-port="1" />
		<edge from-layer="361" from-port="0" to-layer="363" to-port="2" />
		<edge from-layer="362" from-port="0" to-layer="363" to-port="3" />
		<edge from-layer="363" from-port="4" to-layer="364" to-port="1" />
		<edge from-layer="364" from-port="2" to-layer="366" to-port="0" />
		<edge from-layer="365" from-port="0" to-layer="366" to-port="1" />
		<edge from-layer="366" from-port="2" to-layer="368" to-port="0" />
		<edge from-layer="366" from-port="2" to-layer="370" to-port="0" />
		<edge from-layer="366" from-port="2" to-layer="376" to-port="0" />
		<edge from-layer="367" from-port="0" to-layer="368" to-port="2" />
		<edge from-layer="368" from-port="3" to-layer="373" to-port="0" />
		<edge from-layer="369" from-port="0" to-layer="370" to-port="2" />
		<edge from-layer="370" from-port="3" to-layer="372" to-port="0" />
		<edge from-layer="371" from-port="0" to-layer="372" to-port="1" />
		<edge from-layer="372" from-port="2" to-layer="373" to-port="1" />
		<edge from-layer="373" from-port="2" to-layer="374" to-port="0" />
		<edge from-layer="374" from-port="1" to-layer="377" to-port="0" />
		<edge from-layer="375" from-port="0" to-layer="376" to-port="2" />
		<edge from-layer="376" from-port="3" to-layer="377" to-port="1" />
		<edge from-layer="377" from-port="2" to-layer="379" to-port="0" />
		<edge from-layer="378" from-port="0" to-layer="379" to-port="1" />
		<edge from-layer="379" from-port="2" to-layer="385" to-port="0" />
		<edge from-layer="380" from-port="0" to-layer="382" to-port="1" />
		<edge from-layer="381" from-port="0" to-layer="382" to-port="2" />
		<edge from-layer="382" from-port="3" to-layer="384" to-port="0" />
		<edge from-layer="383" from-port="0" to-layer="384" to-port="1" />
		<edge from-layer="384" from-port="2" to-layer="385" to-port="1" />
		<edge from-layer="385" from-port="2" to-layer="387" to-port="0" />
		<edge from-layer="386" from-port="0" to-layer="387" to-port="1" />
		<edge from-layer="387" from-port="2" to-layer="388" to-port="1" />
		<edge from-layer="388" from-port="2" to-layer="389" to-port="1" />
		<edge from-layer="389" from-port="2" to-layer="405" to-port="0" />
		<edge from-layer="389" from-port="2" to-layer="393" to-port="0" />
		<edge from-layer="390" from-port="0" to-layer="404" to-port="0" />
		<edge from-layer="391" from-port="0" to-layer="400" to-port="0" />
		<edge from-layer="392" from-port="0" to-layer="393" to-port="1" />
		<edge from-layer="393" from-port="2" to-layer="395" to-port="0" />
		<edge from-layer="394" from-port="0" to-layer="395" to-port="1" />
		<edge from-layer="395" from-port="2" to-layer="397" to-port="0" />
		<edge from-layer="396" from-port="0" to-layer="397" to-port="1" />
		<edge from-layer="397" from-port="2" to-layer="399" to-port="0" />
		<edge from-layer="398" from-port="0" to-layer="399" to-port="1" />
		<edge from-layer="399" from-port="2" to-layer="400" to-port="1" />
		<edge from-layer="400" from-port="2" to-layer="401" to-port="0" />
		<edge from-layer="401" from-port="1" to-layer="403" to-port="0" />
		<edge from-layer="402" from-port="0" to-layer="403" to-port="1" />
		<edge from-layer="403" from-port="2" to-layer="404" to-port="1" />
		<edge from-layer="404" from-port="2" to-layer="405" to-port="1" />
		<edge from-layer="405" from-port="2" to-layer="409" to-port="0" />
		<edge from-layer="405" from-port="2" to-layer="450" to-port="0" />
		<edge from-layer="406" from-port="0" to-layer="449" to-port="0" />
		<edge from-layer="407" from-port="0" to-layer="416" to-port="0" />
		<edge from-layer="408" from-port="0" to-layer="409" to-port="1" />
		<edge from-layer="409" from-port="2" to-layer="411" to-port="0" />
		<edge from-layer="410" from-port="0" to-layer="411" to-port="1" />
		<edge from-layer="411" from-port="2" to-layer="413" to-port="0" />
		<edge from-layer="412" from-port="0" to-layer="413" to-port="1" />
		<edge from-layer="413" from-port="2" to-layer="417" to-port="0" />
		<edge from-layer="413" from-port="2" to-layer="415" to-port="0" />
		<edge from-layer="414" from-port="0" to-layer="415" to-port="1" />
		<edge from-layer="415" from-port="2" to-layer="416" to-port="1" />
		<edge from-layer="416" from-port="2" to-layer="425" to-port="0" />
		<edge from-layer="417" from-port="1" to-layer="420" to-port="0" />
		<edge from-layer="417" from-port="1" to-layer="443" to-port="0" />
		<edge from-layer="418" from-port="0" to-layer="420" to-port="1" />
		<edge from-layer="419" from-port="0" to-layer="420" to-port="2" />
		<edge from-layer="420" from-port="3" to-layer="424" to-port="0" />
		<edge from-layer="421" from-port="0" to-layer="424" to-port="1" />
		<edge from-layer="422" from-port="0" to-layer="424" to-port="2" />
		<edge from-layer="423" from-port="0" to-layer="424" to-port="3" />
		<edge from-layer="424" from-port="4" to-layer="425" to-port="1" />
		<edge from-layer="425" from-port="2" to-layer="427" to-port="0" />
		<edge from-layer="426" from-port="0" to-layer="427" to-port="1" />
		<edge from-layer="427" from-port="2" to-layer="431" to-port="0" />
		<edge from-layer="427" from-port="2" to-layer="429" to-port="0" />
		<edge from-layer="427" from-port="2" to-layer="437" to-port="0" />
		<edge from-layer="428" from-port="0" to-layer="429" to-port="2" />
		<edge from-layer="429" from-port="3" to-layer="434" to-port="0" />
		<edge from-layer="430" from-port="0" to-layer="431" to-port="2" />
		<edge from-layer="431" from-port="3" to-layer="433" to-port="0" />
		<edge from-layer="432" from-port="0" to-layer="433" to-port="1" />
		<edge from-layer="433" from-port="2" to-layer="434" to-port="1" />
		<edge from-layer="434" from-port="2" to-layer="435" to-port="0" />
		<edge from-layer="435" from-port="1" to-layer="438" to-port="0" />
		<edge from-layer="436" from-port="0" to-layer="437" to-port="2" />
		<edge from-layer="437" from-port="3" to-layer="438" to-port="1" />
		<edge from-layer="438" from-port="2" to-layer="440" to-port="0" />
		<edge from-layer="439" from-port="0" to-layer="440" to-port="1" />
		<edge from-layer="440" from-port="2" to-layer="446" to-port="0" />
		<edge from-layer="441" from-port="0" to-layer="443" to-port="1" />
		<edge from-layer="442" from-port="0" to-layer="443" to-port="2" />
		<edge from-layer="443" from-port="3" to-layer="445" to-port="0" />
		<edge from-layer="444" from-port="0" to-layer="445" to-port="1" />
		<edge from-layer="445" from-port="2" to-layer="446" to-port="1" />
		<edge from-layer="446" from-port="2" to-layer="448" to-port="0" />
		<edge from-layer="447" from-port="0" to-layer="448" to-port="1" />
		<edge from-layer="448" from-port="2" to-layer="449" to-port="1" />
		<edge from-layer="449" from-port="2" to-layer="450" to-port="1" />
		<edge from-layer="450" from-port="2" to-layer="466" to-port="0" />
		<edge from-layer="450" from-port="2" to-layer="454" to-port="0" />
		<edge from-layer="451" from-port="0" to-layer="465" to-port="0" />
		<edge from-layer="452" from-port="0" to-layer="461" to-port="0" />
		<edge from-layer="453" from-port="0" to-layer="454" to-port="1" />
		<edge from-layer="454" from-port="2" to-layer="456" to-port="0" />
		<edge from-layer="455" from-port="0" to-layer="456" to-port="1" />
		<edge from-layer="456" from-port="2" to-layer="458" to-port="0" />
		<edge from-layer="457" from-port="0" to-layer="458" to-port="1" />
		<edge from-layer="458" from-port="2" to-layer="460" to-port="0" />
		<edge from-layer="459" from-port="0" to-layer="460" to-port="1" />
		<edge from-layer="460" from-port="2" to-layer="461" to-port="1" />
		<edge from-layer="461" from-port="2" to-layer="462" to-port="0" />
		<edge from-layer="462" from-port="1" to-layer="464" to-port="0" />
		<edge from-layer="463" from-port="0" to-layer="464" to-port="1" />
		<edge from-layer="464" from-port="2" to-layer="465" to-port="1" />
		<edge from-layer="465" from-port="2" to-layer="466" to-port="1" />
		<edge from-layer="466" from-port="2" to-layer="470" to-port="0" />
		<edge from-layer="466" from-port="2" to-layer="511" to-port="0" />
		<edge from-layer="467" from-port="0" to-layer="510" to-port="0" />
		<edge from-layer="468" from-port="0" to-layer="477" to-port="0" />
		<edge from-layer="469" from-port="0" to-layer="470" to-port="1" />
		<edge from-layer="470" from-port="2" to-layer="472" to-port="0" />
		<edge from-layer="471" from-port="0" to-layer="472" to-port="1" />
		<edge from-layer="472" from-port="2" to-layer="474" to-port="0" />
		<edge from-layer="473" from-port="0" to-layer="474" to-port="1" />
		<edge from-layer="474" from-port="2" to-layer="478" to-port="0" />
		<edge from-layer="474" from-port="2" to-layer="476" to-port="0" />
		<edge from-layer="475" from-port="0" to-layer="476" to-port="1" />
		<edge from-layer="476" from-port="2" to-layer="477" to-port="1" />
		<edge from-layer="477" from-port="2" to-layer="486" to-port="0" />
		<edge from-layer="478" from-port="1" to-layer="481" to-port="0" />
		<edge from-layer="478" from-port="1" to-layer="504" to-port="0" />
		<edge from-layer="479" from-port="0" to-layer="481" to-port="1" />
		<edge from-layer="480" from-port="0" to-layer="481" to-port="2" />
		<edge from-layer="481" from-port="3" to-layer="485" to-port="0" />
		<edge from-layer="482" from-port="0" to-layer="485" to-port="1" />
		<edge from-layer="483" from-port="0" to-layer="485" to-port="2" />
		<edge from-layer="484" from-port="0" to-layer="485" to-port="3" />
		<edge from-layer="485" from-port="4" to-layer="486" to-port="1" />
		<edge from-layer="486" from-port="2" to-layer="488" to-port="0" />
		<edge from-layer="487" from-port="0" to-layer="488" to-port="1" />
		<edge from-layer="488" from-port="2" to-layer="498" to-port="0" />
		<edge from-layer="488" from-port="2" to-layer="492" to-port="0" />
		<edge from-layer="488" from-port="2" to-layer="490" to-port="0" />
		<edge from-layer="489" from-port="0" to-layer="490" to-port="2" />
		<edge from-layer="490" from-port="3" to-layer="495" to-port="0" />
		<edge from-layer="491" from-port="0" to-layer="492" to-port="2" />
		<edge from-layer="492" from-port="3" to-layer="494" to-port="0" />
		<edge from-layer="493" from-port="0" to-layer="494" to-port="1" />
		<edge from-layer="494" from-port="2" to-layer="495" to-port="1" />
		<edge from-layer="495" from-port="2" to-layer="496" to-port="0" />
		<edge from-layer="496" from-port="1" to-layer="499" to-port="0" />
		<edge from-layer="497" from-port="0" to-layer="498" to-port="2" />
		<edge from-layer="498" from-port="3" to-layer="499" to-port="1" />
		<edge from-layer="499" from-port="2" to-layer="501" to-port="0" />
		<edge from-layer="500" from-port="0" to-layer="501" to-port="1" />
		<edge from-layer="501" from-port="2" to-layer="507" to-port="0" />
		<edge from-layer="502" from-port="0" to-layer="504" to-port="1" />
		<edge from-layer="503" from-port="0" to-layer="504" to-port="2" />
		<edge from-layer="504" from-port="3" to-layer="506" to-port="0" />
		<edge from-layer="505" from-port="0" to-layer="506" to-port="1" />
		<edge from-layer="506" from-port="2" to-layer="507" to-port="1" />
		<edge from-layer="507" from-port="2" to-layer="509" to-port="0" />
		<edge from-layer="508" from-port="0" to-layer="509" to-port="1" />
		<edge from-layer="509" from-port="2" to-layer="510" to-port="1" />
		<edge from-layer="510" from-port="2" to-layer="511" to-port="1" />
		<edge from-layer="511" from-port="2" to-layer="515" to-port="0" />
		<edge from-layer="511" from-port="2" to-layer="527" to-port="0" />
		<edge from-layer="512" from-port="0" to-layer="526" to-port="0" />
		<edge from-layer="513" from-port="0" to-layer="522" to-port="0" />
		<edge from-layer="514" from-port="0" to-layer="515" to-port="1" />
		<edge from-layer="515" from-port="2" to-layer="517" to-port="0" />
		<edge from-layer="516" from-port="0" to-layer="517" to-port="1" />
		<edge from-layer="517" from-port="2" to-layer="519" to-port="0" />
		<edge from-layer="518" from-port="0" to-layer="519" to-port="1" />
		<edge from-layer="519" from-port="2" to-layer="521" to-port="0" />
		<edge from-layer="520" from-port="0" to-layer="521" to-port="1" />
		<edge from-layer="521" from-port="2" to-layer="522" to-port="1" />
		<edge from-layer="522" from-port="2" to-layer="523" to-port="0" />
		<edge from-layer="523" from-port="1" to-layer="525" to-port="0" />
		<edge from-layer="524" from-port="0" to-layer="525" to-port="1" />
		<edge from-layer="525" from-port="2" to-layer="526" to-port="1" />
		<edge from-layer="526" from-port="2" to-layer="527" to-port="1" />
		<edge from-layer="527" from-port="2" to-layer="572" to-port="0" />
		<edge from-layer="527" from-port="2" to-layer="531" to-port="0" />
		<edge from-layer="528" from-port="0" to-layer="571" to-port="0" />
		<edge from-layer="529" from-port="0" to-layer="538" to-port="0" />
		<edge from-layer="530" from-port="0" to-layer="531" to-port="1" />
		<edge from-layer="531" from-port="2" to-layer="533" to-port="0" />
		<edge from-layer="532" from-port="0" to-layer="533" to-port="1" />
		<edge from-layer="533" from-port="2" to-layer="535" to-port="0" />
		<edge from-layer="534" from-port="0" to-layer="535" to-port="1" />
		<edge from-layer="535" from-port="2" to-layer="539" to-port="0" />
		<edge from-layer="535" from-port="2" to-layer="537" to-port="0" />
		<edge from-layer="536" from-port="0" to-layer="537" to-port="1" />
		<edge from-layer="537" from-port="2" to-layer="538" to-port="1" />
		<edge from-layer="538" from-port="2" to-layer="547" to-port="0" />
		<edge from-layer="539" from-port="1" to-layer="542" to-port="0" />
		<edge from-layer="539" from-port="1" to-layer="565" to-port="0" />
		<edge from-layer="540" from-port="0" to-layer="542" to-port="1" />
		<edge from-layer="541" from-port="0" to-layer="542" to-port="2" />
		<edge from-layer="542" from-port="3" to-layer="546" to-port="0" />
		<edge from-layer="543" from-port="0" to-layer="546" to-port="1" />
		<edge from-layer="544" from-port="0" to-layer="546" to-port="2" />
		<edge from-layer="545" from-port="0" to-layer="546" to-port="3" />
		<edge from-layer="546" from-port="4" to-layer="547" to-port="1" />
		<edge from-layer="547" from-port="2" to-layer="549" to-port="0" />
		<edge from-layer="548" from-port="0" to-layer="549" to-port="1" />
		<edge from-layer="549" from-port="2" to-layer="559" to-port="0" />
		<edge from-layer="549" from-port="2" to-layer="551" to-port="0" />
		<edge from-layer="549" from-port="2" to-layer="553" to-port="0" />
		<edge from-layer="550" from-port="0" to-layer="551" to-port="2" />
		<edge from-layer="551" from-port="3" to-layer="556" to-port="0" />
		<edge from-layer="552" from-port="0" to-layer="553" to-port="2" />
		<edge from-layer="553" from-port="3" to-layer="555" to-port="0" />
		<edge from-layer="554" from-port="0" to-layer="555" to-port="1" />
		<edge from-layer="555" from-port="2" to-layer="556" to-port="1" />
		<edge from-layer="556" from-port="2" to-layer="557" to-port="0" />
		<edge from-layer="557" from-port="1" to-layer="560" to-port="0" />
		<edge from-layer="558" from-port="0" to-layer="559" to-port="2" />
		<edge from-layer="559" from-port="3" to-layer="560" to-port="1" />
		<edge from-layer="560" from-port="2" to-layer="562" to-port="0" />
		<edge from-layer="561" from-port="0" to-layer="562" to-port="1" />
		<edge from-layer="562" from-port="2" to-layer="568" to-port="0" />
		<edge from-layer="563" from-port="0" to-layer="565" to-port="1" />
		<edge from-layer="564" from-port="0" to-layer="565" to-port="2" />
		<edge from-layer="565" from-port="3" to-layer="567" to-port="0" />
		<edge from-layer="566" from-port="0" to-layer="567" to-port="1" />
		<edge from-layer="567" from-port="2" to-layer="568" to-port="1" />
		<edge from-layer="568" from-port="2" to-layer="570" to-port="0" />
		<edge from-layer="569" from-port="0" to-layer="570" to-port="1" />
		<edge from-layer="570" from-port="2" to-layer="571" to-port="1" />
		<edge from-layer="571" from-port="2" to-layer="572" to-port="1" />
		<edge from-layer="572" from-port="2" to-layer="576" to-port="0" />
		<edge from-layer="572" from-port="2" to-layer="588" to-port="0" />
		<edge from-layer="573" from-port="0" to-layer="587" to-port="0" />
		<edge from-layer="574" from-port="0" to-layer="583" to-port="0" />
		<edge from-layer="575" from-port="0" to-layer="576" to-port="1" />
		<edge from-layer="576" from-port="2" to-layer="578" to-port="0" />
		<edge from-layer="577" from-port="0" to-layer="578" to-port="1" />
		<edge from-layer="578" from-port="2" to-layer="580" to-port="0" />
		<edge from-layer="579" from-port="0" to-layer="580" to-port="1" />
		<edge from-layer="580" from-port="2" to-layer="582" to-port="0" />
		<edge from-layer="581" from-port="0" to-layer="582" to-port="1" />
		<edge from-layer="582" from-port="2" to-layer="583" to-port="1" />
		<edge from-layer="583" from-port="2" to-layer="584" to-port="0" />
		<edge from-layer="584" from-port="1" to-layer="586" to-port="0" />
		<edge from-layer="585" from-port="0" to-layer="586" to-port="1" />
		<edge from-layer="586" from-port="2" to-layer="587" to-port="1" />
		<edge from-layer="587" from-port="2" to-layer="588" to-port="1" />
		<edge from-layer="588" from-port="2" to-layer="592" to-port="0" />
		<edge from-layer="588" from-port="2" to-layer="633" to-port="0" />
		<edge from-layer="589" from-port="0" to-layer="632" to-port="0" />
		<edge from-layer="590" from-port="0" to-layer="599" to-port="0" />
		<edge from-layer="591" from-port="0" to-layer="592" to-port="1" />
		<edge from-layer="592" from-port="2" to-layer="594" to-port="0" />
		<edge from-layer="593" from-port="0" to-layer="594" to-port="1" />
		<edge from-layer="594" from-port="2" to-layer="596" to-port="0" />
		<edge from-layer="595" from-port="0" to-layer="596" to-port="1" />
		<edge from-layer="596" from-port="2" to-layer="600" to-port="0" />
		<edge from-layer="596" from-port="2" to-layer="598" to-port="0" />
		<edge from-layer="597" from-port="0" to-layer="598" to-port="1" />
		<edge from-layer="598" from-port="2" to-layer="599" to-port="1" />
		<edge from-layer="599" from-port="2" to-layer="608" to-port="0" />
		<edge from-layer="600" from-port="1" to-layer="603" to-port="0" />
		<edge from-layer="600" from-port="1" to-layer="626" to-port="0" />
		<edge from-layer="601" from-port="0" to-layer="603" to-port="1" />
		<edge from-layer="602" from-port="0" to-layer="603" to-port="2" />
		<edge from-layer="603" from-port="3" to-layer="607" to-port="0" />
		<edge from-layer="604" from-port="0" to-layer="607" to-port="1" />
		<edge from-layer="605" from-port="0" to-layer="607" to-port="2" />
		<edge from-layer="606" from-port="0" to-layer="607" to-port="3" />
		<edge from-layer="607" from-port="4" to-layer="608" to-port="1" />
		<edge from-layer="608" from-port="2" to-layer="610" to-port="0" />
		<edge from-layer="609" from-port="0" to-layer="610" to-port="1" />
		<edge from-layer="610" from-port="2" to-layer="620" to-port="0" />
		<edge from-layer="610" from-port="2" to-layer="614" to-port="0" />
		<edge from-layer="610" from-port="2" to-layer="612" to-port="0" />
		<edge from-layer="611" from-port="0" to-layer="612" to-port="2" />
		<edge from-layer="612" from-port="3" to-layer="617" to-port="0" />
		<edge from-layer="613" from-port="0" to-layer="614" to-port="2" />
		<edge from-layer="614" from-port="3" to-layer="616" to-port="0" />
		<edge from-layer="615" from-port="0" to-layer="616" to-port="1" />
		<edge from-layer="616" from-port="2" to-layer="617" to-port="1" />
		<edge from-layer="617" from-port="2" to-layer="618" to-port="0" />
		<edge from-layer="618" from-port="1" to-layer="621" to-port="0" />
		<edge from-layer="619" from-port="0" to-layer="620" to-port="2" />
		<edge from-layer="620" from-port="3" to-layer="621" to-port="1" />
		<edge from-layer="621" from-port="2" to-layer="623" to-port="0" />
		<edge from-layer="622" from-port="0" to-layer="623" to-port="1" />
		<edge from-layer="623" from-port="2" to-layer="629" to-port="0" />
		<edge from-layer="624" from-port="0" to-layer="626" to-port="1" />
		<edge from-layer="625" from-port="0" to-layer="626" to-port="2" />
		<edge from-layer="626" from-port="3" to-layer="628" to-port="0" />
		<edge from-layer="627" from-port="0" to-layer="628" to-port="1" />
		<edge from-layer="628" from-port="2" to-layer="629" to-port="1" />
		<edge from-layer="629" from-port="2" to-layer="631" to-port="0" />
		<edge from-layer="630" from-port="0" to-layer="631" to-port="1" />
		<edge from-layer="631" from-port="2" to-layer="632" to-port="1" />
		<edge from-layer="632" from-port="2" to-layer="633" to-port="1" />
		<edge from-layer="633" from-port="2" to-layer="649" to-port="0" />
		<edge from-layer="633" from-port="2" to-layer="637" to-port="0" />
		<edge from-layer="634" from-port="0" to-layer="648" to-port="0" />
		<edge from-layer="635" from-port="0" to-layer="644" to-port="0" />
		<edge from-layer="636" from-port="0" to-layer="637" to-port="1" />
		<edge from-layer="637" from-port="2" to-layer="639" to-port="0" />
		<edge from-layer="638" from-port="0" to-layer="639" to-port="1" />
		<edge from-layer="639" from-port="2" to-layer="641" to-port="0" />
		<edge from-layer="640" from-port="0" to-layer="641" to-port="1" />
		<edge from-layer="641" from-port="2" to-layer="643" to-port="0" />
		<edge from-layer="642" from-port="0" to-layer="643" to-port="1" />
		<edge from-layer="643" from-port="2" to-layer="644" to-port="1" />
		<edge from-layer="644" from-port="2" to-layer="645" to-port="0" />
		<edge from-layer="645" from-port="1" to-layer="647" to-port="0" />
		<edge from-layer="646" from-port="0" to-layer="647" to-port="1" />
		<edge from-layer="647" from-port="2" to-layer="648" to-port="1" />
		<edge from-layer="648" from-port="2" to-layer="649" to-port="1" />
		<edge from-layer="649" from-port="2" to-layer="653" to-port="0" />
		<edge from-layer="649" from-port="2" to-layer="694" to-port="0" />
		<edge from-layer="650" from-port="0" to-layer="693" to-port="0" />
		<edge from-layer="651" from-port="0" to-layer="660" to-port="0" />
		<edge from-layer="652" from-port="0" to-layer="653" to-port="1" />
		<edge from-layer="653" from-port="2" to-layer="655" to-port="0" />
		<edge from-layer="654" from-port="0" to-layer="655" to-port="1" />
		<edge from-layer="655" from-port="2" to-layer="657" to-port="0" />
		<edge from-layer="656" from-port="0" to-layer="657" to-port="1" />
		<edge from-layer="657" from-port="2" to-layer="661" to-port="0" />
		<edge from-layer="657" from-port="2" to-layer="659" to-port="0" />
		<edge from-layer="658" from-port="0" to-layer="659" to-port="1" />
		<edge from-layer="659" from-port="2" to-layer="660" to-port="1" />
		<edge from-layer="660" from-port="2" to-layer="669" to-port="0" />
		<edge from-layer="661" from-port="1" to-layer="687" to-port="0" />
		<edge from-layer="661" from-port="1" to-layer="664" to-port="0" />
		<edge from-layer="662" from-port="0" to-layer="664" to-port="1" />
		<edge from-layer="663" from-port="0" to-layer="664" to-port="2" />
		<edge from-layer="664" from-port="3" to-layer="668" to-port="0" />
		<edge from-layer="665" from-port="0" to-layer="668" to-port="1" />
		<edge from-layer="666" from-port="0" to-layer="668" to-port="2" />
		<edge from-layer="667" from-port="0" to-layer="668" to-port="3" />
		<edge from-layer="668" from-port="4" to-layer="669" to-port="1" />
		<edge from-layer="669" from-port="2" to-layer="671" to-port="0" />
		<edge from-layer="670" from-port="0" to-layer="671" to-port="1" />
		<edge from-layer="671" from-port="2" to-layer="675" to-port="0" />
		<edge from-layer="671" from-port="2" to-layer="673" to-port="0" />
		<edge from-layer="671" from-port="2" to-layer="681" to-port="0" />
		<edge from-layer="672" from-port="0" to-layer="673" to-port="2" />
		<edge from-layer="673" from-port="3" to-layer="678" to-port="0" />
		<edge from-layer="674" from-port="0" to-layer="675" to-port="2" />
		<edge from-layer="675" from-port="3" to-layer="677" to-port="0" />
		<edge from-layer="676" from-port="0" to-layer="677" to-port="1" />
		<edge from-layer="677" from-port="2" to-layer="678" to-port="1" />
		<edge from-layer="678" from-port="2" to-layer="679" to-port="0" />
		<edge from-layer="679" from-port="1" to-layer="682" to-port="0" />
		<edge from-layer="680" from-port="0" to-layer="681" to-port="2" />
		<edge from-layer="681" from-port="3" to-layer="682" to-port="1" />
		<edge from-layer="682" from-port="2" to-layer="684" to-port="0" />
		<edge from-layer="683" from-port="0" to-layer="684" to-port="1" />
		<edge from-layer="684" from-port="2" to-layer="690" to-port="0" />
		<edge from-layer="685" from-port="0" to-layer="687" to-port="1" />
		<edge from-layer="686" from-port="0" to-layer="687" to-port="2" />
		<edge from-layer="687" from-port="3" to-layer="689" to-port="0" />
		<edge from-layer="688" from-port="0" to-layer="689" to-port="1" />
		<edge from-layer="689" from-port="2" to-layer="690" to-port="1" />
		<edge from-layer="690" from-port="2" to-layer="692" to-port="0" />
		<edge from-layer="691" from-port="0" to-layer="692" to-port="1" />
		<edge from-layer="692" from-port="2" to-layer="693" to-port="1" />
		<edge from-layer="693" from-port="2" to-layer="694" to-port="1" />
		<edge from-layer="694" from-port="2" to-layer="698" to-port="0" />
		<edge from-layer="694" from-port="2" to-layer="710" to-port="0" />
		<edge from-layer="695" from-port="0" to-layer="709" to-port="0" />
		<edge from-layer="696" from-port="0" to-layer="705" to-port="0" />
		<edge from-layer="697" from-port="0" to-layer="698" to-port="1" />
		<edge from-layer="698" from-port="2" to-layer="700" to-port="0" />
		<edge from-layer="699" from-port="0" to-layer="700" to-port="1" />
		<edge from-layer="700" from-port="2" to-layer="702" to-port="0" />
		<edge from-layer="701" from-port="0" to-layer="702" to-port="1" />
		<edge from-layer="702" from-port="2" to-layer="704" to-port="0" />
		<edge from-layer="703" from-port="0" to-layer="704" to-port="1" />
		<edge from-layer="704" from-port="2" to-layer="705" to-port="1" />
		<edge from-layer="705" from-port="2" to-layer="706" to-port="0" />
		<edge from-layer="706" from-port="1" to-layer="708" to-port="0" />
		<edge from-layer="707" from-port="0" to-layer="708" to-port="1" />
		<edge from-layer="708" from-port="2" to-layer="709" to-port="1" />
		<edge from-layer="709" from-port="2" to-layer="710" to-port="1" />
		<edge from-layer="710" from-port="2" to-layer="714" to-port="0" />
		<edge from-layer="710" from-port="2" to-layer="755" to-port="0" />
		<edge from-layer="711" from-port="0" to-layer="754" to-port="0" />
		<edge from-layer="712" from-port="0" to-layer="721" to-port="0" />
		<edge from-layer="713" from-port="0" to-layer="714" to-port="1" />
		<edge from-layer="714" from-port="2" to-layer="716" to-port="0" />
		<edge from-layer="715" from-port="0" to-layer="716" to-port="1" />
		<edge from-layer="716" from-port="2" to-layer="718" to-port="0" />
		<edge from-layer="717" from-port="0" to-layer="718" to-port="1" />
		<edge from-layer="718" from-port="2" to-layer="722" to-port="0" />
		<edge from-layer="718" from-port="2" to-layer="720" to-port="0" />
		<edge from-layer="719" from-port="0" to-layer="720" to-port="1" />
		<edge from-layer="720" from-port="2" to-layer="721" to-port="1" />
		<edge from-layer="721" from-port="2" to-layer="730" to-port="0" />
		<edge from-layer="722" from-port="1" to-layer="725" to-port="0" />
		<edge from-layer="722" from-port="1" to-layer="748" to-port="0" />
		<edge from-layer="723" from-port="0" to-layer="725" to-port="1" />
		<edge from-layer="724" from-port="0" to-layer="725" to-port="2" />
		<edge from-layer="725" from-port="3" to-layer="729" to-port="0" />
		<edge from-layer="726" from-port="0" to-layer="729" to-port="1" />
		<edge from-layer="727" from-port="0" to-layer="729" to-port="2" />
		<edge from-layer="728" from-port="0" to-layer="729" to-port="3" />
		<edge from-layer="729" from-port="4" to-layer="730" to-port="1" />
		<edge from-layer="730" from-port="2" to-layer="732" to-port="0" />
		<edge from-layer="731" from-port="0" to-layer="732" to-port="1" />
		<edge from-layer="732" from-port="2" to-layer="736" to-port="0" />
		<edge from-layer="732" from-port="2" to-layer="742" to-port="0" />
		<edge from-layer="732" from-port="2" to-layer="734" to-port="0" />
		<edge from-layer="733" from-port="0" to-layer="734" to-port="2" />
		<edge from-layer="734" from-port="3" to-layer="739" to-port="0" />
		<edge from-layer="735" from-port="0" to-layer="736" to-port="2" />
		<edge from-layer="736" from-port="3" to-layer="738" to-port="0" />
		<edge from-layer="737" from-port="0" to-layer="738" to-port="1" />
		<edge from-layer="738" from-port="2" to-layer="739" to-port="1" />
		<edge from-layer="739" from-port="2" to-layer="740" to-port="0" />
		<edge from-layer="740" from-port="1" to-layer="743" to-port="0" />
		<edge from-layer="741" from-port="0" to-layer="742" to-port="2" />
		<edge from-layer="742" from-port="3" to-layer="743" to-port="1" />
		<edge from-layer="743" from-port="2" to-layer="745" to-port="0" />
		<edge from-layer="744" from-port="0" to-layer="745" to-port="1" />
		<edge from-layer="745" from-port="2" to-layer="751" to-port="0" />
		<edge from-layer="746" from-port="0" to-layer="748" to-port="1" />
		<edge from-layer="747" from-port="0" to-layer="748" to-port="2" />
		<edge from-layer="748" from-port="3" to-layer="750" to-port="0" />
		<edge from-layer="749" from-port="0" to-layer="750" to-port="1" />
		<edge from-layer="750" from-port="2" to-layer="751" to-port="1" />
		<edge from-layer="751" from-port="2" to-layer="753" to-port="0" />
		<edge from-layer="752" from-port="0" to-layer="753" to-port="1" />
		<edge from-layer="753" from-port="2" to-layer="754" to-port="1" />
		<edge from-layer="754" from-port="2" to-layer="755" to-port="1" />
		<edge from-layer="755" from-port="2" to-layer="771" to-port="0" />
		<edge from-layer="755" from-port="2" to-layer="759" to-port="0" />
		<edge from-layer="756" from-port="0" to-layer="770" to-port="0" />
		<edge from-layer="757" from-port="0" to-layer="766" to-port="0" />
		<edge from-layer="758" from-port="0" to-layer="759" to-port="1" />
		<edge from-layer="759" from-port="2" to-layer="761" to-port="0" />
		<edge from-layer="760" from-port="0" to-layer="761" to-port="1" />
		<edge from-layer="761" from-port="2" to-layer="763" to-port="0" />
		<edge from-layer="762" from-port="0" to-layer="763" to-port="1" />
		<edge from-layer="763" from-port="2" to-layer="765" to-port="0" />
		<edge from-layer="764" from-port="0" to-layer="765" to-port="1" />
		<edge from-layer="765" from-port="2" to-layer="766" to-port="1" />
		<edge from-layer="766" from-port="2" to-layer="767" to-port="0" />
		<edge from-layer="767" from-port="1" to-layer="769" to-port="0" />
		<edge from-layer="768" from-port="0" to-layer="769" to-port="1" />
		<edge from-layer="769" from-port="2" to-layer="770" to-port="1" />
		<edge from-layer="770" from-port="2" to-layer="771" to-port="1" />
		<edge from-layer="771" from-port="2" to-layer="773" to-port="0" />
		<edge from-layer="772" from-port="0" to-layer="773" to-port="1" />
		<edge from-layer="773" from-port="2" to-layer="775" to-port="0" />
		<edge from-layer="774" from-port="0" to-layer="775" to-port="1" />
		<edge from-layer="775" from-port="2" to-layer="777" to-port="0" />
		<edge from-layer="776" from-port="0" to-layer="777" to-port="1" />
		<edge from-layer="777" from-port="2" to-layer="779" to-port="0" />
		<edge from-layer="778" from-port="0" to-layer="779" to-port="2" />
		<edge from-layer="779" from-port="3" to-layer="781" to-port="0" />
		<edge from-layer="780" from-port="0" to-layer="781" to-port="1" />
		<edge from-layer="781" from-port="2" to-layer="783" to-port="0" />
		<edge from-layer="782" from-port="0" to-layer="783" to-port="1" />
		<edge from-layer="783" from-port="2" to-layer="784" to-port="0" />
		<edge from-layer="784" from-port="1" to-layer="785" to-port="0" />
	</edges>
	<rt_info>
		<MO_version value="2023.0.0-10926-b4452d56304-releases/2023/0" />
		<Runtime_version value="2023.0.0-10926-b4452d56304-releases/2023/0" />
		<conversion_parameters>
			<input value="data" />
			<input_model value="DIR/model_ready.onnx" />
			<input_shape value="[1, 3, 224, 224]" />
			<is_python_api_used value="False" />
			<mean_values value="[123.675, 116.28, 103.53]" />
			<model_name value="model" />
			<output value="logits" />
			<output_dir value="DIR" />
			<reverse_input_channels value="True" />
			<scale_values value="[58.395, 57.12, 57.375]" />
		</conversion_parameters>
		<legacy_frontend value="False" />
		<model_info>
			<confidence_threshold value="0.5" />
			<hierarchical value="False" />
			<hierarchical_config value="{&quot;cls_heads_info&quot;: {&quot;num_multiclass_heads&quot;: 1, &quot;num_multilabel_classes&quot;: 0, &quot;head_idx_to_logits_range&quot;: {&quot;0&quot;: [0, 2]}, &quot;num_single_label_classes&quot;: 2, &quot;class_to_group_idx&quot;: {&quot;bad&quot;: [0, 0], &quot;good&quot;: [0, 1]}, &quot;all_groups&quot;: [[&quot;bad&quot;, &quot;good&quot;]], &quot;label_to_idx&quot;: {&quot;bad&quot;: 0, &quot;good&quot;: 1}, &quot;empty_multiclass_head_indices&quot;: []}, &quot;label_tree_edges&quot;: []}" />
			<labels value="bad good" />
			<model_type value="Classification" />
			<multilabel value="False" />
			<output_raw_scores value="True" />
		</model_info>
		<otx_config value="{&quot;type_of_model&quot;: &quot;Classification&quot;, &quot;converter_type&quot;: &quot;CLASSIFICATION&quot;, &quot;model_parameters&quot;: {&quot;multilabel&quot;: false, &quot;hierarchical&quot;: false, &quot;multihead_class_info&quot;: {}, &quot;confidence_threshold&quot;: 0.5, &quot;labels&quot;: {&quot;label_tree&quot;: {&quot;type&quot;: &quot;tree&quot;, &quot;directed&quot;: true, &quot;nodes&quot;: [&quot;0&quot;, &quot;1&quot;], &quot;edges&quot;: []}, &quot;label_groups&quot;: [{&quot;_id&quot;: &quot;666c155d8843557b378d2660&quot;, &quot;name&quot;: &quot;labels&quot;, &quot;label_ids&quot;: [&quot;0&quot;, &quot;1&quot;], &quot;relation_type&quot;: &quot;EXCLUSIVE&quot;}], &quot;all_labels&quot;: {&quot;0&quot;: {&quot;_id&quot;: &quot;0&quot;, &quot;name&quot;: &quot;bad&quot;, &quot;color&quot;: {&quot;red&quot;: 129, &quot;green&quot;: 164, &quot;blue&quot;: 109, &quot;alpha&quot;: 255}, &quot;hotkey&quot;: &quot;&quot;, &quot;domain&quot;: &quot;CLASSIFICATION&quot;, &quot;creation_date&quot;: &quot;2024-06-14T10:03:09.611000&quot;, &quot;is_empty&quot;: false, &quot;is_anomalous&quot;: false}, &quot;1&quot;: {&quot;_id&quot;: &quot;1&quot;, &quot;name&quot;: &quot;good&quot;, &quot;color&quot;: {&quot;red&quot;: 16, &quot;green&quot;: 215, &quot;blue&quot;: 9, &quot;alpha&quot;: 255}, &quot;hotkey&quot;: &quot;&quot;, &quot;domain&quot;: &quot;CLASSIFICATION&quot;, &quot;creation_date&quot;: &quot;2024-06-14T10:03:09.611000&quot;, &quot;is_empty&quot;: false, &quot;is_anomalous&quot;: false}}}}}" />
	</rt_info>
</net>
