<?xml version="1.0"?>
<net name="torch_jit" version="11">
	<layers>
		<layer id="0" name="data" type="Parameter" version="opset1">
			<data shape="1,3,224,224" element_type="f32" />
			<output>
				<port id="0" precision="FP32" names="data">
					<dim>1</dim>
					<dim>3</dim>
					<dim>224</dim>
					<dim>224</dim>
				</port>
			</output>
		</layer>
		<layer id="1" name="Gather_6296" type="Const" version="opset1">
			<data element_type="f32" shape="1, 3, 1, 1" offset="0" size="12" />
			<rt_info>
				<attribute name="preprocessing" version="0" />
			</rt_info>
			<output>
				<port id="0" precision="FP32">
					<dim>1</dim>
					<dim>3</dim>
					<dim>1</dim>
					<dim>1</dim>
				</port>
			</output>
		</layer>
		<layer id="2" name="Multiply_6095" type="Multiply" version="opset1">
			<data auto_broadcast="numpy" />
			<input>
				<port id="0" precision="FP32">
					<dim>1</dim>
					<dim>3</dim>
					<dim>224</dim>
					<dim>224</dim>
				</port>
				<port id="1" precision="FP32">
					<dim>1</dim>
					<dim>3</dim>
					<dim>1</dim>
					<dim>1</dim>
				</port>
			</input>
			<output>
				<port id="2" precision="FP32">
					<dim>1</dim>
					<dim>3</dim>
					<dim>224</dim>
					<dim>224</dim>
				</port>
			</output>
		</layer>
		<layer id="3" name="Gather_6299" type="Const" version="opset1">
			<data element_type="f32" shape="1, 3, 1, 1" offset="12" size="12" />
			<rt_info>
				<attribute name="preprocessing" version="0" />
			</rt_info>
			<output>
				<port id="0" precision="FP32">
					<dim>1</dim>
					<dim>3</dim>
					<dim>1</dim>
					<dim>1</dim>
				</port>
			</output>
		</layer>
		<layer id="4" name="Divide_2279" type="Add" version="opset1">
			<data auto_broadcast="numpy" />
			<input>
				<port id="0" precision="FP32">
					<dim>1</dim>
					<dim>3</dim>
					<dim>224</dim>
					<dim>224</dim>
				</port>
				<port id="1" precision="FP32">
					<dim>1</dim>
					<dim>3</dim>
					<dim>1</dim>
					<dim>1</dim>
				</port>
			</input>
			<output>
				<port id="2" precision="FP32">
					<dim>1</dim>
					<dim>3</dim>
					<dim>224</dim>
					<dim>224</dim>
				</port>
			</output>
		</layer>
		<layer id="5" name="Constant_57842" type="Const" version="opset1">
			<data element_type="f32" shape="" offset="24" size="4" />
			<output>
				<port id="0" precision="FP32" />
			</output>
		</layer>
		<layer id="6" name="Constant_57843" type="Const" version="opset1">
			<data element_type="f32" shape="" offset="28" size="4" />
			<output>
				<port id="0" precision="FP32" />
			</output>
		</layer>
		<layer id="7" name="Constant_57844" type="Const" version="opset1">
			<data element_type="f32" shape="" offset="24" size="4" />
			<output>
				<port id="0" precision="FP32" />
			</output>
		</layer>
		<layer id="8" name="Constant_57845" type="Const" version="opset1">
			<data element_type="f32" shape="" offset="28" size="4" />
			<output>
				<port id="0" precision="FP32" />
			</output>
		</layer>
		<layer id="9" name="Divide_2279/fq_output_0" type="FakeQuantize" version="opset1">
			<data levels="256" auto_broadcast="numpy" />
			<input>
				<port id="0" precision="FP32">
					<dim>1</dim>
					<dim>3</dim>
					<dim>224</dim>
					<dim>224</dim>
				</port>
				<port id="1" precision="FP32" />
				<port id="2" precision="FP32" />
				<port id="3" precision="FP32" />
				<port id="4" precision="FP32" />
			</input>
			<output>
				<port id="5" precision="FP32">
					<dim>1</dim>
					<dim>3</dim>
					<dim>224</dim>
					<dim>224</dim>
				</port>
			</output>
		</layer>
		<layer id="10" name="Gather_6302" type="Const" version="opset1">
			<data element_type="i8" shape="16, 3, 3, 3" offset="32" size="432" />
			<rt_info>
				<attribute name="preprocessing" version="0" />
			</rt_info>
			<output>
				<port id="0" precision="I8">
					<dim>16</dim>
					<dim>3</dim>
					<dim>3</dim>
					<dim>3</dim>
				</port>
			</output>
		</layer>
		<layer id="11" name="Convert_254971" type="Convert" version="opset1">
			<data destination_type="f32" />
			<rt_info>
				<attribute name="preprocessing" version="0" />
			</rt_info>
			<input>
				<port id="0" precision="I8">
					<dim>16</dim>
					<dim>3</dim>
					<dim>3</dim>
					<dim>3</dim>
				</port>
			</input>
			<output>
				<port id="1" precision="FP32">
					<dim>16</dim>
					<dim>3</dim>
					<dim>3</dim>
					<dim>3</dim>
				</port>
			</output>
		</layer>
		<layer id="12" name="Constant_254869" type="Const" version="opset1">
			<data element_type="f32" shape="16, 1, 1, 1" offset="464" size="64" />
			<rt_info>
				<attribute name="preprocessing" version="0" />
			</rt_info>
			<output>
				<port id="0" precision="FP32">
					<dim>16</dim>
					<dim>1</dim>
					<dim>1</dim>
					<dim>1</dim>
				</port>
			</output>
		</layer>
		<layer id="13" name="/backbone/features/features.0/features.0.0/Conv/WithoutBiases/fq_weights_1" type="Multiply" version="opset1">
			<data auto_broadcast="numpy" />
			<rt_info>
				<attribute name="preprocessing" version="0" />
			</rt_info>
			<input>
				<port id="0" precision="FP32">
					<dim>16</dim>
					<dim>3</dim>
					<dim>3</dim>
					<dim>3</dim>
				</port>
				<port id="1" precision="FP32">
					<dim>16</dim>
					<dim>1</dim>
					<dim>1</dim>
					<dim>1</dim>
				</port>
			</input>
			<output>
				<port id="2" precision="FP32">
					<dim>16</dim>
					<dim>3</dim>
					<dim>3</dim>
					<dim>3</dim>
				</port>
			</output>
		</layer>
		<layer id="14" name="/backbone/features/features.0/features.0.0/Conv/WithoutBiases" type="Convolution" version="opset1">
			<data strides="2, 2" dilations="1, 1" pads_begin="1, 1" pads_end="1, 1" auto_pad="explicit" />
			<input>
				<port id="0" precision="FP32">
					<dim>1</dim>
					<dim>3</dim>
					<dim>224</dim>
					<dim>224</dim>
				</port>
				<port id="1" precision="FP32">
					<dim>16</dim>
					<dim>3</dim>
					<dim>3</dim>
					<dim>3</dim>
				</port>
			</input>
			<output>
				<port id="2" precision="FP32">
					<dim>1</dim>
					<dim>16</dim>
					<dim>112</dim>
					<dim>112</dim>
				</port>
			</output>
		</layer>
		<layer id="15" name="Reshape_145" type="Const" version="opset1">
			<data element_type="f32" shape="1, 16, 1, 1" offset="528" size="64" />
			<output>
				<port id="0" precision="FP32">
					<dim>1</dim>
					<dim>16</dim>
					<dim>1</dim>
					<dim>1</dim>
				</port>
			</output>
		</layer>
		<layer id="16" name="/backbone/features/features.0/features.0.0/Conv" type="Add" version="opset1">
			<data auto_broadcast="numpy" />
			<input>
				<port id="0" precision="FP32">
					<dim>1</dim>
					<dim>16</dim>
					<dim>112</dim>
					<dim>112</dim>
				</port>
				<port id="1" precision="FP32">
					<dim>1</dim>
					<dim>16</dim>
					<dim>1</dim>
					<dim>1</dim>
				</port>
			</input>
			<output>
				<port id="2" precision="FP32" names="/backbone/features/features.0/features.0.0/Conv_output_0">
					<dim>1</dim>
					<dim>16</dim>
					<dim>112</dim>
					<dim>112</dim>
				</port>
			</output>
		</layer>
		<layer id="17" name="Constant_57852" type="Const" version="opset1">
			<data element_type="f32" shape="" offset="592" size="4" />
			<output>
				<port id="0" precision="FP32" />
			</output>
		</layer>
		<layer id="18" name="Constant_57853" type="Const" version="opset1">
			<data element_type="f32" shape="" offset="596" size="4" />
			<output>
				<port id="0" precision="FP32" />
			</output>
		</layer>
		<layer id="19" name="Constant_57854" type="Const" version="opset1">
			<data element_type="f32" shape="" offset="592" size="4" />
			<output>
				<port id="0" precision="FP32" />
			</output>
		</layer>
		<layer id="20" name="Constant_57855" type="Const" version="opset1">
			<data element_type="f32" shape="" offset="596" size="4" />
			<output>
				<port id="0" precision="FP32" />
			</output>
		</layer>
		<layer id="21" name="/backbone/features/features.0/features.0.0/Conv/fq_output_0" type="FakeQuantize" version="opset1">
			<data levels="256" auto_broadcast="numpy" />
			<input>
				<port id="0" precision="FP32">
					<dim>1</dim>
					<dim>16</dim>
					<dim>112</dim>
					<dim>112</dim>
				</port>
				<port id="1" precision="FP32" />
				<port id="2" precision="FP32" />
				<port id="3" precision="FP32" />
				<port id="4" precision="FP32" />
			</input>
			<output>
				<port id="5" precision="FP32">
					<dim>1</dim>
					<dim>16</dim>
					<dim>112</dim>
					<dim>112</dim>
				</port>
			</output>
		</layer>
		<layer id="22" name="Constant_6303" type="Const" version="opset1">
			<data element_type="f32" shape="1, 1, 1, 1" offset="600" size="4" />
			<output>
				<port id="0" precision="FP32">
					<dim>1</dim>
					<dim>1</dim>
					<dim>1</dim>
					<dim>1</dim>
				</port>
			</output>
		</layer>
		<layer id="23" name="/backbone/features/features.0/features.0.2/Add" type="Add" version="opset1">
			<data auto_broadcast="numpy" />
			<input>
				<port id="0" precision="FP32">
					<dim>1</dim>
					<dim>16</dim>
					<dim>112</dim>
					<dim>112</dim>
				</port>
				<port id="1" precision="FP32">
					<dim>1</dim>
					<dim>1</dim>
					<dim>1</dim>
					<dim>1</dim>
				</port>
			</input>
			<output>
				<port id="2" precision="FP32" names="/backbone/features/features.0/features.0.2/Add_output_0">
					<dim>1</dim>
					<dim>16</dim>
					<dim>112</dim>
					<dim>112</dim>
				</port>
			</output>
		</layer>
		<layer id="24" name="/backbone/features/features.0/features.0.2/Relu" type="ReLU" version="opset1">
			<input>
				<port id="0" precision="FP32">
					<dim>1</dim>
					<dim>16</dim>
					<dim>112</dim>
					<dim>112</dim>
				</port>
			</input>
			<output>
				<port id="1" precision="FP32" names="/backbone/features/features.0/features.0.2/Relu_output_0">
					<dim>1</dim>
					<dim>16</dim>
					<dim>112</dim>
					<dim>112</dim>
				</port>
			</output>
		</layer>
		<layer id="25" name="/backbone/features/features.0/features.0.2/Clip" type="Clamp" version="opset1">
			<data min="0" max="6" />
			<input>
				<port id="0" precision="FP32">
					<dim>1</dim>
					<dim>16</dim>
					<dim>112</dim>
					<dim>112</dim>
				</port>
			</input>
			<output>
				<port id="1" precision="FP32" names="/backbone/features/features.0/features.0.2/Clip_output_0">
					<dim>1</dim>
					<dim>16</dim>
					<dim>112</dim>
					<dim>112</dim>
				</port>
			</output>
		</layer>
		<layer id="26" name="Constant_57857" type="Const" version="opset1">
			<data element_type="f32" shape="" offset="604" size="4" />
			<output>
				<port id="0" precision="FP32" />
			</output>
		</layer>
		<layer id="27" name="Constant_57858" type="Const" version="opset1">
			<data element_type="f32" shape="" offset="608" size="4" />
			<output>
				<port id="0" precision="FP32" />
			</output>
		</layer>
		<layer id="28" name="Constant_57859" type="Const" version="opset1">
			<data element_type="f32" shape="" offset="604" size="4" />
			<output>
				<port id="0" precision="FP32" />
			</output>
		</layer>
		<layer id="29" name="Constant_57860" type="Const" version="opset1">
			<data element_type="f32" shape="" offset="608" size="4" />
			<output>
				<port id="0" precision="FP32" />
			</output>
		</layer>
		<layer id="30" name="/backbone/features/features.0/features.0.2/Clip/fq_output_0" type="FakeQuantize" version="opset1">
			<data levels="256" auto_broadcast="numpy" />
			<input>
				<port id="0" precision="FP32">
					<dim>1</dim>
					<dim>16</dim>
					<dim>112</dim>
					<dim>112</dim>
				</port>
				<port id="1" precision="FP32" />
				<port id="2" precision="FP32" />
				<port id="3" precision="FP32" />
				<port id="4" precision="FP32" />
			</input>
			<output>
				<port id="5" precision="FP32">
					<dim>1</dim>
					<dim>16</dim>
					<dim>112</dim>
					<dim>112</dim>
				</port>
			</output>
		</layer>
		<layer id="31" name="/backbone/features/features.0/features.0.2/Mul" type="Multiply" version="opset1">
			<data auto_broadcast="numpy" />
			<input>
				<port id="0" precision="FP32">
					<dim>1</dim>
					<dim>16</dim>
					<dim>112</dim>
					<dim>112</dim>
				</port>
				<port id="1" precision="FP32">
					<dim>1</dim>
					<dim>16</dim>
					<dim>112</dim>
					<dim>112</dim>
				</port>
			</input>
			<output>
				<port id="2" precision="FP32" names="/backbone/features/features.0/features.0.2/Mul_output_0">
					<dim>1</dim>
					<dim>16</dim>
					<dim>112</dim>
					<dim>112</dim>
				</port>
			</output>
		</layer>
		<layer id="32" name="Constant_57862" type="Const" version="opset1">
			<data element_type="f32" shape="" offset="612" size="4" />
			<output>
				<port id="0" precision="FP32" />
			</output>
		</layer>
		<layer id="33" name="Constant_57863" type="Const" version="opset1">
			<data element_type="f32" shape="" offset="616" size="4" />
			<output>
				<port id="0" precision="FP32" />
			</output>
		</layer>
		<layer id="34" name="Constant_57864" type="Const" version="opset1">
			<data element_type="f32" shape="" offset="612" size="4" />
			<output>
				<port id="0" precision="FP32" />
			</output>
		</layer>
		<layer id="35" name="Constant_57865" type="Const" version="opset1">
			<data element_type="f32" shape="" offset="616" size="4" />
			<output>
				<port id="0" precision="FP32" />
			</output>
		</layer>
		<layer id="36" name="/backbone/features/features.0/features.0.2/Mul/fq_output_0" type="FakeQuantize" version="opset1">
			<data levels="256" auto_broadcast="numpy" />
			<input>
				<port id="0" precision="FP32">
					<dim>1</dim>
					<dim>16</dim>
					<dim>112</dim>
					<dim>112</dim>
				</port>
				<port id="1" precision="FP32" />
				<port id="2" precision="FP32" />
				<port id="3" precision="FP32" />
				<port id="4" precision="FP32" />
			</input>
			<output>
				<port id="5" precision="FP32">
					<dim>1</dim>
					<dim>16</dim>
					<dim>112</dim>
					<dim>112</dim>
				</port>
			</output>
		</layer>
		<layer id="37" name="Constant_6304" type="Const" version="opset1">
			<data element_type="f32" shape="1, 1, 1, 1" offset="620" size="4" />
			<output>
				<port id="0" precision="FP32">
					<dim>1</dim>
					<dim>1</dim>
					<dim>1</dim>
					<dim>1</dim>
				</port>
			</output>
		</layer>
		<layer id="38" name="/backbone/features/features.0/features.0.2/Div" type="Multiply" version="opset1">
			<data auto_broadcast="numpy" />
			<input>
				<port id="0" precision="FP32">
					<dim>1</dim>
					<dim>16</dim>
					<dim>112</dim>
					<dim>112</dim>
				</port>
				<port id="1" precision="FP32">
					<dim>1</dim>
					<dim>1</dim>
					<dim>1</dim>
					<dim>1</dim>
				</port>
			</input>
			<output>
				<port id="2" precision="FP32" names="/backbone/features/features.0/features.0.2/Div_output_0">
					<dim>1</dim>
					<dim>16</dim>
					<dim>112</dim>
					<dim>112</dim>
				</port>
			</output>
		</layer>
		<layer id="39" name="Constant_57867" type="Const" version="opset1">
			<data element_type="f32" shape="" offset="624" size="4" />
			<output>
				<port id="0" precision="FP32" />
			</output>
		</layer>
		<layer id="40" name="Constant_57868" type="Const" version="opset1">
			<data element_type="f32" shape="" offset="628" size="4" />
			<output>
				<port id="0" precision="FP32" />
			</output>
		</layer>
		<layer id="41" name="Constant_57869" type="Const" version="opset1">
			<data element_type="f32" shape="" offset="624" size="4" />
			<output>
				<port id="0" precision="FP32" />
			</output>
		</layer>
		<layer id="42" name="Constant_57870" type="Const" version="opset1">
			<data element_type="f32" shape="" offset="628" size="4" />
			<output>
				<port id="0" precision="FP32" />
			</output>
		</layer>
		<layer id="43" name="/backbone/features/features.0/features.0.2/Div/fq_output_0" type="FakeQuantize" version="opset1">
			<data levels="256" auto_broadcast="numpy" />
			<input>
				<port id="0" precision="FP32">
					<dim>1</dim>
					<dim>16</dim>
					<dim>112</dim>
					<dim>112</dim>
				</port>
				<port id="1" precision="FP32" />
				<port id="2" precision="FP32" />
				<port id="3" precision="FP32" />
				<port id="4" precision="FP32" />
			</input>
			<output>
				<port id="5" precision="FP32">
					<dim>1</dim>
					<dim>16</dim>
					<dim>112</dim>
					<dim>112</dim>
				</port>
			</output>
		</layer>
		<layer id="44" name="Reshape_166" type="Const" version="opset1">
			<data element_type="i8" shape="16, 1, 1, 3, 3" offset="632" size="144" />
			<output>
				<port id="0" precision="I8">
					<dim>16</dim>
					<dim>1</dim>
					<dim>1</dim>
					<dim>3</dim>
					<dim>3</dim>
				</port>
			</output>
		</layer>
		<layer id="45" name="Convert_255125" type="Convert" version="opset1">
			<data destination_type="f32" />
			<input>
				<port id="0" precision="I8">
					<dim>16</dim>
					<dim>1</dim>
					<dim>1</dim>
					<dim>3</dim>
					<dim>3</dim>
				</port>
			</input>
			<output>
				<port id="1" precision="FP32">
					<dim>16</dim>
					<dim>1</dim>
					<dim>1</dim>
					<dim>3</dim>
					<dim>3</dim>
				</port>
			</output>
		</layer>
		<layer id="46" name="Constant_255023" type="Const" version="opset1">
			<data element_type="f32" shape="16, 1, 1, 1, 1" offset="776" size="64" />
			<output>
				<port id="0" precision="FP32">
					<dim>16</dim>
					<dim>1</dim>
					<dim>1</dim>
					<dim>1</dim>
					<dim>1</dim>
				</port>
			</output>
		</layer>
		<layer id="47" name="/backbone/features/features.1/conv/conv.0/Conv/WithoutBiases/fq_weights_1" type="Multiply" version="opset1">
			<data auto_broadcast="numpy" />
			<input>
				<port id="0" precision="FP32">
					<dim>16</dim>
					<dim>1</dim>
					<dim>1</dim>
					<dim>3</dim>
					<dim>3</dim>
				</port>
				<port id="1" precision="FP32">
					<dim>16</dim>
					<dim>1</dim>
					<dim>1</dim>
					<dim>1</dim>
					<dim>1</dim>
				</port>
			</input>
			<output>
				<port id="2" precision="FP32">
					<dim>16</dim>
					<dim>1</dim>
					<dim>1</dim>
					<dim>3</dim>
					<dim>3</dim>
				</port>
			</output>
		</layer>
		<layer id="48" name="/backbone/features/features.1/conv/conv.0/Conv/WithoutBiases" type="GroupConvolution" version="opset1">
			<data strides="1, 1" pads_begin="1, 1" pads_end="1, 1" dilations="1, 1" auto_pad="explicit" />
			<input>
				<port id="0" precision="FP32">
					<dim>1</dim>
					<dim>16</dim>
					<dim>112</dim>
					<dim>112</dim>
				</port>
				<port id="1" precision="FP32">
					<dim>16</dim>
					<dim>1</dim>
					<dim>1</dim>
					<dim>3</dim>
					<dim>3</dim>
				</port>
			</input>
			<output>
				<port id="2" precision="FP32">
					<dim>1</dim>
					<dim>16</dim>
					<dim>112</dim>
					<dim>112</dim>
				</port>
			</output>
		</layer>
		<layer id="49" name="Reshape_218" type="Const" version="opset1">
			<data element_type="f32" shape="1, 16, 1, 1" offset="840" size="64" />
			<output>
				<port id="0" precision="FP32">
					<dim>1</dim>
					<dim>16</dim>
					<dim>1</dim>
					<dim>1</dim>
				</port>
			</output>
		</layer>
		<layer id="50" name="/backbone/features/features.1/conv/conv.0/Conv" type="Add" version="opset1">
			<data auto_broadcast="numpy" />
			<input>
				<port id="0" precision="FP32">
					<dim>1</dim>
					<dim>16</dim>
					<dim>112</dim>
					<dim>112</dim>
				</port>
				<port id="1" precision="FP32">
					<dim>1</dim>
					<dim>16</dim>
					<dim>1</dim>
					<dim>1</dim>
				</port>
			</input>
			<output>
				<port id="2" precision="FP32" names="/backbone/features/features.1/conv/conv.0/Conv_output_0">
					<dim>1</dim>
					<dim>16</dim>
					<dim>112</dim>
					<dim>112</dim>
				</port>
			</output>
		</layer>
		<layer id="51" name="/backbone/features/features.1/conv/conv.2/Relu" type="ReLU" version="opset1">
			<input>
				<port id="0" precision="FP32">
					<dim>1</dim>
					<dim>16</dim>
					<dim>112</dim>
					<dim>112</dim>
				</port>
			</input>
			<output>
				<port id="1" precision="FP32" names="/backbone/features/features.1/conv/conv.2/Relu_output_0">
					<dim>1</dim>
					<dim>16</dim>
					<dim>112</dim>
					<dim>112</dim>
				</port>
			</output>
		</layer>
		<layer id="52" name="Constant_57877" type="Const" version="opset1">
			<data element_type="f32" shape="" offset="604" size="4" />
			<output>
				<port id="0" precision="FP32" />
			</output>
		</layer>
		<layer id="53" name="Constant_57878" type="Const" version="opset1">
			<data element_type="f32" shape="" offset="904" size="4" />
			<output>
				<port id="0" precision="FP32" />
			</output>
		</layer>
		<layer id="54" name="Constant_57879" type="Const" version="opset1">
			<data element_type="f32" shape="" offset="604" size="4" />
			<output>
				<port id="0" precision="FP32" />
			</output>
		</layer>
		<layer id="55" name="Constant_57880" type="Const" version="opset1">
			<data element_type="f32" shape="" offset="904" size="4" />
			<output>
				<port id="0" precision="FP32" />
			</output>
		</layer>
		<layer id="56" name="/backbone/features/features.1/conv/conv.2/Relu/fq_output_0" type="FakeQuantize" version="opset1">
			<data levels="256" auto_broadcast="numpy" />
			<input>
				<port id="0" precision="FP32">
					<dim>1</dim>
					<dim>16</dim>
					<dim>112</dim>
					<dim>112</dim>
				</port>
				<port id="1" precision="FP32" />
				<port id="2" precision="FP32" />
				<port id="3" precision="FP32" />
				<port id="4" precision="FP32" />
			</input>
			<output>
				<port id="5" precision="FP32">
					<dim>1</dim>
					<dim>16</dim>
					<dim>112</dim>
					<dim>112</dim>
				</port>
			</output>
		</layer>
		<layer id="57" name="onnx::Conv_914" type="Const" version="opset1">
			<data element_type="i8" shape="16, 16, 1, 1" offset="908" size="256" />
			<output>
				<port id="0" precision="I8">
					<dim>16</dim>
					<dim>16</dim>
					<dim>1</dim>
					<dim>1</dim>
				</port>
			</output>
		</layer>
		<layer id="58" name="Convert_255279" type="Convert" version="opset1">
			<data destination_type="f32" />
			<input>
				<port id="0" precision="I8">
					<dim>16</dim>
					<dim>16</dim>
					<dim>1</dim>
					<dim>1</dim>
				</port>
			</input>
			<output>
				<port id="1" precision="FP32">
					<dim>16</dim>
					<dim>16</dim>
					<dim>1</dim>
					<dim>1</dim>
				</port>
			</output>
		</layer>
		<layer id="59" name="Constant_255177" type="Const" version="opset1">
			<data element_type="f32" shape="16, 1, 1, 1" offset="1164" size="64" />
			<output>
				<port id="0" precision="FP32">
					<dim>16</dim>
					<dim>1</dim>
					<dim>1</dim>
					<dim>1</dim>
				</port>
			</output>
		</layer>
		<layer id="60" name="/backbone/features/features.1/conv/conv.4/Conv/WithoutBiases/fq_weights_1" type="Multiply" version="opset1">
			<data auto_broadcast="numpy" />
			<input>
				<port id="0" precision="FP32">
					<dim>16</dim>
					<dim>16</dim>
					<dim>1</dim>
					<dim>1</dim>
				</port>
				<port id="1" precision="FP32">
					<dim>16</dim>
					<dim>1</dim>
					<dim>1</dim>
					<dim>1</dim>
				</port>
			</input>
			<output>
				<port id="2" precision="FP32">
					<dim>16</dim>
					<dim>16</dim>
					<dim>1</dim>
					<dim>1</dim>
				</port>
			</output>
		</layer>
		<layer id="61" name="/backbone/features/features.1/conv/conv.4/Conv/WithoutBiases" type="Convolution" version="opset1">
			<data strides="1, 1" dilations="1, 1" pads_begin="0, 0" pads_end="0, 0" auto_pad="explicit" />
			<input>
				<port id="0" precision="FP32">
					<dim>1</dim>
					<dim>16</dim>
					<dim>112</dim>
					<dim>112</dim>
				</port>
				<port id="1" precision="FP32">
					<dim>16</dim>
					<dim>16</dim>
					<dim>1</dim>
					<dim>1</dim>
				</port>
			</input>
			<output>
				<port id="2" precision="FP32">
					<dim>1</dim>
					<dim>16</dim>
					<dim>112</dim>
					<dim>112</dim>
				</port>
			</output>
		</layer>
		<layer id="62" name="Reshape_234" type="Const" version="opset1">
			<data element_type="f32" shape="1, 16, 1, 1" offset="1228" size="64" />
			<output>
				<port id="0" precision="FP32">
					<dim>1</dim>
					<dim>16</dim>
					<dim>1</dim>
					<dim>1</dim>
				</port>
			</output>
		</layer>
		<layer id="63" name="/backbone/features/features.1/conv/conv.4/Conv" type="Add" version="opset1">
			<data auto_broadcast="numpy" />
			<input>
				<port id="0" precision="FP32">
					<dim>1</dim>
					<dim>16</dim>
					<dim>112</dim>
					<dim>112</dim>
				</port>
				<port id="1" precision="FP32">
					<dim>1</dim>
					<dim>16</dim>
					<dim>1</dim>
					<dim>1</dim>
				</port>
			</input>
			<output>
				<port id="2" precision="FP32" names="/backbone/features/features.1/conv/conv.4/Conv_output_0">
					<dim>1</dim>
					<dim>16</dim>
					<dim>112</dim>
					<dim>112</dim>
				</port>
			</output>
		</layer>
		<layer id="64" name="Constant_57887" type="Const" version="opset1">
			<data element_type="f32" shape="" offset="1292" size="4" />
			<output>
				<port id="0" precision="FP32" />
			</output>
		</layer>
		<layer id="65" name="Constant_57888" type="Const" version="opset1">
			<data element_type="f32" shape="" offset="1296" size="4" />
			<output>
				<port id="0" precision="FP32" />
			</output>
		</layer>
		<layer id="66" name="Constant_57889" type="Const" version="opset1">
			<data element_type="f32" shape="" offset="1292" size="4" />
			<output>
				<port id="0" precision="FP32" />
			</output>
		</layer>
		<layer id="67" name="Constant_57890" type="Const" version="opset1">
			<data element_type="f32" shape="" offset="1296" size="4" />
			<output>
				<port id="0" precision="FP32" />
			</output>
		</layer>
		<layer id="68" name="/backbone/features/features.1/conv/conv.4/Conv/fq_output_0" type="FakeQuantize" version="opset1">
			<data levels="256" auto_broadcast="numpy" />
			<input>
				<port id="0" precision="FP32">
					<dim>1</dim>
					<dim>16</dim>
					<dim>112</dim>
					<dim>112</dim>
				</port>
				<port id="1" precision="FP32" />
				<port id="2" precision="FP32" />
				<port id="3" precision="FP32" />
				<port id="4" precision="FP32" />
			</input>
			<output>
				<port id="5" precision="FP32">
					<dim>1</dim>
					<dim>16</dim>
					<dim>112</dim>
					<dim>112</dim>
				</port>
			</output>
		</layer>
		<layer id="69" name="/backbone/features/features.1/Add" type="Add" version="opset1">
			<data auto_broadcast="numpy" />
			<input>
				<port id="0" precision="FP32">
					<dim>1</dim>
					<dim>16</dim>
					<dim>112</dim>
					<dim>112</dim>
				</port>
				<port id="1" precision="FP32">
					<dim>1</dim>
					<dim>16</dim>
					<dim>112</dim>
					<dim>112</dim>
				</port>
			</input>
			<output>
				<port id="2" precision="FP32" names="/backbone/features/features.1/Add_output_0">
					<dim>1</dim>
					<dim>16</dim>
					<dim>112</dim>
					<dim>112</dim>
				</port>
			</output>
		</layer>
		<layer id="70" name="Constant_57892" type="Const" version="opset1">
			<data element_type="f32" shape="" offset="1300" size="4" />
			<output>
				<port id="0" precision="FP32" />
			</output>
		</layer>
		<layer id="71" name="Constant_57893" type="Const" version="opset1">
			<data element_type="f32" shape="" offset="1304" size="4" />
			<output>
				<port id="0" precision="FP32" />
			</output>
		</layer>
		<layer id="72" name="Constant_57894" type="Const" version="opset1">
			<data element_type="f32" shape="" offset="1300" size="4" />
			<output>
				<port id="0" precision="FP32" />
			</output>
		</layer>
		<layer id="73" name="Constant_57895" type="Const" version="opset1">
			<data element_type="f32" shape="" offset="1304" size="4" />
			<output>
				<port id="0" precision="FP32" />
			</output>
		</layer>
		<layer id="74" name="/backbone/features/features.1/Add/fq_output_0" type="FakeQuantize" version="opset1">
			<data levels="256" auto_broadcast="numpy" />
			<input>
				<port id="0" precision="FP32">
					<dim>1</dim>
					<dim>16</dim>
					<dim>112</dim>
					<dim>112</dim>
				</port>
				<port id="1" precision="FP32" />
				<port id="2" precision="FP32" />
				<port id="3" precision="FP32" />
				<port id="4" precision="FP32" />
			</input>
			<output>
				<port id="5" precision="FP32">
					<dim>1</dim>
					<dim>16</dim>
					<dim>112</dim>
					<dim>112</dim>
				</port>
			</output>
		</layer>
		<layer id="75" name="onnx::Conv_917" type="Const" version="opset1">
			<data element_type="i8" shape="64, 16, 1, 1" offset="1308" size="1024" />
			<output>
				<port id="0" precision="I8">
					<dim>64</dim>
					<dim>16</dim>
					<dim>1</dim>
					<dim>1</dim>
				</port>
			</output>
		</layer>
		<layer id="76" name="Convert_255433" type="Convert" version="opset1">
			<data destination_type="f32" />
			<input>
				<port id="0" precision="I8">
					<dim>64</dim>
					<dim>16</dim>
					<dim>1</dim>
					<dim>1</dim>
				</port>
			</input>
			<output>
				<port id="1" precision="FP32">
					<dim>64</dim>
					<dim>16</dim>
					<dim>1</dim>
					<dim>1</dim>
				</port>
			</output>
		</layer>
		<layer id="77" name="Constant_255331" type="Const" version="opset1">
			<data element_type="f32" shape="64, 1, 1, 1" offset="2332" size="256" />
			<output>
				<port id="0" precision="FP32">
					<dim>64</dim>
					<dim>1</dim>
					<dim>1</dim>
					<dim>1</dim>
				</port>
			</output>
		</layer>
		<layer id="78" name="/backbone/features/features.2/conv/conv.0/Conv/WithoutBiases/fq_weights_1" type="Multiply" version="opset1">
			<data auto_broadcast="numpy" />
			<input>
				<port id="0" precision="FP32">
					<dim>64</dim>
					<dim>16</dim>
					<dim>1</dim>
					<dim>1</dim>
				</port>
				<port id="1" precision="FP32">
					<dim>64</dim>
					<dim>1</dim>
					<dim>1</dim>
					<dim>1</dim>
				</port>
			</input>
			<output>
				<port id="2" precision="FP32">
					<dim>64</dim>
					<dim>16</dim>
					<dim>1</dim>
					<dim>1</dim>
				</port>
			</output>
		</layer>
		<layer id="79" name="/backbone/features/features.2/conv/conv.0/Conv/WithoutBiases" type="Convolution" version="opset1">
			<data strides="1, 1" dilations="1, 1" pads_begin="0, 0" pads_end="0, 0" auto_pad="explicit" />
			<input>
				<port id="0" precision="FP32">
					<dim>1</dim>
					<dim>16</dim>
					<dim>112</dim>
					<dim>112</dim>
				</port>
				<port id="1" precision="FP32">
					<dim>64</dim>
					<dim>16</dim>
					<dim>1</dim>
					<dim>1</dim>
				</port>
			</input>
			<output>
				<port id="2" precision="FP32">
					<dim>1</dim>
					<dim>64</dim>
					<dim>112</dim>
					<dim>112</dim>
				</port>
			</output>
		</layer>
		<layer id="80" name="Reshape_250" type="Const" version="opset1">
			<data element_type="f32" shape="1, 64, 1, 1" offset="2588" size="256" />
			<output>
				<port id="0" precision="FP32">
					<dim>1</dim>
					<dim>64</dim>
					<dim>1</dim>
					<dim>1</dim>
				</port>
			</output>
		</layer>
		<layer id="81" name="/backbone/features/features.2/conv/conv.0/Conv" type="Add" version="opset1">
			<data auto_broadcast="numpy" />
			<input>
				<port id="0" precision="FP32">
					<dim>1</dim>
					<dim>64</dim>
					<dim>112</dim>
					<dim>112</dim>
				</port>
				<port id="1" precision="FP32">
					<dim>1</dim>
					<dim>64</dim>
					<dim>1</dim>
					<dim>1</dim>
				</port>
			</input>
			<output>
				<port id="2" precision="FP32" names="/backbone/features/features.2/conv/conv.0/Conv_output_0">
					<dim>1</dim>
					<dim>64</dim>
					<dim>112</dim>
					<dim>112</dim>
				</port>
			</output>
		</layer>
		<layer id="82" name="/backbone/features/features.2/conv/conv.2/Relu" type="ReLU" version="opset1">
			<input>
				<port id="0" precision="FP32">
					<dim>1</dim>
					<dim>64</dim>
					<dim>112</dim>
					<dim>112</dim>
				</port>
			</input>
			<output>
				<port id="1" precision="FP32" names="/backbone/features/features.2/conv/conv.2/Relu_output_0">
					<dim>1</dim>
					<dim>64</dim>
					<dim>112</dim>
					<dim>112</dim>
				</port>
			</output>
		</layer>
		<layer id="83" name="Constant_57902" type="Const" version="opset1">
			<data element_type="f32" shape="1, 64, 1, 1" offset="2844" size="256" />
			<output>
				<port id="0" precision="FP32">
					<dim>1</dim>
					<dim>64</dim>
					<dim>1</dim>
					<dim>1</dim>
				</port>
			</output>
		</layer>
		<layer id="84" name="Constant_57903" type="Const" version="opset1">
			<data element_type="f32" shape="1, 64, 1, 1" offset="3100" size="256" />
			<output>
				<port id="0" precision="FP32">
					<dim>1</dim>
					<dim>64</dim>
					<dim>1</dim>
					<dim>1</dim>
				</port>
			</output>
		</layer>
		<layer id="85" name="Constant_57904" type="Const" version="opset1">
			<data element_type="f32" shape="1, 64, 1, 1" offset="2844" size="256" />
			<output>
				<port id="0" precision="FP32">
					<dim>1</dim>
					<dim>64</dim>
					<dim>1</dim>
					<dim>1</dim>
				</port>
			</output>
		</layer>
		<layer id="86" name="Constant_57905" type="Const" version="opset1">
			<data element_type="f32" shape="1, 64, 1, 1" offset="3100" size="256" />
			<output>
				<port id="0" precision="FP32">
					<dim>1</dim>
					<dim>64</dim>
					<dim>1</dim>
					<dim>1</dim>
				</port>
			</output>
		</layer>
		<layer id="87" name="/backbone/features/features.2/conv/conv.2/Relu/fq_output_0" type="FakeQuantize" version="opset1">
			<data levels="256" auto_broadcast="numpy" />
			<input>
				<port id="0" precision="FP32">
					<dim>1</dim>
					<dim>64</dim>
					<dim>112</dim>
					<dim>112</dim>
				</port>
				<port id="1" precision="FP32">
					<dim>1</dim>
					<dim>64</dim>
					<dim>1</dim>
					<dim>1</dim>
				</port>
				<port id="2" precision="FP32">
					<dim>1</dim>
					<dim>64</dim>
					<dim>1</dim>
					<dim>1</dim>
				</port>
				<port id="3" precision="FP32">
					<dim>1</dim>
					<dim>64</dim>
					<dim>1</dim>
					<dim>1</dim>
				</port>
				<port id="4" precision="FP32">
					<dim>1</dim>
					<dim>64</dim>
					<dim>1</dim>
					<dim>1</dim>
				</port>
			</input>
			<output>
				<port id="5" precision="FP32">
					<dim>1</dim>
					<dim>64</dim>
					<dim>112</dim>
					<dim>112</dim>
				</port>
			</output>
		</layer>
		<layer id="88" name="Reshape_262" type="Const" version="opset1">
			<data element_type="i8" shape="64, 1, 1, 3, 3" offset="3356" size="576" />
			<output>
				<port id="0" precision="I8">
					<dim>64</dim>
					<dim>1</dim>
					<dim>1</dim>
					<dim>3</dim>
					<dim>3</dim>
				</port>
			</output>
		</layer>
		<layer id="89" name="Convert_255587" type="Convert" version="opset1">
			<data destination_type="f32" />
			<input>
				<port id="0" precision="I8">
					<dim>64</dim>
					<dim>1</dim>
					<dim>1</dim>
					<dim>3</dim>
					<dim>3</dim>
				</port>
			</input>
			<output>
				<port id="1" precision="FP32">
					<dim>64</dim>
					<dim>1</dim>
					<dim>1</dim>
					<dim>3</dim>
					<dim>3</dim>
				</port>
			</output>
		</layer>
		<layer id="90" name="Constant_255485" type="Const" version="opset1">
			<data element_type="f32" shape="64, 1, 1, 1, 1" offset="3932" size="256" />
			<output>
				<port id="0" precision="FP32">
					<dim>64</dim>
					<dim>1</dim>
					<dim>1</dim>
					<dim>1</dim>
					<dim>1</dim>
				</port>
			</output>
		</layer>
		<layer id="91" name="/backbone/features/features.2/conv/conv.3/Conv/WithoutBiases/fq_weights_1" type="Multiply" version="opset1">
			<data auto_broadcast="numpy" />
			<input>
				<port id="0" precision="FP32">
					<dim>64</dim>
					<dim>1</dim>
					<dim>1</dim>
					<dim>3</dim>
					<dim>3</dim>
				</port>
				<port id="1" precision="FP32">
					<dim>64</dim>
					<dim>1</dim>
					<dim>1</dim>
					<dim>1</dim>
					<dim>1</dim>
				</port>
			</input>
			<output>
				<port id="2" precision="FP32">
					<dim>64</dim>
					<dim>1</dim>
					<dim>1</dim>
					<dim>3</dim>
					<dim>3</dim>
				</port>
			</output>
		</layer>
		<layer id="92" name="/backbone/features/features.2/conv/conv.3/Conv/WithoutBiases" type="GroupConvolution" version="opset1">
			<data strides="2, 2" pads_begin="1, 1" pads_end="1, 1" dilations="1, 1" auto_pad="explicit" />
			<input>
				<port id="0" precision="FP32">
					<dim>1</dim>
					<dim>64</dim>
					<dim>112</dim>
					<dim>112</dim>
				</port>
				<port id="1" precision="FP32">
					<dim>64</dim>
					<dim>1</dim>
					<dim>1</dim>
					<dim>3</dim>
					<dim>3</dim>
				</port>
			</input>
			<output>
				<port id="2" precision="FP32">
					<dim>1</dim>
					<dim>64</dim>
					<dim>56</dim>
					<dim>56</dim>
				</port>
			</output>
		</layer>
		<layer id="93" name="Reshape_314" type="Const" version="opset1">
			<data element_type="f32" shape="1, 64, 1, 1" offset="4188" size="256" />
			<output>
				<port id="0" precision="FP32">
					<dim>1</dim>
					<dim>64</dim>
					<dim>1</dim>
					<dim>1</dim>
				</port>
			</output>
		</layer>
		<layer id="94" name="/backbone/features/features.2/conv/conv.3/Conv" type="Add" version="opset1">
			<data auto_broadcast="numpy" />
			<input>
				<port id="0" precision="FP32">
					<dim>1</dim>
					<dim>64</dim>
					<dim>56</dim>
					<dim>56</dim>
				</port>
				<port id="1" precision="FP32">
					<dim>1</dim>
					<dim>64</dim>
					<dim>1</dim>
					<dim>1</dim>
				</port>
			</input>
			<output>
				<port id="2" precision="FP32" names="/backbone/features/features.2/conv/conv.3/Conv_output_0">
					<dim>1</dim>
					<dim>64</dim>
					<dim>56</dim>
					<dim>56</dim>
				</port>
			</output>
		</layer>
		<layer id="95" name="/backbone/features/features.2/conv/conv.6/Relu" type="ReLU" version="opset1">
			<input>
				<port id="0" precision="FP32">
					<dim>1</dim>
					<dim>64</dim>
					<dim>56</dim>
					<dim>56</dim>
				</port>
			</input>
			<output>
				<port id="1" precision="FP32" names="/backbone/features/features.2/conv/conv.6/Relu_output_0">
					<dim>1</dim>
					<dim>64</dim>
					<dim>56</dim>
					<dim>56</dim>
				</port>
			</output>
		</layer>
		<layer id="96" name="Constant_57912" type="Const" version="opset1">
			<data element_type="f32" shape="" offset="604" size="4" />
			<output>
				<port id="0" precision="FP32" />
			</output>
		</layer>
		<layer id="97" name="Constant_57913" type="Const" version="opset1">
			<data element_type="f32" shape="" offset="4444" size="4" />
			<output>
				<port id="0" precision="FP32" />
			</output>
		</layer>
		<layer id="98" name="Constant_57914" type="Const" version="opset1">
			<data element_type="f32" shape="" offset="604" size="4" />
			<output>
				<port id="0" precision="FP32" />
			</output>
		</layer>
		<layer id="99" name="Constant_57915" type="Const" version="opset1">
			<data element_type="f32" shape="" offset="4444" size="4" />
			<output>
				<port id="0" precision="FP32" />
			</output>
		</layer>
		<layer id="100" name="/backbone/features/features.2/conv/conv.6/Relu/fq_output_0" type="FakeQuantize" version="opset1">
			<data levels="256" auto_broadcast="numpy" />
			<input>
				<port id="0" precision="FP32">
					<dim>1</dim>
					<dim>64</dim>
					<dim>56</dim>
					<dim>56</dim>
				</port>
				<port id="1" precision="FP32" />
				<port id="2" precision="FP32" />
				<port id="3" precision="FP32" />
				<port id="4" precision="FP32" />
			</input>
			<output>
				<port id="5" precision="FP32">
					<dim>1</dim>
					<dim>64</dim>
					<dim>56</dim>
					<dim>56</dim>
				</port>
			</output>
		</layer>
		<layer id="101" name="onnx::Conv_923" type="Const" version="opset1">
			<data element_type="i8" shape="24, 64, 1, 1" offset="4448" size="1536" />
			<output>
				<port id="0" precision="I8">
					<dim>24</dim>
					<dim>64</dim>
					<dim>1</dim>
					<dim>1</dim>
				</port>
			</output>
		</layer>
		<layer id="102" name="Convert_255741" type="Convert" version="opset1">
			<data destination_type="f32" />
			<input>
				<port id="0" precision="I8">
					<dim>24</dim>
					<dim>64</dim>
					<dim>1</dim>
					<dim>1</dim>
				</port>
			</input>
			<output>
				<port id="1" precision="FP32">
					<dim>24</dim>
					<dim>64</dim>
					<dim>1</dim>
					<dim>1</dim>
				</port>
			</output>
		</layer>
		<layer id="103" name="Constant_255639" type="Const" version="opset1">
			<data element_type="f32" shape="24, 1, 1, 1" offset="5984" size="96" />
			<output>
				<port id="0" precision="FP32">
					<dim>24</dim>
					<dim>1</dim>
					<dim>1</dim>
					<dim>1</dim>
				</port>
			</output>
		</layer>
		<layer id="104" name="/backbone/features/features.2/conv/conv.7/Conv/WithoutBiases/fq_weights_1" type="Multiply" version="opset1">
			<data auto_broadcast="numpy" />
			<input>
				<port id="0" precision="FP32">
					<dim>24</dim>
					<dim>64</dim>
					<dim>1</dim>
					<dim>1</dim>
				</port>
				<port id="1" precision="FP32">
					<dim>24</dim>
					<dim>1</dim>
					<dim>1</dim>
					<dim>1</dim>
				</port>
			</input>
			<output>
				<port id="2" precision="FP32">
					<dim>24</dim>
					<dim>64</dim>
					<dim>1</dim>
					<dim>1</dim>
				</port>
			</output>
		</layer>
		<layer id="105" name="/backbone/features/features.2/conv/conv.7/Conv/WithoutBiases" type="Convolution" version="opset1">
			<data strides="1, 1" dilations="1, 1" pads_begin="0, 0" pads_end="0, 0" auto_pad="explicit" />
			<input>
				<port id="0" precision="FP32">
					<dim>1</dim>
					<dim>64</dim>
					<dim>56</dim>
					<dim>56</dim>
				</port>
				<port id="1" precision="FP32">
					<dim>24</dim>
					<dim>64</dim>
					<dim>1</dim>
					<dim>1</dim>
				</port>
			</input>
			<output>
				<port id="2" precision="FP32">
					<dim>1</dim>
					<dim>24</dim>
					<dim>56</dim>
					<dim>56</dim>
				</port>
			</output>
		</layer>
		<layer id="106" name="Reshape_330" type="Const" version="opset1">
			<data element_type="f32" shape="1, 24, 1, 1" offset="6080" size="96" />
			<output>
				<port id="0" precision="FP32">
					<dim>1</dim>
					<dim>24</dim>
					<dim>1</dim>
					<dim>1</dim>
				</port>
			</output>
		</layer>
		<layer id="107" name="/backbone/features/features.2/conv/conv.7/Conv" type="Add" version="opset1">
			<data auto_broadcast="numpy" />
			<input>
				<port id="0" precision="FP32">
					<dim>1</dim>
					<dim>24</dim>
					<dim>56</dim>
					<dim>56</dim>
				</port>
				<port id="1" precision="FP32">
					<dim>1</dim>
					<dim>24</dim>
					<dim>1</dim>
					<dim>1</dim>
				</port>
			</input>
			<output>
				<port id="2" precision="FP32" names="/backbone/features/features.2/conv/conv.7/Conv_output_0">
					<dim>1</dim>
					<dim>24</dim>
					<dim>56</dim>
					<dim>56</dim>
				</port>
			</output>
		</layer>
		<layer id="108" name="Constant_57922" type="Const" version="opset1">
			<data element_type="f32" shape="" offset="6176" size="4" />
			<output>
				<port id="0" precision="FP32" />
			</output>
		</layer>
		<layer id="109" name="Constant_57923" type="Const" version="opset1">
			<data element_type="f32" shape="" offset="6180" size="4" />
			<output>
				<port id="0" precision="FP32" />
			</output>
		</layer>
		<layer id="110" name="Constant_57924" type="Const" version="opset1">
			<data element_type="f32" shape="" offset="6176" size="4" />
			<output>
				<port id="0" precision="FP32" />
			</output>
		</layer>
		<layer id="111" name="Constant_57925" type="Const" version="opset1">
			<data element_type="f32" shape="" offset="6180" size="4" />
			<output>
				<port id="0" precision="FP32" />
			</output>
		</layer>
		<layer id="112" name="/backbone/features/features.2/conv/conv.7/Conv/fq_output_0" type="FakeQuantize" version="opset1">
			<data levels="256" auto_broadcast="numpy" />
			<input>
				<port id="0" precision="FP32">
					<dim>1</dim>
					<dim>24</dim>
					<dim>56</dim>
					<dim>56</dim>
				</port>
				<port id="1" precision="FP32" />
				<port id="2" precision="FP32" />
				<port id="3" precision="FP32" />
				<port id="4" precision="FP32" />
			</input>
			<output>
				<port id="5" precision="FP32">
					<dim>1</dim>
					<dim>24</dim>
					<dim>56</dim>
					<dim>56</dim>
				</port>
			</output>
		</layer>
		<layer id="113" name="onnx::Conv_926" type="Const" version="opset1">
			<data element_type="i8" shape="72, 24, 1, 1" offset="6184" size="1728" />
			<output>
				<port id="0" precision="I8">
					<dim>72</dim>
					<dim>24</dim>
					<dim>1</dim>
					<dim>1</dim>
				</port>
			</output>
		</layer>
		<layer id="114" name="Convert_255895" type="Convert" version="opset1">
			<data destination_type="f32" />
			<input>
				<port id="0" precision="I8">
					<dim>72</dim>
					<dim>24</dim>
					<dim>1</dim>
					<dim>1</dim>
				</port>
			</input>
			<output>
				<port id="1" precision="FP32">
					<dim>72</dim>
					<dim>24</dim>
					<dim>1</dim>
					<dim>1</dim>
				</port>
			</output>
		</layer>
		<layer id="115" name="Constant_255793" type="Const" version="opset1">
			<data element_type="f32" shape="72, 1, 1, 1" offset="7912" size="288" />
			<output>
				<port id="0" precision="FP32">
					<dim>72</dim>
					<dim>1</dim>
					<dim>1</dim>
					<dim>1</dim>
				</port>
			</output>
		</layer>
		<layer id="116" name="/backbone/features/features.3/conv/conv.0/Conv/WithoutBiases/fq_weights_1" type="Multiply" version="opset1">
			<data auto_broadcast="numpy" />
			<input>
				<port id="0" precision="FP32">
					<dim>72</dim>
					<dim>24</dim>
					<dim>1</dim>
					<dim>1</dim>
				</port>
				<port id="1" precision="FP32">
					<dim>72</dim>
					<dim>1</dim>
					<dim>1</dim>
					<dim>1</dim>
				</port>
			</input>
			<output>
				<port id="2" precision="FP32">
					<dim>72</dim>
					<dim>24</dim>
					<dim>1</dim>
					<dim>1</dim>
				</port>
			</output>
		</layer>
		<layer id="117" name="/backbone/features/features.3/conv/conv.0/Conv/WithoutBiases" type="Convolution" version="opset1">
			<data strides="1, 1" dilations="1, 1" pads_begin="0, 0" pads_end="0, 0" auto_pad="explicit" />
			<input>
				<port id="0" precision="FP32">
					<dim>1</dim>
					<dim>24</dim>
					<dim>56</dim>
					<dim>56</dim>
				</port>
				<port id="1" precision="FP32">
					<dim>72</dim>
					<dim>24</dim>
					<dim>1</dim>
					<dim>1</dim>
				</port>
			</input>
			<output>
				<port id="2" precision="FP32">
					<dim>1</dim>
					<dim>72</dim>
					<dim>56</dim>
					<dim>56</dim>
				</port>
			</output>
		</layer>
		<layer id="118" name="Reshape_345" type="Const" version="opset1">
			<data element_type="f32" shape="1, 72, 1, 1" offset="8200" size="288" />
			<output>
				<port id="0" precision="FP32">
					<dim>1</dim>
					<dim>72</dim>
					<dim>1</dim>
					<dim>1</dim>
				</port>
			</output>
		</layer>
		<layer id="119" name="/backbone/features/features.3/conv/conv.0/Conv" type="Add" version="opset1">
			<data auto_broadcast="numpy" />
			<input>
				<port id="0" precision="FP32">
					<dim>1</dim>
					<dim>72</dim>
					<dim>56</dim>
					<dim>56</dim>
				</port>
				<port id="1" precision="FP32">
					<dim>1</dim>
					<dim>72</dim>
					<dim>1</dim>
					<dim>1</dim>
				</port>
			</input>
			<output>
				<port id="2" precision="FP32" names="/backbone/features/features.3/conv/conv.0/Conv_output_0">
					<dim>1</dim>
					<dim>72</dim>
					<dim>56</dim>
					<dim>56</dim>
				</port>
			</output>
		</layer>
		<layer id="120" name="/backbone/features/features.3/conv/conv.2/Relu" type="ReLU" version="opset1">
			<input>
				<port id="0" precision="FP32">
					<dim>1</dim>
					<dim>72</dim>
					<dim>56</dim>
					<dim>56</dim>
				</port>
			</input>
			<output>
				<port id="1" precision="FP32" names="/backbone/features/features.3/conv/conv.2/Relu_output_0">
					<dim>1</dim>
					<dim>72</dim>
					<dim>56</dim>
					<dim>56</dim>
				</port>
			</output>
		</layer>
		<layer id="121" name="Constant_57932" type="Const" version="opset1">
			<data element_type="f32" shape="1, 72, 1, 1" offset="8488" size="288" />
			<output>
				<port id="0" precision="FP32">
					<dim>1</dim>
					<dim>72</dim>
					<dim>1</dim>
					<dim>1</dim>
				</port>
			</output>
		</layer>
		<layer id="122" name="Constant_57933" type="Const" version="opset1">
			<data element_type="f32" shape="1, 72, 1, 1" offset="8776" size="288" />
			<output>
				<port id="0" precision="FP32">
					<dim>1</dim>
					<dim>72</dim>
					<dim>1</dim>
					<dim>1</dim>
				</port>
			</output>
		</layer>
		<layer id="123" name="Constant_57934" type="Const" version="opset1">
			<data element_type="f32" shape="1, 72, 1, 1" offset="8488" size="288" />
			<output>
				<port id="0" precision="FP32">
					<dim>1</dim>
					<dim>72</dim>
					<dim>1</dim>
					<dim>1</dim>
				</port>
			</output>
		</layer>
		<layer id="124" name="Constant_57935" type="Const" version="opset1">
			<data element_type="f32" shape="1, 72, 1, 1" offset="8776" size="288" />
			<output>
				<port id="0" precision="FP32">
					<dim>1</dim>
					<dim>72</dim>
					<dim>1</dim>
					<dim>1</dim>
				</port>
			</output>
		</layer>
		<layer id="125" name="/backbone/features/features.3/conv/conv.2/Relu/fq_output_0" type="FakeQuantize" version="opset1">
			<data levels="256" auto_broadcast="numpy" />
			<input>
				<port id="0" precision="FP32">
					<dim>1</dim>
					<dim>72</dim>
					<dim>56</dim>
					<dim>56</dim>
				</port>
				<port id="1" precision="FP32">
					<dim>1</dim>
					<dim>72</dim>
					<dim>1</dim>
					<dim>1</dim>
				</port>
				<port id="2" precision="FP32">
					<dim>1</dim>
					<dim>72</dim>
					<dim>1</dim>
					<dim>1</dim>
				</port>
				<port id="3" precision="FP32">
					<dim>1</dim>
					<dim>72</dim>
					<dim>1</dim>
					<dim>1</dim>
				</port>
				<port id="4" precision="FP32">
					<dim>1</dim>
					<dim>72</dim>
					<dim>1</dim>
					<dim>1</dim>
				</port>
			</input>
			<output>
				<port id="5" precision="FP32">
					<dim>1</dim>
					<dim>72</dim>
					<dim>56</dim>
					<dim>56</dim>
				</port>
			</output>
		</layer>
		<layer id="126" name="Reshape_357" type="Const" version="opset1">
			<data element_type="i8" shape="72, 1, 1, 3, 3" offset="9064" size="648" />
			<output>
				<port id="0" precision="I8">
					<dim>72</dim>
					<dim>1</dim>
					<dim>1</dim>
					<dim>3</dim>
					<dim>3</dim>
				</port>
			</output>
		</layer>
		<layer id="127" name="Convert_256049" type="Convert" version="opset1">
			<data destination_type="f32" />
			<input>
				<port id="0" precision="I8">
					<dim>72</dim>
					<dim>1</dim>
					<dim>1</dim>
					<dim>3</dim>
					<dim>3</dim>
				</port>
			</input>
			<output>
				<port id="1" precision="FP32">
					<dim>72</dim>
					<dim>1</dim>
					<dim>1</dim>
					<dim>3</dim>
					<dim>3</dim>
				</port>
			</output>
		</layer>
		<layer id="128" name="Constant_255947" type="Const" version="opset1">
			<data element_type="f32" shape="72, 1, 1, 1, 1" offset="9712" size="288" />
			<output>
				<port id="0" precision="FP32">
					<dim>72</dim>
					<dim>1</dim>
					<dim>1</dim>
					<dim>1</dim>
					<dim>1</dim>
				</port>
			</output>
		</layer>
		<layer id="129" name="/backbone/features/features.3/conv/conv.3/Conv/WithoutBiases/fq_weights_1" type="Multiply" version="opset1">
			<data auto_broadcast="numpy" />
			<input>
				<port id="0" precision="FP32">
					<dim>72</dim>
					<dim>1</dim>
					<dim>1</dim>
					<dim>3</dim>
					<dim>3</dim>
				</port>
				<port id="1" precision="FP32">
					<dim>72</dim>
					<dim>1</dim>
					<dim>1</dim>
					<dim>1</dim>
					<dim>1</dim>
				</port>
			</input>
			<output>
				<port id="2" precision="FP32">
					<dim>72</dim>
					<dim>1</dim>
					<dim>1</dim>
					<dim>3</dim>
					<dim>3</dim>
				</port>
			</output>
		</layer>
		<layer id="130" name="/backbone/features/features.3/conv/conv.3/Conv/WithoutBiases" type="GroupConvolution" version="opset1">
			<data strides="1, 1" pads_begin="1, 1" pads_end="1, 1" dilations="1, 1" auto_pad="explicit" />
			<input>
				<port id="0" precision="FP32">
					<dim>1</dim>
					<dim>72</dim>
					<dim>56</dim>
					<dim>56</dim>
				</port>
				<port id="1" precision="FP32">
					<dim>72</dim>
					<dim>1</dim>
					<dim>1</dim>
					<dim>3</dim>
					<dim>3</dim>
				</port>
			</input>
			<output>
				<port id="2" precision="FP32">
					<dim>1</dim>
					<dim>72</dim>
					<dim>56</dim>
					<dim>56</dim>
				</port>
			</output>
		</layer>
		<layer id="131" name="Reshape_409" type="Const" version="opset1">
			<data element_type="f32" shape="1, 72, 1, 1" offset="10000" size="288" />
			<output>
				<port id="0" precision="FP32">
					<dim>1</dim>
					<dim>72</dim>
					<dim>1</dim>
					<dim>1</dim>
				</port>
			</output>
		</layer>
		<layer id="132" name="/backbone/features/features.3/conv/conv.3/Conv" type="Add" version="opset1">
			<data auto_broadcast="numpy" />
			<input>
				<port id="0" precision="FP32">
					<dim>1</dim>
					<dim>72</dim>
					<dim>56</dim>
					<dim>56</dim>
				</port>
				<port id="1" precision="FP32">
					<dim>1</dim>
					<dim>72</dim>
					<dim>1</dim>
					<dim>1</dim>
				</port>
			</input>
			<output>
				<port id="2" precision="FP32" names="/backbone/features/features.3/conv/conv.3/Conv_output_0">
					<dim>1</dim>
					<dim>72</dim>
					<dim>56</dim>
					<dim>56</dim>
				</port>
			</output>
		</layer>
		<layer id="133" name="/backbone/features/features.3/conv/conv.6/Relu" type="ReLU" version="opset1">
			<input>
				<port id="0" precision="FP32">
					<dim>1</dim>
					<dim>72</dim>
					<dim>56</dim>
					<dim>56</dim>
				</port>
			</input>
			<output>
				<port id="1" precision="FP32" names="/backbone/features/features.3/conv/conv.6/Relu_output_0">
					<dim>1</dim>
					<dim>72</dim>
					<dim>56</dim>
					<dim>56</dim>
				</port>
			</output>
		</layer>
		<layer id="134" name="Constant_57942" type="Const" version="opset1">
			<data element_type="f32" shape="" offset="604" size="4" />
			<output>
				<port id="0" precision="FP32" />
			</output>
		</layer>
		<layer id="135" name="Constant_57943" type="Const" version="opset1">
			<data element_type="f32" shape="" offset="10288" size="4" />
			<output>
				<port id="0" precision="FP32" />
			</output>
		</layer>
		<layer id="136" name="Constant_57944" type="Const" version="opset1">
			<data element_type="f32" shape="" offset="604" size="4" />
			<output>
				<port id="0" precision="FP32" />
			</output>
		</layer>
		<layer id="137" name="Constant_57945" type="Const" version="opset1">
			<data element_type="f32" shape="" offset="10288" size="4" />
			<output>
				<port id="0" precision="FP32" />
			</output>
		</layer>
		<layer id="138" name="/backbone/features/features.3/conv/conv.6/Relu/fq_output_0" type="FakeQuantize" version="opset1">
			<data levels="256" auto_broadcast="numpy" />
			<input>
				<port id="0" precision="FP32">
					<dim>1</dim>
					<dim>72</dim>
					<dim>56</dim>
					<dim>56</dim>
				</port>
				<port id="1" precision="FP32" />
				<port id="2" precision="FP32" />
				<port id="3" precision="FP32" />
				<port id="4" precision="FP32" />
			</input>
			<output>
				<port id="5" precision="FP32">
					<dim>1</dim>
					<dim>72</dim>
					<dim>56</dim>
					<dim>56</dim>
				</port>
			</output>
		</layer>
		<layer id="139" name="onnx::Conv_932" type="Const" version="opset1">
			<data element_type="i8" shape="24, 72, 1, 1" offset="10292" size="1728" />
			<output>
				<port id="0" precision="I8">
					<dim>24</dim>
					<dim>72</dim>
					<dim>1</dim>
					<dim>1</dim>
				</port>
			</output>
		</layer>
		<layer id="140" name="Convert_256203" type="Convert" version="opset1">
			<data destination_type="f32" />
			<input>
				<port id="0" precision="I8">
					<dim>24</dim>
					<dim>72</dim>
					<dim>1</dim>
					<dim>1</dim>
				</port>
			</input>
			<output>
				<port id="1" precision="FP32">
					<dim>24</dim>
					<dim>72</dim>
					<dim>1</dim>
					<dim>1</dim>
				</port>
			</output>
		</layer>
		<layer id="141" name="Constant_256101" type="Const" version="opset1">
			<data element_type="f32" shape="24, 1, 1, 1" offset="12020" size="96" />
			<output>
				<port id="0" precision="FP32">
					<dim>24</dim>
					<dim>1</dim>
					<dim>1</dim>
					<dim>1</dim>
				</port>
			</output>
		</layer>
		<layer id="142" name="/backbone/features/features.3/conv/conv.7/Conv/WithoutBiases/fq_weights_1" type="Multiply" version="opset1">
			<data auto_broadcast="numpy" />
			<input>
				<port id="0" precision="FP32">
					<dim>24</dim>
					<dim>72</dim>
					<dim>1</dim>
					<dim>1</dim>
				</port>
				<port id="1" precision="FP32">
					<dim>24</dim>
					<dim>1</dim>
					<dim>1</dim>
					<dim>1</dim>
				</port>
			</input>
			<output>
				<port id="2" precision="FP32">
					<dim>24</dim>
					<dim>72</dim>
					<dim>1</dim>
					<dim>1</dim>
				</port>
			</output>
		</layer>
		<layer id="143" name="/backbone/features/features.3/conv/conv.7/Conv/WithoutBiases" type="Convolution" version="opset1">
			<data strides="1, 1" dilations="1, 1" pads_begin="0, 0" pads_end="0, 0" auto_pad="explicit" />
			<input>
				<port id="0" precision="FP32">
					<dim>1</dim>
					<dim>72</dim>
					<dim>56</dim>
					<dim>56</dim>
				</port>
				<port id="1" precision="FP32">
					<dim>24</dim>
					<dim>72</dim>
					<dim>1</dim>
					<dim>1</dim>
				</port>
			</input>
			<output>
				<port id="2" precision="FP32">
					<dim>1</dim>
					<dim>24</dim>
					<dim>56</dim>
					<dim>56</dim>
				</port>
			</output>
		</layer>
		<layer id="144" name="Reshape_425" type="Const" version="opset1">
			<data element_type="f32" shape="1, 24, 1, 1" offset="12116" size="96" />
			<output>
				<port id="0" precision="FP32">
					<dim>1</dim>
					<dim>24</dim>
					<dim>1</dim>
					<dim>1</dim>
				</port>
			</output>
		</layer>
		<layer id="145" name="/backbone/features/features.3/conv/conv.7/Conv" type="Add" version="opset1">
			<data auto_broadcast="numpy" />
			<input>
				<port id="0" precision="FP32">
					<dim>1</dim>
					<dim>24</dim>
					<dim>56</dim>
					<dim>56</dim>
				</port>
				<port id="1" precision="FP32">
					<dim>1</dim>
					<dim>24</dim>
					<dim>1</dim>
					<dim>1</dim>
				</port>
			</input>
			<output>
				<port id="2" precision="FP32" names="/backbone/features/features.3/conv/conv.7/Conv_output_0">
					<dim>1</dim>
					<dim>24</dim>
					<dim>56</dim>
					<dim>56</dim>
				</port>
			</output>
		</layer>
		<layer id="146" name="Constant_57952" type="Const" version="opset1">
			<data element_type="f32" shape="" offset="12212" size="4" />
			<output>
				<port id="0" precision="FP32" />
			</output>
		</layer>
		<layer id="147" name="Constant_57953" type="Const" version="opset1">
			<data element_type="f32" shape="" offset="12216" size="4" />
			<output>
				<port id="0" precision="FP32" />
			</output>
		</layer>
		<layer id="148" name="Constant_57954" type="Const" version="opset1">
			<data element_type="f32" shape="" offset="12212" size="4" />
			<output>
				<port id="0" precision="FP32" />
			</output>
		</layer>
		<layer id="149" name="Constant_57955" type="Const" version="opset1">
			<data element_type="f32" shape="" offset="12216" size="4" />
			<output>
				<port id="0" precision="FP32" />
			</output>
		</layer>
		<layer id="150" name="/backbone/features/features.3/conv/conv.7/Conv/fq_output_0" type="FakeQuantize" version="opset1">
			<data levels="256" auto_broadcast="numpy" />
			<input>
				<port id="0" precision="FP32">
					<dim>1</dim>
					<dim>24</dim>
					<dim>56</dim>
					<dim>56</dim>
				</port>
				<port id="1" precision="FP32" />
				<port id="2" precision="FP32" />
				<port id="3" precision="FP32" />
				<port id="4" precision="FP32" />
			</input>
			<output>
				<port id="5" precision="FP32">
					<dim>1</dim>
					<dim>24</dim>
					<dim>56</dim>
					<dim>56</dim>
				</port>
			</output>
		</layer>
		<layer id="151" name="/backbone/features/features.3/Add" type="Add" version="opset1">
			<data auto_broadcast="numpy" />
			<input>
				<port id="0" precision="FP32">
					<dim>1</dim>
					<dim>24</dim>
					<dim>56</dim>
					<dim>56</dim>
				</port>
				<port id="1" precision="FP32">
					<dim>1</dim>
					<dim>24</dim>
					<dim>56</dim>
					<dim>56</dim>
				</port>
			</input>
			<output>
				<port id="2" precision="FP32" names="/backbone/features/features.3/Add_output_0">
					<dim>1</dim>
					<dim>24</dim>
					<dim>56</dim>
					<dim>56</dim>
				</port>
			</output>
		</layer>
		<layer id="152" name="Constant_57957" type="Const" version="opset1">
			<data element_type="f32" shape="" offset="12220" size="4" />
			<output>
				<port id="0" precision="FP32" />
			</output>
		</layer>
		<layer id="153" name="Constant_57958" type="Const" version="opset1">
			<data element_type="f32" shape="" offset="12224" size="4" />
			<output>
				<port id="0" precision="FP32" />
			</output>
		</layer>
		<layer id="154" name="Constant_57959" type="Const" version="opset1">
			<data element_type="f32" shape="" offset="12220" size="4" />
			<output>
				<port id="0" precision="FP32" />
			</output>
		</layer>
		<layer id="155" name="Constant_57960" type="Const" version="opset1">
			<data element_type="f32" shape="" offset="12224" size="4" />
			<output>
				<port id="0" precision="FP32" />
			</output>
		</layer>
		<layer id="156" name="/backbone/features/features.3/Add/fq_output_0" type="FakeQuantize" version="opset1">
			<data levels="256" auto_broadcast="numpy" />
			<input>
				<port id="0" precision="FP32">
					<dim>1</dim>
					<dim>24</dim>
					<dim>56</dim>
					<dim>56</dim>
				</port>
				<port id="1" precision="FP32" />
				<port id="2" precision="FP32" />
				<port id="3" precision="FP32" />
				<port id="4" precision="FP32" />
			</input>
			<output>
				<port id="5" precision="FP32">
					<dim>1</dim>
					<dim>24</dim>
					<dim>56</dim>
					<dim>56</dim>
				</port>
			</output>
		</layer>
		<layer id="157" name="onnx::Conv_935" type="Const" version="opset1">
			<data element_type="i8" shape="72, 24, 1, 1" offset="12228" size="1728" />
			<output>
				<port id="0" precision="I8">
					<dim>72</dim>
					<dim>24</dim>
					<dim>1</dim>
					<dim>1</dim>
				</port>
			</output>
		</layer>
		<layer id="158" name="Convert_256357" type="Convert" version="opset1">
			<data destination_type="f32" />
			<input>
				<port id="0" precision="I8">
					<dim>72</dim>
					<dim>24</dim>
					<dim>1</dim>
					<dim>1</dim>
				</port>
			</input>
			<output>
				<port id="1" precision="FP32">
					<dim>72</dim>
					<dim>24</dim>
					<dim>1</dim>
					<dim>1</dim>
				</port>
			</output>
		</layer>
		<layer id="159" name="Constant_256255" type="Const" version="opset1">
			<data element_type="f32" shape="72, 1, 1, 1" offset="13956" size="288" />
			<output>
				<port id="0" precision="FP32">
					<dim>72</dim>
					<dim>1</dim>
					<dim>1</dim>
					<dim>1</dim>
				</port>
			</output>
		</layer>
		<layer id="160" name="/backbone/features/features.4/conv/conv.0/Conv/WithoutBiases/fq_weights_1" type="Multiply" version="opset1">
			<data auto_broadcast="numpy" />
			<input>
				<port id="0" precision="FP32">
					<dim>72</dim>
					<dim>24</dim>
					<dim>1</dim>
					<dim>1</dim>
				</port>
				<port id="1" precision="FP32">
					<dim>72</dim>
					<dim>1</dim>
					<dim>1</dim>
					<dim>1</dim>
				</port>
			</input>
			<output>
				<port id="2" precision="FP32">
					<dim>72</dim>
					<dim>24</dim>
					<dim>1</dim>
					<dim>1</dim>
				</port>
			</output>
		</layer>
		<layer id="161" name="/backbone/features/features.4/conv/conv.0/Conv/WithoutBiases" type="Convolution" version="opset1">
			<data strides="1, 1" dilations="1, 1" pads_begin="0, 0" pads_end="0, 0" auto_pad="explicit" />
			<input>
				<port id="0" precision="FP32">
					<dim>1</dim>
					<dim>24</dim>
					<dim>56</dim>
					<dim>56</dim>
				</port>
				<port id="1" precision="FP32">
					<dim>72</dim>
					<dim>24</dim>
					<dim>1</dim>
					<dim>1</dim>
				</port>
			</input>
			<output>
				<port id="2" precision="FP32">
					<dim>1</dim>
					<dim>72</dim>
					<dim>56</dim>
					<dim>56</dim>
				</port>
			</output>
		</layer>
		<layer id="162" name="Reshape_441" type="Const" version="opset1">
			<data element_type="f32" shape="1, 72, 1, 1" offset="14244" size="288" />
			<output>
				<port id="0" precision="FP32">
					<dim>1</dim>
					<dim>72</dim>
					<dim>1</dim>
					<dim>1</dim>
				</port>
			</output>
		</layer>
		<layer id="163" name="/backbone/features/features.4/conv/conv.0/Conv" type="Add" version="opset1">
			<data auto_broadcast="numpy" />
			<input>
				<port id="0" precision="FP32">
					<dim>1</dim>
					<dim>72</dim>
					<dim>56</dim>
					<dim>56</dim>
				</port>
				<port id="1" precision="FP32">
					<dim>1</dim>
					<dim>72</dim>
					<dim>1</dim>
					<dim>1</dim>
				</port>
			</input>
			<output>
				<port id="2" precision="FP32" names="/backbone/features/features.4/conv/conv.0/Conv_output_0">
					<dim>1</dim>
					<dim>72</dim>
					<dim>56</dim>
					<dim>56</dim>
				</port>
			</output>
		</layer>
		<layer id="164" name="/backbone/features/features.4/conv/conv.2/Relu" type="ReLU" version="opset1">
			<input>
				<port id="0" precision="FP32">
					<dim>1</dim>
					<dim>72</dim>
					<dim>56</dim>
					<dim>56</dim>
				</port>
			</input>
			<output>
				<port id="1" precision="FP32" names="/backbone/features/features.4/conv/conv.2/Relu_output_0">
					<dim>1</dim>
					<dim>72</dim>
					<dim>56</dim>
					<dim>56</dim>
				</port>
			</output>
		</layer>
		<layer id="165" name="Constant_57967" type="Const" version="opset1">
			<data element_type="f32" shape="1, 72, 1, 1" offset="8488" size="288" />
			<output>
				<port id="0" precision="FP32">
					<dim>1</dim>
					<dim>72</dim>
					<dim>1</dim>
					<dim>1</dim>
				</port>
			</output>
		</layer>
		<layer id="166" name="Constant_57968" type="Const" version="opset1">
			<data element_type="f32" shape="1, 72, 1, 1" offset="14532" size="288" />
			<output>
				<port id="0" precision="FP32">
					<dim>1</dim>
					<dim>72</dim>
					<dim>1</dim>
					<dim>1</dim>
				</port>
			</output>
		</layer>
		<layer id="167" name="Constant_57969" type="Const" version="opset1">
			<data element_type="f32" shape="1, 72, 1, 1" offset="8488" size="288" />
			<output>
				<port id="0" precision="FP32">
					<dim>1</dim>
					<dim>72</dim>
					<dim>1</dim>
					<dim>1</dim>
				</port>
			</output>
		</layer>
		<layer id="168" name="Constant_57970" type="Const" version="opset1">
			<data element_type="f32" shape="1, 72, 1, 1" offset="14532" size="288" />
			<output>
				<port id="0" precision="FP32">
					<dim>1</dim>
					<dim>72</dim>
					<dim>1</dim>
					<dim>1</dim>
				</port>
			</output>
		</layer>
		<layer id="169" name="/backbone/features/features.4/conv/conv.2/Relu/fq_output_0" type="FakeQuantize" version="opset1">
			<data levels="256" auto_broadcast="numpy" />
			<input>
				<port id="0" precision="FP32">
					<dim>1</dim>
					<dim>72</dim>
					<dim>56</dim>
					<dim>56</dim>
				</port>
				<port id="1" precision="FP32">
					<dim>1</dim>
					<dim>72</dim>
					<dim>1</dim>
					<dim>1</dim>
				</port>
				<port id="2" precision="FP32">
					<dim>1</dim>
					<dim>72</dim>
					<dim>1</dim>
					<dim>1</dim>
				</port>
				<port id="3" precision="FP32">
					<dim>1</dim>
					<dim>72</dim>
					<dim>1</dim>
					<dim>1</dim>
				</port>
				<port id="4" precision="FP32">
					<dim>1</dim>
					<dim>72</dim>
					<dim>1</dim>
					<dim>1</dim>
				</port>
			</input>
			<output>
				<port id="5" precision="FP32">
					<dim>1</dim>
					<dim>72</dim>
					<dim>56</dim>
					<dim>56</dim>
				</port>
			</output>
		</layer>
		<layer id="170" name="Reshape_453" type="Const" version="opset1">
			<data element_type="i8" shape="72, 1, 1, 5, 5" offset="14820" size="1800" />
			<output>
				<port id="0" precision="I8">
					<dim>72</dim>
					<dim>1</dim>
					<dim>1</dim>
					<dim>5</dim>
					<dim>5</dim>
				</port>
			</output>
		</layer>
		<layer id="171" name="Convert_256511" type="Convert" version="opset1">
			<data destination_type="f32" />
			<input>
				<port id="0" precision="I8">
					<dim>72</dim>
					<dim>1</dim>
					<dim>1</dim>
					<dim>5</dim>
					<dim>5</dim>
				</port>
			</input>
			<output>
				<port id="1" precision="FP32">
					<dim>72</dim>
					<dim>1</dim>
					<dim>1</dim>
					<dim>5</dim>
					<dim>5</dim>
				</port>
			</output>
		</layer>
		<layer id="172" name="Constant_256409" type="Const" version="opset1">
			<data element_type="f32" shape="72, 1, 1, 1, 1" offset="16620" size="288" />
			<output>
				<port id="0" precision="FP32">
					<dim>72</dim>
					<dim>1</dim>
					<dim>1</dim>
					<dim>1</dim>
					<dim>1</dim>
				</port>
			</output>
		</layer>
		<layer id="173" name="/backbone/features/features.4/conv/conv.3/Conv/WithoutBiases/fq_weights_1" type="Multiply" version="opset1">
			<data auto_broadcast="numpy" />
			<input>
				<port id="0" precision="FP32">
					<dim>72</dim>
					<dim>1</dim>
					<dim>1</dim>
					<dim>5</dim>
					<dim>5</dim>
				</port>
				<port id="1" precision="FP32">
					<dim>72</dim>
					<dim>1</dim>
					<dim>1</dim>
					<dim>1</dim>
					<dim>1</dim>
				</port>
			</input>
			<output>
				<port id="2" precision="FP32">
					<dim>72</dim>
					<dim>1</dim>
					<dim>1</dim>
					<dim>5</dim>
					<dim>5</dim>
				</port>
			</output>
		</layer>
		<layer id="174" name="/backbone/features/features.4/conv/conv.3/Conv/WithoutBiases" type="GroupConvolution" version="opset1">
			<data strides="2, 2" pads_begin="2, 2" pads_end="2, 2" dilations="1, 1" auto_pad="explicit" />
			<input>
				<port id="0" precision="FP32">
					<dim>1</dim>
					<dim>72</dim>
					<dim>56</dim>
					<dim>56</dim>
				</port>
				<port id="1" precision="FP32">
					<dim>72</dim>
					<dim>1</dim>
					<dim>1</dim>
					<dim>5</dim>
					<dim>5</dim>
				</port>
			</input>
			<output>
				<port id="2" precision="FP32">
					<dim>1</dim>
					<dim>72</dim>
					<dim>28</dim>
					<dim>28</dim>
				</port>
			</output>
		</layer>
		<layer id="175" name="Reshape_505" type="Const" version="opset1">
			<data element_type="f32" shape="1, 72, 1, 1" offset="16908" size="288" />
			<output>
				<port id="0" precision="FP32">
					<dim>1</dim>
					<dim>72</dim>
					<dim>1</dim>
					<dim>1</dim>
				</port>
			</output>
		</layer>
		<layer id="176" name="/backbone/features/features.4/conv/conv.3/Conv" type="Add" version="opset1">
			<data auto_broadcast="numpy" />
			<input>
				<port id="0" precision="FP32">
					<dim>1</dim>
					<dim>72</dim>
					<dim>28</dim>
					<dim>28</dim>
				</port>
				<port id="1" precision="FP32">
					<dim>1</dim>
					<dim>72</dim>
					<dim>1</dim>
					<dim>1</dim>
				</port>
			</input>
			<output>
				<port id="2" precision="FP32" names="/backbone/features/features.4/conv/conv.3/Conv_output_0">
					<dim>1</dim>
					<dim>72</dim>
					<dim>28</dim>
					<dim>28</dim>
				</port>
			</output>
		</layer>
		<layer id="177" name="Constant_57977" type="Const" version="opset1">
			<data element_type="f32" shape="" offset="17196" size="4" />
			<output>
				<port id="0" precision="FP32" />
			</output>
		</layer>
		<layer id="178" name="Constant_57978" type="Const" version="opset1">
			<data element_type="f32" shape="" offset="17200" size="4" />
			<output>
				<port id="0" precision="FP32" />
			</output>
		</layer>
		<layer id="179" name="Constant_57979" type="Const" version="opset1">
			<data element_type="f32" shape="" offset="17196" size="4" />
			<output>
				<port id="0" precision="FP32" />
			</output>
		</layer>
		<layer id="180" name="Constant_57980" type="Const" version="opset1">
			<data element_type="f32" shape="" offset="17200" size="4" />
			<output>
				<port id="0" precision="FP32" />
			</output>
		</layer>
		<layer id="181" name="/backbone/features/features.4/conv/conv.3/Conv/fq_output_0" type="FakeQuantize" version="opset1">
			<data levels="256" auto_broadcast="numpy" />
			<input>
				<port id="0" precision="FP32">
					<dim>1</dim>
					<dim>72</dim>
					<dim>28</dim>
					<dim>28</dim>
				</port>
				<port id="1" precision="FP32" />
				<port id="2" precision="FP32" />
				<port id="3" precision="FP32" />
				<port id="4" precision="FP32" />
			</input>
			<output>
				<port id="5" precision="FP32">
					<dim>1</dim>
					<dim>72</dim>
					<dim>28</dim>
					<dim>28</dim>
				</port>
			</output>
		</layer>
		<layer id="182" name="Range_523" type="Const" version="opset1">
			<data element_type="i64" shape="2" offset="17204" size="16" />
			<output>
				<port id="0" precision="I64">
					<dim>2</dim>
				</port>
			</output>
		</layer>
		<layer id="183" name="/backbone/features/features.4/conv/conv.5/avg_pool/GlobalAveragePool" type="ReduceMean" version="opset1">
			<data keep_dims="true" />
			<input>
				<port id="0" precision="FP32">
					<dim>1</dim>
					<dim>72</dim>
					<dim>28</dim>
					<dim>28</dim>
				</port>
				<port id="1" precision="I64">
					<dim>2</dim>
				</port>
			</input>
			<output>
				<port id="2" precision="FP32" names="/backbone/features/features.4/conv/conv.5/avg_pool/GlobalAveragePool_output_0">
					<dim>1</dim>
					<dim>72</dim>
					<dim>1</dim>
					<dim>1</dim>
				</port>
			</output>
		</layer>
		<layer id="184" name="Constant_57982" type="Const" version="opset1">
			<data element_type="f32" shape="" offset="17220" size="4" />
			<output>
				<port id="0" precision="FP32" />
			</output>
		</layer>
		<layer id="185" name="Constant_57983" type="Const" version="opset1">
			<data element_type="f32" shape="" offset="17224" size="4" />
			<output>
				<port id="0" precision="FP32" />
			</output>
		</layer>
		<layer id="186" name="Constant_57984" type="Const" version="opset1">
			<data element_type="f32" shape="" offset="17220" size="4" />
			<output>
				<port id="0" precision="FP32" />
			</output>
		</layer>
		<layer id="187" name="Constant_57985" type="Const" version="opset1">
			<data element_type="f32" shape="" offset="17224" size="4" />
			<output>
				<port id="0" precision="FP32" />
			</output>
		</layer>
		<layer id="188" name="/backbone/features/features.4/conv/conv.5/avg_pool/GlobalAveragePool/fq_output_0" type="FakeQuantize" version="opset1">
			<data levels="256" auto_broadcast="numpy" />
			<input>
				<port id="0" precision="FP32">
					<dim>1</dim>
					<dim>72</dim>
					<dim>1</dim>
					<dim>1</dim>
				</port>
				<port id="1" precision="FP32" />
				<port id="2" precision="FP32" />
				<port id="3" precision="FP32" />
				<port id="4" precision="FP32" />
			</input>
			<output>
				<port id="5" precision="FP32">
					<dim>1</dim>
					<dim>72</dim>
					<dim>1</dim>
					<dim>1</dim>
				</port>
			</output>
		</layer>
		<layer id="189" name="/backbone/features/features.4/conv/conv.5/Concat" type="Const" version="opset1">
			<data element_type="i64" shape="2" offset="17228" size="16" />
			<output>
				<port id="0" precision="I64" names="/backbone/features/features.4/conv/conv.5/Concat_output_0">
					<dim>2</dim>
				</port>
			</output>
		</layer>
		<layer id="190" name="/backbone/features/features.4/conv/conv.5/Reshape" type="Reshape" version="opset1">
			<data special_zero="true" />
			<input>
				<port id="0" precision="FP32">
					<dim>1</dim>
					<dim>72</dim>
					<dim>1</dim>
					<dim>1</dim>
				</port>
				<port id="1" precision="I64">
					<dim>2</dim>
				</port>
			</input>
			<output>
				<port id="2" precision="FP32" names="/backbone/features/features.4/conv/conv.5/Reshape_output_0">
					<dim>1</dim>
					<dim>72</dim>
				</port>
			</output>
		</layer>
		<layer id="191" name="features.4.conv.5.fc.0.weight" type="Const" version="opset1">
			<data element_type="i8" shape="24, 72" offset="17244" size="1728" />
			<output>
				<port id="0" precision="I8">
					<dim>24</dim>
					<dim>72</dim>
				</port>
			</output>
		</layer>
		<layer id="192" name="Convert_256665" type="Convert" version="opset1">
			<data destination_type="f32" />
			<input>
				<port id="0" precision="I8">
					<dim>24</dim>
					<dim>72</dim>
				</port>
			</input>
			<output>
				<port id="1" precision="FP32">
					<dim>24</dim>
					<dim>72</dim>
				</port>
			</output>
		</layer>
		<layer id="193" name="Constant_256563" type="Const" version="opset1">
			<data element_type="f32" shape="24, 1" offset="18972" size="96" />
			<output>
				<port id="0" precision="FP32">
					<dim>24</dim>
					<dim>1</dim>
				</port>
			</output>
		</layer>
		<layer id="194" name="/backbone/features/features.4/conv/conv.5/fc/fc.0/Gemm/WithoutBiases/fq_weights_1" type="Multiply" version="opset1">
			<data auto_broadcast="numpy" />
			<input>
				<port id="0" precision="FP32">
					<dim>24</dim>
					<dim>72</dim>
				</port>
				<port id="1" precision="FP32">
					<dim>24</dim>
					<dim>1</dim>
				</port>
			</input>
			<output>
				<port id="2" precision="FP32">
					<dim>24</dim>
					<dim>72</dim>
				</port>
			</output>
		</layer>
		<layer id="195" name="/backbone/features/features.4/conv/conv.5/fc/fc.0/Gemm/WithoutBiases" type="MatMul" version="opset1">
			<data transpose_a="false" transpose_b="true" />
			<input>
				<port id="0" precision="FP32">
					<dim>1</dim>
					<dim>72</dim>
				</port>
				<port id="1" precision="FP32">
					<dim>24</dim>
					<dim>72</dim>
				</port>
			</input>
			<output>
				<port id="2" precision="FP32">
					<dim>1</dim>
					<dim>24</dim>
				</port>
			</output>
		</layer>
		<layer id="196" name="Constant_6305" type="Const" version="opset1">
			<data element_type="f32" shape="1, 24" offset="19068" size="96" />
			<output>
				<port id="0" precision="FP32">
					<dim>1</dim>
					<dim>24</dim>
				</port>
			</output>
		</layer>
		<layer id="197" name="/backbone/features/features.4/conv/conv.5/fc/fc.0/Gemm" type="Add" version="opset1">
			<data auto_broadcast="numpy" />
			<input>
				<port id="0" precision="FP32">
					<dim>1</dim>
					<dim>24</dim>
				</port>
				<port id="1" precision="FP32">
					<dim>1</dim>
					<dim>24</dim>
				</port>
			</input>
			<output>
				<port id="2" precision="FP32" names="/backbone/features/features.4/conv/conv.5/fc/fc.0/Gemm_output_0">
					<dim>1</dim>
					<dim>24</dim>
				</port>
			</output>
		</layer>
		<layer id="198" name="/backbone/features/features.4/conv/conv.5/fc/fc.1/Relu" type="ReLU" version="opset1">
			<input>
				<port id="0" precision="FP32">
					<dim>1</dim>
					<dim>24</dim>
				</port>
			</input>
			<output>
				<port id="1" precision="FP32" names="/backbone/features/features.4/conv/conv.5/fc/fc.1/Relu_output_0">
					<dim>1</dim>
					<dim>24</dim>
				</port>
			</output>
		</layer>
		<layer id="199" name="Constant_57992" type="Const" version="opset1">
			<data element_type="f32" shape="" offset="604" size="4" />
			<output>
				<port id="0" precision="FP32" />
			</output>
		</layer>
		<layer id="200" name="Constant_57993" type="Const" version="opset1">
			<data element_type="f32" shape="" offset="19164" size="4" />
			<output>
				<port id="0" precision="FP32" />
			</output>
		</layer>
		<layer id="201" name="Constant_57994" type="Const" version="opset1">
			<data element_type="f32" shape="" offset="604" size="4" />
			<output>
				<port id="0" precision="FP32" />
			</output>
		</layer>
		<layer id="202" name="Constant_57995" type="Const" version="opset1">
			<data element_type="f32" shape="" offset="19164" size="4" />
			<output>
				<port id="0" precision="FP32" />
			</output>
		</layer>
		<layer id="203" name="/backbone/features/features.4/conv/conv.5/fc/fc.1/Relu/fq_output_0" type="FakeQuantize" version="opset1">
			<data levels="256" auto_broadcast="numpy" />
			<input>
				<port id="0" precision="FP32">
					<dim>1</dim>
					<dim>24</dim>
				</port>
				<port id="1" precision="FP32" />
				<port id="2" precision="FP32" />
				<port id="3" precision="FP32" />
				<port id="4" precision="FP32" />
			</input>
			<output>
				<port id="5" precision="FP32">
					<dim>1</dim>
					<dim>24</dim>
				</port>
			</output>
		</layer>
		<layer id="204" name="features.4.conv.5.fc.2.weight" type="Const" version="opset1">
			<data element_type="i8" shape="72, 24" offset="19168" size="1728" />
			<output>
				<port id="0" precision="I8">
					<dim>72</dim>
					<dim>24</dim>
				</port>
			</output>
		</layer>
		<layer id="205" name="Convert_256819" type="Convert" version="opset1">
			<data destination_type="f32" />
			<input>
				<port id="0" precision="I8">
					<dim>72</dim>
					<dim>24</dim>
				</port>
			</input>
			<output>
				<port id="1" precision="FP32">
					<dim>72</dim>
					<dim>24</dim>
				</port>
			</output>
		</layer>
		<layer id="206" name="Constant_256717" type="Const" version="opset1">
			<data element_type="f32" shape="72, 1" offset="20896" size="288" />
			<output>
				<port id="0" precision="FP32">
					<dim>72</dim>
					<dim>1</dim>
				</port>
			</output>
		</layer>
		<layer id="207" name="/backbone/features/features.4/conv/conv.5/fc/fc.2/Gemm/WithoutBiases/fq_weights_1" type="Multiply" version="opset1">
			<data auto_broadcast="numpy" />
			<input>
				<port id="0" precision="FP32">
					<dim>72</dim>
					<dim>24</dim>
				</port>
				<port id="1" precision="FP32">
					<dim>72</dim>
					<dim>1</dim>
				</port>
			</input>
			<output>
				<port id="2" precision="FP32">
					<dim>72</dim>
					<dim>24</dim>
				</port>
			</output>
		</layer>
		<layer id="208" name="/backbone/features/features.4/conv/conv.5/fc/fc.2/Gemm/WithoutBiases" type="MatMul" version="opset1">
			<data transpose_a="false" transpose_b="true" />
			<input>
				<port id="0" precision="FP32">
					<dim>1</dim>
					<dim>24</dim>
				</port>
				<port id="1" precision="FP32">
					<dim>72</dim>
					<dim>24</dim>
				</port>
			</input>
			<output>
				<port id="2" precision="FP32">
					<dim>1</dim>
					<dim>72</dim>
				</port>
			</output>
		</layer>
		<layer id="209" name="Constant_6306" type="Const" version="opset1">
			<data element_type="f32" shape="1, 72" offset="21184" size="288" />
			<output>
				<port id="0" precision="FP32">
					<dim>1</dim>
					<dim>72</dim>
				</port>
			</output>
		</layer>
		<layer id="210" name="/backbone/features/features.4/conv/conv.5/fc/fc.3/Add" type="Add" version="opset1">
			<data auto_broadcast="numpy" />
			<input>
				<port id="0" precision="FP32">
					<dim>1</dim>
					<dim>72</dim>
				</port>
				<port id="1" precision="FP32">
					<dim>1</dim>
					<dim>72</dim>
				</port>
			</input>
			<output>
				<port id="2" precision="FP32" names="/backbone/features/features.4/conv/conv.5/fc/fc.3/Add_output_0">
					<dim>1</dim>
					<dim>72</dim>
				</port>
			</output>
		</layer>
		<layer id="211" name="/backbone/features/features.4/conv/conv.5/fc/fc.3/Relu" type="ReLU" version="opset1">
			<input>
				<port id="0" precision="FP32">
					<dim>1</dim>
					<dim>72</dim>
				</port>
			</input>
			<output>
				<port id="1" precision="FP32" names="/backbone/features/features.4/conv/conv.5/fc/fc.3/Relu_output_0">
					<dim>1</dim>
					<dim>72</dim>
				</port>
			</output>
		</layer>
		<layer id="212" name="/backbone/features/features.4/conv/conv.5/fc/fc.3/Clip" type="Clamp" version="opset1">
			<data min="0" max="6" />
			<input>
				<port id="0" precision="FP32">
					<dim>1</dim>
					<dim>72</dim>
				</port>
			</input>
			<output>
				<port id="1" precision="FP32" names="/backbone/features/features.4/conv/conv.5/fc/fc.3/Clip_output_0">
					<dim>1</dim>
					<dim>72</dim>
				</port>
			</output>
		</layer>
		<layer id="213" name="Constant_6307" type="Const" version="opset1">
			<data element_type="f32" shape="1, 1" offset="620" size="4" />
			<output>
				<port id="0" precision="FP32">
					<dim>1</dim>
					<dim>1</dim>
				</port>
			</output>
		</layer>
		<layer id="214" name="/backbone/features/features.4/conv/conv.5/fc/fc.3/Div" type="Multiply" version="opset1">
			<data auto_broadcast="numpy" />
			<input>
				<port id="0" precision="FP32">
					<dim>1</dim>
					<dim>72</dim>
				</port>
				<port id="1" precision="FP32">
					<dim>1</dim>
					<dim>1</dim>
				</port>
			</input>
			<output>
				<port id="2" precision="FP32" names="/backbone/features/features.4/conv/conv.5/fc/fc.3/Div_output_0">
					<dim>1</dim>
					<dim>72</dim>
				</port>
			</output>
		</layer>
		<layer id="215" name="Constant_58002" type="Const" version="opset1">
			<data element_type="f32" shape="" offset="604" size="4" />
			<output>
				<port id="0" precision="FP32" />
			</output>
		</layer>
		<layer id="216" name="Constant_58003" type="Const" version="opset1">
			<data element_type="f32" shape="" offset="21472" size="4" />
			<output>
				<port id="0" precision="FP32" />
			</output>
		</layer>
		<layer id="217" name="Constant_58004" type="Const" version="opset1">
			<data element_type="f32" shape="" offset="604" size="4" />
			<output>
				<port id="0" precision="FP32" />
			</output>
		</layer>
		<layer id="218" name="Constant_58005" type="Const" version="opset1">
			<data element_type="f32" shape="" offset="21472" size="4" />
			<output>
				<port id="0" precision="FP32" />
			</output>
		</layer>
		<layer id="219" name="/backbone/features/features.4/conv/conv.5/fc/fc.3/Div/fq_output_0" type="FakeQuantize" version="opset1">
			<data levels="256" auto_broadcast="numpy" />
			<input>
				<port id="0" precision="FP32">
					<dim>1</dim>
					<dim>72</dim>
				</port>
				<port id="1" precision="FP32" />
				<port id="2" precision="FP32" />
				<port id="3" precision="FP32" />
				<port id="4" precision="FP32" />
			</input>
			<output>
				<port id="5" precision="FP32">
					<dim>1</dim>
					<dim>72</dim>
				</port>
			</output>
		</layer>
		<layer id="220" name="/backbone/features/features.4/conv/conv.5/Shape" type="ShapeOf" version="opset3">
			<data output_type="i64" />
			<input>
				<port id="0" precision="FP32">
					<dim>1</dim>
					<dim>72</dim>
					<dim>28</dim>
					<dim>28</dim>
				</port>
			</input>
			<output>
				<port id="1" precision="I64" names="/backbone/features/features.4/conv/conv.5/Shape_1_output_0,/backbone/features/features.4/conv/conv.5/Shape_output_0">
					<dim>4</dim>
				</port>
			</output>
		</layer>
		<layer id="221" name="Constant_5734" type="Const" version="opset1">
			<data element_type="i64" shape="2" offset="21476" size="16" />
			<output>
				<port id="0" precision="I64">
					<dim>2</dim>
				</port>
			</output>
		</layer>
		<layer id="222" name="Constant_5735" type="Const" version="opset1">
			<data element_type="i64" shape="" offset="21492" size="8" />
			<output>
				<port id="0" precision="I64" />
			</output>
		</layer>
		<layer id="223" name="Gather_5736" type="Gather" version="opset8">
			<data batch_dims="0" />
			<input>
				<port id="0" precision="I64">
					<dim>4</dim>
				</port>
				<port id="1" precision="I64">
					<dim>2</dim>
				</port>
				<port id="2" precision="I64" />
			</input>
			<output>
				<port id="3" precision="I64">
					<dim>2</dim>
				</port>
			</output>
		</layer>
		<layer id="224" name="/backbone/features/features.4/conv/conv.5/Constant_2" type="Const" version="opset1">
			<data element_type="i64" shape="1" offset="21500" size="8" />
			<output>
				<port id="0" precision="I64" names="/backbone/features/features.4/conv/conv.5/Constant_2_output_0">
					<dim>1</dim>
				</port>
			</output>
		</layer>
		<layer id="225" name="/backbone/features/features.4/conv/conv.5/Constant_3" type="Const" version="opset1">
			<data element_type="i64" shape="1" offset="21500" size="8" />
			<output>
				<port id="0" precision="I64" names="/backbone/features/features.4/conv/conv.5/Constant_3_output_0">
					<dim>1</dim>
				</port>
			</output>
		</layer>
		<layer id="226" name="/backbone/features/features.4/conv/conv.5/Concat_1" type="Concat" version="opset1">
			<data axis="0" />
			<input>
				<port id="0" precision="I64">
					<dim>2</dim>
				</port>
				<port id="1" precision="I64">
					<dim>1</dim>
				</port>
				<port id="2" precision="I64">
					<dim>1</dim>
				</port>
			</input>
			<output>
				<port id="3" precision="I64" names="/backbone/features/features.4/conv/conv.5/Concat_1_output_0">
					<dim>4</dim>
				</port>
			</output>
		</layer>
		<layer id="227" name="/backbone/features/features.4/conv/conv.5/Reshape_1" type="Reshape" version="opset1">
			<data special_zero="true" />
			<input>
				<port id="0" precision="FP32">
					<dim>1</dim>
					<dim>72</dim>
				</port>
				<port id="1" precision="I64">
					<dim>4</dim>
				</port>
			</input>
			<output>
				<port id="2" precision="FP32" names="/backbone/features/features.4/conv/conv.5/Reshape_1_output_0">
					<dim>1</dim>
					<dim>72</dim>
					<dim>1</dim>
					<dim>1</dim>
				</port>
			</output>
		</layer>
		<layer id="228" name="/backbone/features/features.4/conv/conv.5/Mul" type="Multiply" version="opset1">
			<data auto_broadcast="numpy" />
			<input>
				<port id="0" precision="FP32">
					<dim>1</dim>
					<dim>72</dim>
					<dim>28</dim>
					<dim>28</dim>
				</port>
				<port id="1" precision="FP32">
					<dim>1</dim>
					<dim>72</dim>
					<dim>1</dim>
					<dim>1</dim>
				</port>
			</input>
			<output>
				<port id="2" precision="FP32" names="/backbone/features/features.4/conv/conv.5/Mul_output_0">
					<dim>1</dim>
					<dim>72</dim>
					<dim>28</dim>
					<dim>28</dim>
				</port>
			</output>
		</layer>
		<layer id="229" name="/backbone/features/features.4/conv/conv.6/Relu" type="ReLU" version="opset1">
			<input>
				<port id="0" precision="FP32">
					<dim>1</dim>
					<dim>72</dim>
					<dim>28</dim>
					<dim>28</dim>
				</port>
			</input>
			<output>
				<port id="1" precision="FP32" names="/backbone/features/features.4/conv/conv.6/Relu_output_0">
					<dim>1</dim>
					<dim>72</dim>
					<dim>28</dim>
					<dim>28</dim>
				</port>
			</output>
		</layer>
		<layer id="230" name="Constant_58007" type="Const" version="opset1">
			<data element_type="f32" shape="" offset="604" size="4" />
			<output>
				<port id="0" precision="FP32" />
			</output>
		</layer>
		<layer id="231" name="Constant_58008" type="Const" version="opset1">
			<data element_type="f32" shape="" offset="21508" size="4" />
			<output>
				<port id="0" precision="FP32" />
			</output>
		</layer>
		<layer id="232" name="Constant_58009" type="Const" version="opset1">
			<data element_type="f32" shape="" offset="604" size="4" />
			<output>
				<port id="0" precision="FP32" />
			</output>
		</layer>
		<layer id="233" name="Constant_58010" type="Const" version="opset1">
			<data element_type="f32" shape="" offset="21508" size="4" />
			<output>
				<port id="0" precision="FP32" />
			</output>
		</layer>
		<layer id="234" name="/backbone/features/features.4/conv/conv.6/Relu/fq_output_0" type="FakeQuantize" version="opset1">
			<data levels="256" auto_broadcast="numpy" />
			<input>
				<port id="0" precision="FP32">
					<dim>1</dim>
					<dim>72</dim>
					<dim>28</dim>
					<dim>28</dim>
				</port>
				<port id="1" precision="FP32" />
				<port id="2" precision="FP32" />
				<port id="3" precision="FP32" />
				<port id="4" precision="FP32" />
			</input>
			<output>
				<port id="5" precision="FP32">
					<dim>1</dim>
					<dim>72</dim>
					<dim>28</dim>
					<dim>28</dim>
				</port>
			</output>
		</layer>
		<layer id="235" name="onnx::Conv_941" type="Const" version="opset1">
			<data element_type="i8" shape="40, 72, 1, 1" offset="21512" size="2880" />
			<output>
				<port id="0" precision="I8">
					<dim>40</dim>
					<dim>72</dim>
					<dim>1</dim>
					<dim>1</dim>
				</port>
			</output>
		</layer>
		<layer id="236" name="Convert_256973" type="Convert" version="opset1">
			<data destination_type="f32" />
			<input>
				<port id="0" precision="I8">
					<dim>40</dim>
					<dim>72</dim>
					<dim>1</dim>
					<dim>1</dim>
				</port>
			</input>
			<output>
				<port id="1" precision="FP32">
					<dim>40</dim>
					<dim>72</dim>
					<dim>1</dim>
					<dim>1</dim>
				</port>
			</output>
		</layer>
		<layer id="237" name="Constant_256871" type="Const" version="opset1">
			<data element_type="f32" shape="40, 1, 1, 1" offset="24392" size="160" />
			<output>
				<port id="0" precision="FP32">
					<dim>40</dim>
					<dim>1</dim>
					<dim>1</dim>
					<dim>1</dim>
				</port>
			</output>
		</layer>
		<layer id="238" name="/backbone/features/features.4/conv/conv.7/Conv/WithoutBiases/fq_weights_1" type="Multiply" version="opset1">
			<data auto_broadcast="numpy" />
			<input>
				<port id="0" precision="FP32">
					<dim>40</dim>
					<dim>72</dim>
					<dim>1</dim>
					<dim>1</dim>
				</port>
				<port id="1" precision="FP32">
					<dim>40</dim>
					<dim>1</dim>
					<dim>1</dim>
					<dim>1</dim>
				</port>
			</input>
			<output>
				<port id="2" precision="FP32">
					<dim>40</dim>
					<dim>72</dim>
					<dim>1</dim>
					<dim>1</dim>
				</port>
			</output>
		</layer>
		<layer id="239" name="/backbone/features/features.4/conv/conv.7/Conv/WithoutBiases" type="Convolution" version="opset1">
			<data strides="1, 1" dilations="1, 1" pads_begin="0, 0" pads_end="0, 0" auto_pad="explicit" />
			<input>
				<port id="0" precision="FP32">
					<dim>1</dim>
					<dim>72</dim>
					<dim>28</dim>
					<dim>28</dim>
				</port>
				<port id="1" precision="FP32">
					<dim>40</dim>
					<dim>72</dim>
					<dim>1</dim>
					<dim>1</dim>
				</port>
			</input>
			<output>
				<port id="2" precision="FP32">
					<dim>1</dim>
					<dim>40</dim>
					<dim>28</dim>
					<dim>28</dim>
				</port>
			</output>
		</layer>
		<layer id="240" name="Reshape_580" type="Const" version="opset1">
			<data element_type="f32" shape="1, 40, 1, 1" offset="24552" size="160" />
			<output>
				<port id="0" precision="FP32">
					<dim>1</dim>
					<dim>40</dim>
					<dim>1</dim>
					<dim>1</dim>
				</port>
			</output>
		</layer>
		<layer id="241" name="/backbone/features/features.4/conv/conv.7/Conv" type="Add" version="opset1">
			<data auto_broadcast="numpy" />
			<input>
				<port id="0" precision="FP32">
					<dim>1</dim>
					<dim>40</dim>
					<dim>28</dim>
					<dim>28</dim>
				</port>
				<port id="1" precision="FP32">
					<dim>1</dim>
					<dim>40</dim>
					<dim>1</dim>
					<dim>1</dim>
				</port>
			</input>
			<output>
				<port id="2" precision="FP32" names="/backbone/features/features.4/conv/conv.7/Conv_output_0">
					<dim>1</dim>
					<dim>40</dim>
					<dim>28</dim>
					<dim>28</dim>
				</port>
			</output>
		</layer>
		<layer id="242" name="Constant_58017" type="Const" version="opset1">
			<data element_type="f32" shape="" offset="24712" size="4" />
			<output>
				<port id="0" precision="FP32" />
			</output>
		</layer>
		<layer id="243" name="Constant_58018" type="Const" version="opset1">
			<data element_type="f32" shape="" offset="24716" size="4" />
			<output>
				<port id="0" precision="FP32" />
			</output>
		</layer>
		<layer id="244" name="Constant_58019" type="Const" version="opset1">
			<data element_type="f32" shape="" offset="24712" size="4" />
			<output>
				<port id="0" precision="FP32" />
			</output>
		</layer>
		<layer id="245" name="Constant_58020" type="Const" version="opset1">
			<data element_type="f32" shape="" offset="24716" size="4" />
			<output>
				<port id="0" precision="FP32" />
			</output>
		</layer>
		<layer id="246" name="/backbone/features/features.4/conv/conv.7/Conv/fq_output_0" type="FakeQuantize" version="opset1">
			<data levels="256" auto_broadcast="numpy" />
			<input>
				<port id="0" precision="FP32">
					<dim>1</dim>
					<dim>40</dim>
					<dim>28</dim>
					<dim>28</dim>
				</port>
				<port id="1" precision="FP32" />
				<port id="2" precision="FP32" />
				<port id="3" precision="FP32" />
				<port id="4" precision="FP32" />
			</input>
			<output>
				<port id="5" precision="FP32">
					<dim>1</dim>
					<dim>40</dim>
					<dim>28</dim>
					<dim>28</dim>
				</port>
			</output>
		</layer>
		<layer id="247" name="onnx::Conv_944" type="Const" version="opset1">
			<data element_type="i8" shape="120, 40, 1, 1" offset="24720" size="4800" />
			<output>
				<port id="0" precision="I8">
					<dim>120</dim>
					<dim>40</dim>
					<dim>1</dim>
					<dim>1</dim>
				</port>
			</output>
		</layer>
		<layer id="248" name="Convert_257127" type="Convert" version="opset1">
			<data destination_type="f32" />
			<input>
				<port id="0" precision="I8">
					<dim>120</dim>
					<dim>40</dim>
					<dim>1</dim>
					<dim>1</dim>
				</port>
			</input>
			<output>
				<port id="1" precision="FP32">
					<dim>120</dim>
					<dim>40</dim>
					<dim>1</dim>
					<dim>1</dim>
				</port>
			</output>
		</layer>
		<layer id="249" name="Constant_257025" type="Const" version="opset1">
			<data element_type="f32" shape="120, 1, 1, 1" offset="29520" size="480" />
			<output>
				<port id="0" precision="FP32">
					<dim>120</dim>
					<dim>1</dim>
					<dim>1</dim>
					<dim>1</dim>
				</port>
			</output>
		</layer>
		<layer id="250" name="/backbone/features/features.5/conv/conv.0/Conv/WithoutBiases/fq_weights_1" type="Multiply" version="opset1">
			<data auto_broadcast="numpy" />
			<input>
				<port id="0" precision="FP32">
					<dim>120</dim>
					<dim>40</dim>
					<dim>1</dim>
					<dim>1</dim>
				</port>
				<port id="1" precision="FP32">
					<dim>120</dim>
					<dim>1</dim>
					<dim>1</dim>
					<dim>1</dim>
				</port>
			</input>
			<output>
				<port id="2" precision="FP32">
					<dim>120</dim>
					<dim>40</dim>
					<dim>1</dim>
					<dim>1</dim>
				</port>
			</output>
		</layer>
		<layer id="251" name="/backbone/features/features.5/conv/conv.0/Conv/WithoutBiases" type="Convolution" version="opset1">
			<data strides="1, 1" dilations="1, 1" pads_begin="0, 0" pads_end="0, 0" auto_pad="explicit" />
			<input>
				<port id="0" precision="FP32">
					<dim>1</dim>
					<dim>40</dim>
					<dim>28</dim>
					<dim>28</dim>
				</port>
				<port id="1" precision="FP32">
					<dim>120</dim>
					<dim>40</dim>
					<dim>1</dim>
					<dim>1</dim>
				</port>
			</input>
			<output>
				<port id="2" precision="FP32">
					<dim>1</dim>
					<dim>120</dim>
					<dim>28</dim>
					<dim>28</dim>
				</port>
			</output>
		</layer>
		<layer id="252" name="Reshape_595" type="Const" version="opset1">
			<data element_type="f32" shape="1, 120, 1, 1" offset="30000" size="480" />
			<output>
				<port id="0" precision="FP32">
					<dim>1</dim>
					<dim>120</dim>
					<dim>1</dim>
					<dim>1</dim>
				</port>
			</output>
		</layer>
		<layer id="253" name="/backbone/features/features.5/conv/conv.0/Conv" type="Add" version="opset1">
			<data auto_broadcast="numpy" />
			<input>
				<port id="0" precision="FP32">
					<dim>1</dim>
					<dim>120</dim>
					<dim>28</dim>
					<dim>28</dim>
				</port>
				<port id="1" precision="FP32">
					<dim>1</dim>
					<dim>120</dim>
					<dim>1</dim>
					<dim>1</dim>
				</port>
			</input>
			<output>
				<port id="2" precision="FP32" names="/backbone/features/features.5/conv/conv.0/Conv_output_0">
					<dim>1</dim>
					<dim>120</dim>
					<dim>28</dim>
					<dim>28</dim>
				</port>
			</output>
		</layer>
		<layer id="254" name="/backbone/features/features.5/conv/conv.2/Relu" type="ReLU" version="opset1">
			<input>
				<port id="0" precision="FP32">
					<dim>1</dim>
					<dim>120</dim>
					<dim>28</dim>
					<dim>28</dim>
				</port>
			</input>
			<output>
				<port id="1" precision="FP32" names="/backbone/features/features.5/conv/conv.2/Relu_output_0">
					<dim>1</dim>
					<dim>120</dim>
					<dim>28</dim>
					<dim>28</dim>
				</port>
			</output>
		</layer>
		<layer id="255" name="Constant_58027" type="Const" version="opset1">
			<data element_type="f32" shape="1, 120, 1, 1" offset="30480" size="480" />
			<output>
				<port id="0" precision="FP32">
					<dim>1</dim>
					<dim>120</dim>
					<dim>1</dim>
					<dim>1</dim>
				</port>
			</output>
		</layer>
		<layer id="256" name="Constant_58028" type="Const" version="opset1">
			<data element_type="f32" shape="1, 120, 1, 1" offset="30960" size="480" />
			<output>
				<port id="0" precision="FP32">
					<dim>1</dim>
					<dim>120</dim>
					<dim>1</dim>
					<dim>1</dim>
				</port>
			</output>
		</layer>
		<layer id="257" name="Constant_58029" type="Const" version="opset1">
			<data element_type="f32" shape="1, 120, 1, 1" offset="30480" size="480" />
			<output>
				<port id="0" precision="FP32">
					<dim>1</dim>
					<dim>120</dim>
					<dim>1</dim>
					<dim>1</dim>
				</port>
			</output>
		</layer>
		<layer id="258" name="Constant_58030" type="Const" version="opset1">
			<data element_type="f32" shape="1, 120, 1, 1" offset="30960" size="480" />
			<output>
				<port id="0" precision="FP32">
					<dim>1</dim>
					<dim>120</dim>
					<dim>1</dim>
					<dim>1</dim>
				</port>
			</output>
		</layer>
		<layer id="259" name="/backbone/features/features.5/conv/conv.2/Relu/fq_output_0" type="FakeQuantize" version="opset1">
			<data levels="256" auto_broadcast="numpy" />
			<input>
				<port id="0" precision="FP32">
					<dim>1</dim>
					<dim>120</dim>
					<dim>28</dim>
					<dim>28</dim>
				</port>
				<port id="1" precision="FP32">
					<dim>1</dim>
					<dim>120</dim>
					<dim>1</dim>
					<dim>1</dim>
				</port>
				<port id="2" precision="FP32">
					<dim>1</dim>
					<dim>120</dim>
					<dim>1</dim>
					<dim>1</dim>
				</port>
				<port id="3" precision="FP32">
					<dim>1</dim>
					<dim>120</dim>
					<dim>1</dim>
					<dim>1</dim>
				</port>
				<port id="4" precision="FP32">
					<dim>1</dim>
					<dim>120</dim>
					<dim>1</dim>
					<dim>1</dim>
				</port>
			</input>
			<output>
				<port id="5" precision="FP32">
					<dim>1</dim>
					<dim>120</dim>
					<dim>28</dim>
					<dim>28</dim>
				</port>
			</output>
		</layer>
		<layer id="260" name="Reshape_607" type="Const" version="opset1">
			<data element_type="i8" shape="120, 1, 1, 5, 5" offset="31440" size="3000" />
			<output>
				<port id="0" precision="I8">
					<dim>120</dim>
					<dim>1</dim>
					<dim>1</dim>
					<dim>5</dim>
					<dim>5</dim>
				</port>
			</output>
		</layer>
		<layer id="261" name="Convert_257281" type="Convert" version="opset1">
			<data destination_type="f32" />
			<input>
				<port id="0" precision="I8">
					<dim>120</dim>
					<dim>1</dim>
					<dim>1</dim>
					<dim>5</dim>
					<dim>5</dim>
				</port>
			</input>
			<output>
				<port id="1" precision="FP32">
					<dim>120</dim>
					<dim>1</dim>
					<dim>1</dim>
					<dim>5</dim>
					<dim>5</dim>
				</port>
			</output>
		</layer>
		<layer id="262" name="Constant_257179" type="Const" version="opset1">
			<data element_type="f32" shape="120, 1, 1, 1, 1" offset="34440" size="480" />
			<output>
				<port id="0" precision="FP32">
					<dim>120</dim>
					<dim>1</dim>
					<dim>1</dim>
					<dim>1</dim>
					<dim>1</dim>
				</port>
			</output>
		</layer>
		<layer id="263" name="/backbone/features/features.5/conv/conv.3/Conv/WithoutBiases/fq_weights_1" type="Multiply" version="opset1">
			<data auto_broadcast="numpy" />
			<input>
				<port id="0" precision="FP32">
					<dim>120</dim>
					<dim>1</dim>
					<dim>1</dim>
					<dim>5</dim>
					<dim>5</dim>
				</port>
				<port id="1" precision="FP32">
					<dim>120</dim>
					<dim>1</dim>
					<dim>1</dim>
					<dim>1</dim>
					<dim>1</dim>
				</port>
			</input>
			<output>
				<port id="2" precision="FP32">
					<dim>120</dim>
					<dim>1</dim>
					<dim>1</dim>
					<dim>5</dim>
					<dim>5</dim>
				</port>
			</output>
		</layer>
		<layer id="264" name="/backbone/features/features.5/conv/conv.3/Conv/WithoutBiases" type="GroupConvolution" version="opset1">
			<data strides="1, 1" pads_begin="2, 2" pads_end="2, 2" dilations="1, 1" auto_pad="explicit" />
			<input>
				<port id="0" precision="FP32">
					<dim>1</dim>
					<dim>120</dim>
					<dim>28</dim>
					<dim>28</dim>
				</port>
				<port id="1" precision="FP32">
					<dim>120</dim>
					<dim>1</dim>
					<dim>1</dim>
					<dim>5</dim>
					<dim>5</dim>
				</port>
			</input>
			<output>
				<port id="2" precision="FP32">
					<dim>1</dim>
					<dim>120</dim>
					<dim>28</dim>
					<dim>28</dim>
				</port>
			</output>
		</layer>
		<layer id="265" name="Reshape_659" type="Const" version="opset1">
			<data element_type="f32" shape="1, 120, 1, 1" offset="34920" size="480" />
			<output>
				<port id="0" precision="FP32">
					<dim>1</dim>
					<dim>120</dim>
					<dim>1</dim>
					<dim>1</dim>
				</port>
			</output>
		</layer>
		<layer id="266" name="/backbone/features/features.5/conv/conv.3/Conv" type="Add" version="opset1">
			<data auto_broadcast="numpy" />
			<input>
				<port id="0" precision="FP32">
					<dim>1</dim>
					<dim>120</dim>
					<dim>28</dim>
					<dim>28</dim>
				</port>
				<port id="1" precision="FP32">
					<dim>1</dim>
					<dim>120</dim>
					<dim>1</dim>
					<dim>1</dim>
				</port>
			</input>
			<output>
				<port id="2" precision="FP32" names="/backbone/features/features.5/conv/conv.3/Conv_output_0">
					<dim>1</dim>
					<dim>120</dim>
					<dim>28</dim>
					<dim>28</dim>
				</port>
			</output>
		</layer>
		<layer id="267" name="Constant_58037" type="Const" version="opset1">
			<data element_type="f32" shape="" offset="35400" size="4" />
			<output>
				<port id="0" precision="FP32" />
			</output>
		</layer>
		<layer id="268" name="Constant_58038" type="Const" version="opset1">
			<data element_type="f32" shape="" offset="35404" size="4" />
			<output>
				<port id="0" precision="FP32" />
			</output>
		</layer>
		<layer id="269" name="Constant_58039" type="Const" version="opset1">
			<data element_type="f32" shape="" offset="35400" size="4" />
			<output>
				<port id="0" precision="FP32" />
			</output>
		</layer>
		<layer id="270" name="Constant_58040" type="Const" version="opset1">
			<data element_type="f32" shape="" offset="35404" size="4" />
			<output>
				<port id="0" precision="FP32" />
			</output>
		</layer>
		<layer id="271" name="/backbone/features/features.5/conv/conv.3/Conv/fq_output_0" type="FakeQuantize" version="opset1">
			<data levels="256" auto_broadcast="numpy" />
			<input>
				<port id="0" precision="FP32">
					<dim>1</dim>
					<dim>120</dim>
					<dim>28</dim>
					<dim>28</dim>
				</port>
				<port id="1" precision="FP32" />
				<port id="2" precision="FP32" />
				<port id="3" precision="FP32" />
				<port id="4" precision="FP32" />
			</input>
			<output>
				<port id="5" precision="FP32">
					<dim>1</dim>
					<dim>120</dim>
					<dim>28</dim>
					<dim>28</dim>
				</port>
			</output>
		</layer>
		<layer id="272" name="Range_677" type="Const" version="opset1">
			<data element_type="i64" shape="2" offset="17204" size="16" />
			<output>
				<port id="0" precision="I64">
					<dim>2</dim>
				</port>
			</output>
		</layer>
		<layer id="273" name="/backbone/features/features.5/conv/conv.5/avg_pool/GlobalAveragePool" type="ReduceMean" version="opset1">
			<data keep_dims="true" />
			<input>
				<port id="0" precision="FP32">
					<dim>1</dim>
					<dim>120</dim>
					<dim>28</dim>
					<dim>28</dim>
				</port>
				<port id="1" precision="I64">
					<dim>2</dim>
				</port>
			</input>
			<output>
				<port id="2" precision="FP32" names="/backbone/features/features.5/conv/conv.5/avg_pool/GlobalAveragePool_output_0">
					<dim>1</dim>
					<dim>120</dim>
					<dim>1</dim>
					<dim>1</dim>
				</port>
			</output>
		</layer>
		<layer id="274" name="Constant_58042" type="Const" version="opset1">
			<data element_type="f32" shape="" offset="35408" size="4" />
			<output>
				<port id="0" precision="FP32" />
			</output>
		</layer>
		<layer id="275" name="Constant_58043" type="Const" version="opset1">
			<data element_type="f32" shape="" offset="35412" size="4" />
			<output>
				<port id="0" precision="FP32" />
			</output>
		</layer>
		<layer id="276" name="Constant_58044" type="Const" version="opset1">
			<data element_type="f32" shape="" offset="35408" size="4" />
			<output>
				<port id="0" precision="FP32" />
			</output>
		</layer>
		<layer id="277" name="Constant_58045" type="Const" version="opset1">
			<data element_type="f32" shape="" offset="35412" size="4" />
			<output>
				<port id="0" precision="FP32" />
			</output>
		</layer>
		<layer id="278" name="/backbone/features/features.5/conv/conv.5/avg_pool/GlobalAveragePool/fq_output_0" type="FakeQuantize" version="opset1">
			<data levels="256" auto_broadcast="numpy" />
			<input>
				<port id="0" precision="FP32">
					<dim>1</dim>
					<dim>120</dim>
					<dim>1</dim>
					<dim>1</dim>
				</port>
				<port id="1" precision="FP32" />
				<port id="2" precision="FP32" />
				<port id="3" precision="FP32" />
				<port id="4" precision="FP32" />
			</input>
			<output>
				<port id="5" precision="FP32">
					<dim>1</dim>
					<dim>120</dim>
					<dim>1</dim>
					<dim>1</dim>
				</port>
			</output>
		</layer>
		<layer id="279" name="/backbone/features/features.5/conv/conv.5/Concat" type="Const" version="opset1">
			<data element_type="i64" shape="2" offset="35416" size="16" />
			<output>
				<port id="0" precision="I64" names="/backbone/features/features.5/conv/conv.5/Concat_output_0">
					<dim>2</dim>
				</port>
			</output>
		</layer>
		<layer id="280" name="/backbone/features/features.5/conv/conv.5/Reshape" type="Reshape" version="opset1">
			<data special_zero="true" />
			<input>
				<port id="0" precision="FP32">
					<dim>1</dim>
					<dim>120</dim>
					<dim>1</dim>
					<dim>1</dim>
				</port>
				<port id="1" precision="I64">
					<dim>2</dim>
				</port>
			</input>
			<output>
				<port id="2" precision="FP32" names="/backbone/features/features.5/conv/conv.5/Reshape_output_0">
					<dim>1</dim>
					<dim>120</dim>
				</port>
			</output>
		</layer>
		<layer id="281" name="features.5.conv.5.fc.0.weight" type="Const" version="opset1">
			<data element_type="i8" shape="32, 120" offset="35432" size="3840" />
			<output>
				<port id="0" precision="I8">
					<dim>32</dim>
					<dim>120</dim>
				</port>
			</output>
		</layer>
		<layer id="282" name="Convert_257435" type="Convert" version="opset1">
			<data destination_type="f32" />
			<input>
				<port id="0" precision="I8">
					<dim>32</dim>
					<dim>120</dim>
				</port>
			</input>
			<output>
				<port id="1" precision="FP32">
					<dim>32</dim>
					<dim>120</dim>
				</port>
			</output>
		</layer>
		<layer id="283" name="Constant_257333" type="Const" version="opset1">
			<data element_type="f32" shape="32, 1" offset="39272" size="128" />
			<output>
				<port id="0" precision="FP32">
					<dim>32</dim>
					<dim>1</dim>
				</port>
			</output>
		</layer>
		<layer id="284" name="/backbone/features/features.5/conv/conv.5/fc/fc.0/Gemm/WithoutBiases/fq_weights_1" type="Multiply" version="opset1">
			<data auto_broadcast="numpy" />
			<input>
				<port id="0" precision="FP32">
					<dim>32</dim>
					<dim>120</dim>
				</port>
				<port id="1" precision="FP32">
					<dim>32</dim>
					<dim>1</dim>
				</port>
			</input>
			<output>
				<port id="2" precision="FP32">
					<dim>32</dim>
					<dim>120</dim>
				</port>
			</output>
		</layer>
		<layer id="285" name="/backbone/features/features.5/conv/conv.5/fc/fc.0/Gemm/WithoutBiases" type="MatMul" version="opset1">
			<data transpose_a="false" transpose_b="true" />
			<input>
				<port id="0" precision="FP32">
					<dim>1</dim>
					<dim>120</dim>
				</port>
				<port id="1" precision="FP32">
					<dim>32</dim>
					<dim>120</dim>
				</port>
			</input>
			<output>
				<port id="2" precision="FP32">
					<dim>1</dim>
					<dim>32</dim>
				</port>
			</output>
		</layer>
		<layer id="286" name="Constant_6308" type="Const" version="opset1">
			<data element_type="f32" shape="1, 32" offset="39400" size="128" />
			<output>
				<port id="0" precision="FP32">
					<dim>1</dim>
					<dim>32</dim>
				</port>
			</output>
		</layer>
		<layer id="287" name="/backbone/features/features.5/conv/conv.5/fc/fc.0/Gemm" type="Add" version="opset1">
			<data auto_broadcast="numpy" />
			<input>
				<port id="0" precision="FP32">
					<dim>1</dim>
					<dim>32</dim>
				</port>
				<port id="1" precision="FP32">
					<dim>1</dim>
					<dim>32</dim>
				</port>
			</input>
			<output>
				<port id="2" precision="FP32" names="/backbone/features/features.5/conv/conv.5/fc/fc.0/Gemm_output_0">
					<dim>1</dim>
					<dim>32</dim>
				</port>
			</output>
		</layer>
		<layer id="288" name="/backbone/features/features.5/conv/conv.5/fc/fc.1/Relu" type="ReLU" version="opset1">
			<input>
				<port id="0" precision="FP32">
					<dim>1</dim>
					<dim>32</dim>
				</port>
			</input>
			<output>
				<port id="1" precision="FP32" names="/backbone/features/features.5/conv/conv.5/fc/fc.1/Relu_output_0">
					<dim>1</dim>
					<dim>32</dim>
				</port>
			</output>
		</layer>
		<layer id="289" name="Constant_58052" type="Const" version="opset1">
			<data element_type="f32" shape="" offset="604" size="4" />
			<output>
				<port id="0" precision="FP32" />
			</output>
		</layer>
		<layer id="290" name="Constant_58053" type="Const" version="opset1">
			<data element_type="f32" shape="" offset="39528" size="4" />
			<output>
				<port id="0" precision="FP32" />
			</output>
		</layer>
		<layer id="291" name="Constant_58054" type="Const" version="opset1">
			<data element_type="f32" shape="" offset="604" size="4" />
			<output>
				<port id="0" precision="FP32" />
			</output>
		</layer>
		<layer id="292" name="Constant_58055" type="Const" version="opset1">
			<data element_type="f32" shape="" offset="39528" size="4" />
			<output>
				<port id="0" precision="FP32" />
			</output>
		</layer>
		<layer id="293" name="/backbone/features/features.5/conv/conv.5/fc/fc.1/Relu/fq_output_0" type="FakeQuantize" version="opset1">
			<data levels="256" auto_broadcast="numpy" />
			<input>
				<port id="0" precision="FP32">
					<dim>1</dim>
					<dim>32</dim>
				</port>
				<port id="1" precision="FP32" />
				<port id="2" precision="FP32" />
				<port id="3" precision="FP32" />
				<port id="4" precision="FP32" />
			</input>
			<output>
				<port id="5" precision="FP32">
					<dim>1</dim>
					<dim>32</dim>
				</port>
			</output>
		</layer>
		<layer id="294" name="features.5.conv.5.fc.2.weight" type="Const" version="opset1">
			<data element_type="i8" shape="120, 32" offset="39532" size="3840" />
			<output>
				<port id="0" precision="I8">
					<dim>120</dim>
					<dim>32</dim>
				</port>
			</output>
		</layer>
		<layer id="295" name="Convert_257589" type="Convert" version="opset1">
			<data destination_type="f32" />
			<input>
				<port id="0" precision="I8">
					<dim>120</dim>
					<dim>32</dim>
				</port>
			</input>
			<output>
				<port id="1" precision="FP32">
					<dim>120</dim>
					<dim>32</dim>
				</port>
			</output>
		</layer>
		<layer id="296" name="Constant_257487" type="Const" version="opset1">
			<data element_type="f32" shape="120, 1" offset="43372" size="480" />
			<output>
				<port id="0" precision="FP32">
					<dim>120</dim>
					<dim>1</dim>
				</port>
			</output>
		</layer>
		<layer id="297" name="/backbone/features/features.5/conv/conv.5/fc/fc.2/Gemm/WithoutBiases/fq_weights_1" type="Multiply" version="opset1">
			<data auto_broadcast="numpy" />
			<input>
				<port id="0" precision="FP32">
					<dim>120</dim>
					<dim>32</dim>
				</port>
				<port id="1" precision="FP32">
					<dim>120</dim>
					<dim>1</dim>
				</port>
			</input>
			<output>
				<port id="2" precision="FP32">
					<dim>120</dim>
					<dim>32</dim>
				</port>
			</output>
		</layer>
		<layer id="298" name="/backbone/features/features.5/conv/conv.5/fc/fc.2/Gemm/WithoutBiases" type="MatMul" version="opset1">
			<data transpose_a="false" transpose_b="true" />
			<input>
				<port id="0" precision="FP32">
					<dim>1</dim>
					<dim>32</dim>
				</port>
				<port id="1" precision="FP32">
					<dim>120</dim>
					<dim>32</dim>
				</port>
			</input>
			<output>
				<port id="2" precision="FP32">
					<dim>1</dim>
					<dim>120</dim>
				</port>
			</output>
		</layer>
		<layer id="299" name="Constant_6309" type="Const" version="opset1">
			<data element_type="f32" shape="1, 120" offset="43852" size="480" />
			<output>
				<port id="0" precision="FP32">
					<dim>1</dim>
					<dim>120</dim>
				</port>
			</output>
		</layer>
		<layer id="300" name="/backbone/features/features.5/conv/conv.5/fc/fc.3/Add" type="Add" version="opset1">
			<data auto_broadcast="numpy" />
			<input>
				<port id="0" precision="FP32">
					<dim>1</dim>
					<dim>120</dim>
				</port>
				<port id="1" precision="FP32">
					<dim>1</dim>
					<dim>120</dim>
				</port>
			</input>
			<output>
				<port id="2" precision="FP32" names="/backbone/features/features.5/conv/conv.5/fc/fc.3/Add_output_0">
					<dim>1</dim>
					<dim>120</dim>
				</port>
			</output>
		</layer>
		<layer id="301" name="/backbone/features/features.5/conv/conv.5/fc/fc.3/Relu" type="ReLU" version="opset1">
			<input>
				<port id="0" precision="FP32">
					<dim>1</dim>
					<dim>120</dim>
				</port>
			</input>
			<output>
				<port id="1" precision="FP32" names="/backbone/features/features.5/conv/conv.5/fc/fc.3/Relu_output_0">
					<dim>1</dim>
					<dim>120</dim>
				</port>
			</output>
		</layer>
		<layer id="302" name="/backbone/features/features.5/conv/conv.5/fc/fc.3/Clip" type="Clamp" version="opset1">
			<data min="0" max="6" />
			<input>
				<port id="0" precision="FP32">
					<dim>1</dim>
					<dim>120</dim>
				</port>
			</input>
			<output>
				<port id="1" precision="FP32" names="/backbone/features/features.5/conv/conv.5/fc/fc.3/Clip_output_0">
					<dim>1</dim>
					<dim>120</dim>
				</port>
			</output>
		</layer>
		<layer id="303" name="Constant_6310" type="Const" version="opset1">
			<data element_type="f32" shape="1, 1" offset="620" size="4" />
			<output>
				<port id="0" precision="FP32">
					<dim>1</dim>
					<dim>1</dim>
				</port>
			</output>
		</layer>
		<layer id="304" name="/backbone/features/features.5/conv/conv.5/fc/fc.3/Div" type="Multiply" version="opset1">
			<data auto_broadcast="numpy" />
			<input>
				<port id="0" precision="FP32">
					<dim>1</dim>
					<dim>120</dim>
				</port>
				<port id="1" precision="FP32">
					<dim>1</dim>
					<dim>1</dim>
				</port>
			</input>
			<output>
				<port id="2" precision="FP32" names="/backbone/features/features.5/conv/conv.5/fc/fc.3/Div_output_0">
					<dim>1</dim>
					<dim>120</dim>
				</port>
			</output>
		</layer>
		<layer id="305" name="Constant_58062" type="Const" version="opset1">
			<data element_type="f32" shape="" offset="604" size="4" />
			<output>
				<port id="0" precision="FP32" />
			</output>
		</layer>
		<layer id="306" name="Constant_58063" type="Const" version="opset1">
			<data element_type="f32" shape="" offset="44332" size="4" />
			<output>
				<port id="0" precision="FP32" />
			</output>
		</layer>
		<layer id="307" name="Constant_58064" type="Const" version="opset1">
			<data element_type="f32" shape="" offset="604" size="4" />
			<output>
				<port id="0" precision="FP32" />
			</output>
		</layer>
		<layer id="308" name="Constant_58065" type="Const" version="opset1">
			<data element_type="f32" shape="" offset="44332" size="4" />
			<output>
				<port id="0" precision="FP32" />
			</output>
		</layer>
		<layer id="309" name="/backbone/features/features.5/conv/conv.5/fc/fc.3/Div/fq_output_0" type="FakeQuantize" version="opset1">
			<data levels="256" auto_broadcast="numpy" />
			<input>
				<port id="0" precision="FP32">
					<dim>1</dim>
					<dim>120</dim>
				</port>
				<port id="1" precision="FP32" />
				<port id="2" precision="FP32" />
				<port id="3" precision="FP32" />
				<port id="4" precision="FP32" />
			</input>
			<output>
				<port id="5" precision="FP32">
					<dim>1</dim>
					<dim>120</dim>
				</port>
			</output>
		</layer>
		<layer id="310" name="/backbone/features/features.5/conv/conv.5/Shape" type="ShapeOf" version="opset3">
			<data output_type="i64" />
			<input>
				<port id="0" precision="FP32">
					<dim>1</dim>
					<dim>120</dim>
					<dim>28</dim>
					<dim>28</dim>
				</port>
			</input>
			<output>
				<port id="1" precision="I64" names="/backbone/features/features.5/conv/conv.5/Shape_1_output_0,/backbone/features/features.5/conv/conv.5/Shape_output_0">
					<dim>4</dim>
				</port>
			</output>
		</layer>
		<layer id="311" name="Constant_5739" type="Const" version="opset1">
			<data element_type="i64" shape="2" offset="21476" size="16" />
			<output>
				<port id="0" precision="I64">
					<dim>2</dim>
				</port>
			</output>
		</layer>
		<layer id="312" name="Constant_5740" type="Const" version="opset1">
			<data element_type="i64" shape="" offset="21492" size="8" />
			<output>
				<port id="0" precision="I64" />
			</output>
		</layer>
		<layer id="313" name="Gather_5741" type="Gather" version="opset8">
			<data batch_dims="0" />
			<input>
				<port id="0" precision="I64">
					<dim>4</dim>
				</port>
				<port id="1" precision="I64">
					<dim>2</dim>
				</port>
				<port id="2" precision="I64" />
			</input>
			<output>
				<port id="3" precision="I64">
					<dim>2</dim>
				</port>
			</output>
		</layer>
		<layer id="314" name="/backbone/features/features.5/conv/conv.5/Constant_2" type="Const" version="opset1">
			<data element_type="i64" shape="1" offset="21500" size="8" />
			<output>
				<port id="0" precision="I64" names="/backbone/features/features.5/conv/conv.5/Constant_2_output_0">
					<dim>1</dim>
				</port>
			</output>
		</layer>
		<layer id="315" name="/backbone/features/features.5/conv/conv.5/Constant_3" type="Const" version="opset1">
			<data element_type="i64" shape="1" offset="21500" size="8" />
			<output>
				<port id="0" precision="I64" names="/backbone/features/features.5/conv/conv.5/Constant_3_output_0">
					<dim>1</dim>
				</port>
			</output>
		</layer>
		<layer id="316" name="/backbone/features/features.5/conv/conv.5/Concat_1" type="Concat" version="opset1">
			<data axis="0" />
			<input>
				<port id="0" precision="I64">
					<dim>2</dim>
				</port>
				<port id="1" precision="I64">
					<dim>1</dim>
				</port>
				<port id="2" precision="I64">
					<dim>1</dim>
				</port>
			</input>
			<output>
				<port id="3" precision="I64" names="/backbone/features/features.5/conv/conv.5/Concat_1_output_0">
					<dim>4</dim>
				</port>
			</output>
		</layer>
		<layer id="317" name="/backbone/features/features.5/conv/conv.5/Reshape_1" type="Reshape" version="opset1">
			<data special_zero="true" />
			<input>
				<port id="0" precision="FP32">
					<dim>1</dim>
					<dim>120</dim>
				</port>
				<port id="1" precision="I64">
					<dim>4</dim>
				</port>
			</input>
			<output>
				<port id="2" precision="FP32" names="/backbone/features/features.5/conv/conv.5/Reshape_1_output_0">
					<dim>1</dim>
					<dim>120</dim>
					<dim>1</dim>
					<dim>1</dim>
				</port>
			</output>
		</layer>
		<layer id="318" name="/backbone/features/features.5/conv/conv.5/Mul" type="Multiply" version="opset1">
			<data auto_broadcast="numpy" />
			<input>
				<port id="0" precision="FP32">
					<dim>1</dim>
					<dim>120</dim>
					<dim>28</dim>
					<dim>28</dim>
				</port>
				<port id="1" precision="FP32">
					<dim>1</dim>
					<dim>120</dim>
					<dim>1</dim>
					<dim>1</dim>
				</port>
			</input>
			<output>
				<port id="2" precision="FP32" names="/backbone/features/features.5/conv/conv.5/Mul_output_0">
					<dim>1</dim>
					<dim>120</dim>
					<dim>28</dim>
					<dim>28</dim>
				</port>
			</output>
		</layer>
		<layer id="319" name="/backbone/features/features.5/conv/conv.6/Relu" type="ReLU" version="opset1">
			<input>
				<port id="0" precision="FP32">
					<dim>1</dim>
					<dim>120</dim>
					<dim>28</dim>
					<dim>28</dim>
				</port>
			</input>
			<output>
				<port id="1" precision="FP32" names="/backbone/features/features.5/conv/conv.6/Relu_output_0">
					<dim>1</dim>
					<dim>120</dim>
					<dim>28</dim>
					<dim>28</dim>
				</port>
			</output>
		</layer>
		<layer id="320" name="Constant_58067" type="Const" version="opset1">
			<data element_type="f32" shape="" offset="604" size="4" />
			<output>
				<port id="0" precision="FP32" />
			</output>
		</layer>
		<layer id="321" name="Constant_58068" type="Const" version="opset1">
			<data element_type="f32" shape="" offset="44336" size="4" />
			<output>
				<port id="0" precision="FP32" />
			</output>
		</layer>
		<layer id="322" name="Constant_58069" type="Const" version="opset1">
			<data element_type="f32" shape="" offset="604" size="4" />
			<output>
				<port id="0" precision="FP32" />
			</output>
		</layer>
		<layer id="323" name="Constant_58070" type="Const" version="opset1">
			<data element_type="f32" shape="" offset="44336" size="4" />
			<output>
				<port id="0" precision="FP32" />
			</output>
		</layer>
		<layer id="324" name="/backbone/features/features.5/conv/conv.6/Relu/fq_output_0" type="FakeQuantize" version="opset1">
			<data levels="256" auto_broadcast="numpy" />
			<input>
				<port id="0" precision="FP32">
					<dim>1</dim>
					<dim>120</dim>
					<dim>28</dim>
					<dim>28</dim>
				</port>
				<port id="1" precision="FP32" />
				<port id="2" precision="FP32" />
				<port id="3" precision="FP32" />
				<port id="4" precision="FP32" />
			</input>
			<output>
				<port id="5" precision="FP32">
					<dim>1</dim>
					<dim>120</dim>
					<dim>28</dim>
					<dim>28</dim>
				</port>
			</output>
		</layer>
		<layer id="325" name="onnx::Conv_950" type="Const" version="opset1">
			<data element_type="i8" shape="40, 120, 1, 1" offset="44340" size="4800" />
			<output>
				<port id="0" precision="I8">
					<dim>40</dim>
					<dim>120</dim>
					<dim>1</dim>
					<dim>1</dim>
				</port>
			</output>
		</layer>
		<layer id="326" name="Convert_257743" type="Convert" version="opset1">
			<data destination_type="f32" />
			<input>
				<port id="0" precision="I8">
					<dim>40</dim>
					<dim>120</dim>
					<dim>1</dim>
					<dim>1</dim>
				</port>
			</input>
			<output>
				<port id="1" precision="FP32">
					<dim>40</dim>
					<dim>120</dim>
					<dim>1</dim>
					<dim>1</dim>
				</port>
			</output>
		</layer>
		<layer id="327" name="Constant_257641" type="Const" version="opset1">
			<data element_type="f32" shape="40, 1, 1, 1" offset="49140" size="160" />
			<output>
				<port id="0" precision="FP32">
					<dim>40</dim>
					<dim>1</dim>
					<dim>1</dim>
					<dim>1</dim>
				</port>
			</output>
		</layer>
		<layer id="328" name="/backbone/features/features.5/conv/conv.7/Conv/WithoutBiases/fq_weights_1" type="Multiply" version="opset1">
			<data auto_broadcast="numpy" />
			<input>
				<port id="0" precision="FP32">
					<dim>40</dim>
					<dim>120</dim>
					<dim>1</dim>
					<dim>1</dim>
				</port>
				<port id="1" precision="FP32">
					<dim>40</dim>
					<dim>1</dim>
					<dim>1</dim>
					<dim>1</dim>
				</port>
			</input>
			<output>
				<port id="2" precision="FP32">
					<dim>40</dim>
					<dim>120</dim>
					<dim>1</dim>
					<dim>1</dim>
				</port>
			</output>
		</layer>
		<layer id="329" name="/backbone/features/features.5/conv/conv.7/Conv/WithoutBiases" type="Convolution" version="opset1">
			<data strides="1, 1" dilations="1, 1" pads_begin="0, 0" pads_end="0, 0" auto_pad="explicit" />
			<input>
				<port id="0" precision="FP32">
					<dim>1</dim>
					<dim>120</dim>
					<dim>28</dim>
					<dim>28</dim>
				</port>
				<port id="1" precision="FP32">
					<dim>40</dim>
					<dim>120</dim>
					<dim>1</dim>
					<dim>1</dim>
				</port>
			</input>
			<output>
				<port id="2" precision="FP32">
					<dim>1</dim>
					<dim>40</dim>
					<dim>28</dim>
					<dim>28</dim>
				</port>
			</output>
		</layer>
		<layer id="330" name="Reshape_734" type="Const" version="opset1">
			<data element_type="f32" shape="1, 40, 1, 1" offset="49300" size="160" />
			<output>
				<port id="0" precision="FP32">
					<dim>1</dim>
					<dim>40</dim>
					<dim>1</dim>
					<dim>1</dim>
				</port>
			</output>
		</layer>
		<layer id="331" name="/backbone/features/features.5/conv/conv.7/Conv" type="Add" version="opset1">
			<data auto_broadcast="numpy" />
			<input>
				<port id="0" precision="FP32">
					<dim>1</dim>
					<dim>40</dim>
					<dim>28</dim>
					<dim>28</dim>
				</port>
				<port id="1" precision="FP32">
					<dim>1</dim>
					<dim>40</dim>
					<dim>1</dim>
					<dim>1</dim>
				</port>
			</input>
			<output>
				<port id="2" precision="FP32" names="/backbone/features/features.5/conv/conv.7/Conv_output_0">
					<dim>1</dim>
					<dim>40</dim>
					<dim>28</dim>
					<dim>28</dim>
				</port>
			</output>
		</layer>
		<layer id="332" name="Constant_58077" type="Const" version="opset1">
			<data element_type="f32" shape="" offset="49460" size="4" />
			<output>
				<port id="0" precision="FP32" />
			</output>
		</layer>
		<layer id="333" name="Constant_58078" type="Const" version="opset1">
			<data element_type="f32" shape="" offset="49464" size="4" />
			<output>
				<port id="0" precision="FP32" />
			</output>
		</layer>
		<layer id="334" name="Constant_58079" type="Const" version="opset1">
			<data element_type="f32" shape="" offset="49460" size="4" />
			<output>
				<port id="0" precision="FP32" />
			</output>
		</layer>
		<layer id="335" name="Constant_58080" type="Const" version="opset1">
			<data element_type="f32" shape="" offset="49464" size="4" />
			<output>
				<port id="0" precision="FP32" />
			</output>
		</layer>
		<layer id="336" name="/backbone/features/features.5/conv/conv.7/Conv/fq_output_0" type="FakeQuantize" version="opset1">
			<data levels="256" auto_broadcast="numpy" />
			<input>
				<port id="0" precision="FP32">
					<dim>1</dim>
					<dim>40</dim>
					<dim>28</dim>
					<dim>28</dim>
				</port>
				<port id="1" precision="FP32" />
				<port id="2" precision="FP32" />
				<port id="3" precision="FP32" />
				<port id="4" precision="FP32" />
			</input>
			<output>
				<port id="5" precision="FP32">
					<dim>1</dim>
					<dim>40</dim>
					<dim>28</dim>
					<dim>28</dim>
				</port>
			</output>
		</layer>
		<layer id="337" name="/backbone/features/features.5/Add" type="Add" version="opset1">
			<data auto_broadcast="numpy" />
			<input>
				<port id="0" precision="FP32">
					<dim>1</dim>
					<dim>40</dim>
					<dim>28</dim>
					<dim>28</dim>
				</port>
				<port id="1" precision="FP32">
					<dim>1</dim>
					<dim>40</dim>
					<dim>28</dim>
					<dim>28</dim>
				</port>
			</input>
			<output>
				<port id="2" precision="FP32" names="/backbone/features/features.5/Add_output_0">
					<dim>1</dim>
					<dim>40</dim>
					<dim>28</dim>
					<dim>28</dim>
				</port>
			</output>
		</layer>
		<layer id="338" name="Constant_58082" type="Const" version="opset1">
			<data element_type="f32" shape="" offset="49468" size="4" />
			<output>
				<port id="0" precision="FP32" />
			</output>
		</layer>
		<layer id="339" name="Constant_58083" type="Const" version="opset1">
			<data element_type="f32" shape="" offset="49472" size="4" />
			<output>
				<port id="0" precision="FP32" />
			</output>
		</layer>
		<layer id="340" name="Constant_58084" type="Const" version="opset1">
			<data element_type="f32" shape="" offset="49468" size="4" />
			<output>
				<port id="0" precision="FP32" />
			</output>
		</layer>
		<layer id="341" name="Constant_58085" type="Const" version="opset1">
			<data element_type="f32" shape="" offset="49472" size="4" />
			<output>
				<port id="0" precision="FP32" />
			</output>
		</layer>
		<layer id="342" name="/backbone/features/features.5/Add/fq_output_0" type="FakeQuantize" version="opset1">
			<data levels="256" auto_broadcast="numpy" />
			<input>
				<port id="0" precision="FP32">
					<dim>1</dim>
					<dim>40</dim>
					<dim>28</dim>
					<dim>28</dim>
				</port>
				<port id="1" precision="FP32" />
				<port id="2" precision="FP32" />
				<port id="3" precision="FP32" />
				<port id="4" precision="FP32" />
			</input>
			<output>
				<port id="5" precision="FP32">
					<dim>1</dim>
					<dim>40</dim>
					<dim>28</dim>
					<dim>28</dim>
				</port>
			</output>
		</layer>
		<layer id="343" name="onnx::Conv_953" type="Const" version="opset1">
			<data element_type="i8" shape="120, 40, 1, 1" offset="49476" size="4800" />
			<output>
				<port id="0" precision="I8">
					<dim>120</dim>
					<dim>40</dim>
					<dim>1</dim>
					<dim>1</dim>
				</port>
			</output>
		</layer>
		<layer id="344" name="Convert_257897" type="Convert" version="opset1">
			<data destination_type="f32" />
			<input>
				<port id="0" precision="I8">
					<dim>120</dim>
					<dim>40</dim>
					<dim>1</dim>
					<dim>1</dim>
				</port>
			</input>
			<output>
				<port id="1" precision="FP32">
					<dim>120</dim>
					<dim>40</dim>
					<dim>1</dim>
					<dim>1</dim>
				</port>
			</output>
		</layer>
		<layer id="345" name="Constant_257795" type="Const" version="opset1">
			<data element_type="f32" shape="120, 1, 1, 1" offset="54276" size="480" />
			<output>
				<port id="0" precision="FP32">
					<dim>120</dim>
					<dim>1</dim>
					<dim>1</dim>
					<dim>1</dim>
				</port>
			</output>
		</layer>
		<layer id="346" name="/backbone/features/features.6/conv/conv.0/Conv/WithoutBiases/fq_weights_1" type="Multiply" version="opset1">
			<data auto_broadcast="numpy" />
			<input>
				<port id="0" precision="FP32">
					<dim>120</dim>
					<dim>40</dim>
					<dim>1</dim>
					<dim>1</dim>
				</port>
				<port id="1" precision="FP32">
					<dim>120</dim>
					<dim>1</dim>
					<dim>1</dim>
					<dim>1</dim>
				</port>
			</input>
			<output>
				<port id="2" precision="FP32">
					<dim>120</dim>
					<dim>40</dim>
					<dim>1</dim>
					<dim>1</dim>
				</port>
			</output>
		</layer>
		<layer id="347" name="/backbone/features/features.6/conv/conv.0/Conv/WithoutBiases" type="Convolution" version="opset1">
			<data strides="1, 1" dilations="1, 1" pads_begin="0, 0" pads_end="0, 0" auto_pad="explicit" />
			<input>
				<port id="0" precision="FP32">
					<dim>1</dim>
					<dim>40</dim>
					<dim>28</dim>
					<dim>28</dim>
				</port>
				<port id="1" precision="FP32">
					<dim>120</dim>
					<dim>40</dim>
					<dim>1</dim>
					<dim>1</dim>
				</port>
			</input>
			<output>
				<port id="2" precision="FP32">
					<dim>1</dim>
					<dim>120</dim>
					<dim>28</dim>
					<dim>28</dim>
				</port>
			</output>
		</layer>
		<layer id="348" name="Reshape_750" type="Const" version="opset1">
			<data element_type="f32" shape="1, 120, 1, 1" offset="54756" size="480" />
			<output>
				<port id="0" precision="FP32">
					<dim>1</dim>
					<dim>120</dim>
					<dim>1</dim>
					<dim>1</dim>
				</port>
			</output>
		</layer>
		<layer id="349" name="/backbone/features/features.6/conv/conv.0/Conv" type="Add" version="opset1">
			<data auto_broadcast="numpy" />
			<input>
				<port id="0" precision="FP32">
					<dim>1</dim>
					<dim>120</dim>
					<dim>28</dim>
					<dim>28</dim>
				</port>
				<port id="1" precision="FP32">
					<dim>1</dim>
					<dim>120</dim>
					<dim>1</dim>
					<dim>1</dim>
				</port>
			</input>
			<output>
				<port id="2" precision="FP32" names="/backbone/features/features.6/conv/conv.0/Conv_output_0">
					<dim>1</dim>
					<dim>120</dim>
					<dim>28</dim>
					<dim>28</dim>
				</port>
			</output>
		</layer>
		<layer id="350" name="/backbone/features/features.6/conv/conv.2/Relu" type="ReLU" version="opset1">
			<input>
				<port id="0" precision="FP32">
					<dim>1</dim>
					<dim>120</dim>
					<dim>28</dim>
					<dim>28</dim>
				</port>
			</input>
			<output>
				<port id="1" precision="FP32" names="/backbone/features/features.6/conv/conv.2/Relu_output_0">
					<dim>1</dim>
					<dim>120</dim>
					<dim>28</dim>
					<dim>28</dim>
				</port>
			</output>
		</layer>
		<layer id="351" name="Constant_58092" type="Const" version="opset1">
			<data element_type="f32" shape="1, 120, 1, 1" offset="30480" size="480" />
			<output>
				<port id="0" precision="FP32">
					<dim>1</dim>
					<dim>120</dim>
					<dim>1</dim>
					<dim>1</dim>
				</port>
			</output>
		</layer>
		<layer id="352" name="Constant_58093" type="Const" version="opset1">
			<data element_type="f32" shape="1, 120, 1, 1" offset="55236" size="480" />
			<output>
				<port id="0" precision="FP32">
					<dim>1</dim>
					<dim>120</dim>
					<dim>1</dim>
					<dim>1</dim>
				</port>
			</output>
		</layer>
		<layer id="353" name="Constant_58094" type="Const" version="opset1">
			<data element_type="f32" shape="1, 120, 1, 1" offset="30480" size="480" />
			<output>
				<port id="0" precision="FP32">
					<dim>1</dim>
					<dim>120</dim>
					<dim>1</dim>
					<dim>1</dim>
				</port>
			</output>
		</layer>
		<layer id="354" name="Constant_58095" type="Const" version="opset1">
			<data element_type="f32" shape="1, 120, 1, 1" offset="55236" size="480" />
			<output>
				<port id="0" precision="FP32">
					<dim>1</dim>
					<dim>120</dim>
					<dim>1</dim>
					<dim>1</dim>
				</port>
			</output>
		</layer>
		<layer id="355" name="/backbone/features/features.6/conv/conv.2/Relu/fq_output_0" type="FakeQuantize" version="opset1">
			<data levels="256" auto_broadcast="numpy" />
			<input>
				<port id="0" precision="FP32">
					<dim>1</dim>
					<dim>120</dim>
					<dim>28</dim>
					<dim>28</dim>
				</port>
				<port id="1" precision="FP32">
					<dim>1</dim>
					<dim>120</dim>
					<dim>1</dim>
					<dim>1</dim>
				</port>
				<port id="2" precision="FP32">
					<dim>1</dim>
					<dim>120</dim>
					<dim>1</dim>
					<dim>1</dim>
				</port>
				<port id="3" precision="FP32">
					<dim>1</dim>
					<dim>120</dim>
					<dim>1</dim>
					<dim>1</dim>
				</port>
				<port id="4" precision="FP32">
					<dim>1</dim>
					<dim>120</dim>
					<dim>1</dim>
					<dim>1</dim>
				</port>
			</input>
			<output>
				<port id="5" precision="FP32">
					<dim>1</dim>
					<dim>120</dim>
					<dim>28</dim>
					<dim>28</dim>
				</port>
			</output>
		</layer>
		<layer id="356" name="Reshape_762" type="Const" version="opset1">
			<data element_type="i8" shape="120, 1, 1, 5, 5" offset="55716" size="3000" />
			<output>
				<port id="0" precision="I8">
					<dim>120</dim>
					<dim>1</dim>
					<dim>1</dim>
					<dim>5</dim>
					<dim>5</dim>
				</port>
			</output>
		</layer>
		<layer id="357" name="Convert_258051" type="Convert" version="opset1">
			<data destination_type="f32" />
			<input>
				<port id="0" precision="I8">
					<dim>120</dim>
					<dim>1</dim>
					<dim>1</dim>
					<dim>5</dim>
					<dim>5</dim>
				</port>
			</input>
			<output>
				<port id="1" precision="FP32">
					<dim>120</dim>
					<dim>1</dim>
					<dim>1</dim>
					<dim>5</dim>
					<dim>5</dim>
				</port>
			</output>
		</layer>
		<layer id="358" name="Constant_257949" type="Const" version="opset1">
			<data element_type="f32" shape="120, 1, 1, 1, 1" offset="58716" size="480" />
			<output>
				<port id="0" precision="FP32">
					<dim>120</dim>
					<dim>1</dim>
					<dim>1</dim>
					<dim>1</dim>
					<dim>1</dim>
				</port>
			</output>
		</layer>
		<layer id="359" name="/backbone/features/features.6/conv/conv.3/Conv/WithoutBiases/fq_weights_1" type="Multiply" version="opset1">
			<data auto_broadcast="numpy" />
			<input>
				<port id="0" precision="FP32">
					<dim>120</dim>
					<dim>1</dim>
					<dim>1</dim>
					<dim>5</dim>
					<dim>5</dim>
				</port>
				<port id="1" precision="FP32">
					<dim>120</dim>
					<dim>1</dim>
					<dim>1</dim>
					<dim>1</dim>
					<dim>1</dim>
				</port>
			</input>
			<output>
				<port id="2" precision="FP32">
					<dim>120</dim>
					<dim>1</dim>
					<dim>1</dim>
					<dim>5</dim>
					<dim>5</dim>
				</port>
			</output>
		</layer>
		<layer id="360" name="/backbone/features/features.6/conv/conv.3/Conv/WithoutBiases" type="GroupConvolution" version="opset1">
			<data strides="1, 1" pads_begin="2, 2" pads_end="2, 2" dilations="1, 1" auto_pad="explicit" />
			<input>
				<port id="0" precision="FP32">
					<dim>1</dim>
					<dim>120</dim>
					<dim>28</dim>
					<dim>28</dim>
				</port>
				<port id="1" precision="FP32">
					<dim>120</dim>
					<dim>1</dim>
					<dim>1</dim>
					<dim>5</dim>
					<dim>5</dim>
				</port>
			</input>
			<output>
				<port id="2" precision="FP32">
					<dim>1</dim>
					<dim>120</dim>
					<dim>28</dim>
					<dim>28</dim>
				</port>
			</output>
		</layer>
		<layer id="361" name="Reshape_814" type="Const" version="opset1">
			<data element_type="f32" shape="1, 120, 1, 1" offset="59196" size="480" />
			<output>
				<port id="0" precision="FP32">
					<dim>1</dim>
					<dim>120</dim>
					<dim>1</dim>
					<dim>1</dim>
				</port>
			</output>
		</layer>
		<layer id="362" name="/backbone/features/features.6/conv/conv.3/Conv" type="Add" version="opset1">
			<data auto_broadcast="numpy" />
			<input>
				<port id="0" precision="FP32">
					<dim>1</dim>
					<dim>120</dim>
					<dim>28</dim>
					<dim>28</dim>
				</port>
				<port id="1" precision="FP32">
					<dim>1</dim>
					<dim>120</dim>
					<dim>1</dim>
					<dim>1</dim>
				</port>
			</input>
			<output>
				<port id="2" precision="FP32" names="/backbone/features/features.6/conv/conv.3/Conv_output_0">
					<dim>1</dim>
					<dim>120</dim>
					<dim>28</dim>
					<dim>28</dim>
				</port>
			</output>
		</layer>
		<layer id="363" name="Constant_58102" type="Const" version="opset1">
			<data element_type="f32" shape="" offset="59676" size="4" />
			<output>
				<port id="0" precision="FP32" />
			</output>
		</layer>
		<layer id="364" name="Constant_58103" type="Const" version="opset1">
			<data element_type="f32" shape="" offset="59680" size="4" />
			<output>
				<port id="0" precision="FP32" />
			</output>
		</layer>
		<layer id="365" name="Constant_58104" type="Const" version="opset1">
			<data element_type="f32" shape="" offset="59676" size="4" />
			<output>
				<port id="0" precision="FP32" />
			</output>
		</layer>
		<layer id="366" name="Constant_58105" type="Const" version="opset1">
			<data element_type="f32" shape="" offset="59680" size="4" />
			<output>
				<port id="0" precision="FP32" />
			</output>
		</layer>
		<layer id="367" name="/backbone/features/features.6/conv/conv.3/Conv/fq_output_0" type="FakeQuantize" version="opset1">
			<data levels="256" auto_broadcast="numpy" />
			<input>
				<port id="0" precision="FP32">
					<dim>1</dim>
					<dim>120</dim>
					<dim>28</dim>
					<dim>28</dim>
				</port>
				<port id="1" precision="FP32" />
				<port id="2" precision="FP32" />
				<port id="3" precision="FP32" />
				<port id="4" precision="FP32" />
			</input>
			<output>
				<port id="5" precision="FP32">
					<dim>1</dim>
					<dim>120</dim>
					<dim>28</dim>
					<dim>28</dim>
				</port>
			</output>
		</layer>
		<layer id="368" name="Range_832" type="Const" version="opset1">
			<data element_type="i64" shape="2" offset="17204" size="16" />
			<output>
				<port id="0" precision="I64">
					<dim>2</dim>
				</port>
			</output>
		</layer>
		<layer id="369" name="/backbone/features/features.6/conv/conv.5/avg_pool/GlobalAveragePool" type="ReduceMean" version="opset1">
			<data keep_dims="true" />
			<input>
				<port id="0" precision="FP32">
					<dim>1</dim>
					<dim>120</dim>
					<dim>28</dim>
					<dim>28</dim>
				</port>
				<port id="1" precision="I64">
					<dim>2</dim>
				</port>
			</input>
			<output>
				<port id="2" precision="FP32" names="/backbone/features/features.6/conv/conv.5/avg_pool/GlobalAveragePool_output_0">
					<dim>1</dim>
					<dim>120</dim>
					<dim>1</dim>
					<dim>1</dim>
				</port>
			</output>
		</layer>
		<layer id="370" name="Constant_58107" type="Const" version="opset1">
			<data element_type="f32" shape="" offset="59684" size="4" />
			<output>
				<port id="0" precision="FP32" />
			</output>
		</layer>
		<layer id="371" name="Constant_58108" type="Const" version="opset1">
			<data element_type="f32" shape="" offset="59688" size="4" />
			<output>
				<port id="0" precision="FP32" />
			</output>
		</layer>
		<layer id="372" name="Constant_58109" type="Const" version="opset1">
			<data element_type="f32" shape="" offset="59684" size="4" />
			<output>
				<port id="0" precision="FP32" />
			</output>
		</layer>
		<layer id="373" name="Constant_58110" type="Const" version="opset1">
			<data element_type="f32" shape="" offset="59688" size="4" />
			<output>
				<port id="0" precision="FP32" />
			</output>
		</layer>
		<layer id="374" name="/backbone/features/features.6/conv/conv.5/avg_pool/GlobalAveragePool/fq_output_0" type="FakeQuantize" version="opset1">
			<data levels="256" auto_broadcast="numpy" />
			<input>
				<port id="0" precision="FP32">
					<dim>1</dim>
					<dim>120</dim>
					<dim>1</dim>
					<dim>1</dim>
				</port>
				<port id="1" precision="FP32" />
				<port id="2" precision="FP32" />
				<port id="3" precision="FP32" />
				<port id="4" precision="FP32" />
			</input>
			<output>
				<port id="5" precision="FP32">
					<dim>1</dim>
					<dim>120</dim>
					<dim>1</dim>
					<dim>1</dim>
				</port>
			</output>
		</layer>
		<layer id="375" name="/backbone/features/features.6/conv/conv.5/Concat" type="Const" version="opset1">
			<data element_type="i64" shape="2" offset="35416" size="16" />
			<output>
				<port id="0" precision="I64" names="/backbone/features/features.6/conv/conv.5/Concat_output_0">
					<dim>2</dim>
				</port>
			</output>
		</layer>
		<layer id="376" name="/backbone/features/features.6/conv/conv.5/Reshape" type="Reshape" version="opset1">
			<data special_zero="true" />
			<input>
				<port id="0" precision="FP32">
					<dim>1</dim>
					<dim>120</dim>
					<dim>1</dim>
					<dim>1</dim>
				</port>
				<port id="1" precision="I64">
					<dim>2</dim>
				</port>
			</input>
			<output>
				<port id="2" precision="FP32" names="/backbone/features/features.6/conv/conv.5/Reshape_output_0">
					<dim>1</dim>
					<dim>120</dim>
				</port>
			</output>
		</layer>
		<layer id="377" name="features.6.conv.5.fc.0.weight" type="Const" version="opset1">
			<data element_type="i8" shape="32, 120" offset="59692" size="3840" />
			<output>
				<port id="0" precision="I8">
					<dim>32</dim>
					<dim>120</dim>
				</port>
			</output>
		</layer>
		<layer id="378" name="Convert_258205" type="Convert" version="opset1">
			<data destination_type="f32" />
			<input>
				<port id="0" precision="I8">
					<dim>32</dim>
					<dim>120</dim>
				</port>
			</input>
			<output>
				<port id="1" precision="FP32">
					<dim>32</dim>
					<dim>120</dim>
				</port>
			</output>
		</layer>
		<layer id="379" name="Constant_258103" type="Const" version="opset1">
			<data element_type="f32" shape="32, 1" offset="63532" size="128" />
			<output>
				<port id="0" precision="FP32">
					<dim>32</dim>
					<dim>1</dim>
				</port>
			</output>
		</layer>
		<layer id="380" name="/backbone/features/features.6/conv/conv.5/fc/fc.0/Gemm/WithoutBiases/fq_weights_1" type="Multiply" version="opset1">
			<data auto_broadcast="numpy" />
			<input>
				<port id="0" precision="FP32">
					<dim>32</dim>
					<dim>120</dim>
				</port>
				<port id="1" precision="FP32">
					<dim>32</dim>
					<dim>1</dim>
				</port>
			</input>
			<output>
				<port id="2" precision="FP32">
					<dim>32</dim>
					<dim>120</dim>
				</port>
			</output>
		</layer>
		<layer id="381" name="/backbone/features/features.6/conv/conv.5/fc/fc.0/Gemm/WithoutBiases" type="MatMul" version="opset1">
			<data transpose_a="false" transpose_b="true" />
			<input>
				<port id="0" precision="FP32">
					<dim>1</dim>
					<dim>120</dim>
				</port>
				<port id="1" precision="FP32">
					<dim>32</dim>
					<dim>120</dim>
				</port>
			</input>
			<output>
				<port id="2" precision="FP32">
					<dim>1</dim>
					<dim>32</dim>
				</port>
			</output>
		</layer>
		<layer id="382" name="Constant_6311" type="Const" version="opset1">
			<data element_type="f32" shape="1, 32" offset="63660" size="128" />
			<output>
				<port id="0" precision="FP32">
					<dim>1</dim>
					<dim>32</dim>
				</port>
			</output>
		</layer>
		<layer id="383" name="/backbone/features/features.6/conv/conv.5/fc/fc.0/Gemm" type="Add" version="opset1">
			<data auto_broadcast="numpy" />
			<input>
				<port id="0" precision="FP32">
					<dim>1</dim>
					<dim>32</dim>
				</port>
				<port id="1" precision="FP32">
					<dim>1</dim>
					<dim>32</dim>
				</port>
			</input>
			<output>
				<port id="2" precision="FP32" names="/backbone/features/features.6/conv/conv.5/fc/fc.0/Gemm_output_0">
					<dim>1</dim>
					<dim>32</dim>
				</port>
			</output>
		</layer>
		<layer id="384" name="/backbone/features/features.6/conv/conv.5/fc/fc.1/Relu" type="ReLU" version="opset1">
			<input>
				<port id="0" precision="FP32">
					<dim>1</dim>
					<dim>32</dim>
				</port>
			</input>
			<output>
				<port id="1" precision="FP32" names="/backbone/features/features.6/conv/conv.5/fc/fc.1/Relu_output_0">
					<dim>1</dim>
					<dim>32</dim>
				</port>
			</output>
		</layer>
		<layer id="385" name="Constant_58117" type="Const" version="opset1">
			<data element_type="f32" shape="" offset="604" size="4" />
			<output>
				<port id="0" precision="FP32" />
			</output>
		</layer>
		<layer id="386" name="Constant_58118" type="Const" version="opset1">
			<data element_type="f32" shape="" offset="63788" size="4" />
			<output>
				<port id="0" precision="FP32" />
			</output>
		</layer>
		<layer id="387" name="Constant_58119" type="Const" version="opset1">
			<data element_type="f32" shape="" offset="604" size="4" />
			<output>
				<port id="0" precision="FP32" />
			</output>
		</layer>
		<layer id="388" name="Constant_58120" type="Const" version="opset1">
			<data element_type="f32" shape="" offset="63788" size="4" />
			<output>
				<port id="0" precision="FP32" />
			</output>
		</layer>
		<layer id="389" name="/backbone/features/features.6/conv/conv.5/fc/fc.1/Relu/fq_output_0" type="FakeQuantize" version="opset1">
			<data levels="256" auto_broadcast="numpy" />
			<input>
				<port id="0" precision="FP32">
					<dim>1</dim>
					<dim>32</dim>
				</port>
				<port id="1" precision="FP32" />
				<port id="2" precision="FP32" />
				<port id="3" precision="FP32" />
				<port id="4" precision="FP32" />
			</input>
			<output>
				<port id="5" precision="FP32">
…
		<edge from-layer="754" from-port="2" to-layer="759" to-port="0" />
		<edge from-layer="755" from-port="0" to-layer="759" to-port="1" />
		<edge from-layer="756" from-port="0" to-layer="759" to-port="2" />
		<edge from-layer="757" from-port="0" to-layer="759" to-port="3" />
		<edge from-layer="758" from-port="0" to-layer="759" to-port="4" />
		<edge from-layer="759" from-port="5" to-layer="798" to-port="0" />
		<edge from-layer="759" from-port="5" to-layer="806" to-port="0" />
		<edge from-layer="759" from-port="5" to-layer="761" to-port="0" />
		<edge from-layer="760" from-port="0" to-layer="761" to-port="1" />
		<edge from-layer="761" from-port="2" to-layer="766" to-port="0" />
		<edge from-layer="762" from-port="0" to-layer="766" to-port="1" />
		<edge from-layer="763" from-port="0" to-layer="766" to-port="2" />
		<edge from-layer="764" from-port="0" to-layer="766" to-port="3" />
		<edge from-layer="765" from-port="0" to-layer="766" to-port="4" />
		<edge from-layer="766" from-port="5" to-layer="768" to-port="0" />
		<edge from-layer="767" from-port="0" to-layer="768" to-port="1" />
		<edge from-layer="768" from-port="2" to-layer="773" to-port="0" />
		<edge from-layer="769" from-port="0" to-layer="770" to-port="0" />
		<edge from-layer="770" from-port="1" to-layer="772" to-port="0" />
		<edge from-layer="771" from-port="0" to-layer="772" to-port="1" />
		<edge from-layer="772" from-port="2" to-layer="773" to-port="1" />
		<edge from-layer="773" from-port="2" to-layer="775" to-port="0" />
		<edge from-layer="774" from-port="0" to-layer="775" to-port="1" />
		<edge from-layer="775" from-port="2" to-layer="776" to-port="0" />
		<edge from-layer="776" from-port="1" to-layer="781" to-port="0" />
		<edge from-layer="777" from-port="0" to-layer="781" to-port="1" />
		<edge from-layer="778" from-port="0" to-layer="781" to-port="2" />
		<edge from-layer="779" from-port="0" to-layer="781" to-port="3" />
		<edge from-layer="780" from-port="0" to-layer="781" to-port="4" />
		<edge from-layer="781" from-port="5" to-layer="786" to-port="0" />
		<edge from-layer="782" from-port="0" to-layer="783" to-port="0" />
		<edge from-layer="783" from-port="1" to-layer="785" to-port="0" />
		<edge from-layer="784" from-port="0" to-layer="785" to-port="1" />
		<edge from-layer="785" from-port="2" to-layer="786" to-port="1" />
		<edge from-layer="786" from-port="2" to-layer="788" to-port="0" />
		<edge from-layer="787" from-port="0" to-layer="788" to-port="1" />
		<edge from-layer="788" from-port="2" to-layer="789" to-port="0" />
		<edge from-layer="789" from-port="1" to-layer="790" to-port="0" />
		<edge from-layer="790" from-port="1" to-layer="792" to-port="0" />
		<edge from-layer="791" from-port="0" to-layer="792" to-port="1" />
		<edge from-layer="792" from-port="2" to-layer="797" to-port="0" />
		<edge from-layer="793" from-port="0" to-layer="797" to-port="1" />
		<edge from-layer="794" from-port="0" to-layer="797" to-port="2" />
		<edge from-layer="795" from-port="0" to-layer="797" to-port="3" />
		<edge from-layer="796" from-port="0" to-layer="797" to-port="4" />
		<edge from-layer="797" from-port="5" to-layer="805" to-port="0" />
		<edge from-layer="798" from-port="1" to-layer="801" to-port="0" />
		<edge from-layer="799" from-port="0" to-layer="801" to-port="1" />
		<edge from-layer="800" from-port="0" to-layer="801" to-port="2" />
		<edge from-layer="801" from-port="3" to-layer="804" to-port="0" />
		<edge from-layer="802" from-port="0" to-layer="804" to-port="1" />
		<edge from-layer="803" from-port="0" to-layer="804" to-port="2" />
		<edge from-layer="804" from-port="3" to-layer="805" to-port="1" />
		<edge from-layer="805" from-port="2" to-layer="806" to-port="1" />
		<edge from-layer="806" from-port="2" to-layer="811" to-port="0" />
		<edge from-layer="807" from-port="0" to-layer="811" to-port="1" />
		<edge from-layer="808" from-port="0" to-layer="811" to-port="2" />
		<edge from-layer="809" from-port="0" to-layer="811" to-port="3" />
		<edge from-layer="810" from-port="0" to-layer="811" to-port="4" />
		<edge from-layer="811" from-port="5" to-layer="813" to-port="0" />
		<edge from-layer="811" from-port="5" to-layer="821" to-port="0" />
		<edge from-layer="812" from-port="0" to-layer="813" to-port="1" />
		<edge from-layer="813" from-port="2" to-layer="814" to-port="0" />
		<edge from-layer="814" from-port="1" to-layer="815" to-port="0" />
		<edge from-layer="815" from-port="1" to-layer="820" to-port="0" />
		<edge from-layer="816" from-port="0" to-layer="820" to-port="1" />
		<edge from-layer="817" from-port="0" to-layer="820" to-port="2" />
		<edge from-layer="818" from-port="0" to-layer="820" to-port="3" />
		<edge from-layer="819" from-port="0" to-layer="820" to-port="4" />
		<edge from-layer="820" from-port="5" to-layer="821" to-port="1" />
		<edge from-layer="821" from-port="2" to-layer="826" to-port="0" />
		<edge from-layer="822" from-port="0" to-layer="826" to-port="1" />
		<edge from-layer="823" from-port="0" to-layer="826" to-port="2" />
		<edge from-layer="824" from-port="0" to-layer="826" to-port="3" />
		<edge from-layer="825" from-port="0" to-layer="826" to-port="4" />
		<edge from-layer="826" from-port="5" to-layer="831" to-port="0" />
		<edge from-layer="827" from-port="0" to-layer="828" to-port="0" />
		<edge from-layer="828" from-port="1" to-layer="830" to-port="0" />
		<edge from-layer="829" from-port="0" to-layer="830" to-port="1" />
		<edge from-layer="830" from-port="2" to-layer="831" to-port="1" />
		<edge from-layer="831" from-port="2" to-layer="833" to-port="0" />
		<edge from-layer="832" from-port="0" to-layer="833" to-port="1" />
		<edge from-layer="833" from-port="2" to-layer="838" to-port="0" />
		<edge from-layer="834" from-port="0" to-layer="838" to-port="1" />
		<edge from-layer="835" from-port="0" to-layer="838" to-port="2" />
		<edge from-layer="836" from-port="0" to-layer="838" to-port="3" />
		<edge from-layer="837" from-port="0" to-layer="838" to-port="4" />
		<edge from-layer="838" from-port="5" to-layer="957" to-port="0" />
		<edge from-layer="838" from-port="5" to-layer="843" to-port="0" />
		<edge from-layer="839" from-port="0" to-layer="840" to-port="0" />
		<edge from-layer="840" from-port="1" to-layer="842" to-port="0" />
		<edge from-layer="841" from-port="0" to-layer="842" to-port="1" />
		<edge from-layer="842" from-port="2" to-layer="843" to-port="1" />
		<edge from-layer="843" from-port="2" to-layer="845" to-port="0" />
		<edge from-layer="844" from-port="0" to-layer="845" to-port="1" />
		<edge from-layer="845" from-port="2" to-layer="850" to-port="0" />
		<edge from-layer="846" from-port="0" to-layer="850" to-port="1" />
		<edge from-layer="847" from-port="0" to-layer="850" to-port="2" />
		<edge from-layer="848" from-port="0" to-layer="850" to-port="3" />
		<edge from-layer="849" from-port="0" to-layer="850" to-port="4" />
		<edge from-layer="850" from-port="5" to-layer="852" to-port="0" />
		<edge from-layer="850" from-port="5" to-layer="860" to-port="0" />
		<edge from-layer="851" from-port="0" to-layer="852" to-port="1" />
		<edge from-layer="852" from-port="2" to-layer="853" to-port="0" />
		<edge from-layer="853" from-port="1" to-layer="854" to-port="0" />
		<edge from-layer="854" from-port="1" to-layer="859" to-port="0" />
		<edge from-layer="855" from-port="0" to-layer="859" to-port="1" />
		<edge from-layer="856" from-port="0" to-layer="859" to-port="2" />
		<edge from-layer="857" from-port="0" to-layer="859" to-port="3" />
		<edge from-layer="858" from-port="0" to-layer="859" to-port="4" />
		<edge from-layer="859" from-port="5" to-layer="860" to-port="1" />
		<edge from-layer="860" from-port="2" to-layer="865" to-port="0" />
		<edge from-layer="861" from-port="0" to-layer="865" to-port="1" />
		<edge from-layer="862" from-port="0" to-layer="865" to-port="2" />
		<edge from-layer="863" from-port="0" to-layer="865" to-port="3" />
		<edge from-layer="864" from-port="0" to-layer="865" to-port="4" />
		<edge from-layer="865" from-port="5" to-layer="870" to-port="0" />
		<edge from-layer="866" from-port="0" to-layer="867" to-port="0" />
		<edge from-layer="867" from-port="1" to-layer="869" to-port="0" />
		<edge from-layer="868" from-port="0" to-layer="869" to-port="1" />
		<edge from-layer="869" from-port="2" to-layer="870" to-port="1" />
		<edge from-layer="870" from-port="2" to-layer="872" to-port="0" />
		<edge from-layer="871" from-port="0" to-layer="872" to-port="1" />
		<edge from-layer="872" from-port="2" to-layer="877" to-port="0" />
		<edge from-layer="873" from-port="0" to-layer="877" to-port="1" />
		<edge from-layer="874" from-port="0" to-layer="877" to-port="2" />
		<edge from-layer="875" from-port="0" to-layer="877" to-port="3" />
		<edge from-layer="876" from-port="0" to-layer="877" to-port="4" />
		<edge from-layer="877" from-port="5" to-layer="879" to-port="0" />
		<edge from-layer="877" from-port="5" to-layer="924" to-port="0" />
		<edge from-layer="877" from-port="5" to-layer="916" to-port="0" />
		<edge from-layer="878" from-port="0" to-layer="879" to-port="1" />
		<edge from-layer="879" from-port="2" to-layer="884" to-port="0" />
		<edge from-layer="880" from-port="0" to-layer="884" to-port="1" />
		<edge from-layer="881" from-port="0" to-layer="884" to-port="2" />
		<edge from-layer="882" from-port="0" to-layer="884" to-port="3" />
		<edge from-layer="883" from-port="0" to-layer="884" to-port="4" />
		<edge from-layer="884" from-port="5" to-layer="886" to-port="0" />
		<edge from-layer="885" from-port="0" to-layer="886" to-port="1" />
		<edge from-layer="886" from-port="2" to-layer="891" to-port="0" />
		<edge from-layer="887" from-port="0" to-layer="888" to-port="0" />
		<edge from-layer="888" from-port="1" to-layer="890" to-port="0" />
		<edge from-layer="889" from-port="0" to-layer="890" to-port="1" />
		<edge from-layer="890" from-port="2" to-layer="891" to-port="1" />
		<edge from-layer="891" from-port="2" to-layer="893" to-port="0" />
		<edge from-layer="892" from-port="0" to-layer="893" to-port="1" />
		<edge from-layer="893" from-port="2" to-layer="894" to-port="0" />
		<edge from-layer="894" from-port="1" to-layer="899" to-port="0" />
		<edge from-layer="895" from-port="0" to-layer="899" to-port="1" />
		<edge from-layer="896" from-port="0" to-layer="899" to-port="2" />
		<edge from-layer="897" from-port="0" to-layer="899" to-port="3" />
		<edge from-layer="898" from-port="0" to-layer="899" to-port="4" />
		<edge from-layer="899" from-port="5" to-layer="904" to-port="0" />
		<edge from-layer="900" from-port="0" to-layer="901" to-port="0" />
		<edge from-layer="901" from-port="1" to-layer="903" to-port="0" />
		<edge from-layer="902" from-port="0" to-layer="903" to-port="1" />
		<edge from-layer="903" from-port="2" to-layer="904" to-port="1" />
		<edge from-layer="904" from-port="2" to-layer="906" to-port="0" />
		<edge from-layer="905" from-port="0" to-layer="906" to-port="1" />
		<edge from-layer="906" from-port="2" to-layer="907" to-port="0" />
		<edge from-layer="907" from-port="1" to-layer="908" to-port="0" />
		<edge from-layer="908" from-port="1" to-layer="910" to-port="0" />
		<edge from-layer="909" from-port="0" to-layer="910" to-port="1" />
		<edge from-layer="910" from-port="2" to-layer="915" to-port="0" />
		<edge from-layer="911" from-port="0" to-layer="915" to-port="1" />
		<edge from-layer="912" from-port="0" to-layer="915" to-port="2" />
		<edge from-layer="913" from-port="0" to-layer="915" to-port="3" />
		<edge from-layer="914" from-port="0" to-layer="915" to-port="4" />
		<edge from-layer="915" from-port="5" to-layer="923" to-port="0" />
		<edge from-layer="916" from-port="1" to-layer="919" to-port="0" />
		<edge from-layer="917" from-port="0" to-layer="919" to-port="1" />
		<edge from-layer="918" from-port="0" to-layer="919" to-port="2" />
		<edge from-layer="919" from-port="3" to-layer="922" to-port="0" />
		<edge from-layer="920" from-port="0" to-layer="922" to-port="1" />
		<edge from-layer="921" from-port="0" to-layer="922" to-port="2" />
		<edge from-layer="922" from-port="3" to-layer="923" to-port="1" />
		<edge from-layer="923" from-port="2" to-layer="924" to-port="1" />
		<edge from-layer="924" from-port="2" to-layer="929" to-port="0" />
		<edge from-layer="925" from-port="0" to-layer="929" to-port="1" />
		<edge from-layer="926" from-port="0" to-layer="929" to-port="2" />
		<edge from-layer="927" from-port="0" to-layer="929" to-port="3" />
		<edge from-layer="928" from-port="0" to-layer="929" to-port="4" />
		<edge from-layer="929" from-port="5" to-layer="931" to-port="0" />
		<edge from-layer="929" from-port="5" to-layer="939" to-port="0" />
		<edge from-layer="930" from-port="0" to-layer="931" to-port="1" />
		<edge from-layer="931" from-port="2" to-layer="932" to-port="0" />
		<edge from-layer="932" from-port="1" to-layer="933" to-port="0" />
		<edge from-layer="933" from-port="1" to-layer="938" to-port="0" />
		<edge from-layer="934" from-port="0" to-layer="938" to-port="1" />
		<edge from-layer="935" from-port="0" to-layer="938" to-port="2" />
		<edge from-layer="936" from-port="0" to-layer="938" to-port="3" />
		<edge from-layer="937" from-port="0" to-layer="938" to-port="4" />
		<edge from-layer="938" from-port="5" to-layer="939" to-port="1" />
		<edge from-layer="939" from-port="2" to-layer="944" to-port="0" />
		<edge from-layer="940" from-port="0" to-layer="944" to-port="1" />
		<edge from-layer="941" from-port="0" to-layer="944" to-port="2" />
		<edge from-layer="942" from-port="0" to-layer="944" to-port="3" />
		<edge from-layer="943" from-port="0" to-layer="944" to-port="4" />
		<edge from-layer="944" from-port="5" to-layer="949" to-port="0" />
		<edge from-layer="945" from-port="0" to-layer="946" to-port="0" />
		<edge from-layer="946" from-port="1" to-layer="948" to-port="0" />
		<edge from-layer="947" from-port="0" to-layer="948" to-port="1" />
		<edge from-layer="948" from-port="2" to-layer="949" to-port="1" />
		<edge from-layer="949" from-port="2" to-layer="951" to-port="0" />
		<edge from-layer="950" from-port="0" to-layer="951" to-port="1" />
		<edge from-layer="951" from-port="2" to-layer="956" to-port="0" />
		<edge from-layer="952" from-port="0" to-layer="956" to-port="1" />
		<edge from-layer="953" from-port="0" to-layer="956" to-port="2" />
		<edge from-layer="954" from-port="0" to-layer="956" to-port="3" />
		<edge from-layer="955" from-port="0" to-layer="956" to-port="4" />
		<edge from-layer="956" from-port="5" to-layer="957" to-port="1" />
		<edge from-layer="957" from-port="2" to-layer="962" to-port="0" />
		<edge from-layer="958" from-port="0" to-layer="962" to-port="1" />
		<edge from-layer="959" from-port="0" to-layer="962" to-port="2" />
		<edge from-layer="960" from-port="0" to-layer="962" to-port="3" />
		<edge from-layer="961" from-port="0" to-layer="962" to-port="4" />
		<edge from-layer="962" from-port="5" to-layer="967" to-port="0" />
		<edge from-layer="963" from-port="0" to-layer="964" to-port="0" />
		<edge from-layer="964" from-port="1" to-layer="966" to-port="0" />
		<edge from-layer="965" from-port="0" to-layer="966" to-port="1" />
		<edge from-layer="966" from-port="2" to-layer="967" to-port="1" />
		<edge from-layer="967" from-port="2" to-layer="969" to-port="0" />
		<edge from-layer="968" from-port="0" to-layer="969" to-port="1" />
		<edge from-layer="969" from-port="2" to-layer="974" to-port="0" />
		<edge from-layer="970" from-port="0" to-layer="974" to-port="1" />
		<edge from-layer="971" from-port="0" to-layer="974" to-port="2" />
		<edge from-layer="972" from-port="0" to-layer="974" to-port="3" />
		<edge from-layer="973" from-port="0" to-layer="974" to-port="4" />
		<edge from-layer="974" from-port="5" to-layer="976" to-port="0" />
		<edge from-layer="974" from-port="5" to-layer="984" to-port="0" />
		<edge from-layer="975" from-port="0" to-layer="976" to-port="1" />
		<edge from-layer="976" from-port="2" to-layer="977" to-port="0" />
		<edge from-layer="977" from-port="1" to-layer="978" to-port="0" />
		<edge from-layer="978" from-port="1" to-layer="983" to-port="0" />
		<edge from-layer="979" from-port="0" to-layer="983" to-port="1" />
		<edge from-layer="980" from-port="0" to-layer="983" to-port="2" />
		<edge from-layer="981" from-port="0" to-layer="983" to-port="3" />
		<edge from-layer="982" from-port="0" to-layer="983" to-port="4" />
		<edge from-layer="983" from-port="5" to-layer="984" to-port="1" />
		<edge from-layer="984" from-port="2" to-layer="989" to-port="0" />
		<edge from-layer="985" from-port="0" to-layer="989" to-port="1" />
		<edge from-layer="986" from-port="0" to-layer="989" to-port="2" />
		<edge from-layer="987" from-port="0" to-layer="989" to-port="3" />
		<edge from-layer="988" from-port="0" to-layer="989" to-port="4" />
		<edge from-layer="989" from-port="5" to-layer="994" to-port="0" />
		<edge from-layer="990" from-port="0" to-layer="991" to-port="0" />
		<edge from-layer="991" from-port="1" to-layer="993" to-port="0" />
		<edge from-layer="992" from-port="0" to-layer="993" to-port="1" />
		<edge from-layer="993" from-port="2" to-layer="994" to-port="1" />
		<edge from-layer="994" from-port="2" to-layer="996" to-port="0" />
		<edge from-layer="995" from-port="0" to-layer="996" to-port="1" />
		<edge from-layer="996" from-port="2" to-layer="1001" to-port="0" />
		<edge from-layer="997" from-port="0" to-layer="1001" to-port="1" />
		<edge from-layer="998" from-port="0" to-layer="1001" to-port="2" />
		<edge from-layer="999" from-port="0" to-layer="1001" to-port="3" />
		<edge from-layer="1000" from-port="0" to-layer="1001" to-port="4" />
		<edge from-layer="1001" from-port="5" to-layer="1003" to-port="0" />
		<edge from-layer="1001" from-port="5" to-layer="1048" to-port="0" />
		<edge from-layer="1001" from-port="5" to-layer="1040" to-port="0" />
		<edge from-layer="1002" from-port="0" to-layer="1003" to-port="1" />
		<edge from-layer="1003" from-port="2" to-layer="1008" to-port="0" />
		<edge from-layer="1004" from-port="0" to-layer="1008" to-port="1" />
		<edge from-layer="1005" from-port="0" to-layer="1008" to-port="2" />
		<edge from-layer="1006" from-port="0" to-layer="1008" to-port="3" />
		<edge from-layer="1007" from-port="0" to-layer="1008" to-port="4" />
		<edge from-layer="1008" from-port="5" to-layer="1010" to-port="0" />
		<edge from-layer="1009" from-port="0" to-layer="1010" to-port="1" />
		<edge from-layer="1010" from-port="2" to-layer="1015" to-port="0" />
		<edge from-layer="1011" from-port="0" to-layer="1012" to-port="0" />
		<edge from-layer="1012" from-port="1" to-layer="1014" to-port="0" />
		<edge from-layer="1013" from-port="0" to-layer="1014" to-port="1" />
		<edge from-layer="1014" from-port="2" to-layer="1015" to-port="1" />
		<edge from-layer="1015" from-port="2" to-layer="1017" to-port="0" />
		<edge from-layer="1016" from-port="0" to-layer="1017" to-port="1" />
		<edge from-layer="1017" from-port="2" to-layer="1018" to-port="0" />
		<edge from-layer="1018" from-port="1" to-layer="1023" to-port="0" />
		<edge from-layer="1019" from-port="0" to-layer="1023" to-port="1" />
		<edge from-layer="1020" from-port="0" to-layer="1023" to-port="2" />
		<edge from-layer="1021" from-port="0" to-layer="1023" to-port="3" />
		<edge from-layer="1022" from-port="0" to-layer="1023" to-port="4" />
		<edge from-layer="1023" from-port="5" to-layer="1028" to-port="0" />
		<edge from-layer="1024" from-port="0" to-layer="1025" to-port="0" />
		<edge from-layer="1025" from-port="1" to-layer="1027" to-port="0" />
		<edge from-layer="1026" from-port="0" to-layer="1027" to-port="1" />
		<edge from-layer="1027" from-port="2" to-layer="1028" to-port="1" />
		<edge from-layer="1028" from-port="2" to-layer="1030" to-port="0" />
		<edge from-layer="1029" from-port="0" to-layer="1030" to-port="1" />
		<edge from-layer="1030" from-port="2" to-layer="1031" to-port="0" />
		<edge from-layer="1031" from-port="1" to-layer="1032" to-port="0" />
		<edge from-layer="1032" from-port="1" to-layer="1034" to-port="0" />
		<edge from-layer="1033" from-port="0" to-layer="1034" to-port="1" />
		<edge from-layer="1034" from-port="2" to-layer="1039" to-port="0" />
		<edge from-layer="1035" from-port="0" to-layer="1039" to-port="1" />
		<edge from-layer="1036" from-port="0" to-layer="1039" to-port="2" />
		<edge from-layer="1037" from-port="0" to-layer="1039" to-port="3" />
		<edge from-layer="1038" from-port="0" to-layer="1039" to-port="4" />
		<edge from-layer="1039" from-port="5" to-layer="1047" to-port="0" />
		<edge from-layer="1040" from-port="1" to-layer="1043" to-port="0" />
		<edge from-layer="1041" from-port="0" to-layer="1043" to-port="1" />
		<edge from-layer="1042" from-port="0" to-layer="1043" to-port="2" />
		<edge from-layer="1043" from-port="3" to-layer="1046" to-port="0" />
		<edge from-layer="1044" from-port="0" to-layer="1046" to-port="1" />
		<edge from-layer="1045" from-port="0" to-layer="1046" to-port="2" />
		<edge from-layer="1046" from-port="3" to-layer="1047" to-port="1" />
		<edge from-layer="1047" from-port="2" to-layer="1048" to-port="1" />
		<edge from-layer="1048" from-port="2" to-layer="1053" to-port="0" />
		<edge from-layer="1049" from-port="0" to-layer="1053" to-port="1" />
		<edge from-layer="1050" from-port="0" to-layer="1053" to-port="2" />
		<edge from-layer="1051" from-port="0" to-layer="1053" to-port="3" />
		<edge from-layer="1052" from-port="0" to-layer="1053" to-port="4" />
		<edge from-layer="1053" from-port="5" to-layer="1055" to-port="0" />
		<edge from-layer="1053" from-port="5" to-layer="1063" to-port="0" />
		<edge from-layer="1054" from-port="0" to-layer="1055" to-port="1" />
		<edge from-layer="1055" from-port="2" to-layer="1056" to-port="0" />
		<edge from-layer="1056" from-port="1" to-layer="1057" to-port="0" />
		<edge from-layer="1057" from-port="1" to-layer="1062" to-port="0" />
		<edge from-layer="1058" from-port="0" to-layer="1062" to-port="1" />
		<edge from-layer="1059" from-port="0" to-layer="1062" to-port="2" />
		<edge from-layer="1060" from-port="0" to-layer="1062" to-port="3" />
		<edge from-layer="1061" from-port="0" to-layer="1062" to-port="4" />
		<edge from-layer="1062" from-port="5" to-layer="1063" to-port="1" />
		<edge from-layer="1063" from-port="2" to-layer="1068" to-port="0" />
		<edge from-layer="1064" from-port="0" to-layer="1068" to-port="1" />
		<edge from-layer="1065" from-port="0" to-layer="1068" to-port="2" />
		<edge from-layer="1066" from-port="0" to-layer="1068" to-port="3" />
		<edge from-layer="1067" from-port="0" to-layer="1068" to-port="4" />
		<edge from-layer="1068" from-port="5" to-layer="1073" to-port="0" />
		<edge from-layer="1069" from-port="0" to-layer="1070" to-port="0" />
		<edge from-layer="1070" from-port="1" to-layer="1072" to-port="0" />
		<edge from-layer="1071" from-port="0" to-layer="1072" to-port="1" />
		<edge from-layer="1072" from-port="2" to-layer="1073" to-port="1" />
		<edge from-layer="1073" from-port="2" to-layer="1075" to-port="0" />
		<edge from-layer="1074" from-port="0" to-layer="1075" to-port="1" />
		<edge from-layer="1075" from-port="2" to-layer="1080" to-port="0" />
		<edge from-layer="1076" from-port="0" to-layer="1080" to-port="1" />
		<edge from-layer="1077" from-port="0" to-layer="1080" to-port="2" />
		<edge from-layer="1078" from-port="0" to-layer="1080" to-port="3" />
		<edge from-layer="1079" from-port="0" to-layer="1080" to-port="4" />
		<edge from-layer="1080" from-port="5" to-layer="1085" to-port="0" />
		<edge from-layer="1080" from-port="5" to-layer="1199" to-port="0" />
		<edge from-layer="1081" from-port="0" to-layer="1082" to-port="0" />
		<edge from-layer="1082" from-port="1" to-layer="1084" to-port="0" />
		<edge from-layer="1083" from-port="0" to-layer="1084" to-port="1" />
		<edge from-layer="1084" from-port="2" to-layer="1085" to-port="1" />
		<edge from-layer="1085" from-port="2" to-layer="1087" to-port="0" />
		<edge from-layer="1086" from-port="0" to-layer="1087" to-port="1" />
		<edge from-layer="1087" from-port="2" to-layer="1092" to-port="0" />
		<edge from-layer="1088" from-port="0" to-layer="1092" to-port="1" />
		<edge from-layer="1089" from-port="0" to-layer="1092" to-port="2" />
		<edge from-layer="1090" from-port="0" to-layer="1092" to-port="3" />
		<edge from-layer="1091" from-port="0" to-layer="1092" to-port="4" />
		<edge from-layer="1092" from-port="5" to-layer="1094" to-port="0" />
		<edge from-layer="1092" from-port="5" to-layer="1102" to-port="0" />
		<edge from-layer="1093" from-port="0" to-layer="1094" to-port="1" />
		<edge from-layer="1094" from-port="2" to-layer="1095" to-port="0" />
		<edge from-layer="1095" from-port="1" to-layer="1096" to-port="0" />
		<edge from-layer="1096" from-port="1" to-layer="1101" to-port="0" />
		<edge from-layer="1097" from-port="0" to-layer="1101" to-port="1" />
		<edge from-layer="1098" from-port="0" to-layer="1101" to-port="2" />
		<edge from-layer="1099" from-port="0" to-layer="1101" to-port="3" />
		<edge from-layer="1100" from-port="0" to-layer="1101" to-port="4" />
		<edge from-layer="1101" from-port="5" to-layer="1102" to-port="1" />
		<edge from-layer="1102" from-port="2" to-layer="1107" to-port="0" />
		<edge from-layer="1103" from-port="0" to-layer="1107" to-port="1" />
		<edge from-layer="1104" from-port="0" to-layer="1107" to-port="2" />
		<edge from-layer="1105" from-port="0" to-layer="1107" to-port="3" />
		<edge from-layer="1106" from-port="0" to-layer="1107" to-port="4" />
		<edge from-layer="1107" from-port="5" to-layer="1112" to-port="0" />
		<edge from-layer="1108" from-port="0" to-layer="1109" to-port="0" />
		<edge from-layer="1109" from-port="1" to-layer="1111" to-port="0" />
		<edge from-layer="1110" from-port="0" to-layer="1111" to-port="1" />
		<edge from-layer="1111" from-port="2" to-layer="1112" to-port="1" />
		<edge from-layer="1112" from-port="2" to-layer="1114" to-port="0" />
		<edge from-layer="1113" from-port="0" to-layer="1114" to-port="1" />
		<edge from-layer="1114" from-port="2" to-layer="1119" to-port="0" />
		<edge from-layer="1115" from-port="0" to-layer="1119" to-port="1" />
		<edge from-layer="1116" from-port="0" to-layer="1119" to-port="2" />
		<edge from-layer="1117" from-port="0" to-layer="1119" to-port="3" />
		<edge from-layer="1118" from-port="0" to-layer="1119" to-port="4" />
		<edge from-layer="1119" from-port="5" to-layer="1166" to-port="0" />
		<edge from-layer="1119" from-port="5" to-layer="1158" to-port="0" />
		<edge from-layer="1119" from-port="5" to-layer="1121" to-port="0" />
		<edge from-layer="1120" from-port="0" to-layer="1121" to-port="1" />
		<edge from-layer="1121" from-port="2" to-layer="1126" to-port="0" />
		<edge from-layer="1122" from-port="0" to-layer="1126" to-port="1" />
		<edge from-layer="1123" from-port="0" to-layer="1126" to-port="2" />
		<edge from-layer="1124" from-port="0" to-layer="1126" to-port="3" />
		<edge from-layer="1125" from-port="0" to-layer="1126" to-port="4" />
		<edge from-layer="1126" from-port="5" to-layer="1128" to-port="0" />
		<edge from-layer="1127" from-port="0" to-layer="1128" to-port="1" />
		<edge from-layer="1128" from-port="2" to-layer="1133" to-port="0" />
		<edge from-layer="1129" from-port="0" to-layer="1130" to-port="0" />
		<edge from-layer="1130" from-port="1" to-layer="1132" to-port="0" />
		<edge from-layer="1131" from-port="0" to-layer="1132" to-port="1" />
		<edge from-layer="1132" from-port="2" to-layer="1133" to-port="1" />
		<edge from-layer="1133" from-port="2" to-layer="1135" to-port="0" />
		<edge from-layer="1134" from-port="0" to-layer="1135" to-port="1" />
		<edge from-layer="1135" from-port="2" to-layer="1136" to-port="0" />
		<edge from-layer="1136" from-port="1" to-layer="1141" to-port="0" />
		<edge from-layer="1137" from-port="0" to-layer="1141" to-port="1" />
		<edge from-layer="1138" from-port="0" to-layer="1141" to-port="2" />
		<edge from-layer="1139" from-port="0" to-layer="1141" to-port="3" />
		<edge from-layer="1140" from-port="0" to-layer="1141" to-port="4" />
		<edge from-layer="1141" from-port="5" to-layer="1146" to-port="0" />
		<edge from-layer="1142" from-port="0" to-layer="1143" to-port="0" />
		<edge from-layer="1143" from-port="1" to-layer="1145" to-port="0" />
		<edge from-layer="1144" from-port="0" to-layer="1145" to-port="1" />
		<edge from-layer="1145" from-port="2" to-layer="1146" to-port="1" />
		<edge from-layer="1146" from-port="2" to-layer="1148" to-port="0" />
		<edge from-layer="1147" from-port="0" to-layer="1148" to-port="1" />
		<edge from-layer="1148" from-port="2" to-layer="1149" to-port="0" />
		<edge from-layer="1149" from-port="1" to-layer="1150" to-port="0" />
		<edge from-layer="1150" from-port="1" to-layer="1152" to-port="0" />
		<edge from-layer="1151" from-port="0" to-layer="1152" to-port="1" />
		<edge from-layer="1152" from-port="2" to-layer="1157" to-port="0" />
		<edge from-layer="1153" from-port="0" to-layer="1157" to-port="1" />
		<edge from-layer="1154" from-port="0" to-layer="1157" to-port="2" />
		<edge from-layer="1155" from-port="0" to-layer="1157" to-port="3" />
		<edge from-layer="1156" from-port="0" to-layer="1157" to-port="4" />
		<edge from-layer="1157" from-port="5" to-layer="1165" to-port="0" />
		<edge from-layer="1158" from-port="1" to-layer="1161" to-port="0" />
		<edge from-layer="1159" from-port="0" to-layer="1161" to-port="1" />
		<edge from-layer="1160" from-port="0" to-layer="1161" to-port="2" />
		<edge from-layer="1161" from-port="3" to-layer="1164" to-port="0" />
		<edge from-layer="1162" from-port="0" to-layer="1164" to-port="1" />
		<edge from-layer="1163" from-port="0" to-layer="1164" to-port="2" />
		<edge from-layer="1164" from-port="3" to-layer="1165" to-port="1" />
		<edge from-layer="1165" from-port="2" to-layer="1166" to-port="1" />
		<edge from-layer="1166" from-port="2" to-layer="1171" to-port="0" />
		<edge from-layer="1167" from-port="0" to-layer="1171" to-port="1" />
		<edge from-layer="1168" from-port="0" to-layer="1171" to-port="2" />
		<edge from-layer="1169" from-port="0" to-layer="1171" to-port="3" />
		<edge from-layer="1170" from-port="0" to-layer="1171" to-port="4" />
		<edge from-layer="1171" from-port="5" to-layer="1173" to-port="0" />
		<edge from-layer="1171" from-port="5" to-layer="1181" to-port="0" />
		<edge from-layer="1172" from-port="0" to-layer="1173" to-port="1" />
		<edge from-layer="1173" from-port="2" to-layer="1174" to-port="0" />
		<edge from-layer="1174" from-port="1" to-layer="1175" to-port="0" />
		<edge from-layer="1175" from-port="1" to-layer="1180" to-port="0" />
		<edge from-layer="1176" from-port="0" to-layer="1180" to-port="1" />
		<edge from-layer="1177" from-port="0" to-layer="1180" to-port="2" />
		<edge from-layer="1178" from-port="0" to-layer="1180" to-port="3" />
		<edge from-layer="1179" from-port="0" to-layer="1180" to-port="4" />
		<edge from-layer="1180" from-port="5" to-layer="1181" to-port="1" />
		<edge from-layer="1181" from-port="2" to-layer="1186" to-port="0" />
		<edge from-layer="1182" from-port="0" to-layer="1186" to-port="1" />
		<edge from-layer="1183" from-port="0" to-layer="1186" to-port="2" />
		<edge from-layer="1184" from-port="0" to-layer="1186" to-port="3" />
		<edge from-layer="1185" from-port="0" to-layer="1186" to-port="4" />
		<edge from-layer="1186" from-port="5" to-layer="1191" to-port="0" />
		<edge from-layer="1187" from-port="0" to-layer="1188" to-port="0" />
		<edge from-layer="1188" from-port="1" to-layer="1190" to-port="0" />
		<edge from-layer="1189" from-port="0" to-layer="1190" to-port="1" />
		<edge from-layer="1190" from-port="2" to-layer="1191" to-port="1" />
		<edge from-layer="1191" from-port="2" to-layer="1193" to-port="0" />
		<edge from-layer="1192" from-port="0" to-layer="1193" to-port="1" />
		<edge from-layer="1193" from-port="2" to-layer="1198" to-port="0" />
		<edge from-layer="1194" from-port="0" to-layer="1198" to-port="1" />
		<edge from-layer="1195" from-port="0" to-layer="1198" to-port="2" />
		<edge from-layer="1196" from-port="0" to-layer="1198" to-port="3" />
		<edge from-layer="1197" from-port="0" to-layer="1198" to-port="4" />
		<edge from-layer="1198" from-port="5" to-layer="1199" to-port="1" />
		<edge from-layer="1199" from-port="2" to-layer="1204" to-port="0" />
		<edge from-layer="1200" from-port="0" to-layer="1204" to-port="1" />
		<edge from-layer="1201" from-port="0" to-layer="1204" to-port="2" />
		<edge from-layer="1202" from-port="0" to-layer="1204" to-port="3" />
		<edge from-layer="1203" from-port="0" to-layer="1204" to-port="4" />
		<edge from-layer="1204" from-port="5" to-layer="1323" to-port="0" />
		<edge from-layer="1204" from-port="5" to-layer="1209" to-port="0" />
		<edge from-layer="1205" from-port="0" to-layer="1206" to-port="0" />
		<edge from-layer="1206" from-port="1" to-layer="1208" to-port="0" />
		<edge from-layer="1207" from-port="0" to-layer="1208" to-port="1" />
		<edge from-layer="1208" from-port="2" to-layer="1209" to-port="1" />
		<edge from-layer="1209" from-port="2" to-layer="1211" to-port="0" />
		<edge from-layer="1210" from-port="0" to-layer="1211" to-port="1" />
		<edge from-layer="1211" from-port="2" to-layer="1216" to-port="0" />
		<edge from-layer="1212" from-port="0" to-layer="1216" to-port="1" />
		<edge from-layer="1213" from-port="0" to-layer="1216" to-port="2" />
		<edge from-layer="1214" from-port="0" to-layer="1216" to-port="3" />
		<edge from-layer="1215" from-port="0" to-layer="1216" to-port="4" />
		<edge from-layer="1216" from-port="5" to-layer="1226" to-port="0" />
		<edge from-layer="1216" from-port="5" to-layer="1218" to-port="0" />
		<edge from-layer="1217" from-port="0" to-layer="1218" to-port="1" />
		<edge from-layer="1218" from-port="2" to-layer="1219" to-port="0" />
		<edge from-layer="1219" from-port="1" to-layer="1220" to-port="0" />
		<edge from-layer="1220" from-port="1" to-layer="1225" to-port="0" />
		<edge from-layer="1221" from-port="0" to-layer="1225" to-port="1" />
		<edge from-layer="1222" from-port="0" to-layer="1225" to-port="2" />
		<edge from-layer="1223" from-port="0" to-layer="1225" to-port="3" />
		<edge from-layer="1224" from-port="0" to-layer="1225" to-port="4" />
		<edge from-layer="1225" from-port="5" to-layer="1226" to-port="1" />
		<edge from-layer="1226" from-port="2" to-layer="1231" to-port="0" />
		<edge from-layer="1227" from-port="0" to-layer="1231" to-port="1" />
		<edge from-layer="1228" from-port="0" to-layer="1231" to-port="2" />
		<edge from-layer="1229" from-port="0" to-layer="1231" to-port="3" />
		<edge from-layer="1230" from-port="0" to-layer="1231" to-port="4" />
		<edge from-layer="1231" from-port="5" to-layer="1236" to-port="0" />
		<edge from-layer="1232" from-port="0" to-layer="1233" to-port="0" />
		<edge from-layer="1233" from-port="1" to-layer="1235" to-port="0" />
		<edge from-layer="1234" from-port="0" to-layer="1235" to-port="1" />
		<edge from-layer="1235" from-port="2" to-layer="1236" to-port="1" />
		<edge from-layer="1236" from-port="2" to-layer="1238" to-port="0" />
		<edge from-layer="1237" from-port="0" to-layer="1238" to-port="1" />
		<edge from-layer="1238" from-port="2" to-layer="1243" to-port="0" />
		<edge from-layer="1239" from-port="0" to-layer="1243" to-port="1" />
		<edge from-layer="1240" from-port="0" to-layer="1243" to-port="2" />
		<edge from-layer="1241" from-port="0" to-layer="1243" to-port="3" />
		<edge from-layer="1242" from-port="0" to-layer="1243" to-port="4" />
		<edge from-layer="1243" from-port="5" to-layer="1290" to-port="0" />
		<edge from-layer="1243" from-port="5" to-layer="1282" to-port="0" />
		<edge from-layer="1243" from-port="5" to-layer="1245" to-port="0" />
		<edge from-layer="1244" from-port="0" to-layer="1245" to-port="1" />
		<edge from-layer="1245" from-port="2" to-layer="1250" to-port="0" />
		<edge from-layer="1246" from-port="0" to-layer="1250" to-port="1" />
		<edge from-layer="1247" from-port="0" to-layer="1250" to-port="2" />
		<edge from-layer="1248" from-port="0" to-layer="1250" to-port="3" />
		<edge from-layer="1249" from-port="0" to-layer="1250" to-port="4" />
		<edge from-layer="1250" from-port="5" to-layer="1252" to-port="0" />
		<edge from-layer="1251" from-port="0" to-layer="1252" to-port="1" />
		<edge from-layer="1252" from-port="2" to-layer="1257" to-port="0" />
		<edge from-layer="1253" from-port="0" to-layer="1254" to-port="0" />
		<edge from-layer="1254" from-port="1" to-layer="1256" to-port="0" />
		<edge from-layer="1255" from-port="0" to-layer="1256" to-port="1" />
		<edge from-layer="1256" from-port="2" to-layer="1257" to-port="1" />
		<edge from-layer="1257" from-port="2" to-layer="1259" to-port="0" />
		<edge from-layer="1258" from-port="0" to-layer="1259" to-port="1" />
		<edge from-layer="1259" from-port="2" to-layer="1260" to-port="0" />
		<edge from-layer="1260" from-port="1" to-layer="1265" to-port="0" />
		<edge from-layer="1261" from-port="0" to-layer="1265" to-port="1" />
		<edge from-layer="1262" from-port="0" to-layer="1265" to-port="2" />
		<edge from-layer="1263" from-port="0" to-layer="1265" to-port="3" />
		<edge from-layer="1264" from-port="0" to-layer="1265" to-port="4" />
		<edge from-layer="1265" from-port="5" to-layer="1270" to-port="0" />
		<edge from-layer="1266" from-port="0" to-layer="1267" to-port="0" />
		<edge from-layer="1267" from-port="1" to-layer="1269" to-port="0" />
		<edge from-layer="1268" from-port="0" to-layer="1269" to-port="1" />
		<edge from-layer="1269" from-port="2" to-layer="1270" to-port="1" />
		<edge from-layer="1270" from-port="2" to-layer="1272" to-port="0" />
		<edge from-layer="1271" from-port="0" to-layer="1272" to-port="1" />
		<edge from-layer="1272" from-port="2" to-layer="1273" to-port="0" />
		<edge from-layer="1273" from-port="1" to-layer="1274" to-port="0" />
		<edge from-layer="1274" from-port="1" to-layer="1276" to-port="0" />
		<edge from-layer="1275" from-port="0" to-layer="1276" to-port="1" />
		<edge from-layer="1276" from-port="2" to-layer="1281" to-port="0" />
		<edge from-layer="1277" from-port="0" to-layer="1281" to-port="1" />
		<edge from-layer="1278" from-port="0" to-layer="1281" to-port="2" />
		<edge from-layer="1279" from-port="0" to-layer="1281" to-port="3" />
		<edge from-layer="1280" from-port="0" to-layer="1281" to-port="4" />
		<edge from-layer="1281" from-port="5" to-layer="1289" to-port="0" />
		<edge from-layer="1282" from-port="1" to-layer="1285" to-port="0" />
		<edge from-layer="1283" from-port="0" to-layer="1285" to-port="1" />
		<edge from-layer="1284" from-port="0" to-layer="1285" to-port="2" />
		<edge from-layer="1285" from-port="3" to-layer="1288" to-port="0" />
		<edge from-layer="1286" from-port="0" to-layer="1288" to-port="1" />
		<edge from-layer="1287" from-port="0" to-layer="1288" to-port="2" />
		<edge from-layer="1288" from-port="3" to-layer="1289" to-port="1" />
		<edge from-layer="1289" from-port="2" to-layer="1290" to-port="1" />
		<edge from-layer="1290" from-port="2" to-layer="1295" to-port="0" />
		<edge from-layer="1291" from-port="0" to-layer="1295" to-port="1" />
		<edge from-layer="1292" from-port="0" to-layer="1295" to-port="2" />
		<edge from-layer="1293" from-port="0" to-layer="1295" to-port="3" />
		<edge from-layer="1294" from-port="0" to-layer="1295" to-port="4" />
		<edge from-layer="1295" from-port="5" to-layer="1297" to-port="0" />
		<edge from-layer="1295" from-port="5" to-layer="1305" to-port="0" />
		<edge from-layer="1296" from-port="0" to-layer="1297" to-port="1" />
		<edge from-layer="1297" from-port="2" to-layer="1298" to-port="0" />
		<edge from-layer="1298" from-port="1" to-layer="1299" to-port="0" />
		<edge from-layer="1299" from-port="1" to-layer="1304" to-port="0" />
		<edge from-layer="1300" from-port="0" to-layer="1304" to-port="1" />
		<edge from-layer="1301" from-port="0" to-layer="1304" to-port="2" />
		<edge from-layer="1302" from-port="0" to-layer="1304" to-port="3" />
		<edge from-layer="1303" from-port="0" to-layer="1304" to-port="4" />
		<edge from-layer="1304" from-port="5" to-layer="1305" to-port="1" />
		<edge from-layer="1305" from-port="2" to-layer="1310" to-port="0" />
		<edge from-layer="1306" from-port="0" to-layer="1310" to-port="1" />
		<edge from-layer="1307" from-port="0" to-layer="1310" to-port="2" />
		<edge from-layer="1308" from-port="0" to-layer="1310" to-port="3" />
		<edge from-layer="1309" from-port="0" to-layer="1310" to-port="4" />
		<edge from-layer="1310" from-port="5" to-layer="1315" to-port="0" />
		<edge from-layer="1311" from-port="0" to-layer="1312" to-port="0" />
		<edge from-layer="1312" from-port="1" to-layer="1314" to-port="0" />
		<edge from-layer="1313" from-port="0" to-layer="1314" to-port="1" />
		<edge from-layer="1314" from-port="2" to-layer="1315" to-port="1" />
		<edge from-layer="1315" from-port="2" to-layer="1317" to-port="0" />
		<edge from-layer="1316" from-port="0" to-layer="1317" to-port="1" />
		<edge from-layer="1317" from-port="2" to-layer="1322" to-port="0" />
		<edge from-layer="1318" from-port="0" to-layer="1322" to-port="1" />
		<edge from-layer="1319" from-port="0" to-layer="1322" to-port="2" />
		<edge from-layer="1320" from-port="0" to-layer="1322" to-port="3" />
		<edge from-layer="1321" from-port="0" to-layer="1322" to-port="4" />
		<edge from-layer="1322" from-port="5" to-layer="1323" to-port="1" />
		<edge from-layer="1323" from-port="2" to-layer="1328" to-port="0" />
		<edge from-layer="1324" from-port="0" to-layer="1328" to-port="1" />
		<edge from-layer="1325" from-port="0" to-layer="1328" to-port="2" />
		<edge from-layer="1326" from-port="0" to-layer="1328" to-port="3" />
		<edge from-layer="1327" from-port="0" to-layer="1328" to-port="4" />
		<edge from-layer="1328" from-port="5" to-layer="1333" to-port="0" />
		<edge from-layer="1329" from-port="0" to-layer="1330" to-port="0" />
		<edge from-layer="1330" from-port="1" to-layer="1332" to-port="0" />
		<edge from-layer="1331" from-port="0" to-layer="1332" to-port="1" />
		<edge from-layer="1332" from-port="2" to-layer="1333" to-port="1" />
		<edge from-layer="1333" from-port="2" to-layer="1335" to-port="0" />
		<edge from-layer="1334" from-port="0" to-layer="1335" to-port="1" />
		<edge from-layer="1335" from-port="2" to-layer="1340" to-port="0" />
		<edge from-layer="1336" from-port="0" to-layer="1340" to-port="1" />
		<edge from-layer="1337" from-port="0" to-layer="1340" to-port="2" />
		<edge from-layer="1338" from-port="0" to-layer="1340" to-port="3" />
		<edge from-layer="1339" from-port="0" to-layer="1340" to-port="4" />
		<edge from-layer="1340" from-port="5" to-layer="1342" to-port="0" />
		<edge from-layer="1340" from-port="5" to-layer="1350" to-port="0" />
		<edge from-layer="1341" from-port="0" to-layer="1342" to-port="1" />
		<edge from-layer="1342" from-port="2" to-layer="1343" to-port="0" />
		<edge from-layer="1343" from-port="1" to-layer="1344" to-port="0" />
		<edge from-layer="1344" from-port="1" to-layer="1349" to-port="0" />
		<edge from-layer="1345" from-port="0" to-layer="1349" to-port="1" />
		<edge from-layer="1346" from-port="0" to-layer="1349" to-port="2" />
		<edge from-layer="1347" from-port="0" to-layer="1349" to-port="3" />
		<edge from-layer="1348" from-port="0" to-layer="1349" to-port="4" />
		<edge from-layer="1349" from-port="5" to-layer="1350" to-port="1" />
		<edge from-layer="1350" from-port="2" to-layer="1355" to-port="0" />
		<edge from-layer="1351" from-port="0" to-layer="1355" to-port="1" />
		<edge from-layer="1352" from-port="0" to-layer="1355" to-port="2" />
		<edge from-layer="1353" from-port="0" to-layer="1355" to-port="3" />
		<edge from-layer="1354" from-port="0" to-layer="1355" to-port="4" />
		<edge from-layer="1355" from-port="5" to-layer="1357" to-port="0" />
		<edge from-layer="1356" from-port="0" to-layer="1357" to-port="1" />
		<edge from-layer="1357" from-port="2" to-layer="1362" to-port="0" />
		<edge from-layer="1358" from-port="0" to-layer="1362" to-port="1" />
		<edge from-layer="1359" from-port="0" to-layer="1362" to-port="2" />
		<edge from-layer="1360" from-port="0" to-layer="1362" to-port="3" />
		<edge from-layer="1361" from-port="0" to-layer="1362" to-port="4" />
		<edge from-layer="1362" from-port="5" to-layer="1364" to-port="0" />
		<edge from-layer="1363" from-port="0" to-layer="1364" to-port="1" />
		<edge from-layer="1364" from-port="2" to-layer="1369" to-port="0" />
		<edge from-layer="1365" from-port="0" to-layer="1369" to-port="1" />
		<edge from-layer="1366" from-port="0" to-layer="1369" to-port="2" />
		<edge from-layer="1367" from-port="0" to-layer="1369" to-port="3" />
		<edge from-layer="1368" from-port="0" to-layer="1369" to-port="4" />
		<edge from-layer="1369" from-port="5" to-layer="1371" to-port="0" />
		<edge from-layer="1370" from-port="0" to-layer="1371" to-port="1" />
		<edge from-layer="1371" from-port="2" to-layer="1376" to-port="0" />
		<edge from-layer="1372" from-port="0" to-layer="1373" to-port="0" />
		<edge from-layer="1373" from-port="1" to-layer="1375" to-port="0" />
		<edge from-layer="1374" from-port="0" to-layer="1375" to-port="1" />
		<edge from-layer="1375" from-port="2" to-layer="1376" to-port="1" />
		<edge from-layer="1376" from-port="2" to-layer="1378" to-port="0" />
		<edge from-layer="1377" from-port="0" to-layer="1378" to-port="1" />
		<edge from-layer="1378" from-port="2" to-layer="1381" to-port="0" />
		<edge from-layer="1378" from-port="2" to-layer="1382" to-port="0" />
		<edge from-layer="1379" from-port="0" to-layer="1381" to-port="1" />
		<edge from-layer="1380" from-port="0" to-layer="1381" to-port="2" />
		<edge from-layer="1381" from-port="3" to-layer="1382" to-port="1" />
		<edge from-layer="1382" from-port="2" to-layer="1387" to-port="0" />
		<edge from-layer="1383" from-port="0" to-layer="1387" to-port="1" />
		<edge from-layer="1384" from-port="0" to-layer="1387" to-port="2" />
		<edge from-layer="1385" from-port="0" to-layer="1387" to-port="3" />
		<edge from-layer="1386" from-port="0" to-layer="1387" to-port="4" />
		<edge from-layer="1387" from-port="5" to-layer="1392" to-port="0" />
		<edge from-layer="1388" from-port="0" to-layer="1389" to-port="0" />
		<edge from-layer="1389" from-port="1" to-layer="1391" to-port="0" />
		<edge from-layer="1390" from-port="0" to-layer="1391" to-port="1" />
		<edge from-layer="1391" from-port="2" to-layer="1392" to-port="1" />
		<edge from-layer="1392" from-port="2" to-layer="1394" to-port="0" />
		<edge from-layer="1393" from-port="0" to-layer="1394" to-port="1" />
		<edge from-layer="1394" from-port="2" to-layer="1395" to-port="0" />
	</edges>
	<rt_info>
		<MO_version value="2023.0.0-10926-b4452d56304-releases/2023/0" />
		<Runtime_version value="2023.0.0-10926-b4452d56304-releases/2023/0" />
		<conversion_parameters>
			<input value="data" />
			<input_model value="DIR/model_ready.onnx" />
			<input_shape value="[1, 3, 224, 224]" />
			<is_python_api_used value="False" />
			<mean_values value="[123.675, 116.28, 103.53]" />
			<model_name value="model" />
			<output value="logits" />
			<output_dir value="DIR" />
			<reverse_input_channels value="True" />
			<scale_values value="[58.395, 57.12, 57.375]" />
		</conversion_parameters>
		<legacy_frontend value="False" />
		<model_info>
			<confidence_threshold value="0.5" />
			<hierarchical value="False" />
			<hierarchical_config value="{&quot;cls_heads_info&quot;: {&quot;num_multiclass_heads&quot;: 1, &quot;num_multilabel_classes&quot;: 0, &quot;head_idx_to_logits_range&quot;: {&quot;0&quot;: [0, 2]}, &quot;num_single_label_classes&quot;: 2, &quot;class_to_group_idx&quot;: {&quot;bad&quot;: [0, 0], &quot;good&quot;: [0, 1]}, &quot;all_groups&quot;: [[&quot;bad&quot;, &quot;good&quot;]], &quot;label_to_idx&quot;: {&quot;bad&quot;: 0, &quot;good&quot;: 1}, &quot;empty_multiclass_head_indices&quot;: []}, &quot;label_tree_edges&quot;: []}" />
			<labels value="bad good" />
			<model_type value="Classification" />
			<multilabel value="False" />
			<output_raw_scores value="True" />
		</model_info>
		<nncf>
			<quantization>
				<advanced_parameters value="{}" />
				<fast_bias_correction value="True" />
				<ignored_scope value="None" />
				<model_type value="None" />
				<preset value="performance" />
				<subset_size value="47" />
				<target_device value="ANY" />
			</quantization>
		</nncf>
		<otx_config value="{&quot;type_of_model&quot;: &quot;Classification&quot;, &quot;converter_type&quot;: &quot;CLASSIFICATION&quot;, &quot;model_parameters&quot;: {&quot;multilabel&quot;: false, &quot;hierarchical&quot;: false, &quot;multihead_class_info&quot;: {}, &quot;confidence_threshold&quot;: 0.5, &quot;labels&quot;: {&quot;label_tree&quot;: {&quot;type&quot;: &quot;tree&quot;, &quot;directed&quot;: true, &quot;nodes&quot;: [&quot;0&quot;, &quot;1&quot;], &quot;edges&quot;: []}, &quot;label_groups&quot;: [{&quot;_id&quot;: &quot;666c014cc4bf89e86ef7c0ba&quot;, &quot;name&quot;: &quot;labels&quot;, &quot;label_ids&quot;: [&quot;0&quot;, &quot;1&quot;], &quot;relation_type&quot;: &quot;EXCLUSIVE&quot;}], &quot;all_labels&quot;: {&quot;0&quot;: {&quot;_id&quot;: &quot;0&quot;, &quot;name&quot;: &quot;bad&quot;, &quot;color&quot;: {&quot;red&quot;: 94, &quot;green&quot;: 2, &quot;blue&quot;: 223, &quot;alpha&quot;: 255}, &quot;hotkey&quot;: &quot;&quot;, &quot;domain&quot;: &quot;CLASSIFICATION&quot;, &quot;creation_date&quot;: &quot;2024-06-14T08:37:32.509000&quot;, &quot;is_empty&quot;: false, &quot;is_anomalous&quot;: false}, &quot;1&quot;: {&quot;_id&quot;: &quot;1&quot;, &quot;name&quot;: &quot;good&quot;, &quot;color&quot;: {&quot;red&quot;: 76, &quot;green&quot;: 114, &quot;blue&quot;: 28, &quot;alpha&quot;: 255}, &quot;hotkey&quot;: &quot;&quot;, &quot;domain&quot;: &quot;CLASSIFICATION&quot;, &quot;creation_date&quot;: &quot;2024-06-14T08:37:32.509000&quot;, &quot;is_empty&quot;: false, &quot;is_anomalous&quot;: false}}}}}" />
	</rt_info>
</net>
