<?xml version="1.0"?>
<net name="torch_jit" version="11">
	<layers>
		<layer id="0" name="data" type="Parameter" version="opset1">
			<data shape="1,3,224,224" element_type="f32" />
			<output>
				<port id="0" precision="FP32" names="data">
					<dim>1</dim>
					<dim>3</dim>
					<dim>224</dim>
					<dim>224</dim>
				</port>
			</output>
		</layer>
		<layer id="1" name="backbone.cls_token" type="Const" version="opset1">
			<data element_type="f32" shape="1, 1, 192" offset="0" size="768" />
			<output>
				<port id="0" precision="FP32" names="backbone.cls_token">
					<dim>1</dim>
					<dim>1</dim>
					<dim>192</dim>
				</port>
			</output>
		</layer>
		<layer id="2" name="Gather_4878" type="Const" version="opset1">
			<data element_type="f32" shape="1, 3, 1, 1" offset="768" size="12" />
			<rt_info>
				<attribute name="preprocessing" version="0" />
			</rt_info>
			<output>
				<port id="0" precision="FP32">
					<dim>1</dim>
					<dim>3</dim>
					<dim>1</dim>
					<dim>1</dim>
				</port>
			</output>
		</layer>
		<layer id="3" name="Multiply_4674" type="Multiply" version="opset1">
			<data auto_broadcast="numpy" />
			<input>
				<port id="0" precision="FP32">
					<dim>1</dim>
					<dim>3</dim>
					<dim>224</dim>
					<dim>224</dim>
				</port>
				<port id="1" precision="FP32">
					<dim>1</dim>
					<dim>3</dim>
					<dim>1</dim>
					<dim>1</dim>
				</port>
			</input>
			<output>
				<port id="2" precision="FP32">
					<dim>1</dim>
					<dim>3</dim>
					<dim>224</dim>
					<dim>224</dim>
				</port>
			</output>
		</layer>
		<layer id="4" name="Gather_4881" type="Const" version="opset1">
			<data element_type="f32" shape="1, 3, 1, 1" offset="780" size="12" />
			<rt_info>
				<attribute name="preprocessing" version="0" />
			</rt_info>
			<output>
				<port id="0" precision="FP32">
					<dim>1</dim>
					<dim>3</dim>
					<dim>1</dim>
					<dim>1</dim>
				</port>
			</output>
		</layer>
		<layer id="5" name="Divide_1340" type="Add" version="opset1">
			<data auto_broadcast="numpy" />
			<input>
				<port id="0" precision="FP32">
					<dim>1</dim>
					<dim>3</dim>
					<dim>224</dim>
					<dim>224</dim>
				</port>
				<port id="1" precision="FP32">
					<dim>1</dim>
					<dim>3</dim>
					<dim>1</dim>
					<dim>1</dim>
				</port>
			</input>
			<output>
				<port id="2" precision="FP32">
					<dim>1</dim>
					<dim>3</dim>
					<dim>224</dim>
					<dim>224</dim>
				</port>
			</output>
		</layer>
		<layer id="6" name="Constant_205020" type="Const" version="opset1">
			<data element_type="f32" shape="" offset="792" size="4" />
			<output>
				<port id="0" precision="FP32" />
			</output>
		</layer>
		<layer id="7" name="Constant_205021" type="Const" version="opset1">
			<data element_type="f32" shape="" offset="796" size="4" />
			<output>
				<port id="0" precision="FP32" />
			</output>
		</layer>
		<layer id="8" name="Constant_205022" type="Const" version="opset1">
			<data element_type="f32" shape="" offset="792" size="4" />
			<output>
				<port id="0" precision="FP32" />
			</output>
		</layer>
		<layer id="9" name="Constant_205023" type="Const" version="opset1">
			<data element_type="f32" shape="" offset="796" size="4" />
			<output>
				<port id="0" precision="FP32" />
			</output>
		</layer>
		<layer id="10" name="Divide_1340/fq_output_0" type="FakeQuantize" version="opset1">
			<data levels="256" auto_broadcast="numpy" />
			<input>
				<port id="0" precision="FP32">
					<dim>1</dim>
					<dim>3</dim>
					<dim>224</dim>
					<dim>224</dim>
				</port>
				<port id="1" precision="FP32" />
				<port id="2" precision="FP32" />
				<port id="3" precision="FP32" />
				<port id="4" precision="FP32" />
			</input>
			<output>
				<port id="5" precision="FP32">
					<dim>1</dim>
					<dim>3</dim>
					<dim>224</dim>
					<dim>224</dim>
				</port>
			</output>
		</layer>
		<layer id="11" name="/Shape" type="ShapeOf" version="opset3">
			<data output_type="i64" />
			<input>
				<port id="0" precision="FP32">
					<dim>1</dim>
					<dim>3</dim>
					<dim>224</dim>
					<dim>224</dim>
				</port>
			</input>
			<output>
				<port id="1" precision="I64" names="/Shape_output_0">
					<dim>4</dim>
				</port>
			</output>
		</layer>
		<layer id="12" name="Constant_3523" type="Const" version="opset1">
			<data element_type="i64" shape="1" offset="800" size="8" />
			<output>
				<port id="0" precision="I64">
					<dim>1</dim>
				</port>
			</output>
		</layer>
		<layer id="13" name="Constant_157" type="Const" version="opset1">
			<data element_type="i64" shape="" offset="800" size="8" />
			<output>
				<port id="0" precision="I64" />
			</output>
		</layer>
		<layer id="14" name="/Gather" type="Gather" version="opset8">
			<data batch_dims="0" />
			<input>
				<port id="0" precision="I64">
					<dim>4</dim>
				</port>
				<port id="1" precision="I64">
					<dim>1</dim>
				</port>
				<port id="2" precision="I64" />
			</input>
			<output>
				<port id="3" precision="I64" names="/Unsqueeze_output_0">
					<dim>1</dim>
				</port>
			</output>
		</layer>
		<layer id="15" name="/Constant_2" type="Const" version="opset1">
			<data element_type="i64" shape="1" offset="808" size="8" />
			<output>
				<port id="0" precision="I64" names="/Constant_2_output_0">
					<dim>1</dim>
				</port>
			</output>
		</layer>
		<layer id="16" name="/Constant_3" type="Const" version="opset1">
			<data element_type="i64" shape="1" offset="808" size="8" />
			<output>
				<port id="0" precision="I64" names="/Constant_3_output_0">
					<dim>1</dim>
				</port>
			</output>
		</layer>
		<layer id="17" name="/Concat" type="Concat" version="opset1">
			<data axis="0" />
			<input>
				<port id="0" precision="I64">
					<dim>1</dim>
				</port>
				<port id="1" precision="I64">
					<dim>1</dim>
				</port>
				<port id="2" precision="I64">
					<dim>1</dim>
				</port>
			</input>
			<output>
				<port id="3" precision="I64" names="/Concat_output_0">
					<dim>3</dim>
				</port>
			</output>
		</layer>
		<layer id="18" name="Constant_1487" type="Const" version="opset1">
			<data element_type="i64" shape="1" offset="808" size="8" />
			<output>
				<port id="0" precision="I64">
					<dim>1</dim>
				</port>
			</output>
		</layer>
		<layer id="19" name="/Reshape" type="Reshape" version="opset1">
			<data special_zero="true" />
			<input>
				<port id="0" precision="I64">
					<dim>3</dim>
				</port>
				<port id="1" precision="I64">
					<dim>1</dim>
				</port>
			</input>
			<output>
				<port id="2" precision="I64" names="/Reshape_output_0">
					<dim>3</dim>
				</port>
			</output>
		</layer>
		<layer id="20" name="/Mul" type="Const" version="opset1">
			<data element_type="i64" shape="3" offset="816" size="24" />
			<output>
				<port id="0" precision="I64" names="/Mul_output_0">
					<dim>3</dim>
				</port>
			</output>
		</layer>
		<layer id="21" name="/Equal" type="Equal" version="opset1">
			<data auto_broadcast="numpy" />
			<input>
				<port id="0" precision="I64">
					<dim>3</dim>
				</port>
				<port id="1" precision="I64">
					<dim>3</dim>
				</port>
			</input>
			<output>
				<port id="2" precision="BOOL" names="/Equal_output_0">
					<dim>3</dim>
				</port>
			</output>
		</layer>
		<layer id="22" name="/ConstantOfShape" type="Const" version="opset1">
			<data element_type="i64" shape="3" offset="840" size="24" />
			<output>
				<port id="0" precision="I64" names="/ConstantOfShape_output_0">
					<dim>3</dim>
				</port>
			</output>
		</layer>
		<layer id="23" name="/Where" type="Select" version="opset1">
			<data auto_broadcast="numpy" />
			<input>
				<port id="0" precision="BOOL">
					<dim>3</dim>
				</port>
				<port id="1" precision="I64">
					<dim>3</dim>
				</port>
				<port id="2" precision="I64">
					<dim>3</dim>
				</port>
			</input>
			<output>
				<port id="3" precision="I64" names="/Where_output_0">
					<dim>3</dim>
				</port>
			</output>
		</layer>
		<layer id="24" name="/Expand" type="Broadcast" version="opset3">
			<data mode="bidirectional" />
			<input>
				<port id="0" precision="FP32">
					<dim>1</dim>
					<dim>1</dim>
					<dim>192</dim>
				</port>
				<port id="1" precision="I64">
					<dim>3</dim>
				</port>
			</input>
			<output>
				<port id="2" precision="FP32" names="/Expand_output_0">
					<dim>1</dim>
					<dim>1</dim>
					<dim>192</dim>
				</port>
			</output>
		</layer>
		<layer id="25" name="Gather_4884" type="Const" version="opset1">
			<data element_type="i8" shape="192, 3, 16, 16" offset="864" size="147456" />
			<rt_info>
				<attribute name="preprocessing" version="0" />
			</rt_info>
			<output>
				<port id="0" precision="I8">
					<dim>192</dim>
					<dim>3</dim>
					<dim>16</dim>
					<dim>16</dim>
				</port>
			</output>
		</layer>
		<layer id="26" name="Convert_405731" type="Convert" version="opset1">
			<data destination_type="f32" />
			<rt_info>
				<attribute name="preprocessing" version="0" />
			</rt_info>
			<input>
				<port id="0" precision="I8">
					<dim>192</dim>
					<dim>3</dim>
					<dim>16</dim>
					<dim>16</dim>
				</port>
			</input>
			<output>
				<port id="1" precision="FP32">
					<dim>192</dim>
					<dim>3</dim>
					<dim>16</dim>
					<dim>16</dim>
				</port>
			</output>
		</layer>
		<layer id="27" name="Constant_405629" type="Const" version="opset1">
			<data element_type="f32" shape="192, 1, 1, 1" offset="148320" size="768" />
			<rt_info>
				<attribute name="preprocessing" version="0" />
			</rt_info>
			<output>
				<port id="0" precision="FP32">
					<dim>192</dim>
					<dim>1</dim>
					<dim>1</dim>
					<dim>1</dim>
				</port>
			</output>
		</layer>
		<layer id="28" name="/patch_embed/projection/Conv/WithoutBiases/fq_weights_1" type="Multiply" version="opset1">
			<data auto_broadcast="numpy" />
			<rt_info>
				<attribute name="preprocessing" version="0" />
			</rt_info>
			<input>
				<port id="0" precision="FP32">
					<dim>192</dim>
					<dim>3</dim>
					<dim>16</dim>
					<dim>16</dim>
				</port>
				<port id="1" precision="FP32">
					<dim>192</dim>
					<dim>1</dim>
					<dim>1</dim>
					<dim>1</dim>
				</port>
			</input>
			<output>
				<port id="2" precision="FP32">
					<dim>192</dim>
					<dim>3</dim>
					<dim>16</dim>
					<dim>16</dim>
				</port>
			</output>
		</layer>
		<layer id="29" name="/patch_embed/projection/Conv/WithoutBiases" type="Convolution" version="opset1">
			<data strides="16, 16" dilations="1, 1" pads_begin="0, 0" pads_end="0, 0" auto_pad="explicit" />
			<input>
				<port id="0" precision="FP32">
					<dim>1</dim>
					<dim>3</dim>
					<dim>224</dim>
					<dim>224</dim>
				</port>
				<port id="1" precision="FP32">
					<dim>192</dim>
					<dim>3</dim>
					<dim>16</dim>
					<dim>16</dim>
				</port>
			</input>
			<output>
				<port id="2" precision="FP32">
					<dim>1</dim>
					<dim>192</dim>
					<dim>14</dim>
					<dim>14</dim>
				</port>
			</output>
		</layer>
		<layer id="30" name="Reshape_171" type="Const" version="opset1">
			<data element_type="f32" shape="1, 192, 1, 1" offset="149088" size="768" />
			<output>
				<port id="0" precision="FP32">
					<dim>1</dim>
					<dim>192</dim>
					<dim>1</dim>
					<dim>1</dim>
				</port>
			</output>
		</layer>
		<layer id="31" name="/patch_embed/projection/Conv" type="Add" version="opset1">
			<data auto_broadcast="numpy" />
			<input>
				<port id="0" precision="FP32">
					<dim>1</dim>
					<dim>192</dim>
					<dim>14</dim>
					<dim>14</dim>
				</port>
				<port id="1" precision="FP32">
					<dim>1</dim>
					<dim>192</dim>
					<dim>1</dim>
					<dim>1</dim>
				</port>
			</input>
			<output>
				<port id="2" precision="FP32" names="/patch_embed/projection/Conv_output_0">
					<dim>1</dim>
					<dim>192</dim>
					<dim>14</dim>
					<dim>14</dim>
				</port>
			</output>
		</layer>
		<layer id="32" name="/patch_embed/Shape" type="ShapeOf" version="opset3">
			<data output_type="i64" />
			<input>
				<port id="0" precision="FP32">
					<dim>1</dim>
					<dim>192</dim>
					<dim>14</dim>
					<dim>14</dim>
				</port>
			</input>
			<output>
				<port id="1" precision="I64" names="/patch_embed/Shape_output_0">
					<dim>4</dim>
				</port>
			</output>
		</layer>
		<layer id="33" name="/patch_embed/Constant_2" type="Const" version="opset1">
			<data element_type="i64" shape="1" offset="800" size="8" />
			<output>
				<port id="0" precision="I64" names="/patch_embed/Constant_2_output_0">
					<dim>1</dim>
				</port>
			</output>
		</layer>
		<layer id="34" name="/patch_embed/Constant_3" type="Const" version="opset1">
			<data element_type="i64" shape="1" offset="149856" size="8" />
			<output>
				<port id="0" precision="I64" names="/patch_embed/Constant_3_output_0">
					<dim>1</dim>
				</port>
			</output>
		</layer>
		<layer id="35" name="Broadcast_182" type="Const" version="opset1">
			<data element_type="i64" shape="1" offset="149864" size="8" />
			<output>
				<port id="0" precision="I64">
					<dim>1</dim>
				</port>
			</output>
		</layer>
		<layer id="36" name="/patch_embed/Slice" type="StridedSlice" version="opset1">
			<data begin_mask="0" end_mask="0" new_axis_mask="" shrink_axis_mask="" ellipsis_mask="" />
			<input>
				<port id="0" precision="I64">
					<dim>4</dim>
				</port>
				<port id="1" precision="I64">
					<dim>1</dim>
				</port>
				<port id="2" precision="I64">
					<dim>1</dim>
				</port>
				<port id="3" precision="I64">
					<dim>1</dim>
				</port>
			</input>
			<output>
				<port id="4" precision="I64" names="/patch_embed/Slice_output_0">
					<dim>2</dim>
				</port>
			</output>
		</layer>
		<layer id="37" name="/patch_embed/Constant_4" type="Const" version="opset1">
			<data element_type="i64" shape="1" offset="808" size="8" />
			<output>
				<port id="0" precision="I64" names="/patch_embed/Constant_4_output_0">
					<dim>1</dim>
				</port>
			</output>
		</layer>
		<layer id="38" name="/patch_embed/Concat" type="Concat" version="opset1">
			<data axis="0" />
			<input>
				<port id="0" precision="I64">
					<dim>2</dim>
				</port>
				<port id="1" precision="I64">
					<dim>1</dim>
				</port>
			</input>
			<output>
				<port id="2" precision="I64" names="/patch_embed/Concat_output_0">
					<dim>3</dim>
				</port>
			</output>
		</layer>
		<layer id="39" name="/patch_embed/Reshape" type="Reshape" version="opset1">
			<data special_zero="true" />
			<input>
				<port id="0" precision="FP32">
					<dim>1</dim>
					<dim>192</dim>
					<dim>14</dim>
					<dim>14</dim>
				</port>
				<port id="1" precision="I64">
					<dim>3</dim>
				</port>
			</input>
			<output>
				<port id="2" precision="FP32" names="/patch_embed/Reshape_output_0">
					<dim>1</dim>
					<dim>192</dim>
					<dim>196</dim>
				</port>
			</output>
		</layer>
		<layer id="40" name="Constant_192" type="Const" version="opset1">
			<data element_type="i64" shape="3" offset="149872" size="24" />
			<output>
				<port id="0" precision="I64">
					<dim>3</dim>
				</port>
			</output>
		</layer>
		<layer id="41" name="/patch_embed/Transpose" type="Transpose" version="opset1">
			<input>
				<port id="0" precision="FP32">
					<dim>1</dim>
					<dim>192</dim>
					<dim>196</dim>
				</port>
				<port id="1" precision="I64">
					<dim>3</dim>
				</port>
			</input>
			<output>
				<port id="2" precision="FP32" names="/patch_embed/Transpose_output_0">
					<dim>1</dim>
					<dim>196</dim>
					<dim>192</dim>
				</port>
			</output>
		</layer>
		<layer id="42" name="/Concat_1" type="Concat" version="opset1">
			<data axis="1" />
			<input>
				<port id="0" precision="FP32">
					<dim>1</dim>
					<dim>1</dim>
					<dim>192</dim>
				</port>
				<port id="1" precision="FP32">
					<dim>1</dim>
					<dim>196</dim>
					<dim>192</dim>
				</port>
			</input>
			<output>
				<port id="2" precision="FP32" names="/Concat_1_output_0">
					<dim>1</dim>
					<dim>197</dim>
					<dim>192</dim>
				</port>
			</output>
		</layer>
		<layer id="43" name="backbone.pos_embed" type="Const" version="opset1">
			<data element_type="f32" shape="1, 197, 192" offset="149896" size="151296" />
			<output>
				<port id="0" precision="FP32" names="backbone.pos_embed">
					<dim>1</dim>
					<dim>197</dim>
					<dim>192</dim>
				</port>
			</output>
		</layer>
		<layer id="44" name="/Add" type="Add" version="opset1">
			<data auto_broadcast="numpy" />
			<input>
				<port id="0" precision="FP32">
					<dim>1</dim>
					<dim>197</dim>
					<dim>192</dim>
				</port>
				<port id="1" precision="FP32">
					<dim>1</dim>
					<dim>197</dim>
					<dim>192</dim>
				</port>
			</input>
			<output>
				<port id="2" precision="FP32" names="/Add_output_0">
					<dim>1</dim>
					<dim>197</dim>
					<dim>192</dim>
				</port>
			</output>
		</layer>
		<layer id="45" name="Constant_4889" type="Const" version="opset1">
			<data element_type="f32" shape="1, 1, 192" offset="301192" size="768" />
			<output>
				<port id="0" precision="FP32">
					<dim>1</dim>
					<dim>1</dim>
					<dim>192</dim>
				</port>
			</output>
		</layer>
		<layer id="46" name="Constant_4887" type="Const" version="opset1">
			<data element_type="f32" shape="1, 1, 576" offset="301960" size="2304" />
			<output>
				<port id="0" precision="FP32">
					<dim>1</dim>
					<dim>1</dim>
					<dim>576</dim>
				</port>
			</output>
		</layer>
		<layer id="47" name="Constant_239" type="Const" version="opset1">
			<data element_type="i64" shape="1" offset="808" size="8" />
			<output>
				<port id="0" precision="I64">
					<dim>1</dim>
				</port>
			</output>
		</layer>
		<layer id="48" name="/layers.0/ln1/Div" type="MVN" version="opset6">
			<data eps="9.9999999747524271e-07" normalize_variance="true" eps_mode="INSIDE_SQRT" />
			<input>
				<port id="0" precision="FP32">
					<dim>1</dim>
					<dim>197</dim>
					<dim>192</dim>
				</port>
				<port id="1" precision="I64">
					<dim>1</dim>
				</port>
			</input>
			<output>
				<port id="2" precision="FP32" names="/layers.0/ln1/Div_output_0">
					<dim>1</dim>
					<dim>197</dim>
					<dim>192</dim>
				</port>
			</output>
		</layer>
		<layer id="49" name="Constant_4885" type="Const" version="opset1">
			<data element_type="f32" shape="1, 1, 192" offset="304264" size="768" />
			<output>
				<port id="0" precision="FP32">
					<dim>1</dim>
					<dim>1</dim>
					<dim>192</dim>
				</port>
			</output>
		</layer>
		<layer id="50" name="/layers.0/ln1/Mul" type="Multiply" version="opset1">
			<data auto_broadcast="numpy" />
			<input>
				<port id="0" precision="FP32">
					<dim>1</dim>
					<dim>197</dim>
					<dim>192</dim>
				</port>
				<port id="1" precision="FP32">
					<dim>1</dim>
					<dim>1</dim>
					<dim>192</dim>
				</port>
			</input>
			<output>
				<port id="2" precision="FP32" names="/layers.0/ln1/Mul_output_0">
					<dim>1</dim>
					<dim>197</dim>
					<dim>192</dim>
				</port>
			</output>
		</layer>
		<layer id="51" name="Constant_4886" type="Const" version="opset1">
			<data element_type="f32" shape="1, 1, 192" offset="305032" size="768" />
			<output>
				<port id="0" precision="FP32">
					<dim>1</dim>
					<dim>1</dim>
					<dim>192</dim>
				</port>
			</output>
		</layer>
		<layer id="52" name="/layers.0/ln1/Add_1" type="Add" version="opset1">
			<data auto_broadcast="numpy" />
			<input>
				<port id="0" precision="FP32">
					<dim>1</dim>
					<dim>197</dim>
					<dim>192</dim>
				</port>
				<port id="1" precision="FP32">
					<dim>1</dim>
					<dim>1</dim>
					<dim>192</dim>
				</port>
			</input>
			<output>
				<port id="2" precision="FP32" names="/layers.0/ln1/Add_1_output_0">
					<dim>1</dim>
					<dim>197</dim>
					<dim>192</dim>
				</port>
			</output>
		</layer>
		<layer id="53" name="Constant_183318" type="Const" version="opset1">
			<data element_type="f32" shape="1, 1, 192" offset="305800" size="768" />
			<output>
				<port id="0" precision="FP32">
					<dim>1</dim>
					<dim>1</dim>
					<dim>192</dim>
				</port>
			</output>
		</layer>
		<layer id="54" name="/layers.0/ln1/Add_1_0_0/sq_multiply" type="Multiply" version="opset1">
			<data auto_broadcast="numpy" />
			<input>
				<port id="0" precision="FP32">
					<dim>1</dim>
					<dim>197</dim>
					<dim>192</dim>
				</port>
				<port id="1" precision="FP32">
					<dim>1</dim>
					<dim>1</dim>
					<dim>192</dim>
				</port>
			</input>
			<output>
				<port id="2" precision="FP32">
					<dim>1</dim>
					<dim>197</dim>
					<dim>192</dim>
				</port>
			</output>
		</layer>
		<layer id="55" name="Constant_205030" type="Const" version="opset1">
			<data element_type="f32" shape="" offset="306568" size="4" />
			<output>
				<port id="0" precision="FP32" />
			</output>
		</layer>
		<layer id="56" name="Constant_205031" type="Const" version="opset1">
			<data element_type="f32" shape="" offset="306572" size="4" />
			<output>
				<port id="0" precision="FP32" />
			</output>
		</layer>
		<layer id="57" name="Constant_205032" type="Const" version="opset1">
			<data element_type="f32" shape="" offset="306568" size="4" />
			<output>
				<port id="0" precision="FP32" />
			</output>
		</layer>
		<layer id="58" name="Constant_205033" type="Const" version="opset1">
			<data element_type="f32" shape="" offset="306572" size="4" />
			<output>
				<port id="0" precision="FP32" />
			</output>
		</layer>
		<layer id="59" name="/layers.0/ln1/Add_1_0_0/sq_multiply/fq_output_0" type="FakeQuantize" version="opset1">
			<data levels="256" auto_broadcast="numpy" />
			<input>
				<port id="0" precision="FP32">
					<dim>1</dim>
					<dim>197</dim>
					<dim>192</dim>
				</port>
				<port id="1" precision="FP32" />
				<port id="2" precision="FP32" />
				<port id="3" precision="FP32" />
				<port id="4" precision="FP32" />
			</input>
			<output>
				<port id="5" precision="FP32">
					<dim>1</dim>
					<dim>197</dim>
					<dim>192</dim>
				</port>
			</output>
		</layer>
		<layer id="60" name="Constant_4440" type="Const" version="opset1">
			<data element_type="i8" shape="576, 192" offset="306576" size="110592" />
			<output>
				<port id="0" precision="I8">
					<dim>576</dim>
					<dim>192</dim>
				</port>
			</output>
		</layer>
		<layer id="61" name="Convert_405885" type="Convert" version="opset1">
			<data destination_type="f32" />
			<input>
				<port id="0" precision="I8">
					<dim>576</dim>
					<dim>192</dim>
				</port>
			</input>
			<output>
				<port id="1" precision="FP32">
					<dim>576</dim>
					<dim>192</dim>
				</port>
			</output>
		</layer>
		<layer id="62" name="Constant_405783" type="Const" version="opset1">
			<data element_type="f32" shape="576, 1" offset="417168" size="2304" />
			<output>
				<port id="0" precision="FP32">
					<dim>576</dim>
					<dim>1</dim>
				</port>
			</output>
		</layer>
		<layer id="63" name="/layers.0/attn/qkv/MatMul/fq_weights_1" type="Multiply" version="opset1">
			<data auto_broadcast="numpy" />
			<input>
				<port id="0" precision="FP32">
					<dim>576</dim>
					<dim>192</dim>
				</port>
				<port id="1" precision="FP32">
					<dim>576</dim>
					<dim>1</dim>
				</port>
			</input>
			<output>
				<port id="2" precision="FP32">
					<dim>576</dim>
					<dim>192</dim>
				</port>
			</output>
		</layer>
		<layer id="64" name="/layers.0/attn/qkv/MatMul" type="MatMul" version="opset1">
			<data transpose_a="false" transpose_b="true" />
			<input>
				<port id="0" precision="FP32">
					<dim>1</dim>
					<dim>197</dim>
					<dim>192</dim>
				</port>
				<port id="1" precision="FP32">
					<dim>576</dim>
					<dim>192</dim>
				</port>
			</input>
			<output>
				<port id="2" precision="FP32" names="/layers.0/attn/qkv/MatMul_output_0">
					<dim>1</dim>
					<dim>197</dim>
					<dim>576</dim>
				</port>
			</output>
		</layer>
		<layer id="65" name="/layers.0/attn/qkv/Add" type="Add" version="opset1">
			<data auto_broadcast="numpy" />
			<input>
				<port id="0" precision="FP32">
					<dim>1</dim>
					<dim>1</dim>
					<dim>576</dim>
				</port>
				<port id="1" precision="FP32">
					<dim>1</dim>
					<dim>197</dim>
					<dim>576</dim>
				</port>
			</input>
			<output>
				<port id="2" precision="FP32" names="/layers.0/attn/qkv/Add_output_0">
					<dim>1</dim>
					<dim>197</dim>
					<dim>576</dim>
				</port>
			</output>
		</layer>
		<layer id="66" name="/layers.0/attn/Shape" type="ShapeOf" version="opset3">
			<data output_type="i64" />
			<input>
				<port id="0" precision="FP32">
					<dim>1</dim>
					<dim>197</dim>
					<dim>192</dim>
				</port>
			</input>
			<output>
				<port id="1" precision="I64" names="/layers.0/attn/Shape_1_output_0,/layers.0/attn/Shape_output_0">
					<dim>3</dim>
				</port>
			</output>
		</layer>
		<layer id="67" name="Constant_3814" type="Const" version="opset1">
			<data element_type="i64" shape="2" offset="419472" size="16" />
			<output>
				<port id="0" precision="I64">
					<dim>2</dim>
				</port>
			</output>
		</layer>
		<layer id="68" name="Constant_3815" type="Const" version="opset1">
			<data element_type="i64" shape="" offset="800" size="8" />
			<output>
				<port id="0" precision="I64" />
			</output>
		</layer>
		<layer id="69" name="Gather_3816" type="Gather" version="opset8">
			<data batch_dims="0" />
			<input>
				<port id="0" precision="I64">
					<dim>3</dim>
				</port>
				<port id="1" precision="I64">
					<dim>2</dim>
				</port>
				<port id="2" precision="I64" />
			</input>
			<output>
				<port id="3" precision="I64">
					<dim>2</dim>
				</port>
			</output>
		</layer>
		<layer id="70" name="/layers.0/attn/Constant_2" type="Const" version="opset1">
			<data element_type="i64" shape="1" offset="419488" size="8" />
			<output>
				<port id="0" precision="I64" names="/layers.0/attn/Constant_2_output_0">
					<dim>1</dim>
				</port>
			</output>
		</layer>
		<layer id="71" name="/layers.0/attn/Constant_3" type="Const" version="opset1">
			<data element_type="i64" shape="1" offset="419488" size="8" />
			<output>
				<port id="0" precision="I64" names="/layers.0/attn/Constant_3_output_0">
					<dim>1</dim>
				</port>
			</output>
		</layer>
		<layer id="72" name="/layers.0/attn/Constant_4" type="Const" version="opset1">
			<data element_type="i64" shape="1" offset="419496" size="8" />
			<output>
				<port id="0" precision="I64" names="/layers.0/attn/Constant_4_output_0">
					<dim>1</dim>
				</port>
			</output>
		</layer>
		<layer id="73" name="/layers.0/attn/Concat" type="Concat" version="opset1">
			<data axis="0" />
			<input>
				<port id="0" precision="I64">
					<dim>2</dim>
				</port>
				<port id="1" precision="I64">
					<dim>1</dim>
				</port>
				<port id="2" precision="I64">
					<dim>1</dim>
				</port>
				<port id="3" precision="I64">
					<dim>1</dim>
				</port>
			</input>
			<output>
				<port id="4" precision="I64" names="/layers.0/attn/Concat_output_0">
					<dim>5</dim>
				</port>
			</output>
		</layer>
		<layer id="74" name="/layers.0/attn/Reshape" type="Reshape" version="opset1">
			<data special_zero="true" />
			<input>
				<port id="0" precision="FP32">
					<dim>1</dim>
					<dim>197</dim>
					<dim>576</dim>
				</port>
				<port id="1" precision="I64">
					<dim>5</dim>
				</port>
			</input>
			<output>
				<port id="2" precision="FP32" names="/layers.0/attn/Reshape_output_0">
					<dim>1</dim>
					<dim>197</dim>
					<dim>3</dim>
					<dim>3</dim>
					<dim>64</dim>
				</port>
			</output>
		</layer>
		<layer id="75" name="Constant_273" type="Const" version="opset1">
			<data element_type="i64" shape="5" offset="419504" size="40" />
			<output>
				<port id="0" precision="I64">
					<dim>5</dim>
				</port>
			</output>
		</layer>
		<layer id="76" name="/layers.0/attn/Transpose" type="Transpose" version="opset1">
			<input>
				<port id="0" precision="FP32">
					<dim>1</dim>
					<dim>197</dim>
					<dim>3</dim>
					<dim>3</dim>
					<dim>64</dim>
				</port>
				<port id="1" precision="I64">
					<dim>5</dim>
				</port>
			</input>
			<output>
				<port id="2" precision="FP32" names="/layers.0/attn/Transpose_output_0">
					<dim>3</dim>
					<dim>1</dim>
					<dim>3</dim>
					<dim>197</dim>
					<dim>64</dim>
				</port>
			</output>
		</layer>
		<layer id="77" name="Constant_205045" type="Const" version="opset1">
			<data element_type="f32" shape="" offset="419544" size="4" />
			<output>
				<port id="0" precision="FP32" />
			</output>
		</layer>
		<layer id="78" name="Constant_205046" type="Const" version="opset1">
			<data element_type="f32" shape="" offset="419548" size="4" />
			<output>
				<port id="0" precision="FP32" />
			</output>
		</layer>
		<layer id="79" name="Constant_205047" type="Const" version="opset1">
			<data element_type="f32" shape="" offset="419544" size="4" />
			<output>
				<port id="0" precision="FP32" />
			</output>
		</layer>
		<layer id="80" name="Constant_205048" type="Const" version="opset1">
			<data element_type="f32" shape="" offset="419548" size="4" />
			<output>
				<port id="0" precision="FP32" />
			</output>
		</layer>
		<layer id="81" name="/layers.0/attn/Gather_2/fq_input_0" type="FakeQuantize" version="opset1">
			<data levels="256" auto_broadcast="numpy" />
			<input>
				<port id="0" precision="FP32">
					<dim>3</dim>
					<dim>1</dim>
					<dim>3</dim>
					<dim>197</dim>
					<dim>64</dim>
				</port>
				<port id="1" precision="FP32" />
				<port id="2" precision="FP32" />
				<port id="3" precision="FP32" />
				<port id="4" precision="FP32" />
			</input>
			<output>
				<port id="5" precision="FP32">
					<dim>3</dim>
					<dim>1</dim>
					<dim>3</dim>
					<dim>197</dim>
					<dim>64</dim>
				</port>
			</output>
		</layer>
		<layer id="82" name="/Constant" type="Const" version="opset1">
			<data element_type="i64" shape="" offset="800" size="8" />
			<output>
				<port id="0" precision="I64" names="/Constant_output_0" />
			</output>
		</layer>
		<layer id="83" name="Constant_275" type="Const" version="opset1">
			<data element_type="i64" shape="" offset="800" size="8" />
			<output>
				<port id="0" precision="I64" />
			</output>
		</layer>
		<layer id="84" name="/layers.0/attn/Gather_2" type="Gather" version="opset8">
			<data batch_dims="0" />
			<input>
				<port id="0" precision="FP32">
					<dim>3</dim>
					<dim>1</dim>
					<dim>3</dim>
					<dim>197</dim>
					<dim>64</dim>
				</port>
				<port id="1" precision="I64" />
				<port id="2" precision="I64" />
			</input>
			<output>
				<port id="3" precision="FP32" names="/layers.0/attn/Gather_2_output_0">
					<dim>1</dim>
					<dim>3</dim>
					<dim>197</dim>
					<dim>64</dim>
				</port>
			</output>
		</layer>
		<layer id="85" name="/patch_embed/projection/Constant" type="Const" version="opset1">
			<data element_type="i64" shape="" offset="149864" size="8" />
			<output>
				<port id="0" precision="I64" names="/patch_embed/projection/Constant_output_0" />
			</output>
		</layer>
		<layer id="86" name="Constant_277" type="Const" version="opset1">
			<data element_type="i64" shape="" offset="800" size="8" />
			<output>
				<port id="0" precision="I64" />
			</output>
		</layer>
		<layer id="87" name="/layers.0/attn/Gather_3" type="Gather" version="opset8">
			<data batch_dims="0" />
			<input>
				<port id="0" precision="FP32">
					<dim>3</dim>
					<dim>1</dim>
					<dim>3</dim>
					<dim>197</dim>
					<dim>64</dim>
				</port>
				<port id="1" precision="I64" />
				<port id="2" precision="I64" />
			</input>
			<output>
				<port id="3" precision="FP32" names="/layers.0/attn/Gather_3_output_0">
					<dim>1</dim>
					<dim>3</dim>
					<dim>197</dim>
					<dim>64</dim>
				</port>
			</output>
		</layer>
		<layer id="88" name="Constant_4888" type="Const" version="opset1">
			<data element_type="f32" shape="1, 1, 1, 1" offset="419552" size="4" />
			<output>
				<port id="0" precision="FP32">
					<dim>1</dim>
					<dim>1</dim>
					<dim>1</dim>
					<dim>1</dim>
				</port>
			</output>
		</layer>
		<layer id="89" name="Multiply_4678" type="Multiply" version="opset1">
			<data auto_broadcast="numpy" />
			<input>
				<port id="0" precision="FP32">
					<dim>1</dim>
					<dim>3</dim>
					<dim>197</dim>
					<dim>64</dim>
				</port>
				<port id="1" precision="FP32">
					<dim>1</dim>
					<dim>1</dim>
					<dim>1</dim>
					<dim>1</dim>
				</port>
			</input>
			<output>
				<port id="2" precision="FP32">
					<dim>1</dim>
					<dim>3</dim>
					<dim>197</dim>
					<dim>64</dim>
				</port>
			</output>
		</layer>
		<layer id="90" name="Constant_205040" type="Const" version="opset1">
			<data element_type="f32" shape="" offset="419556" size="4" />
			<output>
				<port id="0" precision="FP32" />
			</output>
		</layer>
		<layer id="91" name="Constant_205041" type="Const" version="opset1">
			<data element_type="f32" shape="" offset="419560" size="4" />
			<output>
				<port id="0" precision="FP32" />
			</output>
		</layer>
		<layer id="92" name="Constant_205042" type="Const" version="opset1">
			<data element_type="f32" shape="" offset="419556" size="4" />
			<output>
				<port id="0" precision="FP32" />
			</output>
		</layer>
		<layer id="93" name="Constant_205043" type="Const" version="opset1">
			<data element_type="f32" shape="" offset="419560" size="4" />
			<output>
				<port id="0" precision="FP32" />
			</output>
		</layer>
		<layer id="94" name="Multiply_4678/fq_output_0" type="FakeQuantize" version="opset1">
			<data levels="256" auto_broadcast="numpy" />
			<input>
				<port id="0" precision="FP32">
					<dim>1</dim>
					<dim>3</dim>
					<dim>197</dim>
					<dim>64</dim>
				</port>
				<port id="1" precision="FP32" />
				<port id="2" precision="FP32" />
				<port id="3" precision="FP32" />
				<port id="4" precision="FP32" />
			</input>
			<output>
				<port id="5" precision="FP32">
					<dim>1</dim>
					<dim>3</dim>
					<dim>197</dim>
					<dim>64</dim>
				</port>
			</output>
		</layer>
		<layer id="95" name="/layers.0/attn/Mul" type="MatMul" version="opset1">
			<data transpose_a="false" transpose_b="true" />
			<input>
				<port id="0" precision="FP32">
					<dim>1</dim>
					<dim>3</dim>
					<dim>197</dim>
					<dim>64</dim>
				</port>
				<port id="1" precision="FP32">
					<dim>1</dim>
					<dim>3</dim>
					<dim>197</dim>
					<dim>64</dim>
				</port>
			</input>
			<output>
				<port id="2" precision="FP32" names="/layers.0/attn/Mul_output_0">
					<dim>1</dim>
					<dim>3</dim>
					<dim>197</dim>
					<dim>197</dim>
				</port>
			</output>
		</layer>
		<layer id="96" name="/layers.0/attn/Softmax" type="SoftMax" version="opset8">
			<data axis="3" />
			<input>
				<port id="0" precision="FP32">
					<dim>1</dim>
					<dim>3</dim>
					<dim>197</dim>
					<dim>197</dim>
				</port>
			</input>
			<output>
				<port id="1" precision="FP32" names="/layers.0/attn/Softmax_output_0">
					<dim>1</dim>
					<dim>3</dim>
					<dim>197</dim>
					<dim>197</dim>
				</port>
			</output>
		</layer>
		<layer id="97" name="/patch_embed/Constant" type="Const" version="opset1">
			<data element_type="i64" shape="" offset="149856" size="8" />
			<output>
				<port id="0" precision="I64" names="/patch_embed/Constant_output_0" />
			</output>
		</layer>
		<layer id="98" name="Constant_279" type="Const" version="opset1">
			<data element_type="i64" shape="" offset="800" size="8" />
			<output>
				<port id="0" precision="I64" />
			</output>
		</layer>
		<layer id="99" name="/layers.0/attn/Gather_4" type="Gather" version="opset8">
			<data batch_dims="0" />
			<input>
				<port id="0" precision="FP32">
					<dim>3</dim>
					<dim>1</dim>
					<dim>3</dim>
					<dim>197</dim>
					<dim>64</dim>
				</port>
				<port id="1" precision="I64" />
				<port id="2" precision="I64" />
			</input>
			<output>
				<port id="3" precision="FP32" names="/layers.0/attn/Gather_4_output_0">
					<dim>1</dim>
					<dim>3</dim>
					<dim>197</dim>
					<dim>64</dim>
				</port>
			</output>
		</layer>
		<layer id="100" name="/layers.0/attn/MatMul_1" type="MatMul" version="opset1">
			<data transpose_a="false" transpose_b="false" />
			<input>
				<port id="0" precision="FP32">
					<dim>1</dim>
					<dim>3</dim>
					<dim>197</dim>
					<dim>197</dim>
				</port>
				<port id="1" precision="FP32">
					<dim>1</dim>
					<dim>3</dim>
					<dim>197</dim>
					<dim>64</dim>
				</port>
			</input>
			<output>
				<port id="2" precision="FP32" names="/layers.0/attn/MatMul_1_output_0">
					<dim>1</dim>
					<dim>3</dim>
					<dim>197</dim>
					<dim>64</dim>
				</port>
			</output>
		</layer>
		<layer id="101" name="Constant_288" type="Const" version="opset1">
			<data element_type="i64" shape="4" offset="419564" size="32" />
			<output>
				<port id="0" precision="I64">
					<dim>4</dim>
				</port>
			</output>
		</layer>
		<layer id="102" name="/layers.0/attn/Transpose_2" type="Transpose" version="opset1">
			<input>
				<port id="0" precision="FP32">
					<dim>1</dim>
					<dim>3</dim>
					<dim>197</dim>
					<dim>64</dim>
				</port>
				<port id="1" precision="I64">
					<dim>4</dim>
				</port>
			</input>
			<output>
				<port id="2" precision="FP32" names="/layers.0/attn/Transpose_2_output_0">
					<dim>1</dim>
					<dim>197</dim>
					<dim>3</dim>
					<dim>64</dim>
				</port>
			</output>
		</layer>
		<layer id="103" name="Constant_3819" type="Const" version="opset1">
			<data element_type="i64" shape="2" offset="419472" size="16" />
			<output>
				<port id="0" precision="I64">
					<dim>2</dim>
				</port>
			</output>
		</layer>
		<layer id="104" name="Constant_3820" type="Const" version="opset1">
			<data element_type="i64" shape="" offset="800" size="8" />
			<output>
				<port id="0" precision="I64" />
			</output>
		</layer>
		<layer id="105" name="Gather_3821" type="Gather" version="opset8">
			<data batch_dims="0" />
			<input>
				<port id="0" precision="I64">
					<dim>3</dim>
				</port>
				<port id="1" precision="I64">
					<dim>2</dim>
				</port>
				<port id="2" precision="I64" />
			</input>
			<output>
				<port id="3" precision="I64">
					<dim>2</dim>
				</port>
			</output>
		</layer>
		<layer id="106" name="/layers.0/attn/Constant_6" type="Const" version="opset1">
			<data element_type="i64" shape="1" offset="419596" size="8" />
			<output>
				<port id="0" precision="I64" names="/layers.0/attn/Constant_6_output_0">
					<dim>1</dim>
				</port>
			</output>
		</layer>
		<layer id="107" name="/layers.0/attn/Concat_1" type="Concat" version="opset1">
			<data axis="0" />
			<input>
				<port id="0" precision="I64">
					<dim>2</dim>
				</port>
				<port id="1" precision="I64">
					<dim>1</dim>
				</port>
			</input>
			<output>
				<port id="2" precision="I64" names="/layers.0/attn/Concat_1_output_0">
					<dim>3</dim>
				</port>
			</output>
		</layer>
		<layer id="108" name="/layers.0/attn/Reshape_1" type="Reshape" version="opset1">
			<data special_zero="true" />
			<input>
				<port id="0" precision="FP32">
					<dim>1</dim>
					<dim>197</dim>
					<dim>3</dim>
					<dim>64</dim>
				</port>
				<port id="1" precision="I64">
					<dim>3</dim>
				</port>
			</input>
			<output>
				<port id="2" precision="FP32" names="/layers.0/attn/Reshape_1_output_0">
					<dim>1</dim>
					<dim>197</dim>
					<dim>192</dim>
				</port>
			</output>
		</layer>
		<layer id="109" name="Constant_183330" type="Const" version="opset1">
			<data element_type="f32" shape="1, 1, 192" offset="419604" size="768" />
			<output>
				<port id="0" precision="FP32">
					<dim>1</dim>
					<dim>1</dim>
					<dim>192</dim>
				</port>
			</output>
		</layer>
		<layer id="110" name="/layers.0/attn/Reshape_1_0_0/sq_multiply" type="Multiply" version="opset1">
			<data auto_broadcast="numpy" />
			<input>
				<port id="0" precision="FP32">
					<dim>1</dim>
					<dim>197</dim>
					<dim>192</dim>
				</port>
				<port id="1" precision="FP32">
					<dim>1</dim>
					<dim>1</dim>
					<dim>192</dim>
				</port>
			</input>
			<output>
				<port id="2" precision="FP32">
					<dim>1</dim>
					<dim>197</dim>
					<dim>192</dim>
				</port>
			</output>
		</layer>
		<layer id="111" name="Constant_205050" type="Const" version="opset1">
			<data element_type="f32" shape="" offset="420372" size="4" />
			<output>
				<port id="0" precision="FP32" />
			</output>
		</layer>
		<layer id="112" name="Constant_205051" type="Const" version="opset1">
			<data element_type="f32" shape="" offset="420376" size="4" />
			<output>
				<port id="0" precision="FP32" />
			</output>
		</layer>
		<layer id="113" name="Constant_205052" type="Const" version="opset1">
			<data element_type="f32" shape="" offset="420372" size="4" />
			<output>
				<port id="0" precision="FP32" />
			</output>
		</layer>
		<layer id="114" name="Constant_205053" type="Const" version="opset1">
			<data element_type="f32" shape="" offset="420376" size="4" />
			<output>
				<port id="0" precision="FP32" />
			</output>
		</layer>
		<layer id="115" name="/layers.0/attn/Reshape_1_0_0/sq_multiply/fq_output_0" type="FakeQuantize" version="opset1">
			<data levels="256" auto_broadcast="numpy" />
			<input>
				<port id="0" precision="FP32">
					<dim>1</dim>
					<dim>197</dim>
					<dim>192</dim>
				</port>
				<port id="1" precision="FP32" />
				<port id="2" precision="FP32" />
				<port id="3" precision="FP32" />
				<port id="4" precision="FP32" />
			</input>
			<output>
				<port id="5" precision="FP32">
					<dim>1</dim>
					<dim>197</dim>
					<dim>192</dim>
				</port>
			</output>
		</layer>
		<layer id="116" name="Constant_4444" type="Const" version="opset1">
			<data element_type="i8" shape="192, 192" offset="420380" size="36864" />
			<output>
				<port id="0" precision="I8">
					<dim>192</dim>
					<dim>192</dim>
				</port>
			</output>
		</layer>
		<layer id="117" name="Convert_406039" type="Convert" version="opset1">
			<data destination_type="f32" />
			<input>
				<port id="0" precision="I8">
					<dim>192</dim>
					<dim>192</dim>
				</port>
			</input>
			<output>
				<port id="1" precision="FP32">
					<dim>192</dim>
					<dim>192</dim>
				</port>
			</output>
		</layer>
		<layer id="118" name="Constant_405937" type="Const" version="opset1">
			<data element_type="f32" shape="192, 1" offset="457244" size="768" />
			<output>
				<port id="0" precision="FP32">
					<dim>192</dim>
					<dim>1</dim>
				</port>
			</output>
		</layer>
		<layer id="119" name="/layers.0/attn/proj/MatMul/fq_weights_1" type="Multiply" version="opset1">
			<data auto_broadcast="numpy" />
			<input>
				<port id="0" precision="FP32">
					<dim>192</dim>
					<dim>192</dim>
				</port>
				<port id="1" precision="FP32">
					<dim>192</dim>
					<dim>1</dim>
				</port>
			</input>
			<output>
				<port id="2" precision="FP32">
					<dim>192</dim>
					<dim>192</dim>
				</port>
			</output>
		</layer>
		<layer id="120" name="/layers.0/attn/proj/MatMul" type="MatMul" version="opset1">
			<data transpose_a="false" transpose_b="true" />
			<input>
				<port id="0" precision="FP32">
					<dim>1</dim>
					<dim>197</dim>
					<dim>192</dim>
				</port>
				<port id="1" precision="FP32">
					<dim>192</dim>
					<dim>192</dim>
				</port>
			</input>
			<output>
				<port id="2" precision="FP32" names="/layers.0/attn/proj/MatMul_output_0">
					<dim>1</dim>
					<dim>197</dim>
					<dim>192</dim>
				</port>
			</output>
		</layer>
		<layer id="121" name="/layers.0/attn/proj/Add" type="Add" version="opset1">
			<data auto_broadcast="numpy" />
			<input>
				<port id="0" precision="FP32">
					<dim>1</dim>
					<dim>1</dim>
					<dim>192</dim>
				</port>
				<port id="1" precision="FP32">
					<dim>1</dim>
					<dim>197</dim>
					<dim>192</dim>
				</port>
			</input>
			<output>
				<port id="2" precision="FP32" names="/layers.0/attn/proj/Add_output_0">
					<dim>1</dim>
					<dim>197</dim>
					<dim>192</dim>
				</port>
			</output>
		</layer>
		<layer id="122" name="/layers.0/Add" type="Add" version="opset1">
			<data auto_broadcast="numpy" />
			<input>
				<port id="0" precision="FP32">
					<dim>1</dim>
					<dim>197</dim>
					<dim>192</dim>
				</port>
				<port id="1" precision="FP32">
					<dim>1</dim>
					<dim>197</dim>
					<dim>192</dim>
				</port>
			</input>
			<output>
				<port id="2" precision="FP32" names="/layers.0/Add_output_0">
					<dim>1</dim>
					<dim>197</dim>
					<dim>192</dim>
				</port>
			</output>
		</layer>
		<layer id="123" name="Constant_4893" type="Const" version="opset1">
			<data element_type="f32" shape="1, 1, 192" offset="458012" size="768" />
			<output>
				<port id="0" precision="FP32">
					<dim>1</dim>
					<dim>1</dim>
					<dim>192</dim>
				</port>
			</output>
		</layer>
		<layer id="124" name="Constant_4892" type="Const" version="opset1">
			<data element_type="f32" shape="1, 1, 768" offset="458780" size="3072" />
			<output>
				<port id="0" precision="FP32">
					<dim>1</dim>
					<dim>1</dim>
					<dim>768</dim>
				</port>
			</output>
		</layer>
		<layer id="125" name="Constant_302" type="Const" version="opset1">
			<data element_type="i64" shape="1" offset="808" size="8" />
			<output>
				<port id="0" precision="I64">
					<dim>1</dim>
				</port>
			</output>
		</layer>
		<layer id="126" name="/layers.0/ln2/Div" type="MVN" version="opset6">
			<data eps="9.9999999747524271e-07" normalize_variance="true" eps_mode="INSIDE_SQRT" />
			<input>
				<port id="0" precision="FP32">
					<dim>1</dim>
					<dim>197</dim>
					<dim>192</dim>
				</port>
				<port id="1" precision="I64">
					<dim>1</dim>
				</port>
			</input>
			<output>
				<port id="2" precision="FP32" names="/layers.0/ln2/Div_output_0">
					<dim>1</dim>
					<dim>197</dim>
					<dim>192</dim>
				</port>
			</output>
		</layer>
		<layer id="127" name="Constant_4890" type="Const" version="opset1">
			<data element_type="f32" shape="1, 1, 192" offset="461852" size="768" />
			<output>
				<port id="0" precision="FP32">
					<dim>1</dim>
					<dim>1</dim>
					<dim>192</dim>
				</port>
			</output>
		</layer>
		<layer id="128" name="/layers.0/ln2/Mul" type="Multiply" version="opset1">
			<data auto_broadcast="numpy" />
			<input>
				<port id="0" precision="FP32">
					<dim>1</dim>
					<dim>197</dim>
					<dim>192</dim>
				</port>
				<port id="1" precision="FP32">
					<dim>1</dim>
					<dim>1</dim>
					<dim>192</dim>
				</port>
			</input>
			<output>
				<port id="2" precision="FP32" names="/layers.0/ln2/Mul_output_0">
					<dim>1</dim>
					<dim>197</dim>
					<dim>192</dim>
				</port>
			</output>
		</layer>
		<layer id="129" name="Constant_4891" type="Const" version="opset1">
			<data element_type="f32" shape="1, 1, 192" offset="462620" size="768" />
			<output>
				<port id="0" precision="FP32">
					<dim>1</dim>
					<dim>1</dim>
					<dim>192</dim>
				</port>
			</output>
		</layer>
		<layer id="130" name="/layers.0/ln2/Add_1" type="Add" version="opset1">
			<data auto_broadcast="numpy" />
			<input>
				<port id="0" precision="FP32">
					<dim>1</dim>
					<dim>197</dim>
					<dim>192</dim>
				</port>
				<port id="1" precision="FP32">
					<dim>1</dim>
					<dim>1</dim>
					<dim>192</dim>
				</port>
			</input>
			<output>
				<port id="2" precision="FP32" names="/layers.0/ln2/Add_1_output_0">
					<dim>1</dim>
					<dim>197</dim>
					<dim>192</dim>
				</port>
			</output>
		</layer>
		<layer id="131" name="Constant_183320" type="Const" version="opset1">
			<data element_type="f32" shape="1, 1, 192" offset="463388" size="768" />
			<output>
				<port id="0" precision="FP32">
					<dim>1</dim>
					<dim>1</dim>
					<dim>192</dim>
				</port>
			</output>
		</layer>
		<layer id="132" name="/layers.0/ln2/Add_1_0_0/sq_multiply" type="Multiply" version="opset1">
			<data auto_broadcast="numpy" />
			<input>
				<port id="0" precision="FP32">
					<dim>1</dim>
					<dim>197</dim>
					<dim>192</dim>
				</port>
				<port id="1" precision="FP32">
					<dim>1</dim>
					<dim>1</dim>
					<dim>192</dim>
				</port>
			</input>
			<output>
				<port id="2" precision="FP32">
					<dim>1</dim>
					<dim>197</dim>
					<dim>192</dim>
				</port>
			</output>
		</layer>
		<layer id="133" name="Constant_205060" type="Const" version="opset1">
			<data element_type="f32" shape="" offset="464156" size="4" />
			<output>
				<port id="0" precision="FP32" />
			</output>
		</layer>
		<layer id="134" name="Constant_205061" type="Const" version="opset1">
			<data element_type="f32" shape="" offset="464160" size="4" />
			<output>
				<port id="0" precision="FP32" />
			</output>
		</layer>
		<layer id="135" name="Constant_205062" type="Const" version="opset1">
			<data element_type="f32" shape="" offset="464156" size="4" />
			<output>
				<port id="0" precision="FP32" />
			</output>
		</layer>
		<layer id="136" name="Constant_205063" type="Const" version="opset1">
			<data element_type="f32" shape="" offset="464160" size="4" />
			<output>
				<port id="0" precision="FP32" />
			</output>
		</layer>
		<layer id="137" name="/layers.0/ln2/Add_1_0_0/sq_multiply/fq_output_0" type="FakeQuantize" version="opset1">
			<data levels="256" auto_broadcast="numpy" />
			<input>
				<port id="0" precision="FP32">
					<dim>1</dim>
					<dim>197</dim>
					<dim>192</dim>
				</port>
				<port id="1" precision="FP32" />
				<port id="2" precision="FP32" />
				<port id="3" precision="FP32" />
				<port id="4" precision="FP32" />
			</input>
			<output>
				<port id="5" precision="FP32">
					<dim>1</dim>
					<dim>197</dim>
					<dim>192</dim>
				</port>
			</output>
		</layer>
		<layer id="138" name="Constant_4449" type="Const" version="opset1">
			<data element_type="i8" shape="768, 192" offset="464164" size="147456" />
			<output>
				<port id="0" precision="I8">
					<dim>768</dim>
					<dim>192</dim>
				</port>
			</output>
		</layer>
		<layer id="139" name="Convert_406193" type="Convert" version="opset1">
			<data destination_type="f32" />
			<input>
				<port id="0" precision="I8">
					<dim>768</dim>
					<dim>192</dim>
				</port>
			</input>
			<output>
				<port id="1" precision="FP32">
					<dim>768</dim>
					<dim>192</dim>
				</port>
			</output>
		</layer>
		<layer id="140" name="Constant_406091" type="Const" version="opset1">
			<data element_type="f32" shape="768, 1" offset="611620" size="3072" />
			<output>
				<port id="0" precision="FP32">
					<dim>768</dim>
					<dim>1</dim>
				</port>
			</output>
		</layer>
		<layer id="141" name="/layers.0/ffn/layers/layers.0/layers.0.0/MatMul/fq_weights_1" type="Multiply" version="opset1">
			<data auto_broadcast="numpy" />
			<input>
				<port id="0" precision="FP32">
					<dim>768</dim>
					<dim>192</dim>
				</port>
				<port id="1" precision="FP32">
					<dim>768</dim>
					<dim>1</dim>
				</port>
			</input>
			<output>
				<port id="2" precision="FP32">
					<dim>768</dim>
					<dim>192</dim>
				</port>
			</output>
		</layer>
		<layer id="142" name="/layers.0/ffn/layers/layers.0/layers.0.0/MatMul" type="MatMul" version="opset1">
			<data transpose_a="false" transpose_b="true" />
			<input>
				<port id="0" precision="FP32">
					<dim>1</dim>
					<dim>197</dim>
					<dim>192</dim>
				</port>
				<port id="1" precision="FP32">
					<dim>768</dim>
					<dim>192</dim>
				</port>
			</input>
			<output>
				<port id="2" precision="FP32" names="/layers.0/ffn/layers/layers.0/layers.0.0/MatMul_output_0">
					<dim>1</dim>
					<dim>197</dim>
					<dim>768</dim>
				</port>
			</output>
		</layer>
		<layer id="143" name="/layers.0/ffn/layers/layers.0/layers.0.0/Add" type="Add" version="opset1">
			<data auto_broadcast="numpy" />
			<input>
				<port id="0" precision="FP32">
					<dim>1</dim>
					<dim>1</dim>
					<dim>768</dim>
				</port>
				<port id="1" precision="FP32">
					<dim>1</dim>
					<dim>197</dim>
					<dim>768</dim>
				</port>
			</input>
			<output>
				<port id="2" precision="FP32" names="/layers.0/ffn/layers/layers.0/layers.0.0/Add_output_0">
					<dim>1</dim>
					<dim>197</dim>
					<dim>768</dim>
				</port>
			</output>
		</layer>
		<layer id="144" name="/layers.0/ffn/layers/layers.0/activate/Mul_1" type="Gelu" version="opset7">
			<data approximation_mode="ERF" />
			<input>
				<port id="0" precision="FP32">
					<dim>1</dim>
					<dim>197</dim>
					<dim>768</dim>
				</port>
			</input>
			<output>
				<port id="1" precision="FP32" names="/layers.0/ffn/layers/layers.0/activate/Mul_1_output_0">
					<dim>1</dim>
					<dim>197</dim>
					<dim>768</dim>
				</port>
			</output>
		</layer>
		<layer id="145" name="Constant_183328" type="Const" version="opset1">
			<data element_type="f32" shape="1, 1, 768" offset="614692" size="3072" />
			<output>
				<port id="0" precision="FP32">
					<dim>1</dim>
					<dim>1</dim>
					<dim>768</dim>
				</port>
			</output>
		</layer>
		<layer id="146" name="/layers.0/ffn/layers/layers.0/activate/Mul_1_0_0/sq_multiply" type="Multiply" version="opset1">
			<data auto_broadcast="numpy" />
			<input>
				<port id="0" precision="FP32">
					<dim>1</dim>
					<dim>197</dim>
					<dim>768</dim>
				</port>
				<port id="1" precision="FP32">
					<dim>1</dim>
					<dim>1</dim>
					<dim>768</dim>
				</port>
			</input>
			<output>
				<port id="2" precision="FP32">
					<dim>1</dim>
					<dim>197</dim>
					<dim>768</dim>
				</port>
			</output>
		</layer>
		<layer id="147" name="Constant_205070" type="Const" version="opset1">
			<data element_type="f32" shape="" offset="617764" size="4" />
			<output>
				<port id="0" precision="FP32" />
			</output>
		</layer>
		<layer id="148" name="Constant_205071" type="Const" version="opset1">
			<data element_type="f32" shape="" offset="617768" size="4" />
			<output>
				<port id="0" precision="FP32" />
			</output>
		</layer>
		<layer id="149" name="Constant_205072" type="Const" version="opset1">
			<data element_type="f32" shape="" offset="617764" size="4" />
			<output>
				<port id="0" precision="FP32" />
			</output>
		</layer>
		<layer id="150" name="Constant_205073" type="Const" version="opset1">
			<data element_type="f32" shape="" offset="617768" size="4" />
			<output>
				<port id="0" precision="FP32" />
			</output>
		</layer>
		<layer id="151" name="/layers.0/ffn/layers/layers.0/activate/Mul_1_0_0/sq_multiply/fq_output_0" type="FakeQuantize" version="opset1">
			<data levels="256" auto_broadcast="numpy" />
			<input>
				<port id="0" precision="FP32">
					<dim>1</dim>
					<dim>197</dim>
					<dim>768</dim>
				</port>
				<port id="1" precision="FP32" />
				<port id="2" precision="FP32" />
				<port id="3" precision="FP32" />
				<port id="4" precision="FP32" />
			</input>
			<output>
				<port id="5" precision="FP32">
					<dim>1</dim>
					<dim>197</dim>
					<dim>768</dim>
				</port>
			</output>
		</layer>
		<layer id="152" name="Constant_4454" type="Const" version="opset1">
			<data element_type="i8" shape="192, 768" offset="617772" size="147456" />
			<output>
				<port id="0" precision="I8">
					<dim>192</dim>
					<dim>768</dim>
				</port>
			</output>
		</layer>
		<layer id="153" name="Convert_406347" type="Convert" version="opset1">
			<data destination_type="f32" />
			<input>
				<port id="0" precision="I8">
					<dim>192</dim>
					<dim>768</dim>
				</port>
			</input>
			<output>
				<port id="1" precision="FP32">
					<dim>192</dim>
					<dim>768</dim>
				</port>
			</output>
		</layer>
		<layer id="154" name="Constant_406245" type="Const" version="opset1">
			<data element_type="f32" shape="192, 1" offset="765228" size="768" />
			<output>
				<port id="0" precision="FP32">
					<dim>192</dim>
					<dim>1</dim>
				</port>
			</output>
		</layer>
		<layer id="155" name="/layers.0/ffn/layers/layers.1/MatMul/fq_weights_1" type="Multiply" version="opset1">
			<data auto_broadcast="numpy" />
			<input>
				<port id="0" precision="FP32">
					<dim>192</dim>
					<dim>768</dim>
				</port>
				<port id="1" precision="FP32">
					<dim>192</dim>
					<dim>1</dim>
				</port>
			</input>
			<output>
				<port id="2" precision="FP32">
					<dim>192</dim>
					<dim>768</dim>
				</port>
			</output>
		</layer>
		<layer id="156" name="/layers.0/ffn/layers/layers.1/MatMul" type="MatMul" version="opset1">
			<data transpose_a="false" transpose_b="true" />
			<input>
				<port id="0" precision="FP32">
					<dim>1</dim>
					<dim>197</dim>
					<dim>768</dim>
				</port>
				<port id="1" precision="FP32">
					<dim>192</dim>
					<dim>768</dim>
				</port>
			</input>
			<output>
				<port id="2" precision="FP32" names="/layers.0/ffn/layers/layers.1/MatMul_output_0">
					<dim>1</dim>
					<dim>197</dim>
					<dim>192</dim>
				</port>
			</output>
		</layer>
		<layer id="157" name="/layers.0/ffn/layers/layers.1/Add" type="Add" version="opset1">
			<data auto_broadcast="numpy" />
			<input>
				<port id="0" precision="FP32">
					<dim>1</dim>
					<dim>1</dim>
					<dim>192</dim>
				</port>
				<port id="1" precision="FP32">
					<dim>1</dim>
					<dim>197</dim>
					<dim>192</dim>
				</port>
			</input>
			<output>
				<port id="2" precision="FP32" names="/layers.0/ffn/layers/layers.1/Add_output_0">
					<dim>1</dim>
					<dim>197</dim>
					<dim>192</dim>
				</port>
			</output>
		</layer>
		<layer id="158" name="/layers.0/ffn/Add" type="Add" version="opset1">
			<data auto_broadcast="numpy" />
			<input>
				<port id="0" precision="FP32">
					<dim>1</dim>
					<dim>197</dim>
					<dim>192</dim>
				</port>
				<port id="1" precision="FP32">
					<dim>1</dim>
					<dim>197</dim>
					<dim>192</dim>
				</port>
			</input>
			<output>
				<port id="2" precision="FP32" names="/layers.0/ffn/Add_output_0">
					<dim>1</dim>
					<dim>197</dim>
					<dim>192</dim>
				</port>
			</output>
		</layer>
		<layer id="159" name="Constant_4898" type="Const" version="opset1">
			<data element_type="f32" shape="1, 1, 192" offset="765996" size="768" />
			<output>
				<port id="0" precision="FP32">
					<dim>1</dim>
					<dim>1</dim>
					<dim>192</dim>
				</port>
			</output>
		</layer>
		<layer id="160" name="Constant_4896" type="Const" version="opset1">
			<data element_type="f32" shape="1, 1, 576" offset="766764" size="2304" />
			<output>
				<port id="0" precision="FP32">
					<dim>1</dim>
					<dim>1</dim>
					<dim>576</dim>
				</port>
			</output>
		</layer>
		<layer id="161" name="Constant_328" type="Const" version="opset1">
			<data element_type="i64" shape="1" offset="808" size="8" />
			<output>
				<port id="0" precision="I64">
					<dim>1</dim>
				</port>
			</output>
		</layer>
		<layer id="162" name="/layers.1/ln1/Div" type="MVN" version="opset6">
			<data eps="9.9999999747524271e-07" normalize_variance="true" eps_mode="INSIDE_SQRT" />
			<input>
				<port id="0" precision="FP32">
					<dim>1</dim>
					<dim>197</dim>
					<dim>192</dim>
				</port>
				<port id="1" precision="I64">
					<dim>1</dim>
				</port>
			</input>
			<output>
				<port id="2" precision="FP32" names="/layers.1/ln1/Div_output_0">
					<dim>1</dim>
					<dim>197</dim>
					<dim>192</dim>
				</port>
			</output>
		</layer>
		<layer id="163" name="Constant_4894" type="Const" version="opset1">
			<data element_type="f32" shape="1, 1, 192" offset="769068" size="768" />
			<output>
				<port id="0" precision="FP32">
					<dim>1</dim>
					<dim>1</dim>
					<dim>192</dim>
				</port>
			</output>
		</layer>
		<layer id="164" name="/layers.1/ln1/Mul" type="Multiply" version="opset1">
			<data auto_broadcast="numpy" />
			<input>
				<port id="0" precision="FP32">
					<dim>1</dim>
					<dim>197</dim>
					<dim>192</dim>
				</port>
				<port id="1" precision="FP32">
					<dim>1</dim>
					<dim>1</dim>
					<dim>192</dim>
				</port>
			</input>
			<output>
				<port id="2" precision="FP32" names="/layers.1/ln1/Mul_output_0">
					<dim>1</dim>
					<dim>197</dim>
					<dim>192</dim>
				</port>
			</output>
		</layer>
		<layer id="165" name="Constant_4895" type="Const" version="opset1">
			<data element_type="f32" shape="1, 1, 192" offset="769836" size="768" />
			<output>
				<port id="0" precision="FP32">
					<dim>1</dim>
					<dim>1</dim>
					<dim>192</dim>
				</port>
			</output>
		</layer>
		<layer id="166" name="/layers.1/ln1/Add_1" type="Add" version="opset1">
			<data auto_broadcast="numpy" />
			<input>
				<port id="0" precision="FP32">
					<dim>1</dim>
					<dim>197</dim>
					<dim>192</dim>
				</port>
				<port id="1" precision="FP32">
					<dim>1</dim>
					<dim>1</dim>
					<dim>192</dim>
				</port>
			</input>
			<output>
				<port id="2" precision="FP32" names="/layers.1/ln1/Add_1_output_0">
					<dim>1</dim>
					<dim>197</dim>
					<dim>192</dim>
				</port>
			</output>
		</layer>
		<layer id="167" name="Constant_183322" type="Const" version="opset1">
			<data element_type="f32" shape="1, 1, 192" offset="770604" size="768" />
			<output>
				<port id="0" precision="FP32">
					<dim>1</dim>
					<dim>1</dim>
					<dim>192</dim>
				</port>
			</output>
		</layer>
		<layer id="168" name="/layers.1/ln1/Add_1_0_0/sq_multiply" type="Multiply" version="opset1">
			<data auto_broadcast="numpy" />
			<input>
				<port id="0" precision="FP32">
					<dim>1</dim>
					<dim>197</dim>
					<dim>192</dim>
				</port>
				<port id="1" precision="FP32">
					<dim>1</dim>
					<dim>1</dim>
					<dim>192</dim>
				</port>
			</input>
			<output>
				<port id="2" precision="FP32">
					<dim>1</dim>
					<dim>197</dim>
					<dim>192</dim>
				</port>
			</output>
		</layer>
		<layer id="169" name="Constant_205080" type="Const" version="opset1">
			<data element_type="f32" shape="" offset="771372" size="4" />
			<output>
				<port id="0" precision="FP32" />
			</output>
		</layer>
		<layer id="170" name="Constant_205081" type="Const" version="opset1">
			<data element_type="f32" shape="" offset="771376" size="4" />
			<output>
				<port id="0" precision="FP32" />
			</output>
		</layer>
		<layer id="171" name="Constant_205082" type="Const" version="opset1">
			<data element_type="f32" shape="" offset="771372" size="4" />
			<output>
				<port id="0" precision="FP32" />
			</output>
		</layer>
		<layer id="172" name="Constant_205083" type="Const" version="opset1">
			<data element_type="f32" shape="" offset="771376" size="4" />
			<output>
				<port id="0" precision="FP32" />
			</output>
		</layer>
		<layer id="173" name="/layers.1/ln1/Add_1_0_0/sq_multiply/fq_output_0" type="FakeQuantize" version="opset1">
			<data levels="256" auto_broadcast="numpy" />
			<input>
				<port id="0" precision="FP32">
					<dim>1</dim>
					<dim>197</dim>
					<dim>192</dim>
				</port>
				<port id="1" precision="FP32" />
				<port id="2" precision="FP32" />
				<port id="3" precision="FP32" />
				<port id="4" precision="FP32" />
			</input>
			<output>
				<port id="5" precision="FP32">
					<dim>1</dim>
					<dim>197</dim>
					<dim>192</dim>
				</port>
			</output>
		</layer>
		<layer id="174" name="Constant_4459" type="Const" version="opset1">
			<data element_type="i8" shape="576, 192" offset="771380" size="110592" />
			<output>
				<port id="0" precision="I8">
					<dim>576</dim>
					<dim>192</dim>
				</port>
			</output>
		</layer>
		<layer id="175" name="Convert_406501" type="Convert" version="opset1">
			<data destination_type="f32" />
			<input>
				<port id="0" precision="I8">
					<dim>576</dim>
					<dim>192</dim>
				</port>
			</input>
			<output>
				<port id="1" precision="FP32">
					<dim>576</dim>
					<dim>192</dim>
				</port>
			</output>
		</layer>
		<layer id="176" name="Constant_406399" type="Const" version="opset1">
			<data element_type="f32" shape="576, 1" offset="881972" size="2304" />
			<output>
				<port id="0" precision="FP32">
					<dim>576</dim>
					<dim>1</dim>
				</port>
			</output>
		</layer>
		<layer id="177" name="/layers.1/attn/qkv/MatMul/fq_weights_1" type="Multiply" version="opset1">
			<data auto_broadcast="numpy" />
			<input>
				<port id="0" precision="FP32">
					<dim>576</dim>
					<dim>192</dim>
				</port>
				<port id="1" precision="FP32">
					<dim>576</dim>
					<dim>1</dim>
				</port>
			</input>
			<output>
				<port id="2" precision="FP32">
					<dim>576</dim>
					<dim>192</dim>
				</port>
			</output>
		</layer>
		<layer id="178" name="/layers.1/attn/qkv/MatMul" type="MatMul" version="opset1">
			<data transpose_a="false" transpose_b="true" />
			<input>
				<port id="0" precision="FP32">
					<dim>1</dim>
					<dim>197</dim>
					<dim>192</dim>
				</port>
				<port id="1" precision="FP32">
					<dim>576</dim>
					<dim>192</dim>
				</port>
			</input>
			<output>
				<port id="2" precision="FP32" names="/layers.1/attn/qkv/MatMul_output_0">
					<dim>1</dim>
					<dim>197</dim>
					<dim>576</dim>
				</port>
			</output>
		</layer>
		<layer id="179" name="/layers.1/attn/qkv/Add" type="Add" version="opset1">
			<data auto_broadcast="numpy" />
			<input>
				<port id="0" precision="FP32">
					<dim>1</dim>
					<dim>1</dim>
					<dim>576</dim>
				</port>
				<port id="1" precision="FP32">
					<dim>1</dim>
					<dim>197</dim>
					<dim>576</dim>
				</port>
			</input>
			<output>
				<port id="2" precision="FP32" names="/layers.1/attn/qkv/Add_output_0">
					<dim>1</dim>
					<dim>197</dim>
					<dim>576</dim>
				</port>
			</output>
		</layer>
		<layer id="180" name="/layers.1/attn/Shape" type="ShapeOf" version="opset3">
			<data output_type="i64" />
			<input>
				<port id="0" precision="FP32">
					<dim>1</dim>
					<dim>197</dim>
					<dim>192</dim>
				</port>
			</input>
			<output>
				<port id="1" precision="I64" names="/layers.1/attn/Shape_1_output_0,/layers.1/attn/Shape_output_0">
					<dim>3</dim>
				</port>
			</output>
		</layer>
		<layer id="181" name="Constant_3824" type="Const" version="opset1">
			<data element_type="i64" shape="2" offset="419472" size="16" />
			<output>
				<port id="0" precision="I64">
					<dim>2</dim>
				</port>
			</output>
		</layer>
		<layer id="182" name="Constant_3825" type="Const" version="opset1">
			<data element_type="i64" shape="" offset="800" size="8" />
			<output>
				<port id="0" precision="I64" />
			</output>
		</layer>
		<layer id="183" name="Gather_3826" type="Gather" version="opset8">
			<data batch_dims="0" />
			<input>
				<port id="0" precision="I64">
					<dim>3</dim>
				</port>
				<port id="1" precision="I64">
					<dim>2</dim>
				</port>
				<port id="2" precision="I64" />
			</input>
			<output>
				<port id="3" precision="I64">
					<dim>2</dim>
				</port>
			</output>
		</layer>
		<layer id="184" name="/layers.1/attn/Constant_2" type="Const" version="opset1">
			<data element_type="i64" shape="1" offset="419488" size="8" />
			<output>
				<port id="0" precision="I64" names="/layers.1/attn/Constant_2_output_0">
					<dim>1</dim>
				</port>
			</output>
		</layer>
		<layer id="185" name="/layers.1/attn/Constant_3" type="Const" version="opset1">
			<data element_type="i64" shape="1" offset="419488" size="8" />
			<output>
				<port id="0" precision="I64" names="/layers.1/attn/Constant_3_output_0">
					<dim>1</dim>
				</port>
			</output>
		</layer>
		<layer id="186" name="/layers.1/attn/Constant_4" type="Const" version="opset1">
			<data element_type="i64" shape="1" offset="419496" size="8" />
			<output>
				<port id="0" precision="I64" names="/layers.1/attn/Constant_4_output_0">
					<dim>1</dim>
				</port>
			</output>
		</layer>
		<layer id="187" name="/layers.1/attn/Concat" type="Concat" version="opset1">
			<data axis="0" />
			<input>
				<port id="0" precision="I64">
					<dim>2</dim>
				</port>
				<port id="1" precision="I64">
					<dim>1</dim>
				</port>
				<port id="2" precision="I64">
					<dim>1</dim>
				</port>
				<port id="3" precision="I64">
					<dim>1</dim>
				</port>
			</input>
			<output>
				<port id="4" precision="I64" names="/layers.1/attn/Concat_output_0">
					<dim>5</dim>
				</port>
			</output>
		</layer>
		<layer id="188" name="/layers.1/attn/Reshape" type="Reshape" version="opset1">
			<data special_zero="true" />
			<input>
				<port id="0" precision="FP32">
					<dim>1</dim>
					<dim>197</dim>
					<dim>576</dim>
				</port>
				<port id="1" precision="I64">
					<dim>5</dim>
				</port>
			</input>
			<output>
				<port id="2" precision="FP32" names="/layers.1/attn/Reshape_output_0">
					<dim>1</dim>
					<dim>197</dim>
					<dim>3</dim>
					<dim>3</dim>
					<dim>64</dim>
				</port>
			</output>
		</layer>
		<layer id="189" name="Constant_362" type="Const" version="opset1">
			<data element_type="i64" shape="5" offset="419504" size="40" />
			<output>
				<port id="0" precision="I64">
					<dim>5</dim>
				</port>
			</output>
		</layer>
		<layer id="190" name="/layers.1/attn/Transpose" type="Transpose" version="opset1">
			<input>
				<port id="0" precision="FP32">
					<dim>1</dim>
					<dim>197</dim>
					<dim>3</dim>
					<dim>3</dim>
					<dim>64</dim>
				</port>
				<port id="1" precision="I64">
					<dim>5</dim>
				</port>
			</input>
			<output>
				<port id="2" precision="FP32" names="/layers.1/attn/Transpose_output_0">
					<dim>3</dim>
					<dim>1</dim>
					<dim>3</dim>
					<dim>197</dim>
					<dim>64</dim>
				</port>
			</output>
		</layer>
		<layer id="191" name="Constant_205095" type="Const" version="opset1">
			<data element_type="f32" shape="" offset="884276" size="4" />
			<output>
				<port id="0" precision="FP32" />
			</output>
		</layer>
		<layer id="192" name="Constant_205096" type="Const" version="opset1">
			<data element_type="f32" shape="" offset="884280" size="4" />
			<output>
				<port id="0" precision="FP32" />
			</output>
		</layer>
		<layer id="193" name="Constant_205097" type="Const" version="opset1">
			<data element_type="f32" shape="" offset="884276" size="4" />
			<output>
				<port id="0" precision="FP32" />
			</output>
		</layer>
		<layer id="194" name="Constant_205098" type="Const" version="opset1">
			<data element_type="f32" shape="" offset="884280" size="4" />
			<output>
				<port id="0" precision="FP32" />
			</output>
		</layer>
		<layer id="195" name="/layers.1/attn/Gather_2/fq_input_0" type="FakeQuantize" version="opset1">
			<data levels="256" auto_broadcast="numpy" />
			<input>
				<port id="0" precision="FP32">
					<dim>3</dim>
					<dim>1</dim>
					<dim>3</dim>
					<dim>197</dim>
					<dim>64</dim>
				</port>
				<port id="1" precision="FP32" />
				<port id="2" precision="FP32" />
				<port id="3" precision="FP32" />
				<port id="4" precision="FP32" />
			</input>
			<output>
				<port id="5" precision="FP32">
					<dim>3</dim>
					<dim>1</dim>
					<dim>3</dim>
					<dim>197</dim>
					<dim>64</dim>
				</port>
			</output>
		</layer>
		<layer id="196" name="Constant_364" type="Const" version="opset1">
			<data element_type="i64" shape="" offset="800" size="8" />
			<output>
				<port id="0" precision="I64" />
			</output>
		</layer>
		<layer id="197" name="/layers.1/attn/Gather_2" type="Gather" version="opset8">
			<data batch_dims="0" />
			<input>
				<port id="0" precision="FP32">
					<dim>3</dim>
					<dim>1</dim>
					<dim>3</dim>
					<dim>197</dim>
					<dim>64</dim>
				</port>
				<port id="1" precision="I64" />
				<port id="2" precision="I64" />
			</input>
			<output>
				<port id="3" precision="FP32" names="/layers.1/attn/Gather_2_output_0">
					<dim>1</dim>
					<dim>3</dim>
					<dim>197</dim>
					<dim>64</dim>
				</port>
			</output>
		</layer>
		<layer id="198" name="Constant_366" type="Const" version="opset1">
			<data element_type="i64" shape="" offset="800" size="8" />
			<output>
				<port id="0" precision="I64" />
			</output>
		</layer>
		<layer id="199" name="/layers.1/attn/Gather_3" type="Gather" version="opset8">
			<data batch_dims="0" />
			<input>
				<port id="0" precision="FP32">
					<dim>3</dim>
					<dim>1</dim>
					<dim>3</dim>
					<dim>197</dim>
					<dim>64</dim>
				</port>
				<port id="1" precision="I64" />
				<port id="2" precision="I64" />
			</input>
			<output>
				<port id="3" precision="FP32" names="/layers.1/attn/Gather_3_output_0">
					<dim>1</dim>
					<dim>3</dim>
					<dim>197</dim>
					<dim>64</dim>
				</port>
			</output>
		</layer>
		<layer id="200" name="Constant_4897" type="Const" version="opset1">
			<data element_type="f32" shape="1, 1, 1, 1" offset="419552" size="4" />
			<output>
				<port id="0" precision="FP32">
					<dim>1</dim>
					<dim>1</dim>
					<dim>1</dim>
					<dim>1</dim>
				</port>
			</output>
		</layer>
		<layer id="201" name="Multiply_4680" type="Multiply" version="opset1">
			<data auto_broadcast="numpy" />
			<input>
				<port id="0" precision="FP32">
					<dim>1</dim>
					<dim>3</dim>
					<dim>197</dim>
					<dim>64</dim>
				</port>
				<port id="1" precision="FP32">
					<dim>1</dim>
					<dim>1</dim>
					<dim>1</dim>
					<dim>1</dim>
				</port>
			</input>
			<output>
				<port id="2" precision="FP32">
					<dim>1</dim>
					<dim>3</dim>
					<dim>197</dim>
					<dim>64</dim>
				</port>
			</output>
		</layer>
		<layer id="202" name="Constant_205090" type="Const" version="opset1">
			<data element_type="f32" shape="" offset="884284" size="4" />
			<output>
				<port id="0" precision="FP32" />
			</output>
		</layer>
		<layer id="203" name="Constant_205091" type="Const" version="opset1">
			<data element_type="f32" shape="" offset="884288" size="4" />
			<output>
				<port id="0" precision="FP32" />
			</output>
		</layer>
		<layer id="204" name="Constant_205092" type="Const" version="opset1">
			<data element_type="f32" shape="" offset="884284" size="4" />
			<output>
				<port id="0" precision="FP32" />
			</output>
		</layer>
		<layer id="205" name="Constant_205093" type="Const" version="opset1">
			<data element_type="f32" shape="" offset="884288" size="4" />
			<output>
				<port id="0" precision="FP32" />
			</output>
		</layer>
		<layer id="206" name="Multiply_4680/fq_output_0" type="FakeQuantize" version="opset1">
			<data levels="256" auto_broadcast="numpy" />
			<input>
				<port id="0" precision="FP32">
					<dim>1</dim>
					<dim>3</dim>
					<dim>197</dim>
					<dim>64</dim>
				</port>
				<port id="1" precision="FP32" />
				<port id="2" precision="FP32" />
				<port id="3" precision="FP32" />
				<port id="4" precision="FP32" />
			</input>
			<output>
				<port id="5" precision="FP32">
					<dim>1</dim>
					<dim>3</dim>
					<dim>197</dim>
					<dim>64</dim>
				</port>
			</output>
		</layer>
		<layer id="207" name="/layers.1/attn/Mul" type="MatMul" version="opset1">
			<data transpose_a="false" transpose_b="true" />
			<input>
				<port id="0" precision="FP32">
					<dim>1</dim>
					<dim>3</dim>
					<dim>197</dim>
					<dim>64</dim>
				</port>
				<port id="1" precision="FP32">
					<dim>1</dim>
					<dim>3</dim>
					<dim>197</dim>
					<dim>64</dim>
				</port>
			</input>
			<output>
				<port id="2" precision="FP32" names="/layers.1/attn/Mul_output_0">
					<dim>1</dim>
					<dim>3</dim>
					<dim>197</dim>
					<dim>197</dim>
				</port>
			</output>
		</layer>
		<layer id="208" name="/layers.1/attn/Softmax" type="SoftMax" version="opset8">
			<data axis="3" />
			<input>
				<port id="0" precision="FP32">
					<dim>1</dim>
					<dim>3</dim>
					<dim>197</dim>
					<dim>197</dim>
				</port>
			</input>
			<output>
				<port id="1" precision="FP32" names="/layers.1/attn/Softmax_output_0">
					<dim>1</dim>
					<dim>3</dim>
					<dim>197</dim>
					<dim>197</dim>
				</port>
			</output>
		</layer>
		<layer id="209" name="Constant_368" type="Const" version="opset1">
			<data element_type="i64" shape="" offset="800" size="8" />
			<output>
				<port id="0" precision="I64" />
			</output>
		</layer>
		<layer id="210" name="/layers.1/attn/Gather_4" type="Gather" version="opset8">
			<data batch_dims="0" />
			<input>
				<port id="0" precision="FP32">
					<dim>3</dim>
					<dim>1</dim>
					<dim>3</dim>
					<dim>197</dim>
					<dim>64</dim>
				</port>
				<port id="1" precision="I64" />
				<port id="2" precision="I64" />
			</input>
			<output>
				<port id="3" precision="FP32" names="/layers.1/attn/Gather_4_output_0">
					<dim>1</dim>
					<dim>3</dim>
					<dim>197</dim>
					<dim>64</dim>
				</port>
			</output>
		</layer>
		<layer id="211" name="/layers.1/attn/MatMul_1" type="MatMul" version="opset1">
			<data transpose_a="false" transpose_b="false" />
			<input>
				<port id="0" precision="FP32">
					<dim>1</dim>
					<dim>3</dim>
					<dim>197</dim>
					<dim>197</dim>
				</port>
				<port id="1" precision="FP32">
					<dim>1</dim>
					<dim>3</dim>
					<dim>197</dim>
					<dim>64</dim>
				</port>
			</input>
			<output>
				<port id="2" precision="FP32" names="/layers.1/attn/MatMul_1_output_0">
					<dim>1</dim>
					<dim>3</dim>
					<dim>197</dim>
					<dim>64</dim>
				</port>
			</output>
		</layer>
		<layer id="212" name="Constant_377" type="Const" version="opset1">
			<data element_type="i64" shape="4" offset="419564" size="32" />
			<output>
				<port id="0" precision="I64">
					<dim>4</dim>
				</port>
			</output>
		</layer>
		<layer id="213" name="/layers.1/attn/Transpose_2" type="Transpose" version="opset1">
			<input>
				<port id="0" precision="FP32">
					<dim>1</dim>
					<dim>3</dim>
					<dim>197</dim>
					<dim>64</dim>
				</port>
				<port id="1" precision="I64">
					<dim>4</dim>
				</port>
			</input>
			<output>
				<port id="2" precision="FP32" names="/layers.1/attn/Transpose_2_output_0">
					<dim>1</dim>
					<dim>197</dim>
					<dim>3</dim>
					<dim>64</dim>
				</port>
			</output>
		</layer>
		<layer id="214" name="Constant_3829" type="Const" version="opset1">
			<data element_type="i64" shape="2" offset="419472" size="16" />
			<output>
				<port id="0" precision="I64">
					<dim>2</dim>
				</port>
			</output>
		</layer>
		<layer id="215" name="Constant_3830" type="Const" version="opset1">
			<data element_type="i64" shape="" offset="800" size="8" />
			<output>
				<port id="0" precision="I64" />
			</output>
		</layer>
		<layer id="216" name="Gather_3831" type="Gather" version="opset8">
			<data batch_dims="0" />
			<input>
				<port id="0" precision="I64">
					<dim>3</dim>
				</port>
				<port id="1" precision="I64">
					<dim>2</dim>
				</port>
				<port id="2" precision="I64" />
			</input>
			<output>
				<port id="3" precision="I64">
					<dim>2</dim>
				</port>
			</output>
		</layer>
		<layer id="217" name="/layers.1/attn/Constant_6" type="Const" version="opset1">
			<data element_type="i64" shape="1" offset="419596" size="8" />
			<output>
				<port id="0" precision="I64" names="/layers.1/attn/Constant_6_output_0">
					<dim>1</dim>
				</port>
			</output>
		</layer>
		<layer id="218" name="/layers.1/attn/Concat_1" type="Concat" version="opset1">
			<data axis="0" />
			<input>
				<port id="0" precision="I64">
					<dim>2</dim>
				</port>
				<port id="1" precision="I64">
					<dim>1</dim>
				</port>
			</input>
			<output>
				<port id="2" precision="I64" names="/layers.1/attn/Concat_1_output_0">
					<dim>3</dim>
				</port>
			</output>
		</layer>
		<layer id="219" name="/layers.1/attn/Reshape_1" type="Reshape" version="opset1">
			<data special_zero="true" />
			<input>
				<port id="0" precision="FP32">
					<dim>1</dim>
					<dim>197</dim>
					<dim>3</dim>
					<dim>64</dim>
				</port>
				<port id="1" precision="I64">
					<dim>3</dim>
				</port>
			</input>
			<output>
				<port id="2" precision="FP32" names="/layers.1/attn/Reshape_1_output_0">
					<dim>1</dim>
					<dim>197</dim>
					<dim>192</dim>
				</port>
			</output>
		</layer>
		<layer id="220" name="Constant_183338" type="Const" version="opset1">
			<data element_type="f32" shape="1, 1, 192" offset="884292" size="768" />
			<output>
				<port id="0" precision="FP32">
					<dim>1</dim>
					<dim>1</dim>
					<dim>192</dim>
				</port>
			</output>
		</layer>
		<layer id="221" name="/layers.1/attn/Reshape_1_0_0/sq_multiply" type="Multiply" version="opset1">
			<data auto_broadcast="numpy" />
			<input>
				<port id="0" precision="FP32">
					<dim>1</dim>
					<dim>197</dim>
					<dim>192</dim>
				</port>
				<port id="1" precision="FP32">
					<dim>1</dim>
					<dim>1</dim>
					<dim>192</dim>
				</port>
			</input>
			<output>
				<port id="2" precision="FP32">
					<dim>1</dim>
					<dim>197</dim>
					<dim>192</dim>
				</port>
			</output>
		</layer>
		<layer id="222" name="Constant_205100" type="Const" version="opset1">
			<data element_type="f32" shape="" offset="885060" size="4" />
			<output>
				<port id="0" precision="FP32" />
			</output>
		</layer>
		<layer id="223" name="Constant_205101" type="Const" version="opset1">
			<data element_type="f32" shape="" offset="885064" size="4" />
			<output>
				<port id="0" precision="FP32" />
			</output>
		</layer>
		<layer id="224" name="Constant_205102" type="Const" version="opset1">
			<data element_type="f32" shape="" offset="885060" size="4" />
			<output>
				<port id="0" precision="FP32" />
			</output>
		</layer>
		<layer id="225" name="Constant_205103" type="Const" version="opset1">
			<data element_type="f32" shape="" offset="885064" size="4" />
			<output>
				<port id="0" precision="FP32" />
			</output>
		</layer>
		<layer id="226" name="/layers.1/attn/Reshape_1_0_0/sq_multiply/fq_output_0" type="FakeQuantize" version="opset1">
			<data levels="256" auto_broadcast="numpy" />
			<input>
				<port id="0" precision="FP32">
					<dim>1</dim>
					<dim>197</dim>
					<dim>192</dim>
				</port>
				<port id="1" precision="FP32" />
				<port id="2" precision="FP32" />
				<port id="3" precision="FP32" />
				<port id="4" precision="FP32" />
			</input>
			<output>
				<port id="5" precision="FP32">
					<dim>1</dim>
					<dim>197</dim>
					<dim>192</dim>
				</port>
			</output>
		</layer>
		<layer id="227" name="Constant_4463" type="Const" version="opset1">
			<data element_type="i8" shape="192, 192" offset="885068" size="36864" />
			<output>
				<port id="0" precision="I8">
					<dim>192</dim>
					<dim>192</dim>
				</port>
			</output>
		</layer>
		<layer id="228" name="Convert_406655" type="Convert" version="opset1">
			<data destination_type="f32" />
			<input>
				<port id="0" precision="I8">
					<dim>192</dim>
					<dim>192</dim>
				</port>
			</input>
			<output>
				<port id="1" precision="FP32">
					<dim>192</dim>
					<dim>192</dim>
				</port>
			</output>
		</layer>
		<layer id="229" name="Constant_406553" type="Const" version="opset1">
			<data element_type="f32" shape="192, 1" offset="921932" size="768" />
			<output>
				<port id="0" precision="FP32">
					<dim>192</dim>
					<dim>1</dim>
				</port>
			</output>
		</layer>
		<layer id="230" name="/layers.1/attn/proj/MatMul/fq_weights_1" type="Multiply" version="opset1">
			<data auto_broadcast="numpy" />
			<input>
				<port id="0" precision="FP32">
					<dim>192</dim>
					<dim>192</dim>
				</port>
				<port id="1" precision="FP32">
					<dim>192</dim>
					<dim>1</dim>
				</port>
			</input>
			<output>
				<port id="2" precision="FP32">
					<dim>192</dim>
					<dim>192</dim>
				</port>
			</output>
		</layer>
		<layer id="231" name="/layers.1/attn/proj/MatMul" type="MatMul" version="opset1">
			<data transpose_a="false" transpose_b="true" />
			<input>
				<port id="0" precision="FP32">
					<dim>1</dim>
					<dim>197</dim>
					<dim>192</dim>
				</port>
				<port id="1" precision="FP32">
					<dim>192</dim>
					<dim>192</dim>
				</port>
			</input>
			<output>
				<port id="2" precision="FP32" names="/layers.1/attn/proj/MatMul_output_0">
					<dim>1</dim>
					<dim>197</dim>
					<dim>192</dim>
				</port>
			</output>
		</layer>
		<layer id="232" name="/layers.1/attn/proj/Add" type="Add" version="opset1">
			<data auto_broadcast="numpy" />
			<input>
				<port id="0" precision="FP32">
					<dim>1</dim>
					<dim>1</dim>
					<dim>192</dim>
				</port>
				<port id="1" precision="FP32">
					<dim>1</dim>
					<dim>197</dim>
					<dim>192</dim>
				</port>
			</input>
			<output>
				<port id="2" precision="FP32" names="/layers.1/attn/proj/Add_output_0">
					<dim>1</dim>
					<dim>197</dim>
					<dim>192</dim>
				</port>
			</output>
		</layer>
		<layer id="233" name="/layers.1/Add" type="Add" version="opset1">
			<data auto_broadcast="numpy" />
			<input>
				<port id="0" precision="FP32">
					<dim>1</dim>
					<dim>197</dim>
					<dim>192</dim>
				</port>
				<port id="1" precision="FP32">
					<dim>1</dim>
					<dim>197</dim>
					<dim>192</dim>
				</port>
			</input>
			<output>
				<port id="2" precision="FP32" names="/layers.1/Add_output_0">
					<dim>1</dim>
					<dim>197</dim>
					<dim>192</dim>
				</port>
			</output>
		</layer>
		<layer id="234" name="Constant_4902" type="Const" version="opset1">
			<data element_type="f32" shape="1, 1, 192" offset="922700" size="768" />
			<output>
				<port id="0" precision="FP32">
					<dim>1</dim>
					<dim>1</dim>
					<dim>192</dim>
				</port>
			</output>
		</layer>
		<layer id="235" name="Constant_4901" type="Const" version="opset1">
			<data element_type="f32" shape="1, 1, 768" offset="923468" size="3072" />
			<output>
				<port id="0" precision="FP32">
					<dim>1</dim>
					<dim>1</dim>
					<dim>768</dim>
				</port>
			</output>
		</layer>
		<layer id="236" name="Constant_391" type="Const" version="opset1">
			<data element_type="i64" shape="1" offset="808" size="8" />
			<output>
				<port id="0" precision="I64">
					<dim>1</dim>
				</port>
			</output>
		</layer>
		<layer id="237" name="/layers.1/ln2/Div" type="MVN" version="opset6">
			<data eps="9.9999999747524271e-07" normalize_variance="true" eps_mode="INSIDE_SQRT" />
			<input>
				<port id="0" precision="FP32">
					<dim>1</dim>
					<dim>197</dim>
					<dim>192</dim>
				</port>
				<port id="1" precision="I64">
					<dim>1</dim>
				</port>
			</input>
			<output>
				<port id="2" precision="FP32" names="/layers.1/ln2/Div_output_0">
					<dim>1</dim>
					<dim>197</dim>
					<dim>192</dim>
				</port>
			</output>
		</layer>
		<layer id="238" name="Constant_4899" type="Const" version="opset1">
			<data element_type="f32" shape="1, 1, 192" offset="926540" size="768" />
			<output>
				<port id="0" precision="FP32">
					<dim>1</dim>
					<dim>1</dim>
					<dim>192</dim>
				</port>
			</output>
		</layer>
		<layer id="239" name="/layers.1/ln2/Mul" type="Multiply" version="opset1">
			<data auto_broadcast="numpy" />
			<input>
				<port id="0" precision="FP32">
					<dim>1</dim>
					<dim>197</dim>
					<dim>192</dim>
				</port>
				<port id="1" precision="FP32">
					<dim>1</dim>
					<dim>1</dim>
					<dim>192</dim>
				</port>
			</input>
			<output>
				<port id="2" precision="FP32" names="/layers.1/ln2/Mul_output_0">
					<dim>1</dim>
					<dim>197</dim>
					<dim>192</dim>
				</port>
			</output>
		</layer>
		<layer id="240" name="Constant_4900" type="Const" version="opset1">
			<data element_type="f32" shape="1, 1, 192" offset="927308" size="768" />
			<output>
				<port id="0" precision="FP32">
					<dim>1</dim>
					<dim>1</dim>
					<dim>192</dim>
				</port>
			</output>
		</layer>
		<layer id="241" name="/layers.1/ln2/Add_1" type="Add" version="opset1">
			<data auto_broadcast="numpy" />
			<input>
				<port id="0" precision="FP32">
					<dim>1</dim>
					<dim>197</dim>
					<dim>192</dim>
				</port>
				<port id="1" precision="FP32">
					<dim>1</dim>
					<dim>1</dim>
					<dim>192</dim>
				</port>
			</input>
			<output>
				<port id="2" precision="FP32" names="/layers.1/ln2/Add_1_output_0">
					<dim>1</dim>
					<dim>197</dim>
					<dim>192</dim>
				</port>
			</output>
		</layer>
		<layer id="242" name="Constant_183324" type="Const" version="opset1">
			<data element_type="f32" shape="1, 1, 192" offset="928076" size="768" />
			<output>
				<port id="0" precision="FP32">
					<dim>1</dim>
					<dim>1</dim>
					<dim>192</dim>
				</port>
			</output>
		</layer>
		<layer id="243" name="/layers.1/ln2/Add_1_0_0/sq_multiply" type="Multiply" version="opset1">
			<data auto_broadcast="numpy" />
			<input>
				<port id="0" precision="FP32">
					<dim>1</dim>
					<dim>197</dim>
					<dim>192</dim>
				</port>
				<port id="1" precision="FP32">
					<dim>1</dim>
					<dim>1</dim>
					<dim>192</dim>
				</port>
			</input>
			<output>
				<port id="2" precision="FP32">
					<dim>1</dim>
					<dim>197</dim>
					<dim>192</dim>
				</port>
			</output>
		</layer>
		<layer id="244" name="Constant_205110" type="Const" version="opset1">
			<data element_type="f32" shape="" offset="928844" size="4" />
			<output>
				<port id="0" precision="FP32" />
			</output>
		</layer>
		<layer id="245" name="Constant_205111" type="Const" version="opset1">
			<data element_type="f32" shape="" offset="928848" size="4" />
			<output>
				<port id="0" precision="FP32" />
			</output>
		</layer>
		<layer id="246" name="Constant_205112" type="Const" version="opset1">
			<data element_type="f32" shape="" offset="928844" size="4" />
			<output>
				<port id="0" precision="FP32" />
			</output>
		</layer>
		<layer id="247" name="Constant_205113" type="Const" version="opset1">
			<data element_type="f32" shape="" offset="928848" size="4" />
			<output>
				<port id="0" precision="FP32" />
			</output>
		</layer>
		<layer id="248" name="/layers.1/ln2/Add_1_0_0/sq_multiply/fq_output_0" type="FakeQuantize" version="opset1">
			<data levels="256" auto_broadcast="numpy" />
			<input>
				<port id="0" precision="FP32">
					<dim>1</dim>
					<dim>197</dim>
					<dim>192</dim>
				</port>
				<port id="1" precision="FP32" />
				<port id="2" precision="FP32" />
				<port id="3" precision="FP32" />
				<port id="4" precision="FP32" />
			</input>
			<output>
				<port id="5" precision="FP32">
					<dim>1</dim>
					<dim>197</dim>
					<dim>192</dim>
				</port>
			</output>
		</layer>
		<layer id="249" name="Constant_4468" type="Const" version="opset1">
			<data element_type="i8" shape="768, 192" offset="928852" size="147456" />
			<output>
				<port id="0" precision="I8">
					<dim>768</dim>
					<dim>192</dim>
				</port>
			</output>
		</layer>
		<layer id="250" name="Convert_406809" type="Convert" version="opset1">
			<data destination_type="f32" />
			<input>
				<port id="0" precision="I8">
					<dim>768</dim>
					<dim>192</dim>
				</port>
			</input>
			<output>
				<port id="1" precision="FP32">
					<dim>768</dim>
					<dim>192</dim>
				</port>
			</output>
		</layer>
		<layer id="251" name="Constant_406707" type="Const" version="opset1">
			<data element_type="f32" shape="768, 1" offset="1076308" size="3072" />
			<output>
				<port id="0" precision="FP32">
					<dim>768</dim>
					<dim>1</dim>
				</port>
			</output>
		</layer>
		<layer id="252" name="/layers.1/ffn/layers/layers.0/layers.0.0/MatMul/fq_weights_1" type="Multiply" version="opset1">
			<data auto_broadcast="numpy" />
			<input>
				<port id="0" precision="FP32">
					<dim>768</dim>
					<dim>192</dim>
				</port>
				<port id="1" precision="FP32">
					<dim>768</dim>
					<dim>1</dim>
				</port>
			</input>
			<output>
				<port id="2" precision="FP32">
					<dim>768</dim>
					<dim>192</dim>
				</port>
			</output>
		</layer>
		<layer id="253" name="/layers.1/ffn/layers/layers.0/layers.0.0/MatMul" type="MatMul" version="opset1">
			<data transpose_a="false" transpose_b="true" />
			<input>
				<port id="0" precision="FP32">
					<dim>1</dim>
					<dim>197</dim>
					<dim>192</dim>
				</port>
				<port id="1" precision="FP32">
					<dim>768</dim>
					<dim>192</dim>
				</port>
			</input>
			<output>
				<port id="2" precision="FP32" names="/layers.1/ffn/layers/layers.0/layers.0.0/MatMul_output_0">
					<dim>1</dim>
					<dim>197</dim>
					<dim>768</dim>
				</port>
			</output>
		</layer>
		<layer id="254" name="/layers.1/ffn/layers/layers.0/layers.0.0/Add" type="Add" version="opset1">
			<data auto_broadcast="numpy" />
			<input>
				<port id="0" precision="FP32">
					<dim>1</dim>
					<dim>1</dim>
					<dim>768</dim>
				</port>
				<port id="1" precision="FP32">
					<dim>1</dim>
					<dim>197</dim>
					<dim>768</dim>
				</port>
			</input>
			<output>
				<port id="2" precision="FP32" names="/layers.1/ffn/layers/layers.0/layers.0.0/Add_output_0">
					<dim>1</dim>
					<dim>197</dim>
					<dim>768</dim>
				</port>
			</output>
		</layer>
		<layer id="255" name="/layers.1/ffn/layers/layers.0/activate/Mul_1" type="Gelu" version="opset7">
			<data approximation_mode="ERF" />
			<input>
				<port id="0" precision="FP32">
					<dim>1</dim>
					<dim>197</dim>
					<dim>768</dim>
				</port>
			</input>
			<output>
				<port id="1" precision="FP32" names="/layers.1/ffn/layers/layers.0/activate/Mul_1_output_0">
					<dim>1</dim>
					<dim>197</dim>
					<dim>768</dim>
				</port>
			</output>
		</layer>
		<layer id="256" name="Constant_183336" type="Const" version="opset1">
			<data element_type="f32" shape="1, 1, 768" offset="1079380" size="3072" />
			<output>
				<port id="0" precision="FP32">
					<dim>1</dim>
					<dim>1</dim>
					<dim>768</dim>
				</port>
			</output>
		</layer>
		<layer id="257" name="/layers.1/ffn/layers/layers.0/activate/Mul_1_0_0/sq_multiply" type="Multiply" version="opset1">
			<data auto_broadcast="numpy" />
			<input>
				<port id="0" precision="FP32">
					<dim>1</dim>
					<dim>197</dim>
					<dim>768</dim>
				</port>
				<port id="1" precision="FP32">
					<dim>1</dim>
					<dim>1</dim>
					<dim>768</dim>
				</port>
			</input>
			<output>
				<port id="2" precision="FP32">
					<dim>1</dim>
					<dim>197</dim>
					<dim>768</dim>
				</port>
			</output>
		</layer>
		<layer id="258" name="Constant_205120" type="Const" version="opset1">
			<data element_type="f32" shape="" offset="1082452" size="4" />
			<output>
				<port id="0" precision="FP32" />
			</output>
		</layer>
		<layer id="259" name="Constant_205121" type="Const" version="opset1">
			<data element_type="f32" shape="" offset="1082456" size="4" />
			<output>
				<port id="0" precision="FP32" />
			</output>
		</layer>
		<layer id="260" name="Constant_205122" type="Const" version="opset1">
			<data element_type="f32" shape="" offset="1082452" size="4" />
			<output>
				<port id="0" precision="FP32" />
			</output>
		</layer>
		<layer id="261" name="Constant_205123" type="Const" version="opset1">
			<data element_type="f32" shape="" offset="1082456" size="4" />
			<output>
				<port id="0" precision="FP32" />
			</output>
		</layer>
		<layer id="262" name="/layers.1/ffn/layers/layers.0/activate/Mul_1_0_0/sq_multiply/fq_output_0" type="FakeQuantize" version="opset1">
			<data levels="256" auto_broadcast="numpy" />
			<input>
				<port id="0" precision="FP32">
					<dim>1</dim>
					<dim>197</dim>
					<dim>768</dim>
				</port>
				<port id="1" precision="FP32" />
				<port id="2" precision="FP32" />
				<port id="3" precision="FP32" />
				<port id="4" precision="FP32" />
			</input>
			<output>
				<port id="5" precision="FP32">
					<dim>1</dim>
					<dim>197</dim>
					<dim>768</dim>
				</port>
			</output>
		</layer>
		<layer id="263" name="Constant_4473" type="Const" version="opset1">
			<data element_type="i8" shape="192, 768" offset="1082460" size="147456" />
			<output>
				<port id="0" precision="I8">
					<dim>192</dim>
					<dim>768</dim>
				</port>
			</output>
		</layer>
		<layer id="264" name="Convert_406963" type="Convert" version="opset1">
			<data destination_type="f32" />
			<input>
				<port id="0" precision="I8">
					<dim>192</dim>
					<dim>768</dim>
				</port>
			</input>
			<output>
				<port id="1" precision="FP32">
					<dim>192</dim>
					<dim>768</dim>
				</port>
			</output>
		</layer>
		<layer id="265" name="Constant_406861" type="Const" version="opset1">
			<data element_type="f32" shape="192, 1" offset="1229916" size="768" />
			<output>
				<port id="0" precision="FP32">
					<dim>192</dim>
					<dim>1</dim>
				</port>
			</output>
		</layer>
		<layer id="266" name="/layers.1/ffn/layers/layers.1/MatMul/fq_weights_1" type="Multiply" version="opset1">
			<data auto_broadcast="numpy" />
			<input>
				<port id="0" precision="FP32">
					<dim>192</dim>
					<dim>768</dim>
				</port>
				<port id="1" precision="FP32">
					<dim>192</dim>
					<dim>1</dim>
				</port>
			</input>
			<output>
				<port id="2" precision="FP32">
					<dim>192</dim>
					<dim>768</dim>
				</port>
			</output>
		</layer>
		<layer id="267" name="/layers.1/ffn/layers/layers.1/MatMul" type="MatMul" version="opset1">
			<data transpose_a="false" transpose_b="true" />
			<input>
				<port id="0" precision="FP32">
					<dim>1</dim>
					<dim>197</dim>
					<dim>768</dim>
				</port>
				<port id="1" precision="FP32">
					<dim>192</dim>
					<dim>768</dim>
				</port>
			</input>
			<output>
				<port id="2" precision="FP32" names="/layers.1/ffn/layers/layers.1/MatMul_output_0">
					<dim>1</dim>
					<dim>197</dim>
					<dim>192</dim>
				</port>
			</output>
		</layer>
		<layer id="268" name="/layers.1/ffn/layers/layers.1/Add" type="Add" version="opset1">
			<data auto_broadcast="numpy" />
			<input>
				<port id="0" precision="FP32">
					<dim>1</dim>
					<dim>1</dim>
					<dim>192</dim>
				</port>
				<port id="1" precision="FP32">
					<dim>1</dim>
					<dim>197</dim>
					<dim>192</dim>
				</port>
			</input>
			<output>
				<port id="2" precision="FP32" names="/layers.1/ffn/layers/layers.1/Add_output_0">
					<dim>1</dim>
					<dim>197</dim>
					<dim>192</dim>
				</port>
			</output>
		</layer>
		<layer id="269" name="/layers.1/ffn/Add" type="Add" version="opset1">
			<data auto_broadcast="numpy" />
			<input>
				<port id="0" precision="FP32">
					<dim>1</dim>
					<dim>197</dim>
					<dim>192</dim>
				</port>
				<port id="1" precision="FP32">
					<dim>1</dim>
					<dim>197</dim>
					<dim>192</dim>
				</port>
			</input>
			<output>
				<port id="2" precision="FP32" names="/layers.1/ffn/Add_output_0">
					<dim>1</dim>
					<dim>197</dim>
					<dim>192</dim>
				</port>
			</output>
		</layer>
		<layer id="270" name="Constant_4907" type="Const" version="opset1">
			<data element_type="f32" shape="1, 1, 192" offset="1230684" size="768" />
			<output>
				<port id="0" precision="FP32">
					<dim>1</dim>
					<dim>1</dim>
					<dim>192</dim>
				</port>
			</output>
		</layer>
		<layer id="271" name="Constant_4905" type="Const" version="opset1">
			<data element_type="f32" shape="1, 1, 576" offset="1231452" size="2304" />
			<output>
				<port id="0" precision="FP32">
					<dim>1</dim>
					<dim>1</dim>
					<dim>576</dim>
				</port>
			</output>
		</layer>
		<layer id="272" name="Constant_417" type="Const" version="opset1">
			<data element_type="i64" shape="1" offset="808" size="8" />
			<output>
				<port id="0" precision="I64">
					<dim>1</dim>
				</port>
			</output>
		</layer>
		<layer id="273" name="/layers.2/ln1/Div" type="MVN" version="opset6">
			<data eps="9.9999999747524271e-07" normalize_variance="true" eps_mode="INSIDE_SQRT" />
			<input>
				<port id="0" precision="FP32">
					<dim>1</dim>
					<dim>197</dim>
					<dim>192</dim>
				</port>
				<port id="1" precision="I64">
					<dim>1</dim>
				</port>
			</input>
			<output>
				<port id="2" precision="FP32" names="/layers.2/ln1/Div_output_0">
					<dim>1</dim>
					<dim>197</dim>
					<dim>192</dim>
				</port>
			</output>
		</layer>
		<layer id="274" name="Constant_4903" type="Const" version="opset1">
			<data element_type="f32" shape="1, 1, 192" offset="1233756" size="768" />
			<output>
				<port id="0" precision="FP32">
					<dim>1</dim>
					<dim>1</dim>
					<dim>192</dim>
				</port>
			</output>
		</layer>
		<layer id="275" name="/layers.2/ln1/Mul" type="Multiply" version="opset1">
			<data auto_broadcast="numpy" />
			<input>
				<port id="0" precision="FP32">
					<dim>1</dim>
					<dim>197</dim>
					<dim>192</dim>
				</port>
				<port id="1" precision="FP32">
					<dim>1</dim>
					<dim>1</dim>
					<dim>192</dim>
				</port>
			</input>
			<output>
				<port id="2" precision="FP32" names="/layers.2/ln1/Mul_output_0">
					<dim>1</dim>
					<dim>197</dim>
					<dim>192</dim>
				</port>
			</output>
		</layer>
		<layer id="276" name="Constant_4904" type="Const" version="opset1">
			<data element_type="f32" shape="1, 1, 192" offset="1234524" size="768" />
			<output>
				<port id="0" precision="FP32">
					<dim>1</dim>
					<dim>1</dim>
					<dim>192</dim>
				</port>
			</output>
		</layer>
		<layer id="277" name="/layers.2/ln1/Add_1" type="Add" version="opset1">
			<data auto_broadcast="numpy" />
			<input>
				<port id="0" precision="FP32">
					<dim>1</dim>
					<dim>197</dim>
					<dim>192</dim>
				</port>
				<port id="1" precision="FP32">
					<dim>1</dim>
					<dim>1</dim>
					<dim>192</dim>
				</port>
			</input>
			<output>
				<port id="2" precision="FP32" names="/layers.2/ln1/Add_1_output_0">
					<dim>1</dim>
					<dim>197</dim>
					<dim>192</dim>
				</port>
			</output>
		</layer>
		<layer id="278" name="Constant_183326" type="Const" version="opset1">
			<data element_type="f32" shape="1, 1, 192" offset="1235292" size="768" />
			<output>
				<port id="0" precision="FP32">
					<dim>1</dim>
					<dim>1</dim>
					<dim>192</dim>
				</port>
			</output>
		</layer>
		<layer id="279" name="/layers.2/ln1/Add_1_0_0/sq_multiply" type="Multiply" version="opset1">
			<data auto_broadcast="numpy" />
			<input>
				<port id="0" precision="FP32">
					<dim>1</dim>
					<dim>197</dim>
					<dim>192</dim>
				</port>
				<port id="1" precision="FP32">
					<dim>1</dim>
					<dim>1</dim>
					<dim>192</dim>
				</port>
			</input>
			<output>
				<port id="2" precision="FP32">
					<dim>1</dim>
					<dim>197</dim>
					<dim>192</dim>
				</port>
			</output>
		</layer>
		<layer id="280" name="Constant_205130" type="Const" version="opset1">
			<data element_type="f32" shape="" offset="1236060" size="4" />
			<output>
				<port id="0" precision="FP32" />
			</output>
		</layer>
		<layer id="281" name="Constant_205131" type="Const" version="opset1">
			<data element_type="f32" shape="" offset="1236064" size="4" />
			<output>
				<port id="0" precision="FP32" />
			</output>
		</layer>
		<layer id="282" name="Constant_205132" type="Const" version="opset1">
			<data element_type="f32" shape="" offset="1236060" size="4" />
			<output>
				<port id="0" precision="FP32" />
			</output>
		</layer>
		<layer id="283" name="Constant_205133" type="Const" version="opset1">
			<data element_type="f32" shape="" offset="1236064" size="4" />
			<output>
				<port id="0" precision="FP32" />
			</output>
		</layer>
		<layer id="284" name="/layers.2/ln1/Add_1_0_0/sq_multiply/fq_output_0" type="FakeQuantize" version="opset1">
			<data levels="256" auto_broadcast="numpy" />
			<input>
				<port id="0" precision="FP32">
					<dim>1</dim>
					<dim>197</dim>
					<dim>192</dim>
				</port>
				<port id="1" precision="FP32" />
				<port id="2" precision="FP32" />
				<port id="3" precision="FP32" />
				<port id="4" precision="FP32" />
			</input>
			<output>
				<port id="5" precision="FP32">
					<dim>1</dim>
					<dim>197</dim>
					<dim>192</dim>
				</port>
			</output>
		</layer>
		<layer id="285" name="Constant_4478" type="Const" version="opset1">
			<data element_type="i8" shape="576, 192" offset="1236068" size="110592" />
			<output>
				<port id="0" precision="I8">
					<dim>576</dim>
					<dim>192</dim>
				</port>
			</output>
		</layer>
		<layer id="286" name="Convert_407117" type="Convert" version="opset1">
			<data destination_type="f32" />
			<input>
				<port id="0" precision="I8">
					<dim>576</dim>
					<dim>192</dim>
				</port>
			</input>
			<output>
				<port id="1" precision="FP32">
					<dim>576</dim>
					<dim>192</dim>
				</port>
			</output>
		</layer>
		<layer id="287" name="Constant_407015" type="Const" version="opset1">
			<data element_type="f32" shape="576, 1" offset="1346660" size="2304" />
			<output>
				<port id="0" precision="FP32">
					<dim>576</dim>
					<dim>1</dim>
				</port>
			</output>
		</layer>
		<layer id="288" name="/layers.2/attn/qkv/MatMul/fq_weights_1" type="Multiply" version="opset1">
			<data auto_broadcast="numpy" />
			<input>
				<port id="0" precision="FP32">
					<dim>576</dim>
					<dim>192</dim>
				</port>
				<port id="1" precision="FP32">
					<dim>576</dim>
					<dim>1</dim>
				</port>
			</input>
			<output>
				<port id="2" precision="FP32">
					<dim>576</dim>
					<dim>192</dim>
				</port>
			</output>
		</layer>
		<layer id="289" name="/layers.2/attn/qkv/MatMul" type="MatMul" version="opset1">
			<data transpose_a="false" transpose_b="true" />
			<input>
				<port id="0" precision="FP32">
					<dim>1</dim>
					<dim>197</dim>
					<dim>192</dim>
				</port>
				<port id="1" precision="FP32">
					<dim>576</dim>
					<dim>192</dim>
				</port>
			</input>
			<output>
				<port id="2" precision="FP32" names="/layers.2/attn/qkv/MatMul_output_0">
					<dim>1</dim>
					<dim>197</dim>
					<dim>576</dim>
				</port>
			</output>
		</layer>
		<layer id="290" name="/layers.2/attn/qkv/Add" type="Add" version="opset1">
			<data auto_broadcast="numpy" />
			<input>
				<port id="0" precision="FP32">
					<dim>1</dim>
					<dim>1</dim>
					<dim>576</dim>
				</port>
				<port id="1" precision="FP32">
					<dim>1</dim>
					<dim>197</dim>
					<dim>576</dim>
				</port>
			</input>
			<output>
				<port id="2" precision="FP32" names="/layers.2/attn/qkv/Add_output_0">
					<dim>1</dim>
					<dim>197</dim>
					<dim>576</dim>
				</port>
			</output>
		</layer>
		<layer id="291" name="/layers.2/attn/Shape" type="ShapeOf" version="opset3">
			<data output_type="i64" />
			<input>
				<port id="0" precision="FP32">
					<dim>1</dim>
					<dim>197</dim>
					<dim>192</dim>
				</port>
			</input>
			<output>
				<port id="1" precision="I64" names="/layers.2/attn/Shape_1_output_0,/layers.2/attn/Shape_output_0">
					<dim>3</dim>
				</port>
			</output>
		</layer>
		<layer id="292" name="Constant_3834" type="Const" version="opset1">
			<data element_type="i64" shape="2" offset="419472" size="16" />
			<output>
				<port id="0" precision="I64">
					<dim>2</dim>
				</port>
			</output>
		</layer>
		<layer id="293" name="Constant_3835" type="Const" version="opset1">
			<data element_type="i64" shape="" offset="800" size="8" />
			<output>
				<port id="0" precision="I64" />
			</output>
		</layer>
		<layer id="294" name="Gather_3836" type="Gather" version="opset8">
			<data batch_dims="0" />
			<input>
				<port id="0" precision="I64">
					<dim>3</dim>
				</port>
				<port id="1" precision="I64">
					<dim>2</dim>
				</port>
				<port id="2" precision="I64" />
			</input>
			<output>
				<port id="3" precision="I64">
					<dim>2</dim>
				</port>
			</output>
		</layer>
		<layer id="295" name="/layers.2/attn/Constant_2" type="Const" version="opset1">
			<data element_type="i64" shape="1" offset="419488" size="8" />
			<output>
				<port id="0" precision="I64" names="/layers.2/attn/Constant_2_output_0">
					<dim>1</dim>
				</port>
			</output>
		</layer>
		<layer id="296" name="/layers.2/attn/Constant_3" type="Const" version="opset1">
			<data element_type="i64" shape="1" offset="419488" size="8" />
			<output>
				<port id="0" precision="I64" names="/layers.2/attn/Constant_3_output_0">
					<dim>1</dim>
				</port>
			</output>
		</layer>
		<layer id="297" name="/layers.2/attn/Constant_4" type="Const" version="opset1">
			<data element_type="i64" shape="1" offset="419496" size="8" />
			<output>
				<port id="0" precision="I64" names="/layers.2/attn/Constant_4_output_0">
					<dim>1</dim>
				</port>
			</output>
		</layer>
		<layer id="298" name="/layers.2/attn/Concat" type="Concat" version="opset1">
			<data axis="0" />
			<input>
				<port id="0" precision="I64">
					<dim>2</dim>
				</port>
				<port id="1" precision="I64">
					<dim>1</dim>
				</port>
				<port id="2" precision="I64">
					<dim>1</dim>
				</port>
				<port id="3" precision="I64">
					<dim>1</dim>
				</port>
			</input>
			<output>
				<port id="4" precision="I64" names="/layers.2/attn/Concat_output_0">
					<dim>5</dim>
				</port>
			</output>
		</layer>
		<layer id="299" name="/layers.2/attn/Reshape" type="Reshape" version="opset1">
			<data special_zero="true" />
			<input>
				<port id="0" precision="FP32">
					<dim>1</dim>
					<dim>197</dim>
					<dim>576</dim>
				</port>
				<port id="1" precision="I64">
					<dim>5</dim>
				</port>
			</input>
			<output>
				<port id="2" precision="FP32" names="/layers.2/attn/Reshape_output_0">
					<dim>1</dim>
					<dim>197</dim>
					<dim>3</dim>
					<dim>3</dim>
					<dim>64</dim>
				</port>
			</output>
		</layer>
		<layer id="300" name="Constant_451" type="Const" version="opset1">
			<data element_type="i64" shape="5" offset="419504" size="40" />
			<output>
				<port id="0" precision="I64">
					<dim>5</dim>
				</port>
			</output>
		</layer>
		<layer id="301" name="/layers.2/attn/Transpose" type="Transpose" version="opset1">
			<input>
				<port id="0" precision="FP32">
					<dim>1</dim>
					<dim>197</dim>
					<dim>3</dim>
					<dim>3</dim>
					<dim>64</dim>
				</port>
				<port id="1" precision="I64">
					<dim>5</dim>
				</port>
			</input>
			<output>
				<port id="2" precision="FP32" names="/layers.2/attn/Transpose_output_0">
					<dim>3</dim>
					<dim>1</dim>
					<dim>3</dim>
					<dim>197</dim>
					<dim>64</dim>
				</port>
			</output>
		</layer>
		<layer id="302" name="Constant_205145" type="Const" version="opset1">
			<data element_type="f32" shape="" offset="1348964" size="4" />
			<output>
				<port id="0" precision="FP32" />
			</output>
		</layer>
		<layer id="303" name="Constant_205146" type="Const" version="opset1">
			<data element_type="f32" shape="" offset="1348968" size="4" />
			<output>
				<port id="0" precision="FP32" />
			</output>
		</layer>
		<layer id="304" name="Constant_205147" type="Const" version="opset1">
			<data element_type="f32" shape="" offset="1348964" size="4" />
			<output>
				<port id="0" precision="FP32" />
			</output>
		</layer>
		<layer id="305" name="Constant_205148" type="Const" version="opset1">
			<data element_type="f32" shape="" offset="1348968" size="4" />
			<output>
				<port id="0" precision="FP32" />
			</output>
		</layer>
		<layer id="306" name="/layers.2/attn/Gather_2/fq_input_0" type="FakeQuantize" version="opset1">
			<data levels="256" auto_broadcast="numpy" />
			<input>
				<port id="0" precision="FP32">
					<dim>3</dim>
					<dim>1</dim>
					<dim>3</dim>
					<dim>197</dim>
					<dim>64</dim>
				</port>
				<port id="1" precision="FP32" />
				<port id="2" precision="FP32" />
				<port id="3" precision="FP32" />
				<port id="4" precision="FP32" />
			</input>
			<output>
				<port id="5" precision="FP32">
					<dim>3</dim>
					<dim>1</dim>
					<dim>3</dim>
					<dim>197</dim>
					<dim>64</dim>
				</port>
			</output>
		</layer>
		<layer id="307" name="Constant_453" type="Const" version="opset1">
			<data element_type="i64" shape="" offset="800" size="8" />
			<output>
				<port id="0" precision="I64" />
			</output>
		</layer>
		<layer id="308" name="/layers.2/attn/Gather_2" type="Gather" version="opset8">
			<data batch_dims="0" />
			<input>
				<port id="0" precision="FP32">
					<dim>3</dim>
					<dim>1</dim>
					<dim>3</dim>
					<dim>197</dim>
					<dim>64</dim>
				</port>
				<port id="1" precision="I64" />
				<port id="2" precision="I64" />
			</input>
			<output>
				<port id="3" precision="FP32" names="/layers.2/attn/Gather_2_output_0">
					<dim>1</dim>
					<dim>3</dim>
					<dim>197</dim>
					<dim>64</dim>
				</port>
			</output>
		</layer>
		<layer id="309" name="Constant_455" type="Const" version="opset1">
			<data element_type="i64" shape="" offset="800" size="8" />
			<output>
				<port id="0" precision="I64" />
			</output>
		</layer>
		<layer id="310" name="/layers.2/attn/Gather_3" type="Gather" version="opset8">
			<data batch_dims="0" />
			<input>
				<port id="0" precision="FP32">
					<dim>3</dim>
					<dim>1</dim>
					<dim>3</dim>
					<dim>197</dim>
					<dim>64</dim>
				</port>
				<port id="1" precision="I64" />
				<port id="2" precision="I64" />
			</input>
			<output>
				<port id="3" precision="FP32" names="/layers.2/attn/Gather_3_output_0">
					<dim>1</dim>
					<dim>3</dim>
					<dim>197</dim>
					<dim>64</dim>
				</port>
			</output>
		</layer>
		<layer id="311" name="Constant_4906" type="Const" version="opset1">
			<data element_type="f32" shape="1, 1, 1, 1" offset="419552" size="4" />
			<output>
				<port id="0" precision="FP32">
					<dim>1</dim>
					<dim>1</dim>
					<dim>1</dim>
					<dim>1</dim>
				</port>
			</output>
		</layer>
		<layer id="312" name="Multiply_4682" type="Multiply" version="opset1">
			<data auto_broadcast="numpy" />
			<input>
				<port id="0" precision="FP32">
					<dim>1</dim>
					<dim>3</dim>
					<dim>197</dim>
					<dim>64</dim>
				</port>
				<port id="1" precision="FP32">
					<dim>1</dim>
					<dim>1</dim>
					<dim>1</dim>
					<dim>1</dim>
				</port>
			</input>
			<output>
				<port id="2" precision="FP32">
					<dim>1</dim>
					<dim>3</dim>
					<dim>197</dim>
					<dim>64</dim>
				</port>
			</output>
		</layer>
		<layer id="313" name="Constant_205140" type="Const" version="opset1">
			<data element_type="f32" shape="" offset="1348972" size="4" />
			<output>
				<port id="0" precision="FP32" />
			</output>
		</layer>
		<layer id="314" name="Constant_205141" type="Const" version="opset1">
			<data element_type="f32" shape="" offset="1348976" size="4" />
			<output>
				<port id="0" precision="FP32" />
			</output>
		</layer>
		<layer id="315" name="Constant_205142" type="Const" version="opset1">
			<data element_type="f32" shape="" offset="1348972" size="4" />
			<output>
				<port id="0" precision="FP32" />
			</output>
		</layer>
		<layer id="316" name="Constant_205143" type="Const" version="opset1">
			<data element_type="f32" shape="" offset="1348976" size="4" />
			<output>
				<port id="0" precision="FP32" />
			</output>
		</layer>
		<layer id="317" name="Multiply_4682/fq_output_0" type="FakeQuantize" version="opset1">
			<data levels="256" auto_broadcast="numpy" />
			<input>
				<port id="0" precision="FP32">
					<dim>1</dim>
					<dim>3</dim>
					<dim>197</dim>
					<dim>64</dim>
				</port>
				<port id="1" precision="FP32" />
				<port id="2" precision="FP32" />
				<port id="3" precision="FP32" />
				<port id="4" precision="FP32" />
			</input>
			<output>
				<port id="5" precision="FP32">
					<dim>1</dim>
					<dim>3</dim>
					<dim>197</dim>
					<dim>64</dim>
				</port>
			</output>
		</layer>
		<layer id="318" name="/layers.2/attn/Mul" type="MatMul" version="opset1">
			<data transpose_a="false" transpose_b="true" />
			<input>
				<port id="0" precision="FP32">
					<dim>1</dim>
					<dim>3</dim>
					<dim>197</dim>
					<dim>64</dim>
				</port>
				<port id="1" precision="FP32">
					<dim>1</dim>
					<dim>3</dim>
					<dim>197</dim>
					<dim>64</dim>
				</port>
			</input>
			<output>
				<port id="2" precision="FP32" names="/layers.2/attn/Mul_output_0">
					<dim>1</dim>
					<dim>3</dim>
					<dim>197</dim>
					<dim>197</dim>
				</port>
			</output>
		</layer>
		<layer id="319" name="/layers.2/attn/Softmax" type="SoftMax" version="opset8">
			<data axis="3" />
			<input>
				<port id="0" precision="FP32">
					<dim>1</dim>
					<dim>3</dim>
					<dim>197</dim>
					<dim>197</dim>
				</port>
			</input>
			<output>
				<port id="1" precision="FP32" names="/layers.2/attn/Softmax_output_0">
					<dim>1</dim>
					<dim>3</dim>
					<dim>197</dim>
					<dim>197</dim>
				</port>
			</output>
		</layer>
		<layer id="320" name="Constant_457" type="Const" version="opset1">
			<data element_type="i64" shape="" offset="800" size="8" />
			<output>
				<port id="0" precision="I64" />
			</output>
		</layer>
		<layer id="321" name="/layers.2/attn/Gather_4" type="Gather" version="opset8">
			<data batch_dims="0" />
			<input>
				<port id="0" precision="FP32">
					<dim>3</dim>
					<dim>1</dim>
					<dim>3</dim>
					<dim>197</dim>
					<dim>64</dim>
				</port>
				<port id="1" precision="I64" />
				<port id="2" precision="I64" />
			</input>
			<output>
				<port id="3" precision="FP32" names="/layers.2/attn/Gather_4_output_0">
					<dim>1</dim>
					<dim>3</dim>
					<dim>197</dim>
					<dim>64</dim>
				</port>
			</output>
		</layer>
		<layer id="322" name="/layers.2/attn/MatMul_1" type="MatMul" version="opset1">
			<data transpose_a="false" transpose_b="false" />
			<input>
				<port id="0" precision="FP32">
					<dim>1</dim>
					<dim>3</dim>
					<dim>197</dim>
					<dim>197</dim>
				</port>
				<port id="1" precision="FP32">
					<dim>1</dim>
					<dim>3</dim>
					<dim>197</dim>
					<dim>64</dim>
				</port>
			</input>
			<output>
				<port id="2" precision="FP32" names="/layers.2/attn/MatMul_1_output_0">
					<dim>1</dim>
					<dim>3</dim>
					<dim>197</dim>
					<dim>64</dim>
				</port>
			</output>
		</layer>
		<layer id="323" name="Constant_466" type="Const" version="opset1">
			<data element_type="i64" shape="4" offset="419564" size="32" />
			<output>
				<port id="0" precision="I64">
					<dim>4</dim>
				</port>
			</output>
		</layer>
		<layer id="324" name="/layers.2/attn/Transpose_2" type="Transpose" version="opset1">
			<input>
				<port id="0" precision="FP32">
					<dim>1</dim>
					<dim>3</dim>
					<dim>197</dim>
					<dim>64</dim>
				</port>
				<port id="1" precision="I64">
					<dim>4</dim>
				</port>
			</input>
			<output>
				<port id="2" precision="FP32" names="/layers.2/attn/Transpose_2_output_0">
					<dim>1</dim>
					<dim>197</dim>
					<dim>3</dim>
					<dim>64</dim>
				</port>
			</output>
		</layer>
		<layer id="325" name="Constant_3839" type="Const" version="opset1">
			<data element_type="i64" shape="2" offset="419472" size="16" />
			<output>
				<port id="0" precision="I64">
					<dim>2</dim>
				</port>
			</output>
		</layer>
		<layer id="326" name="Constant_3840" type="Const" version="opset1">
			<data element_type="i64" shape="" offset="800" size="8" />
			<output>
				<port id="0" precision="I64" />
			</output>
		</layer>
		<layer id="327" name="Gather_3841" type="Gather" version="opset8">
			<data batch_dims="0" />
			<input>
				<port id="0" precision="I64">
					<dim>3</dim>
				</port>
				<port id="1" precision="I64">
					<dim>2</dim>
				</port>
				<port id="2" precision="I64" />
			</input>
			<output>
				<port id="3" precision="I64">
					<dim>2</dim>
				</port>
			</output>
		</layer>
		<layer id="328" name="/layers.2/attn/Constant_6" type="Const" version="opset1">
			<data element_type="i64" shape="1" offset="419596" size="8" />
			<output>
				<port id="0" precision="I64" names="/layers.2/attn/Constant_6_output_0">
					<dim>1</dim>
				</port>
			</output>
		</layer>
		<layer id="329" name="/layers.2/attn/Concat_1" type="Concat" version="opset1">
			<data axis="0" />
			<input>
				<port id="0" precision="I64">
					<dim>2</dim>
				</port>
				<port id="1" precision="I64">
					<dim>1</dim>
				</port>
			</input>
			<output>
				<port id="2" precision="I64" names="/layers.2/attn/Concat_1_output_0">
					<dim>3</dim>
				</port>
			</output>
		</layer>
		<layer id="330" name="/layers.2/attn/Reshape_1" type="Reshape" version="opset1">
			<data special_zero="true" />
			<input>
				<port id="0" precision="FP32">
					<dim>1</dim>
					<dim>197</dim>
					<dim>3</dim>
					<dim>64</dim>
				</port>
				<port id="1" precision="I64">
					<dim>3</dim>
				</port>
			</input>
			<output>
				<port id="2" precision="FP32" names="/layers.2/attn/Reshape_1_output_0">
					<dim>1</dim>
					<dim>197</dim>
					<dim>192</dim>
				</port>
			</output>
		</layer>
		<layer id="331" name="Constant_183346" type="Const" version="opset1">
			<data element_type="f32" shape="1, 1, 192" offset="1348980" size="768" />
			<output>
				<port id="0" precision="FP32">
					<dim>1</dim>
					<dim>1</dim>
					<dim>192</dim>
				</port>
			</output>
		</layer>
		<layer id="332" name="/layers.2/attn/Reshape_1_0_0/sq_multiply" type="Multiply" version="opset1">
			<data auto_broadcast="numpy" />
			<input>
				<port id="0" precision="FP32">
					<dim>1</dim>
					<dim>197</dim>
					<dim>192</dim>
				</port>
				<port id="1" precision="FP32">
					<dim>1</dim>
					<dim>1</dim>
					<dim>192</dim>
				</port>
			</input>
			<output>
				<port id="2" precision="FP32">
					<dim>1</dim>
					<dim>197</dim>
					<dim>192</dim>
				</port>
			</output>
		</layer>
		<layer id="333" name="Constant_205150" type="Const" version="opset1">
			<data element_type="f32" shape="" offset="1349748" size="4" />
			<output>
				<port id="0" precision="FP32" />
			</output>
		</layer>
		<layer id="334" name="Constant_205151" type="Const" version="opset1">
			<data element_type="f32" shape="" offset="1349752" size="4" />
			<output>
				<port id="0" precision="FP32" />
			</output>
		</layer>
		<layer id="335" name="Constant_205152" type="Const" version="opset1">
			<data element_type="f32" shape="" offset="1349748" size="4" />
			<output>
				<port id="0" precision="FP32" />
			</output>
		</layer>
		<layer id="336" name="Constant_205153" type="Const" version="opset1">
			<data element_type="f32" shape="" offset="1349752" size="4" />
			<output>
				<port id="0" precision="FP32" />
			</output>
		</layer>
		<layer id="337" name="/layers.2/attn/Reshape_1_0_0/sq_multiply/fq_output_0" type="FakeQuantize" version="opset1">
			<data levels="256" auto_broadcast="numpy" />
			<input>
				<port id="0" precision="FP32">
					<dim>1</dim>
					<dim>197</dim>
					<dim>192</dim>
				</port>
				<port id="1" precision="FP32" />
				<port id="2" precision="FP32" />
				<port id="3" precision="FP32" />
				<port id="4" precision="FP32" />
			</input>
			<output>
				<port id="5" precision="FP32">
					<dim>1</dim>
					<dim>197</dim>
					<dim>192</dim>
				</port>
			</output>
		</layer>
		<layer id="338" name="Constant_4482" type="Const" version="opset1">
			<data element_type="i8" shape="192, 192" offset="1349756" size="36864" />
			<output>
				<port id="0" precision="I8">
					<dim>192</dim>
					<dim>192</dim>
				</port>
			</output>
		</layer>
		<layer id="339" name="Convert_407271" type="Convert" version="opset1">
			<data destination_type="f32" />
			<input>
				<port id="0" precision="I8">
					<dim>192</dim>
					<dim>192</dim>
				</port>
			</input>
			<output>
				<port id="1" precision="FP32">
					<dim>192</dim>
					<dim>192</dim>
				</port>
			</output>
		</layer>
		<layer id="340" name="Constant_407169" type="Const" version="opset1">
			<data element_type="f32" shape="192, 1" offset="1386620" size="768" />
			<output>
				<port id="0" precision="FP32">
					<dim>192</dim>
					<dim>1</dim>
				</port>
			</output>
		</layer>
		<layer id="341" name="/layers.2/attn/proj/MatMul/fq_weights_1" type="Multiply" version="opset1">
			<data auto_broadcast="numpy" />
			<input>
				<port id="0" precision="FP32">
					<dim>192</dim>
					<dim>192</dim>
				</port>
				<port id="1" precision="FP32">
					<dim>192</dim>
					<dim>1</dim>
				</port>
			</input>
			<output>
				<port id="2" precision="FP32">
					<dim>192</dim>
					<dim>192</dim>
				</port>
			</output>
		</layer>
		<layer id="342" name="/layers.2/attn/proj/MatMul" type="MatMul" version="opset1">
			<data transpose_a="false" transpose_b="true" />
			<input>
				<port id="0" precision="FP32">
					<dim>1</dim>
					<dim>197</dim>
					<dim>192</dim>
				</port>
				<port id="1" precision="FP32">
					<dim>192</dim>
					<dim>192</dim>
				</port>
			</input>
			<output>
				<port id="2" precision="FP32" names="/layers.2/attn/proj/MatMul_output_0">
					<dim>1</dim>
					<dim>197</dim>
					<dim>192</dim>
				</port>
			</output>
		</layer>
		<layer id="343" name="/layers.2/attn/proj/Add" type="Add" version="opset1">
			<data auto_broadcast="numpy" />
			<input>
				<port id="0" precision="FP32">
					<dim>1</dim>
					<dim>1</dim>
					<dim>192</dim>
				</port>
				<port id="1" precision="FP32">
					<dim>1</dim>
					<dim>197</dim>
					<dim>192</dim>
				</port>
			</input>
			<output>
				<port id="2" precision="FP32" names="/layers.2/attn/proj/Add_output_0">
					<dim>1</dim>
					<dim>197</dim>
					<dim>192</dim>
				</port>
			</output>
		</layer>
		<layer id="344" name="/layers.2/Add" type="Add" version="opset1">
			<data auto_broadcast="numpy" />
			<input>
				<port id="0" precision="FP32">
					<dim>1</dim>
					<dim>197</dim>
					<dim>192</dim>
				</port>
				<port id="1" precision="FP32">
					<dim>1</dim>
					<dim>197</dim>
					<dim>192</dim>
				</port>
			</input>
			<output>
				<port id="2" precision="FP32" names="/layers.2/Add_output_0">
					<dim>1</dim>
					<dim>197</dim>
					<dim>192</dim>
				</port>
			</output>
		</layer>
		<layer id="345" name="Constant_4911" type="Const" version="opset1">
			<data element_type="f32" shape="1, 1, 192" offset="1387388" size="768" />
			<output>
				<port id="0" precision="FP32">
					<dim>1</dim>
					<dim>1</dim>
					<dim>192</dim>
				</port>
			</output>
		</layer>
		<layer id="346" name="Constant_4910" type="Const" version="opset1">
			<data element_type="f32" shape="1, 1, 768" offset="1388156" size="3072" />
			<output>
				<port id="0" precision="FP32">
					<dim>1</dim>
					<dim>1</dim>
					<dim>768</dim>
				</port>
			</output>
		</layer>
		<layer id="347" name="Constant_480" type="Const" version="opset1">
			<data element_type="i64" shape="1" offset="808" size="8" />
			<output>
				<port id="0" precision="I64">
					<dim>1</dim>
				</port>
			</output>
		</layer>
		<layer id="348" name="/layers.2/ln2/Div" type="MVN" version="opset6">
			<data eps="9.9999999747524271e-07" normalize_variance="true" eps_mode="INSIDE_SQRT" />
			<input>
				<port id="0" precision="FP32">
					<dim>1</dim>
					<dim>197</dim>
					<dim>192</dim>
				</port>
				<port id="1" precision="I64">
					<dim>1</dim>
				</port>
			</input>
			<output>
				<port id="2" precision="FP32" names="/layers.2/ln2/Div_output_0">
					<dim>1</dim>
					<dim>197</dim>
					<dim>192</dim>
				</port>
			</output>
		</layer>
		<layer id="349" name="Constant_4908" type="Const" version="opset1">
			<data element_type="f32" shape="1, 1, 192" offset="1391228" size="768" />
			<output>
				<port id="0" precision="FP32">
					<dim>1</dim>
					<dim>1</dim>
					<dim>192</dim>
				</port>
			</output>
		</layer>
		<layer id="350" name="/layers.2/ln2/Mul" type="Multiply" version="opset1">
			<data auto_broadcast="numpy" />
			<input>
				<port id="0" precision="FP32">
					<dim>1</dim>
					<dim>197</dim>
					<dim>192</dim>
				</port>
				<port id="1" precision="FP32">
					<dim>1</dim>
					<dim>1</dim>
					<dim>192</dim>
				</port>
			</input>
			<output>
				<port id="2" precision="FP32" names="/layers.2/ln2/Mul_output_0">
					<dim>1</dim>
					<dim>197</dim>
					<dim>192</dim>
				</port>
			</output>
		</layer>
		<layer id="351" name="Constant_4909" type="Const" version="opset1">
			<data element_type="f32" shape="1, 1, 192" offset="1391996" size="768" />
			<output>
				<port id="0" precision="FP32">
					<dim>1</dim>
					<dim>1</dim>
					<dim>192</dim>
				</port>
			</output>
		</layer>
		<layer id="352" name="/layers.2/ln2/Add_1" type="Add" version="opset1">
			<data auto_broadcast="numpy" />
			<input>
				<port id="0" precision="FP32">
					<dim>1</dim>
					<dim>197</dim>
					<dim>192</dim>
				</port>
				<port id="1" precision="FP32">
					<dim>1</dim>
					<dim>1</dim>
					<dim>192</dim>
				</port>
			</input>
			<output>
				<port id="2" precision="FP32" names="/layers.2/ln2/Add_1_output_0">
					<dim>1</dim>
					<dim>197</dim>
					<dim>192</dim>
				</port>
			</output>
		</layer>
		<layer id="353" name="Constant_183332" type="Const" version="opset1">
			<data element_type="f32" shape="1, 1, 192" offset="1392764" size="768" />
			<output>
				<port id="0" precision="FP32">
					<dim>1</dim>
					<dim>1</dim>
					<dim>192</dim>
				</port>
			</output>
		</layer>
		<layer id="354" name="/layers.2/ln2/Add_1_0_0/sq_multiply" type="Multiply" version="opset1">
			<data auto_broadcast="numpy" />
			<input>
				<port id="0" precision="FP32">
					<dim>1</dim>
					<dim>197</dim>
					<dim>192</dim>
				</port>
				<port id="1" precision="FP32">
					<dim>1</dim>
					<dim>1</dim>
					<dim>192</dim>
				</port>
			</input>
			<output>
				<port id="2" precision="FP32">
					<dim>1</dim>
					<dim>197</dim>
					<dim>192</dim>
				</port>
			</output>
		</layer>
		<layer id="355" name="Constant_205160" type="Const" version="opset1">
			<data element_type="f32" shape="" offset="1393532" size="4" />
			<output>
				<port id="0" precision="FP32" />
			</output>
		</layer>
		<layer id="356" name="Constant_205161" type="Const" version="opset1">
			<data element_type="f32" shape="" offset="1393536" size="4" />
			<output>
				<port id="0" precision="FP32" />
			</output>
		</layer>
		<layer id="357" name="Constant_205162" type="Const" version="opset1">
			<data element_type="f32" shape="" offset="1393532" size="4" />
			<output>
				<port id="0" precision="FP32" />
			</output>
		</layer>
		<layer id="358" name="Constant_205163" type="Const" version="opset1">
			<data element_type="f32" shape="" offset="1393536" size="4" />
			<output>
				<port id="0" precision="FP32" />
			</output>
		</layer>
		<layer id="359" name="/layers.2/ln2/Add_1_0_0/sq_multiply/fq_output_0" type="FakeQuantize" version="opset1">
			<data levels="256" auto_broadcast="numpy" />
			<input>
				<port id="0" precision="FP32">
					<dim>1</dim>
					<dim>197</dim>
					<dim>192</dim>
				</port>
				<port id="1" precision="FP32" />
				<port id="2" precision="FP32" />
				<port id="3" precision="FP32" />
				<port id="4" precision="FP32" />
			</input>
			<output>
				<port id="5" precision="FP32">
					<dim>1</dim>
					<dim>197</dim>
					<dim>192</dim>
				</port>
			</output>
		</layer>
		<layer id="360" name="Constant_4487" type="Const" version="opset1">
			<data element_type="i8" shape="768, 192" offset="1393540" size="147456" />
			<output>
				<port id="0" precision="I8">
					<dim>768</dim>
					<dim>192</dim>
				</port>
			</output>
		</layer>
		<layer id="361" name="Convert_407425" type="Convert" version="opset1">
			<data destination_type="f32" />
			<input>
				<port id="0" precision="I8">
					<dim>768</dim>
					<dim>192</dim>
				</port>
			</input>
			<output>
				<port id="1" precision="FP32">
					<dim>768</dim>
					<dim>192</dim>
				</port>
			</output>
		</layer>
		<layer id="362" name="Constant_407323" type="Const" version="opset1">
			<data element_type="f32" shape="768, 1" offset="1540996" size="3072" />
			<output>
				<port id="0" precision="FP32">
					<dim>768</dim>
					<dim>1</dim>
				</port>
			</output>
		</layer>
		<layer id="363" name="/layers.2/ffn/layers/layers.0/layers.0.0/MatMul/fq_weights_1" type="Multiply" version="opset1">
			<data auto_broadcast="numpy" />
			<input>
				<port id="0" precision="FP32">
					<dim>768</dim>
					<dim>192</dim>
				</port>
				<port id="1" precision="FP32">
					<dim>768</dim>
					<dim>1</dim>
				</port>
			</input>
			<output>
				<port id="2" precision="FP32">
					<dim>768</dim>
					<dim>192</dim>
				</port>
			</output>
		</layer>
		<layer id="364" name="/layers.2/ffn/layers/layers.0/layers.0.0/MatMul" type="MatMul" version="opset1">
			<data transpose_a="false" transpose_b="true" />
			<input>
				<port id="0" precision="FP32">
					<dim>1</dim>
					<dim>197</dim>
					<dim>192</dim>
				</port>
				<port id="1" precision="FP32">
					<dim>768</dim>
					<dim>192</dim>
				</port>
			</input>
			<output>
				<port id="2" precision="FP32" names="/layers.2/ffn/layers/layers.0/layers.0.0/MatMul_output_0">
					<dim>1</dim>
					<dim>197</dim>
					<dim>768</dim>
				</port>
			</output>
		</layer>
		<layer id="365" name="/layers.2/ffn/layers/layers.0/layers.0.0/Add" type="Add" version="opset1">
			<data auto_broadcast="numpy" />
			<input>
				<port id="0" precision="FP32">
					<dim>1</dim>
					<dim>1</dim>
					<dim>768</dim>
				</port>
				<port id="1" precision="FP32">
					<dim>1</dim>
					<dim>197</dim>
					<dim>768</dim>
				</port>
			</input>
			<output>
				<port id="2" precision="FP32" names="/layers.2/ffn/layers/layers.0/layers.0.0/Add_output_0">
					<dim>1</dim>
					<dim>197</dim>
					<dim>768</dim>
				</port>
			</output>
		</layer>
		<layer id="366" name="/layers.2/ffn/layers/layers.0/activate/Mul_1" type="Gelu" version="opset7">
			<data approximation_mode="ERF" />
			<input>
				<port id="0" precision="FP32">
					<dim>1</dim>
					<dim>197</dim>
					<dim>768</dim>
				</port>
			</input>
			<output>
				<port id="1" precision="FP32" names="/layers.2/ffn/layers/layers.0/activate/Mul_1_output_0">
					<dim>1</dim>
					<dim>197</dim>
					<dim>768</dim>
				</port>
			</output>
		</layer>
		<layer id="367" name="Constant_183344" type="Const" version="opset1">
			<data element_type="f32" shape="1, 1, 768" offset="1544068" size="3072" />
			<output>
				<port id="0" precision="FP32">
					<dim>1</dim>
					<dim>1</dim>
					<dim>768</dim>
				</port>
			</output>
		</layer>
		<layer id="368" name="/layers.2/ffn/layers/layers.0/activate/Mul_1_0_0/sq_multiply" type="Multiply" version="opset1">
			<data auto_broadcast="numpy" />
			<input>
				<port id="0" precision="FP32">
					<dim>1</dim>
					<dim>197</dim>
					<dim>768</dim>
				</port>
				<port id="1" precision="FP32">
					<dim>1</dim>
					<dim>1</dim>
					<dim>768</dim>
				</port>
			</input>
			<output>
				<port id="2" precision="FP32">
					<dim>1</dim>
					<dim>197</dim>
					<dim>768</dim>
				</port>
			</output>
		</layer>
		<layer id="369" name="Constant_205170" type="Const" version="opset1">
			<data element_type="f32" shape="" offset="1547140" size="4" />
			<output>
				<port id="0" precision="FP32" />
			</output>
		</layer>
		<layer id="370" name="Constant_205171" type="Const" version="opset1">
			<data element_type="f32" shape="" offset="1547144" size="4" />
			<output>
				<port id="0" precision="FP32" />
			</output>
		</layer>
		<layer id="371" name="Constant_205172" type="Const" version="opset1">
			<data element_type="f32" shape="" offset="1547140" size="4" />
			<output>
				<port id="0" precision="FP32" />
			</output>
		</layer>
		<layer id="372" name="Constant_205173" type="Const" version="opset1">
			<data element_type="f32" shape="" offset="1547144" size="4" />
			<output>
				<port id="0" precision="FP32" />
			</output>
		</layer>
		<layer id="373" name="/layers.2/ffn/layers/layers.0/activate/Mul_1_0_0/sq_multiply/fq_output_0" type="FakeQuantize" version="opset1">
			<data levels="256" auto_broadcast="numpy" />
			<input>
				<port id="0" precision="FP32">
					<dim>1</dim>
					<dim>197</dim>
					<dim>768</dim>
				</port>
				<port id="1" precision="FP32" />
				<port id="2" precision="FP32" />
				<port id="3" precision="FP32" />
				<port id="4" precision="FP32" />
			</input>
			<output>
				<port id="5" precision="FP32">
					<dim>1</dim>
					<dim>197</dim>
					<dim>768</dim>
				</port>
			</output>
		</layer>
		<layer id="374" name="Constant_4492" type="Const" version="opset1">
			<data element_type="i8" shape="192, 768" offset="1547148" size="147456" />
			<output>
				<port id="0" precision="I8">
					<dim>192</dim>
					<dim>768</dim>
				</port>
			</output>
		</layer>
		<layer id="375" name="Convert_407579" type="Convert" version="opset1">
			<data destination_type="f32" />
			<input>
				<port id="0" precision="I8">
					<dim>192</dim>
					<dim>768</dim>
				</port>
			</input>
			<output>
				<port id="1" precision="FP32">
					<dim>192</dim>
					<dim>768</dim>
				</port>
			</output>
		</layer>
		<layer id="376" name="Constant_407477" type="Const" version="opset1">
			<data element_type="f32" shape="192, 1" offset="1694604" size="768" />
			<output>
				<port id="0" precision="FP32">
					<dim>192</dim>
					<dim>1</dim>
				</port>
			</output>
		</layer>
		<layer id="377" name="/layers.2/ffn/layers/layers.1/MatMul/fq_weights_1" type="Multiply" version="opset1">
			<data auto_broadcast="numpy" />
			<input>
				<port id="0" precision="FP32">
					<dim>192</dim>
					<dim>768</dim>
				</port>
				<port id="1" precision="FP32">
					<dim>192</dim>
					<dim>1</dim>
				</port>
			</input>
			<output>
				<port id="2" precision="FP32">
					<dim>192</dim>
					<dim>768</dim>
				</port>
			</output>
		</layer>
		<layer id="378" name="/layers.2/ffn/layers/layers.1/MatMul" type="MatMul" version="opset1">
			<data transpose_a="false" transpose_b="true" />
			<input>
				<port id="0" precision="FP32">
					<dim>1</dim>
					<dim>197</dim>
					<dim>768</dim>
				</port>
				<port id="1" precision="FP32">
					<dim>192</dim>
					<dim>768</dim>
				</port>
			</input>
			<output>
				<port id="2" precision="FP32" names="/layers.2/ffn/layers/layers.1/MatMul_output_0">
					<dim>1</dim>
					<dim>197</dim>
					<dim>192</dim>
				</port>
			</output>
		</layer>
		<layer id="379" name="/layers.2/ffn/layers/layers.1/Add" type="Add" version="opset1">
			<data auto_broadcast="numpy" />
			<input>
				<port id="0" precision="FP32">
					<dim>1</dim>
					<dim>1</dim>
					<dim>192</dim>
				</port>
				<port id="1" precision="FP32">
					<dim>1</dim>
					<dim>197</dim>
					<dim>192</dim>
				</port>
			</input>
			<output>
				<port id="2" precision="FP32" names="/layers.2/ffn/layers/layers.1/Add_output_0">
					<dim>1</dim>
					<dim>197</dim>
					<dim>192</dim>
				</port>
			</output>
		</layer>
		<layer id="380" name="/layers.2/ffn/Add" type="Add" version="opset1">
			<data auto_broadcast="numpy" />
			<input>
				<port id="0" precision="FP32">
					<dim>1</dim>
					<dim>197</dim>
					<dim>192</dim>
				</port>
				<port id="1" precision="FP32">
					<dim>1</dim>
					<dim>197</dim>
					<dim>192</dim>
				</port>
			</input>
			<output>
				<port id="2" precision="FP32" names="/layers.2/ffn/Add_output_0">
					<dim>1</dim>
					<dim>197</dim>
					<dim>192</dim>
				</port>
			</output>
		</layer>
		<layer id="381" name="Constant_4916" type="Const" version="opset1">
			<data element_type="f32" shape="1, 1, 192" offset="1695372" size="768" />
			<output>
				<port id="0" precision="FP32">
					<dim>1</dim>
					<dim>1</dim>
					<dim>192</dim>
				</port>
			</output>
		</layer>
		<layer id="382" name="Constant_4914" type="Const" version="opset1">
			<data element_type="f32" shape="1, 1, 576" offset="1696140" size="2304" />
			<output>
				<port id="0" precision="FP32">
					<dim>1</dim>
					<dim>1</dim>
					<dim>576</dim>
				</port>
			</output>
		</layer>
		<layer id="383" name="Constant_506" type="Const" version="opset1">
			<data element_type="i64" shape="1" offset="808" size="8" />
			<output>
				<port id="0" precision="I64">
					<dim>1</dim>
				</port>
			</output>
		</layer>
		<layer id="384" name="/layers.3/ln1/Div" type="MVN" version="opset6">
			<data eps="9.9999999747524271e-07" normalize_variance="true" eps_mode="INSIDE_SQRT" />
			<input>
				<port id="0" precision="FP32">
					<dim>1</dim>
					<dim>197</dim>
					<dim>192</dim>
				</port>
				<port id="1" precision="I64">
					<dim>1</dim>
				</port>
			</input>
			<output>
				<port id="2" precision="FP32" names="/layers.3/ln1/Div_output_0">
					<dim>1</dim>
					<dim>197</dim>
					<dim>192</dim>
				</port>
			</output>
		</layer>
		<layer id="385" name="Constant_4912" type="Const" version="opset1">
			<data element_type="f32" shape="1, 1, 192" offset="1698444" size="768" />
			<output>
				<port id="0" precision="FP32">
					<dim>1</dim>
					<dim>1</dim>
					<dim>192</dim>
				</port>
			</output>
		</layer>
		<layer id="386" name="/layers.3/ln1/Mul" type="Multiply" version="opset1">
			<data auto_broadcast="numpy" />
			<input>
				<port id="0" precision="FP32">
					<dim>1</dim>
					<dim>197</dim>
					<dim>192</dim>
				</port>
				<port id="1" precision="FP32">
					<dim>1</dim>
					<dim>1</dim>
					<dim>192</dim>
				</port>
			</input>
			<output>
				<port id="2" precision="FP32" names="/layers.3/ln1/Mul_output_0">
					<dim>1</dim>
					<dim>197</dim>
					<dim>192</dim>
				</port>
			</output>
		</layer>
		<layer id="387" name="Constant_4913" type="Const" version="opset1">
			<data element_type="f32" shape="1, 1, 192" offset="1699212" size="768" />
			<output>
				<port id="0" precision="FP32">
					<dim>1</dim>
					<dim>1</dim>
					<dim>192</dim>
				</port>
			</output>
		</layer>
		<layer id="388" name="/layers.3/ln1/Add_1" type="Add" version="opset1">
			<data auto_broadcast="numpy" />
			<input>
				<port id="0" precision="FP32">
					<dim>1</dim>
					<dim>197</dim>
					<dim>192</dim>
				</port>
				<port id="1" precision="FP32">
					<dim>1</dim>
					<dim>1</dim>
					<dim>192</dim>
				</port>
			</input>
			<output>
				<port id="2" precision="FP32" names="/layers.3/ln1/Add_1_output_0">
					<dim>1</dim>
					<dim>197</dim>
					<dim>192</dim>
				</port>
			</output>
		</layer>
		<layer id="389" name="Constant_183334" type="Const" version="opset1">
			<data element_type="f32" shape="1, 1, 192" offset="1699980" size="768" />
			<output>
				<port id="0" precision="FP32">
					<dim>1</dim>
					<dim>1</dim>
					<dim>192</dim>
				</port>
			</output>
		</layer>
		<layer id="390" name="/layers.3/ln1/Add_1_0_0/sq_multiply" type="Multiply" version="opset1">
			<data auto_broadcast="numpy" />
			<input>
				<port id="0" precision="FP32">
					<dim>1</dim>
					<dim>197</dim>
					<dim>192</dim>
				</port>
				<port id="1" precision="FP32">
					<dim>1</dim>
					<dim>1</dim>
					<dim>192</dim>
				</port>
			</input>
			<output>
				<port id="2" precision="FP32">
					<dim>1</dim>
					<dim>197</dim>
					<dim>192</dim>
				</port>
			</output>
		</layer>
		<layer id="391" name="Constant_205180" type="Const" version="opset1">
			<data element_type="f32" shape="" offset="1700748" size="4" />
			<output>
				<port id="0" precision="FP32" />
			</output>
		</layer>
		<layer id="392" name="Constant_205181" type="Const" version="opset1">
			<data element_type="f32" shape="" offset="1700752" size="4" />
			<output>
				<port id="0" precision="FP32" />
			</output>
		</layer>
		<layer id="393" name="Constant_205182" type="Const" version="opset1">
			<data element_type="f32" shape="" offset="1700748" size="4" />
			<output>
				<port id="0" precision="FP32" />
			</output>
		</layer>
		<layer id="394" name="Constant_205183" type="Const" version="opset1">
			<data element_type="f32" shape="" offset="1700752" size="4" />
			<output>
				<port id="0" precision="FP32" />
			</output>
		</layer>
		<layer id="395" name="/layers.3/ln1/Add_1_0_0/sq_multiply/fq_output_0" type="FakeQuantize" version="opset1">
			<data levels="256" auto_broadcast="numpy" />
			<input>
				<port id="0" precision="FP32">
					<dim>1</dim>
					<dim>197</dim>
					<dim>192</dim>
				</port>
				<port id="1" precision="FP32" />
				<port id="2" precision="FP32" />
				<port id="3" precision="FP32" />
				<port id="4" precision="FP32" />
			</input>
			<output>
				<port id="5" precision="FP32">
					<dim>1</dim>
					<dim>197</dim>
					<dim>192</dim>
				</port>
			</output>
		</layer>
		<layer id="396" name="Constant_4497" type="Const" version="opset1">
			<data element_type="i8" shape="576, 192" offset="1700756" size="110592" />
			<output>
				<port id="0" precision="I8">
					<dim>576</dim>
					<dim>192</dim>
				</port>
			</output>
		</layer>
		<layer id="397" name="Convert_407733" type="Convert" version="opset1">
			<data destination_type="f32" />
			<input>
				<port id="0" precision="I8">
					<dim>576</dim>
					<dim>192</dim>
				</port>
			</input>
			<output>
				<port id="1" precision="FP32">
					<dim>576</dim>
					<dim>192</dim>
				</port>
			</output>
		</layer>
		<layer id="398" name="Constant_407631" type="Const" version="opset1">
			<data element_type="f32" shape="576, 1" offset="1811348" size="2304" />
			<output>
				<port id="0" precision="FP32">
					<dim>576</dim>
					<dim>1</dim>
				</port>
			</output>
		</layer>
		<layer id="399" name="/layers.3/attn/qkv/MatMul/fq_weights_1" type="Multiply" version="opset1">
			<data auto_broadcast="numpy" />
			<input>
				<port id="0" precision="FP32">
					<dim>576</dim>
					<dim>192</dim>
				</port>
				<port id="1" precision="FP32">
					<dim>576</dim>
					<dim>1</dim>
				</port>
			</input>
			<output>
				<port id="2" precision="FP32">
					<dim>576</dim>
					<dim>192</dim>
				</port>
			</output>
		</layer>
		<layer id="400" name="/layers.3/attn/qkv/MatMul" type="MatMul" version="opset1">
			<data transpose_a="false" transpose_b="true" />
			<input>
				<port id="0" precision="FP32">
					<dim>1</dim>
					<dim>197</dim>
					<dim>192</dim>
				</port>
				<port id="1" precision="FP32">
					<dim>576</dim>
					<dim>192</dim>
				</port>
			</input>
			<output>
				<port id="2" precision="FP32" names="/layers.3/attn/qkv/MatMul_output_0">
					<dim>1</dim>
					<dim>197</dim>
					<dim>576</dim>
				</port>
			</output>
		</layer>
		<layer id="401" name="/layers.3/attn/qkv/Add" type="Add" version="opset1">
			<data auto_broadcast="numpy" />
			<input>
				<port id="0" precision="FP32">
					<dim>1</dim>
					<dim>1</dim>
					<dim>576</dim>
				</port>
				<port id="1" precision="FP32">
					<dim>1</dim>
					<dim>197</dim>
					<dim>576</dim>
				</port>
			</input>
			<output>
				<port id="2" precision="FP32" names="/layers.3/attn/qkv/Add_output_0">
					<dim>1</dim>
					<dim>197</dim>
					<dim>576</dim>
				</port>
			</output>
		</layer>
		<layer id="402" name="/layers.3/attn/Shape" type="ShapeOf" version="opset3">
			<data output_type="i64" />
			<input>
				<port id="0" precision="FP32">
					<dim>1</dim>
					<dim>197</dim>
					<dim>192</dim>
				</port>
			</input>
			<output>
				<port id="1" precision="I64" names="/layers.3/attn/Shape_1_output_0,/layers.3/attn/Shape_output_0">
					<dim>3</dim>
				</port>
			</output>
		</layer>
		<layer id="403" name="Constant_3844" type="Const" version="opset1">
			<data element_type="i64" shape="2" offset="419472" size="16" />
			<output>
				<port id="0" precision="I64">
					<dim>2</dim>
				</port>
			</output>
		</layer>
		<layer id="404" name="Constant_3845" type="Const" version="opset1">
			<data element_type="i64" shape="" offset="800" size="8" />
			<output>
				<port id="0" precision="I64" />
			</output>
		</layer>
		<layer id="405" name="Gather_3846" type="Gather" version="opset8">
			<data batch_dims="0" />
			<input>
				<port id="0" precision="I64">
					<dim>3</dim>
				</port>
				<port id="1" precision="I64">
					<dim>2</dim>
				</port>
				<port id="2" precision="I64" />
			</input>
			<output>
				<port id="3" precision="I64">
					<dim>2</dim>
				</port>
			</output>
		</layer>
		<layer id="406" name="/layers.3/attn/Constant_2" type="Const" version="opset1">
			<data element_type="i64" shape="1" offset="419488" size="8" />
			<output>
				<port id="0" precision="I64" names="/layers.3/attn/Constant_2_output_0">
					<dim>1</dim>
				</port>
			</output>
		</layer>
		<layer id="407" name="/layers.3/attn/Constant_3" type="Const" version="opset1">
			<data element_type="i64" shape="1" offset="419488" size="8" />
			<output>
				<port id="0" precision="I64" names="/layers.3/attn/Constant_3_output_0">
					<dim>1</dim>
				</port>
			</output>
		</layer>
		<layer id="408" name="/layers.3/attn/Constant_4" type="Const" version="opset1">
			<data element_type="i64" shape="1" offset="419496" size="8" />
			<output>
				<port id="0" precision="I64" names="/layers.3/attn/Constant_4_output_0">
					<dim>1</dim>
				</port>
			</output>
		</layer>
		<layer id="409" name="/layers.3/attn/Concat" type="Concat" version="opset1">
			<data axis="0" />
			<input>
				<port id="0" precision="I64">
					<dim>2</dim>
				</port>
				<port id="1" precision="I64">
					<dim>1</dim>
				</port>
				<port id="2" precision="I64">
					<dim>1</dim>
				</port>
				<port id="3" precision="I64">
					<dim>1</dim>
				</port>
			</input>
			<output>
				<port id="4" precision="I64" names="/layers.3/attn/Concat_output_0">
					<dim>5</dim>
				</port>
			</output>
		</layer>
		<layer id="410" name="/layers.3/attn/Reshape" type="Reshape" version="opset1">
			<data special_zero="true" />
			<input>
				<port id="0" precision="FP32">
					<dim>1</dim>
					<dim>197</dim>
					<dim>576</dim>
				</port>
				<port id="1" precision="I64">
					<dim>5</dim>
				</port>
			</input>
			<output>
				<port id="2" precision="FP32" names="/layers.3/attn/Reshape_output_0">
					<dim>1</dim>
					<dim>197</dim>
					<dim>3</dim>
					<dim>3</dim>
					<dim>64</dim>
				</port>
			</output>
		</layer>
		<layer id="411" name="Constant_540" type="Const" version="opset1">
			<data element_type="i64" shape="5" offset="419504" size="40" />
			<output>
				<port id="0" precision="I64">
					<dim>5</dim>
				</port>
			</output>
		</layer>
		<layer id="412" name="/layers.3/attn/Transpose" type="Transpose" version="opset1">
			<input>
				<port id="0" precision="FP32">
					<dim>1</dim>
					<dim>197</dim>
					<dim>3</dim>
					<dim>3</dim>
					<dim>64</dim>
				</port>
				<port id="1" precision="I64">
					<dim>5</dim>
				</port>
			</input>
			<output>
				<port id="2" precision="FP32" names="/layers.3/attn/Transpose_output_0">
					<dim>3</dim>
					<dim>1</dim>
					<dim>3</dim>
					<dim>197</dim>
					<dim>64</dim>
				</port>
			</output>
		</layer>
		<layer id="413" name="Constant_205195" type="Const" version="opset1">
			<data element_type="f32" shape="" offset="1813652" size="4" />
			<output>
				<port id="0" precision="FP32" />
			</output>
		</layer>
		<layer id="414" name="Constant_205196" type="Const" version="opset1">
			<data element_type="f32" shape="" offset="1813656" size="4" />
			<output>
				<port id="0" precision="FP32" />
…
		<edge from-layer="770" from-port="0" to-layer="771" to-port="2" />
		<edge from-layer="771" from-port="3" to-layer="773" to-port="0" />
		<edge from-layer="772" from-port="0" to-layer="773" to-port="1" />
		<edge from-layer="773" from-port="2" to-layer="774" to-port="1" />
		<edge from-layer="774" from-port="2" to-layer="776" to-port="0" />
		<edge from-layer="775" from-port="0" to-layer="776" to-port="1" />
		<edge from-layer="776" from-port="2" to-layer="781" to-port="0" />
		<edge from-layer="777" from-port="0" to-layer="781" to-port="1" />
		<edge from-layer="778" from-port="0" to-layer="781" to-port="2" />
		<edge from-layer="779" from-port="0" to-layer="781" to-port="3" />
		<edge from-layer="780" from-port="0" to-layer="781" to-port="4" />
		<edge from-layer="781" from-port="5" to-layer="786" to-port="0" />
		<edge from-layer="782" from-port="0" to-layer="783" to-port="0" />
		<edge from-layer="783" from-port="1" to-layer="785" to-port="0" />
		<edge from-layer="784" from-port="0" to-layer="785" to-port="1" />
		<edge from-layer="785" from-port="2" to-layer="786" to-port="1" />
		<edge from-layer="786" from-port="2" to-layer="787" to-port="1" />
		<edge from-layer="787" from-port="2" to-layer="788" to-port="1" />
		<edge from-layer="788" from-port="2" to-layer="824" to-port="0" />
		<edge from-layer="788" from-port="2" to-layer="792" to-port="0" />
		<edge from-layer="789" from-port="0" to-layer="823" to-port="0" />
		<edge from-layer="790" from-port="0" to-layer="809" to-port="0" />
		<edge from-layer="791" from-port="0" to-layer="792" to-port="1" />
		<edge from-layer="792" from-port="2" to-layer="794" to-port="0" />
		<edge from-layer="793" from-port="0" to-layer="794" to-port="1" />
		<edge from-layer="794" from-port="2" to-layer="796" to-port="0" />
		<edge from-layer="795" from-port="0" to-layer="796" to-port="1" />
		<edge from-layer="796" from-port="2" to-layer="798" to-port="0" />
		<edge from-layer="797" from-port="0" to-layer="798" to-port="1" />
		<edge from-layer="798" from-port="2" to-layer="803" to-port="0" />
		<edge from-layer="799" from-port="0" to-layer="803" to-port="1" />
		<edge from-layer="800" from-port="0" to-layer="803" to-port="2" />
		<edge from-layer="801" from-port="0" to-layer="803" to-port="3" />
		<edge from-layer="802" from-port="0" to-layer="803" to-port="4" />
		<edge from-layer="803" from-port="5" to-layer="808" to-port="0" />
		<edge from-layer="804" from-port="0" to-layer="805" to-port="0" />
		<edge from-layer="805" from-port="1" to-layer="807" to-port="0" />
		<edge from-layer="806" from-port="0" to-layer="807" to-port="1" />
		<edge from-layer="807" from-port="2" to-layer="808" to-port="1" />
		<edge from-layer="808" from-port="2" to-layer="809" to-port="1" />
		<edge from-layer="809" from-port="2" to-layer="810" to-port="0" />
		<edge from-layer="810" from-port="1" to-layer="812" to-port="0" />
		<edge from-layer="811" from-port="0" to-layer="812" to-port="1" />
		<edge from-layer="812" from-port="2" to-layer="817" to-port="0" />
		<edge from-layer="813" from-port="0" to-layer="817" to-port="1" />
		<edge from-layer="814" from-port="0" to-layer="817" to-port="2" />
		<edge from-layer="815" from-port="0" to-layer="817" to-port="3" />
		<edge from-layer="816" from-port="0" to-layer="817" to-port="4" />
		<edge from-layer="817" from-port="5" to-layer="822" to-port="0" />
		<edge from-layer="818" from-port="0" to-layer="819" to-port="0" />
		<edge from-layer="819" from-port="1" to-layer="821" to-port="0" />
		<edge from-layer="820" from-port="0" to-layer="821" to-port="1" />
		<edge from-layer="821" from-port="2" to-layer="822" to-port="1" />
		<edge from-layer="822" from-port="2" to-layer="823" to-port="1" />
		<edge from-layer="823" from-port="2" to-layer="824" to-port="1" />
		<edge from-layer="824" from-port="2" to-layer="899" to-port="0" />
		<edge from-layer="824" from-port="2" to-layer="828" to-port="0" />
		<edge from-layer="825" from-port="0" to-layer="898" to-port="0" />
		<edge from-layer="826" from-port="0" to-layer="845" to-port="0" />
		<edge from-layer="827" from-port="0" to-layer="828" to-port="1" />
		<edge from-layer="828" from-port="2" to-layer="830" to-port="0" />
		<edge from-layer="829" from-port="0" to-layer="830" to-port="1" />
		<edge from-layer="830" from-port="2" to-layer="832" to-port="0" />
		<edge from-layer="831" from-port="0" to-layer="832" to-port="1" />
		<edge from-layer="832" from-port="2" to-layer="834" to-port="0" />
		<edge from-layer="832" from-port="2" to-layer="846" to-port="0" />
		<edge from-layer="833" from-port="0" to-layer="834" to-port="1" />
		<edge from-layer="834" from-port="2" to-layer="839" to-port="0" />
		<edge from-layer="835" from-port="0" to-layer="839" to-port="1" />
		<edge from-layer="836" from-port="0" to-layer="839" to-port="2" />
		<edge from-layer="837" from-port="0" to-layer="839" to-port="3" />
		<edge from-layer="838" from-port="0" to-layer="839" to-port="4" />
		<edge from-layer="839" from-port="5" to-layer="844" to-port="0" />
		<edge from-layer="840" from-port="0" to-layer="841" to-port="0" />
		<edge from-layer="841" from-port="1" to-layer="843" to-port="0" />
		<edge from-layer="842" from-port="0" to-layer="843" to-port="1" />
		<edge from-layer="843" from-port="2" to-layer="844" to-port="1" />
		<edge from-layer="844" from-port="2" to-layer="845" to-port="1" />
		<edge from-layer="845" from-port="2" to-layer="854" to-port="0" />
		<edge from-layer="846" from-port="1" to-layer="882" to-port="0" />
		<edge from-layer="846" from-port="1" to-layer="849" to-port="0" />
		<edge from-layer="847" from-port="0" to-layer="849" to-port="1" />
		<edge from-layer="848" from-port="0" to-layer="849" to-port="2" />
		<edge from-layer="849" from-port="3" to-layer="853" to-port="0" />
		<edge from-layer="850" from-port="0" to-layer="853" to-port="1" />
		<edge from-layer="851" from-port="0" to-layer="853" to-port="2" />
		<edge from-layer="852" from-port="0" to-layer="853" to-port="3" />
		<edge from-layer="853" from-port="4" to-layer="854" to-port="1" />
		<edge from-layer="854" from-port="2" to-layer="856" to-port="0" />
		<edge from-layer="855" from-port="0" to-layer="856" to-port="1" />
		<edge from-layer="856" from-port="2" to-layer="876" to-port="0" />
		<edge from-layer="856" from-port="2" to-layer="861" to-port="0" />
		<edge from-layer="856" from-port="2" to-layer="865" to-port="0" />
		<edge from-layer="857" from-port="0" to-layer="861" to-port="1" />
		<edge from-layer="858" from-port="0" to-layer="861" to-port="2" />
		<edge from-layer="859" from-port="0" to-layer="861" to-port="3" />
		<edge from-layer="860" from-port="0" to-layer="861" to-port="4" />
		<edge from-layer="861" from-port="5" to-layer="863" to-port="0" />
		<edge from-layer="862" from-port="0" to-layer="863" to-port="2" />
		<edge from-layer="863" from-port="3" to-layer="873" to-port="0" />
		<edge from-layer="864" from-port="0" to-layer="865" to-port="2" />
		<edge from-layer="865" from-port="3" to-layer="867" to-port="0" />
		<edge from-layer="866" from-port="0" to-layer="867" to-port="1" />
		<edge from-layer="867" from-port="2" to-layer="872" to-port="0" />
		<edge from-layer="868" from-port="0" to-layer="872" to-port="1" />
		<edge from-layer="869" from-port="0" to-layer="872" to-port="2" />
		<edge from-layer="870" from-port="0" to-layer="872" to-port="3" />
		<edge from-layer="871" from-port="0" to-layer="872" to-port="4" />
		<edge from-layer="872" from-port="5" to-layer="873" to-port="1" />
		<edge from-layer="873" from-port="2" to-layer="874" to-port="0" />
		<edge from-layer="874" from-port="1" to-layer="877" to-port="0" />
		<edge from-layer="875" from-port="0" to-layer="876" to-port="2" />
		<edge from-layer="876" from-port="3" to-layer="877" to-port="1" />
		<edge from-layer="877" from-port="2" to-layer="879" to-port="0" />
		<edge from-layer="878" from-port="0" to-layer="879" to-port="1" />
		<edge from-layer="879" from-port="2" to-layer="885" to-port="0" />
		<edge from-layer="880" from-port="0" to-layer="882" to-port="1" />
		<edge from-layer="881" from-port="0" to-layer="882" to-port="2" />
		<edge from-layer="882" from-port="3" to-layer="884" to-port="0" />
		<edge from-layer="883" from-port="0" to-layer="884" to-port="1" />
		<edge from-layer="884" from-port="2" to-layer="885" to-port="1" />
		<edge from-layer="885" from-port="2" to-layer="887" to-port="0" />
		<edge from-layer="886" from-port="0" to-layer="887" to-port="1" />
		<edge from-layer="887" from-port="2" to-layer="892" to-port="0" />
		<edge from-layer="888" from-port="0" to-layer="892" to-port="1" />
		<edge from-layer="889" from-port="0" to-layer="892" to-port="2" />
		<edge from-layer="890" from-port="0" to-layer="892" to-port="3" />
		<edge from-layer="891" from-port="0" to-layer="892" to-port="4" />
		<edge from-layer="892" from-port="5" to-layer="897" to-port="0" />
		<edge from-layer="893" from-port="0" to-layer="894" to-port="0" />
		<edge from-layer="894" from-port="1" to-layer="896" to-port="0" />
		<edge from-layer="895" from-port="0" to-layer="896" to-port="1" />
		<edge from-layer="896" from-port="2" to-layer="897" to-port="1" />
		<edge from-layer="897" from-port="2" to-layer="898" to-port="1" />
		<edge from-layer="898" from-port="2" to-layer="899" to-port="1" />
		<edge from-layer="899" from-port="2" to-layer="903" to-port="0" />
		<edge from-layer="899" from-port="2" to-layer="935" to-port="0" />
		<edge from-layer="900" from-port="0" to-layer="934" to-port="0" />
		<edge from-layer="901" from-port="0" to-layer="920" to-port="0" />
		<edge from-layer="902" from-port="0" to-layer="903" to-port="1" />
		<edge from-layer="903" from-port="2" to-layer="905" to-port="0" />
		<edge from-layer="904" from-port="0" to-layer="905" to-port="1" />
		<edge from-layer="905" from-port="2" to-layer="907" to-port="0" />
		<edge from-layer="906" from-port="0" to-layer="907" to-port="1" />
		<edge from-layer="907" from-port="2" to-layer="909" to-port="0" />
		<edge from-layer="908" from-port="0" to-layer="909" to-port="1" />
		<edge from-layer="909" from-port="2" to-layer="914" to-port="0" />
		<edge from-layer="910" from-port="0" to-layer="914" to-port="1" />
		<edge from-layer="911" from-port="0" to-layer="914" to-port="2" />
		<edge from-layer="912" from-port="0" to-layer="914" to-port="3" />
		<edge from-layer="913" from-port="0" to-layer="914" to-port="4" />
		<edge from-layer="914" from-port="5" to-layer="919" to-port="0" />
		<edge from-layer="915" from-port="0" to-layer="916" to-port="0" />
		<edge from-layer="916" from-port="1" to-layer="918" to-port="0" />
		<edge from-layer="917" from-port="0" to-layer="918" to-port="1" />
		<edge from-layer="918" from-port="2" to-layer="919" to-port="1" />
		<edge from-layer="919" from-port="2" to-layer="920" to-port="1" />
		<edge from-layer="920" from-port="2" to-layer="921" to-port="0" />
		<edge from-layer="921" from-port="1" to-layer="923" to-port="0" />
		<edge from-layer="922" from-port="0" to-layer="923" to-port="1" />
		<edge from-layer="923" from-port="2" to-layer="928" to-port="0" />
		<edge from-layer="924" from-port="0" to-layer="928" to-port="1" />
		<edge from-layer="925" from-port="0" to-layer="928" to-port="2" />
		<edge from-layer="926" from-port="0" to-layer="928" to-port="3" />
		<edge from-layer="927" from-port="0" to-layer="928" to-port="4" />
		<edge from-layer="928" from-port="5" to-layer="933" to-port="0" />
		<edge from-layer="929" from-port="0" to-layer="930" to-port="0" />
		<edge from-layer="930" from-port="1" to-layer="932" to-port="0" />
		<edge from-layer="931" from-port="0" to-layer="932" to-port="1" />
		<edge from-layer="932" from-port="2" to-layer="933" to-port="1" />
		<edge from-layer="933" from-port="2" to-layer="934" to-port="1" />
		<edge from-layer="934" from-port="2" to-layer="935" to-port="1" />
		<edge from-layer="935" from-port="2" to-layer="939" to-port="0" />
		<edge from-layer="935" from-port="2" to-layer="1010" to-port="0" />
		<edge from-layer="936" from-port="0" to-layer="1009" to-port="0" />
		<edge from-layer="937" from-port="0" to-layer="956" to-port="0" />
		<edge from-layer="938" from-port="0" to-layer="939" to-port="1" />
		<edge from-layer="939" from-port="2" to-layer="941" to-port="0" />
		<edge from-layer="940" from-port="0" to-layer="941" to-port="1" />
		<edge from-layer="941" from-port="2" to-layer="943" to-port="0" />
		<edge from-layer="942" from-port="0" to-layer="943" to-port="1" />
		<edge from-layer="943" from-port="2" to-layer="957" to-port="0" />
		<edge from-layer="943" from-port="2" to-layer="945" to-port="0" />
		<edge from-layer="944" from-port="0" to-layer="945" to-port="1" />
		<edge from-layer="945" from-port="2" to-layer="950" to-port="0" />
		<edge from-layer="946" from-port="0" to-layer="950" to-port="1" />
		<edge from-layer="947" from-port="0" to-layer="950" to-port="2" />
		<edge from-layer="948" from-port="0" to-layer="950" to-port="3" />
		<edge from-layer="949" from-port="0" to-layer="950" to-port="4" />
		<edge from-layer="950" from-port="5" to-layer="955" to-port="0" />
		<edge from-layer="951" from-port="0" to-layer="952" to-port="0" />
		<edge from-layer="952" from-port="1" to-layer="954" to-port="0" />
		<edge from-layer="953" from-port="0" to-layer="954" to-port="1" />
		<edge from-layer="954" from-port="2" to-layer="955" to-port="1" />
		<edge from-layer="955" from-port="2" to-layer="956" to-port="1" />
		<edge from-layer="956" from-port="2" to-layer="965" to-port="0" />
		<edge from-layer="957" from-port="1" to-layer="993" to-port="0" />
		<edge from-layer="957" from-port="1" to-layer="960" to-port="0" />
		<edge from-layer="958" from-port="0" to-layer="960" to-port="1" />
		<edge from-layer="959" from-port="0" to-layer="960" to-port="2" />
		<edge from-layer="960" from-port="3" to-layer="964" to-port="0" />
		<edge from-layer="961" from-port="0" to-layer="964" to-port="1" />
		<edge from-layer="962" from-port="0" to-layer="964" to-port="2" />
		<edge from-layer="963" from-port="0" to-layer="964" to-port="3" />
		<edge from-layer="964" from-port="4" to-layer="965" to-port="1" />
		<edge from-layer="965" from-port="2" to-layer="967" to-port="0" />
		<edge from-layer="966" from-port="0" to-layer="967" to-port="1" />
		<edge from-layer="967" from-port="2" to-layer="976" to-port="0" />
		<edge from-layer="967" from-port="2" to-layer="972" to-port="0" />
		<edge from-layer="967" from-port="2" to-layer="987" to-port="0" />
		<edge from-layer="968" from-port="0" to-layer="972" to-port="1" />
		<edge from-layer="969" from-port="0" to-layer="972" to-port="2" />
		<edge from-layer="970" from-port="0" to-layer="972" to-port="3" />
		<edge from-layer="971" from-port="0" to-layer="972" to-port="4" />
		<edge from-layer="972" from-port="5" to-layer="974" to-port="0" />
		<edge from-layer="973" from-port="0" to-layer="974" to-port="2" />
		<edge from-layer="974" from-port="3" to-layer="984" to-port="0" />
		<edge from-layer="975" from-port="0" to-layer="976" to-port="2" />
		<edge from-layer="976" from-port="3" to-layer="978" to-port="0" />
		<edge from-layer="977" from-port="0" to-layer="978" to-port="1" />
		<edge from-layer="978" from-port="2" to-layer="983" to-port="0" />
		<edge from-layer="979" from-port="0" to-layer="983" to-port="1" />
		<edge from-layer="980" from-port="0" to-layer="983" to-port="2" />
		<edge from-layer="981" from-port="0" to-layer="983" to-port="3" />
		<edge from-layer="982" from-port="0" to-layer="983" to-port="4" />
		<edge from-layer="983" from-port="5" to-layer="984" to-port="1" />
		<edge from-layer="984" from-port="2" to-layer="985" to-port="0" />
		<edge from-layer="985" from-port="1" to-layer="988" to-port="0" />
		<edge from-layer="986" from-port="0" to-layer="987" to-port="2" />
		<edge from-layer="987" from-port="3" to-layer="988" to-port="1" />
		<edge from-layer="988" from-port="2" to-layer="990" to-port="0" />
		<edge from-layer="989" from-port="0" to-layer="990" to-port="1" />
		<edge from-layer="990" from-port="2" to-layer="996" to-port="0" />
		<edge from-layer="991" from-port="0" to-layer="993" to-port="1" />
		<edge from-layer="992" from-port="0" to-layer="993" to-port="2" />
		<edge from-layer="993" from-port="3" to-layer="995" to-port="0" />
		<edge from-layer="994" from-port="0" to-layer="995" to-port="1" />
		<edge from-layer="995" from-port="2" to-layer="996" to-port="1" />
		<edge from-layer="996" from-port="2" to-layer="998" to-port="0" />
		<edge from-layer="997" from-port="0" to-layer="998" to-port="1" />
		<edge from-layer="998" from-port="2" to-layer="1003" to-port="0" />
		<edge from-layer="999" from-port="0" to-layer="1003" to-port="1" />
		<edge from-layer="1000" from-port="0" to-layer="1003" to-port="2" />
		<edge from-layer="1001" from-port="0" to-layer="1003" to-port="3" />
		<edge from-layer="1002" from-port="0" to-layer="1003" to-port="4" />
		<edge from-layer="1003" from-port="5" to-layer="1008" to-port="0" />
		<edge from-layer="1004" from-port="0" to-layer="1005" to-port="0" />
		<edge from-layer="1005" from-port="1" to-layer="1007" to-port="0" />
		<edge from-layer="1006" from-port="0" to-layer="1007" to-port="1" />
		<edge from-layer="1007" from-port="2" to-layer="1008" to-port="1" />
		<edge from-layer="1008" from-port="2" to-layer="1009" to-port="1" />
		<edge from-layer="1009" from-port="2" to-layer="1010" to-port="1" />
		<edge from-layer="1010" from-port="2" to-layer="1046" to-port="0" />
		<edge from-layer="1010" from-port="2" to-layer="1014" to-port="0" />
		<edge from-layer="1011" from-port="0" to-layer="1045" to-port="0" />
		<edge from-layer="1012" from-port="0" to-layer="1031" to-port="0" />
		<edge from-layer="1013" from-port="0" to-layer="1014" to-port="1" />
		<edge from-layer="1014" from-port="2" to-layer="1016" to-port="0" />
		<edge from-layer="1015" from-port="0" to-layer="1016" to-port="1" />
		<edge from-layer="1016" from-port="2" to-layer="1018" to-port="0" />
		<edge from-layer="1017" from-port="0" to-layer="1018" to-port="1" />
		<edge from-layer="1018" from-port="2" to-layer="1020" to-port="0" />
		<edge from-layer="1019" from-port="0" to-layer="1020" to-port="1" />
		<edge from-layer="1020" from-port="2" to-layer="1025" to-port="0" />
		<edge from-layer="1021" from-port="0" to-layer="1025" to-port="1" />
		<edge from-layer="1022" from-port="0" to-layer="1025" to-port="2" />
		<edge from-layer="1023" from-port="0" to-layer="1025" to-port="3" />
		<edge from-layer="1024" from-port="0" to-layer="1025" to-port="4" />
		<edge from-layer="1025" from-port="5" to-layer="1030" to-port="0" />
		<edge from-layer="1026" from-port="0" to-layer="1027" to-port="0" />
		<edge from-layer="1027" from-port="1" to-layer="1029" to-port="0" />
		<edge from-layer="1028" from-port="0" to-layer="1029" to-port="1" />
		<edge from-layer="1029" from-port="2" to-layer="1030" to-port="1" />
		<edge from-layer="1030" from-port="2" to-layer="1031" to-port="1" />
		<edge from-layer="1031" from-port="2" to-layer="1032" to-port="0" />
		<edge from-layer="1032" from-port="1" to-layer="1034" to-port="0" />
		<edge from-layer="1033" from-port="0" to-layer="1034" to-port="1" />
		<edge from-layer="1034" from-port="2" to-layer="1039" to-port="0" />
		<edge from-layer="1035" from-port="0" to-layer="1039" to-port="1" />
		<edge from-layer="1036" from-port="0" to-layer="1039" to-port="2" />
		<edge from-layer="1037" from-port="0" to-layer="1039" to-port="3" />
		<edge from-layer="1038" from-port="0" to-layer="1039" to-port="4" />
		<edge from-layer="1039" from-port="5" to-layer="1044" to-port="0" />
		<edge from-layer="1040" from-port="0" to-layer="1041" to-port="0" />
		<edge from-layer="1041" from-port="1" to-layer="1043" to-port="0" />
		<edge from-layer="1042" from-port="0" to-layer="1043" to-port="1" />
		<edge from-layer="1043" from-port="2" to-layer="1044" to-port="1" />
		<edge from-layer="1044" from-port="2" to-layer="1045" to-port="1" />
		<edge from-layer="1045" from-port="2" to-layer="1046" to-port="1" />
		<edge from-layer="1046" from-port="2" to-layer="1121" to-port="0" />
		<edge from-layer="1046" from-port="2" to-layer="1050" to-port="0" />
		<edge from-layer="1047" from-port="0" to-layer="1120" to-port="0" />
		<edge from-layer="1048" from-port="0" to-layer="1067" to-port="0" />
		<edge from-layer="1049" from-port="0" to-layer="1050" to-port="1" />
		<edge from-layer="1050" from-port="2" to-layer="1052" to-port="0" />
		<edge from-layer="1051" from-port="0" to-layer="1052" to-port="1" />
		<edge from-layer="1052" from-port="2" to-layer="1054" to-port="0" />
		<edge from-layer="1053" from-port="0" to-layer="1054" to-port="1" />
		<edge from-layer="1054" from-port="2" to-layer="1056" to-port="0" />
		<edge from-layer="1054" from-port="2" to-layer="1068" to-port="0" />
		<edge from-layer="1055" from-port="0" to-layer="1056" to-port="1" />
		<edge from-layer="1056" from-port="2" to-layer="1061" to-port="0" />
		<edge from-layer="1057" from-port="0" to-layer="1061" to-port="1" />
		<edge from-layer="1058" from-port="0" to-layer="1061" to-port="2" />
		<edge from-layer="1059" from-port="0" to-layer="1061" to-port="3" />
		<edge from-layer="1060" from-port="0" to-layer="1061" to-port="4" />
		<edge from-layer="1061" from-port="5" to-layer="1066" to-port="0" />
		<edge from-layer="1062" from-port="0" to-layer="1063" to-port="0" />
		<edge from-layer="1063" from-port="1" to-layer="1065" to-port="0" />
		<edge from-layer="1064" from-port="0" to-layer="1065" to-port="1" />
		<edge from-layer="1065" from-port="2" to-layer="1066" to-port="1" />
		<edge from-layer="1066" from-port="2" to-layer="1067" to-port="1" />
		<edge from-layer="1067" from-port="2" to-layer="1076" to-port="0" />
		<edge from-layer="1068" from-port="1" to-layer="1071" to-port="0" />
		<edge from-layer="1068" from-port="1" to-layer="1104" to-port="0" />
		<edge from-layer="1069" from-port="0" to-layer="1071" to-port="1" />
		<edge from-layer="1070" from-port="0" to-layer="1071" to-port="2" />
		<edge from-layer="1071" from-port="3" to-layer="1075" to-port="0" />
		<edge from-layer="1072" from-port="0" to-layer="1075" to-port="1" />
		<edge from-layer="1073" from-port="0" to-layer="1075" to-port="2" />
		<edge from-layer="1074" from-port="0" to-layer="1075" to-port="3" />
		<edge from-layer="1075" from-port="4" to-layer="1076" to-port="1" />
		<edge from-layer="1076" from-port="2" to-layer="1078" to-port="0" />
		<edge from-layer="1077" from-port="0" to-layer="1078" to-port="1" />
		<edge from-layer="1078" from-port="2" to-layer="1083" to-port="0" />
		<edge from-layer="1078" from-port="2" to-layer="1087" to-port="0" />
		<edge from-layer="1078" from-port="2" to-layer="1098" to-port="0" />
		<edge from-layer="1079" from-port="0" to-layer="1083" to-port="1" />
		<edge from-layer="1080" from-port="0" to-layer="1083" to-port="2" />
		<edge from-layer="1081" from-port="0" to-layer="1083" to-port="3" />
		<edge from-layer="1082" from-port="0" to-layer="1083" to-port="4" />
		<edge from-layer="1083" from-port="5" to-layer="1085" to-port="0" />
		<edge from-layer="1084" from-port="0" to-layer="1085" to-port="2" />
		<edge from-layer="1085" from-port="3" to-layer="1095" to-port="0" />
		<edge from-layer="1086" from-port="0" to-layer="1087" to-port="2" />
		<edge from-layer="1087" from-port="3" to-layer="1089" to-port="0" />
		<edge from-layer="1088" from-port="0" to-layer="1089" to-port="1" />
		<edge from-layer="1089" from-port="2" to-layer="1094" to-port="0" />
		<edge from-layer="1090" from-port="0" to-layer="1094" to-port="1" />
		<edge from-layer="1091" from-port="0" to-layer="1094" to-port="2" />
		<edge from-layer="1092" from-port="0" to-layer="1094" to-port="3" />
		<edge from-layer="1093" from-port="0" to-layer="1094" to-port="4" />
		<edge from-layer="1094" from-port="5" to-layer="1095" to-port="1" />
		<edge from-layer="1095" from-port="2" to-layer="1096" to-port="0" />
		<edge from-layer="1096" from-port="1" to-layer="1099" to-port="0" />
		<edge from-layer="1097" from-port="0" to-layer="1098" to-port="2" />
		<edge from-layer="1098" from-port="3" to-layer="1099" to-port="1" />
		<edge from-layer="1099" from-port="2" to-layer="1101" to-port="0" />
		<edge from-layer="1100" from-port="0" to-layer="1101" to-port="1" />
		<edge from-layer="1101" from-port="2" to-layer="1107" to-port="0" />
		<edge from-layer="1102" from-port="0" to-layer="1104" to-port="1" />
		<edge from-layer="1103" from-port="0" to-layer="1104" to-port="2" />
		<edge from-layer="1104" from-port="3" to-layer="1106" to-port="0" />
		<edge from-layer="1105" from-port="0" to-layer="1106" to-port="1" />
		<edge from-layer="1106" from-port="2" to-layer="1107" to-port="1" />
		<edge from-layer="1107" from-port="2" to-layer="1109" to-port="0" />
		<edge from-layer="1108" from-port="0" to-layer="1109" to-port="1" />
		<edge from-layer="1109" from-port="2" to-layer="1114" to-port="0" />
		<edge from-layer="1110" from-port="0" to-layer="1114" to-port="1" />
		<edge from-layer="1111" from-port="0" to-layer="1114" to-port="2" />
		<edge from-layer="1112" from-port="0" to-layer="1114" to-port="3" />
		<edge from-layer="1113" from-port="0" to-layer="1114" to-port="4" />
		<edge from-layer="1114" from-port="5" to-layer="1119" to-port="0" />
		<edge from-layer="1115" from-port="0" to-layer="1116" to-port="0" />
		<edge from-layer="1116" from-port="1" to-layer="1118" to-port="0" />
		<edge from-layer="1117" from-port="0" to-layer="1118" to-port="1" />
		<edge from-layer="1118" from-port="2" to-layer="1119" to-port="1" />
		<edge from-layer="1119" from-port="2" to-layer="1120" to-port="1" />
		<edge from-layer="1120" from-port="2" to-layer="1121" to-port="1" />
		<edge from-layer="1121" from-port="2" to-layer="1157" to-port="0" />
		<edge from-layer="1121" from-port="2" to-layer="1125" to-port="0" />
		<edge from-layer="1122" from-port="0" to-layer="1156" to-port="0" />
		<edge from-layer="1123" from-port="0" to-layer="1142" to-port="0" />
		<edge from-layer="1124" from-port="0" to-layer="1125" to-port="1" />
		<edge from-layer="1125" from-port="2" to-layer="1127" to-port="0" />
		<edge from-layer="1126" from-port="0" to-layer="1127" to-port="1" />
		<edge from-layer="1127" from-port="2" to-layer="1129" to-port="0" />
		<edge from-layer="1128" from-port="0" to-layer="1129" to-port="1" />
		<edge from-layer="1129" from-port="2" to-layer="1131" to-port="0" />
		<edge from-layer="1130" from-port="0" to-layer="1131" to-port="1" />
		<edge from-layer="1131" from-port="2" to-layer="1136" to-port="0" />
		<edge from-layer="1132" from-port="0" to-layer="1136" to-port="1" />
		<edge from-layer="1133" from-port="0" to-layer="1136" to-port="2" />
		<edge from-layer="1134" from-port="0" to-layer="1136" to-port="3" />
		<edge from-layer="1135" from-port="0" to-layer="1136" to-port="4" />
		<edge from-layer="1136" from-port="5" to-layer="1141" to-port="0" />
		<edge from-layer="1137" from-port="0" to-layer="1138" to-port="0" />
		<edge from-layer="1138" from-port="1" to-layer="1140" to-port="0" />
		<edge from-layer="1139" from-port="0" to-layer="1140" to-port="1" />
		<edge from-layer="1140" from-port="2" to-layer="1141" to-port="1" />
		<edge from-layer="1141" from-port="2" to-layer="1142" to-port="1" />
		<edge from-layer="1142" from-port="2" to-layer="1143" to-port="0" />
		<edge from-layer="1143" from-port="1" to-layer="1145" to-port="0" />
		<edge from-layer="1144" from-port="0" to-layer="1145" to-port="1" />
		<edge from-layer="1145" from-port="2" to-layer="1150" to-port="0" />
		<edge from-layer="1146" from-port="0" to-layer="1150" to-port="1" />
		<edge from-layer="1147" from-port="0" to-layer="1150" to-port="2" />
		<edge from-layer="1148" from-port="0" to-layer="1150" to-port="3" />
		<edge from-layer="1149" from-port="0" to-layer="1150" to-port="4" />
		<edge from-layer="1150" from-port="5" to-layer="1155" to-port="0" />
		<edge from-layer="1151" from-port="0" to-layer="1152" to-port="0" />
		<edge from-layer="1152" from-port="1" to-layer="1154" to-port="0" />
		<edge from-layer="1153" from-port="0" to-layer="1154" to-port="1" />
		<edge from-layer="1154" from-port="2" to-layer="1155" to-port="1" />
		<edge from-layer="1155" from-port="2" to-layer="1156" to-port="1" />
		<edge from-layer="1156" from-port="2" to-layer="1157" to-port="1" />
		<edge from-layer="1157" from-port="2" to-layer="1161" to-port="0" />
		<edge from-layer="1157" from-port="2" to-layer="1232" to-port="0" />
		<edge from-layer="1158" from-port="0" to-layer="1231" to-port="0" />
		<edge from-layer="1159" from-port="0" to-layer="1178" to-port="0" />
		<edge from-layer="1160" from-port="0" to-layer="1161" to-port="1" />
		<edge from-layer="1161" from-port="2" to-layer="1163" to-port="0" />
		<edge from-layer="1162" from-port="0" to-layer="1163" to-port="1" />
		<edge from-layer="1163" from-port="2" to-layer="1165" to-port="0" />
		<edge from-layer="1164" from-port="0" to-layer="1165" to-port="1" />
		<edge from-layer="1165" from-port="2" to-layer="1167" to-port="0" />
		<edge from-layer="1165" from-port="2" to-layer="1179" to-port="0" />
		<edge from-layer="1166" from-port="0" to-layer="1167" to-port="1" />
		<edge from-layer="1167" from-port="2" to-layer="1172" to-port="0" />
		<edge from-layer="1168" from-port="0" to-layer="1172" to-port="1" />
		<edge from-layer="1169" from-port="0" to-layer="1172" to-port="2" />
		<edge from-layer="1170" from-port="0" to-layer="1172" to-port="3" />
		<edge from-layer="1171" from-port="0" to-layer="1172" to-port="4" />
		<edge from-layer="1172" from-port="5" to-layer="1177" to-port="0" />
		<edge from-layer="1173" from-port="0" to-layer="1174" to-port="0" />
		<edge from-layer="1174" from-port="1" to-layer="1176" to-port="0" />
		<edge from-layer="1175" from-port="0" to-layer="1176" to-port="1" />
		<edge from-layer="1176" from-port="2" to-layer="1177" to-port="1" />
		<edge from-layer="1177" from-port="2" to-layer="1178" to-port="1" />
		<edge from-layer="1178" from-port="2" to-layer="1187" to-port="0" />
		<edge from-layer="1179" from-port="1" to-layer="1215" to-port="0" />
		<edge from-layer="1179" from-port="1" to-layer="1182" to-port="0" />
		<edge from-layer="1180" from-port="0" to-layer="1182" to-port="1" />
		<edge from-layer="1181" from-port="0" to-layer="1182" to-port="2" />
		<edge from-layer="1182" from-port="3" to-layer="1186" to-port="0" />
		<edge from-layer="1183" from-port="0" to-layer="1186" to-port="1" />
		<edge from-layer="1184" from-port="0" to-layer="1186" to-port="2" />
		<edge from-layer="1185" from-port="0" to-layer="1186" to-port="3" />
		<edge from-layer="1186" from-port="4" to-layer="1187" to-port="1" />
		<edge from-layer="1187" from-port="2" to-layer="1189" to-port="0" />
		<edge from-layer="1188" from-port="0" to-layer="1189" to-port="1" />
		<edge from-layer="1189" from-port="2" to-layer="1198" to-port="0" />
		<edge from-layer="1189" from-port="2" to-layer="1194" to-port="0" />
		<edge from-layer="1189" from-port="2" to-layer="1209" to-port="0" />
		<edge from-layer="1190" from-port="0" to-layer="1194" to-port="1" />
		<edge from-layer="1191" from-port="0" to-layer="1194" to-port="2" />
		<edge from-layer="1192" from-port="0" to-layer="1194" to-port="3" />
		<edge from-layer="1193" from-port="0" to-layer="1194" to-port="4" />
		<edge from-layer="1194" from-port="5" to-layer="1196" to-port="0" />
		<edge from-layer="1195" from-port="0" to-layer="1196" to-port="2" />
		<edge from-layer="1196" from-port="3" to-layer="1206" to-port="0" />
		<edge from-layer="1197" from-port="0" to-layer="1198" to-port="2" />
		<edge from-layer="1198" from-port="3" to-layer="1200" to-port="0" />
		<edge from-layer="1199" from-port="0" to-layer="1200" to-port="1" />
		<edge from-layer="1200" from-port="2" to-layer="1205" to-port="0" />
		<edge from-layer="1201" from-port="0" to-layer="1205" to-port="1" />
		<edge from-layer="1202" from-port="0" to-layer="1205" to-port="2" />
		<edge from-layer="1203" from-port="0" to-layer="1205" to-port="3" />
		<edge from-layer="1204" from-port="0" to-layer="1205" to-port="4" />
		<edge from-layer="1205" from-port="5" to-layer="1206" to-port="1" />
		<edge from-layer="1206" from-port="2" to-layer="1207" to-port="0" />
		<edge from-layer="1207" from-port="1" to-layer="1210" to-port="0" />
		<edge from-layer="1208" from-port="0" to-layer="1209" to-port="2" />
		<edge from-layer="1209" from-port="3" to-layer="1210" to-port="1" />
		<edge from-layer="1210" from-port="2" to-layer="1212" to-port="0" />
		<edge from-layer="1211" from-port="0" to-layer="1212" to-port="1" />
		<edge from-layer="1212" from-port="2" to-layer="1218" to-port="0" />
		<edge from-layer="1213" from-port="0" to-layer="1215" to-port="1" />
		<edge from-layer="1214" from-port="0" to-layer="1215" to-port="2" />
		<edge from-layer="1215" from-port="3" to-layer="1217" to-port="0" />
		<edge from-layer="1216" from-port="0" to-layer="1217" to-port="1" />
		<edge from-layer="1217" from-port="2" to-layer="1218" to-port="1" />
		<edge from-layer="1218" from-port="2" to-layer="1220" to-port="0" />
		<edge from-layer="1219" from-port="0" to-layer="1220" to-port="1" />
		<edge from-layer="1220" from-port="2" to-layer="1225" to-port="0" />
		<edge from-layer="1221" from-port="0" to-layer="1225" to-port="1" />
		<edge from-layer="1222" from-port="0" to-layer="1225" to-port="2" />
		<edge from-layer="1223" from-port="0" to-layer="1225" to-port="3" />
		<edge from-layer="1224" from-port="0" to-layer="1225" to-port="4" />
		<edge from-layer="1225" from-port="5" to-layer="1230" to-port="0" />
		<edge from-layer="1226" from-port="0" to-layer="1227" to-port="0" />
		<edge from-layer="1227" from-port="1" to-layer="1229" to-port="0" />
		<edge from-layer="1228" from-port="0" to-layer="1229" to-port="1" />
		<edge from-layer="1229" from-port="2" to-layer="1230" to-port="1" />
		<edge from-layer="1230" from-port="2" to-layer="1231" to-port="1" />
		<edge from-layer="1231" from-port="2" to-layer="1232" to-port="1" />
		<edge from-layer="1232" from-port="2" to-layer="1236" to-port="0" />
		<edge from-layer="1232" from-port="2" to-layer="1268" to-port="0" />
		<edge from-layer="1233" from-port="0" to-layer="1267" to-port="0" />
		<edge from-layer="1234" from-port="0" to-layer="1253" to-port="0" />
		<edge from-layer="1235" from-port="0" to-layer="1236" to-port="1" />
		<edge from-layer="1236" from-port="2" to-layer="1238" to-port="0" />
		<edge from-layer="1237" from-port="0" to-layer="1238" to-port="1" />
		<edge from-layer="1238" from-port="2" to-layer="1240" to-port="0" />
		<edge from-layer="1239" from-port="0" to-layer="1240" to-port="1" />
		<edge from-layer="1240" from-port="2" to-layer="1242" to-port="0" />
		<edge from-layer="1241" from-port="0" to-layer="1242" to-port="1" />
		<edge from-layer="1242" from-port="2" to-layer="1247" to-port="0" />
		<edge from-layer="1243" from-port="0" to-layer="1247" to-port="1" />
		<edge from-layer="1244" from-port="0" to-layer="1247" to-port="2" />
		<edge from-layer="1245" from-port="0" to-layer="1247" to-port="3" />
		<edge from-layer="1246" from-port="0" to-layer="1247" to-port="4" />
		<edge from-layer="1247" from-port="5" to-layer="1252" to-port="0" />
		<edge from-layer="1248" from-port="0" to-layer="1249" to-port="0" />
		<edge from-layer="1249" from-port="1" to-layer="1251" to-port="0" />
		<edge from-layer="1250" from-port="0" to-layer="1251" to-port="1" />
		<edge from-layer="1251" from-port="2" to-layer="1252" to-port="1" />
		<edge from-layer="1252" from-port="2" to-layer="1253" to-port="1" />
		<edge from-layer="1253" from-port="2" to-layer="1254" to-port="0" />
		<edge from-layer="1254" from-port="1" to-layer="1256" to-port="0" />
		<edge from-layer="1255" from-port="0" to-layer="1256" to-port="1" />
		<edge from-layer="1256" from-port="2" to-layer="1261" to-port="0" />
		<edge from-layer="1257" from-port="0" to-layer="1261" to-port="1" />
		<edge from-layer="1258" from-port="0" to-layer="1261" to-port="2" />
		<edge from-layer="1259" from-port="0" to-layer="1261" to-port="3" />
		<edge from-layer="1260" from-port="0" to-layer="1261" to-port="4" />
		<edge from-layer="1261" from-port="5" to-layer="1266" to-port="0" />
		<edge from-layer="1262" from-port="0" to-layer="1263" to-port="0" />
		<edge from-layer="1263" from-port="1" to-layer="1265" to-port="0" />
		<edge from-layer="1264" from-port="0" to-layer="1265" to-port="1" />
		<edge from-layer="1265" from-port="2" to-layer="1266" to-port="1" />
		<edge from-layer="1266" from-port="2" to-layer="1267" to-port="1" />
		<edge from-layer="1267" from-port="2" to-layer="1268" to-port="1" />
		<edge from-layer="1268" from-port="2" to-layer="1272" to-port="0" />
		<edge from-layer="1268" from-port="2" to-layer="1343" to-port="0" />
		<edge from-layer="1269" from-port="0" to-layer="1342" to-port="0" />
		<edge from-layer="1270" from-port="0" to-layer="1289" to-port="0" />
		<edge from-layer="1271" from-port="0" to-layer="1272" to-port="1" />
		<edge from-layer="1272" from-port="2" to-layer="1274" to-port="0" />
		<edge from-layer="1273" from-port="0" to-layer="1274" to-port="1" />
		<edge from-layer="1274" from-port="2" to-layer="1276" to-port="0" />
		<edge from-layer="1275" from-port="0" to-layer="1276" to-port="1" />
		<edge from-layer="1276" from-port="2" to-layer="1290" to-port="0" />
		<edge from-layer="1276" from-port="2" to-layer="1278" to-port="0" />
		<edge from-layer="1277" from-port="0" to-layer="1278" to-port="1" />
		<edge from-layer="1278" from-port="2" to-layer="1283" to-port="0" />
		<edge from-layer="1279" from-port="0" to-layer="1283" to-port="1" />
		<edge from-layer="1280" from-port="0" to-layer="1283" to-port="2" />
		<edge from-layer="1281" from-port="0" to-layer="1283" to-port="3" />
		<edge from-layer="1282" from-port="0" to-layer="1283" to-port="4" />
		<edge from-layer="1283" from-port="5" to-layer="1288" to-port="0" />
		<edge from-layer="1284" from-port="0" to-layer="1285" to-port="0" />
		<edge from-layer="1285" from-port="1" to-layer="1287" to-port="0" />
		<edge from-layer="1286" from-port="0" to-layer="1287" to-port="1" />
		<edge from-layer="1287" from-port="2" to-layer="1288" to-port="1" />
		<edge from-layer="1288" from-port="2" to-layer="1289" to-port="1" />
		<edge from-layer="1289" from-port="2" to-layer="1298" to-port="0" />
		<edge from-layer="1290" from-port="1" to-layer="1293" to-port="0" />
		<edge from-layer="1290" from-port="1" to-layer="1326" to-port="0" />
		<edge from-layer="1291" from-port="0" to-layer="1293" to-port="1" />
		<edge from-layer="1292" from-port="0" to-layer="1293" to-port="2" />
		<edge from-layer="1293" from-port="3" to-layer="1297" to-port="0" />
		<edge from-layer="1294" from-port="0" to-layer="1297" to-port="1" />
		<edge from-layer="1295" from-port="0" to-layer="1297" to-port="2" />
		<edge from-layer="1296" from-port="0" to-layer="1297" to-port="3" />
		<edge from-layer="1297" from-port="4" to-layer="1298" to-port="1" />
		<edge from-layer="1298" from-port="2" to-layer="1300" to-port="0" />
		<edge from-layer="1299" from-port="0" to-layer="1300" to-port="1" />
		<edge from-layer="1300" from-port="2" to-layer="1305" to-port="0" />
		<edge from-layer="1300" from-port="2" to-layer="1309" to-port="0" />
		<edge from-layer="1300" from-port="2" to-layer="1320" to-port="0" />
		<edge from-layer="1301" from-port="0" to-layer="1305" to-port="1" />
		<edge from-layer="1302" from-port="0" to-layer="1305" to-port="2" />
		<edge from-layer="1303" from-port="0" to-layer="1305" to-port="3" />
		<edge from-layer="1304" from-port="0" to-layer="1305" to-port="4" />
		<edge from-layer="1305" from-port="5" to-layer="1307" to-port="0" />
		<edge from-layer="1306" from-port="0" to-layer="1307" to-port="2" />
		<edge from-layer="1307" from-port="3" to-layer="1317" to-port="0" />
		<edge from-layer="1308" from-port="0" to-layer="1309" to-port="2" />
		<edge from-layer="1309" from-port="3" to-layer="1311" to-port="0" />
		<edge from-layer="1310" from-port="0" to-layer="1311" to-port="1" />
		<edge from-layer="1311" from-port="2" to-layer="1316" to-port="0" />
		<edge from-layer="1312" from-port="0" to-layer="1316" to-port="1" />
		<edge from-layer="1313" from-port="0" to-layer="1316" to-port="2" />
		<edge from-layer="1314" from-port="0" to-layer="1316" to-port="3" />
		<edge from-layer="1315" from-port="0" to-layer="1316" to-port="4" />
		<edge from-layer="1316" from-port="5" to-layer="1317" to-port="1" />
		<edge from-layer="1317" from-port="2" to-layer="1318" to-port="0" />
		<edge from-layer="1318" from-port="1" to-layer="1321" to-port="0" />
		<edge from-layer="1319" from-port="0" to-layer="1320" to-port="2" />
		<edge from-layer="1320" from-port="3" to-layer="1321" to-port="1" />
		<edge from-layer="1321" from-port="2" to-layer="1323" to-port="0" />
		<edge from-layer="1322" from-port="0" to-layer="1323" to-port="1" />
		<edge from-layer="1323" from-port="2" to-layer="1329" to-port="0" />
		<edge from-layer="1324" from-port="0" to-layer="1326" to-port="1" />
		<edge from-layer="1325" from-port="0" to-layer="1326" to-port="2" />
		<edge from-layer="1326" from-port="3" to-layer="1328" to-port="0" />
		<edge from-layer="1327" from-port="0" to-layer="1328" to-port="1" />
		<edge from-layer="1328" from-port="2" to-layer="1329" to-port="1" />
		<edge from-layer="1329" from-port="2" to-layer="1331" to-port="0" />
		<edge from-layer="1330" from-port="0" to-layer="1331" to-port="1" />
		<edge from-layer="1331" from-port="2" to-layer="1336" to-port="0" />
		<edge from-layer="1332" from-port="0" to-layer="1336" to-port="1" />
		<edge from-layer="1333" from-port="0" to-layer="1336" to-port="2" />
		<edge from-layer="1334" from-port="0" to-layer="1336" to-port="3" />
		<edge from-layer="1335" from-port="0" to-layer="1336" to-port="4" />
		<edge from-layer="1336" from-port="5" to-layer="1341" to-port="0" />
		<edge from-layer="1337" from-port="0" to-layer="1338" to-port="0" />
		<edge from-layer="1338" from-port="1" to-layer="1340" to-port="0" />
		<edge from-layer="1339" from-port="0" to-layer="1340" to-port="1" />
		<edge from-layer="1340" from-port="2" to-layer="1341" to-port="1" />
		<edge from-layer="1341" from-port="2" to-layer="1342" to-port="1" />
		<edge from-layer="1342" from-port="2" to-layer="1343" to-port="1" />
		<edge from-layer="1343" from-port="2" to-layer="1347" to-port="0" />
		<edge from-layer="1343" from-port="2" to-layer="1379" to-port="0" />
		<edge from-layer="1344" from-port="0" to-layer="1378" to-port="0" />
		<edge from-layer="1345" from-port="0" to-layer="1364" to-port="0" />
		<edge from-layer="1346" from-port="0" to-layer="1347" to-port="1" />
		<edge from-layer="1347" from-port="2" to-layer="1349" to-port="0" />
		<edge from-layer="1348" from-port="0" to-layer="1349" to-port="1" />
		<edge from-layer="1349" from-port="2" to-layer="1351" to-port="0" />
		<edge from-layer="1350" from-port="0" to-layer="1351" to-port="1" />
		<edge from-layer="1351" from-port="2" to-layer="1353" to-port="0" />
		<edge from-layer="1352" from-port="0" to-layer="1353" to-port="1" />
		<edge from-layer="1353" from-port="2" to-layer="1358" to-port="0" />
		<edge from-layer="1354" from-port="0" to-layer="1358" to-port="1" />
		<edge from-layer="1355" from-port="0" to-layer="1358" to-port="2" />
		<edge from-layer="1356" from-port="0" to-layer="1358" to-port="3" />
		<edge from-layer="1357" from-port="0" to-layer="1358" to-port="4" />
		<edge from-layer="1358" from-port="5" to-layer="1363" to-port="0" />
		<edge from-layer="1359" from-port="0" to-layer="1360" to-port="0" />
		<edge from-layer="1360" from-port="1" to-layer="1362" to-port="0" />
		<edge from-layer="1361" from-port="0" to-layer="1362" to-port="1" />
		<edge from-layer="1362" from-port="2" to-layer="1363" to-port="1" />
		<edge from-layer="1363" from-port="2" to-layer="1364" to-port="1" />
		<edge from-layer="1364" from-port="2" to-layer="1365" to-port="0" />
		<edge from-layer="1365" from-port="1" to-layer="1367" to-port="0" />
		<edge from-layer="1366" from-port="0" to-layer="1367" to-port="1" />
		<edge from-layer="1367" from-port="2" to-layer="1372" to-port="0" />
		<edge from-layer="1368" from-port="0" to-layer="1372" to-port="1" />
		<edge from-layer="1369" from-port="0" to-layer="1372" to-port="2" />
		<edge from-layer="1370" from-port="0" to-layer="1372" to-port="3" />
		<edge from-layer="1371" from-port="0" to-layer="1372" to-port="4" />
		<edge from-layer="1372" from-port="5" to-layer="1377" to-port="0" />
		<edge from-layer="1373" from-port="0" to-layer="1374" to-port="0" />
		<edge from-layer="1374" from-port="1" to-layer="1376" to-port="0" />
		<edge from-layer="1375" from-port="0" to-layer="1376" to-port="1" />
		<edge from-layer="1376" from-port="2" to-layer="1377" to-port="1" />
		<edge from-layer="1377" from-port="2" to-layer="1378" to-port="1" />
		<edge from-layer="1378" from-port="2" to-layer="1379" to-port="1" />
		<edge from-layer="1379" from-port="2" to-layer="1381" to-port="0" />
		<edge from-layer="1380" from-port="0" to-layer="1381" to-port="1" />
		<edge from-layer="1381" from-port="2" to-layer="1383" to-port="0" />
		<edge from-layer="1382" from-port="0" to-layer="1383" to-port="1" />
		<edge from-layer="1383" from-port="2" to-layer="1385" to-port="0" />
		<edge from-layer="1384" from-port="0" to-layer="1385" to-port="1" />
		<edge from-layer="1385" from-port="2" to-layer="1387" to-port="0" />
		<edge from-layer="1386" from-port="0" to-layer="1387" to-port="2" />
		<edge from-layer="1387" from-port="3" to-layer="1389" to-port="0" />
		<edge from-layer="1388" from-port="0" to-layer="1389" to-port="1" />
		<edge from-layer="1389" from-port="2" to-layer="1394" to-port="0" />
		<edge from-layer="1390" from-port="0" to-layer="1394" to-port="1" />
		<edge from-layer="1391" from-port="0" to-layer="1394" to-port="2" />
		<edge from-layer="1392" from-port="0" to-layer="1394" to-port="3" />
		<edge from-layer="1393" from-port="0" to-layer="1394" to-port="4" />
		<edge from-layer="1394" from-port="5" to-layer="1399" to-port="0" />
		<edge from-layer="1395" from-port="0" to-layer="1396" to-port="0" />
		<edge from-layer="1396" from-port="1" to-layer="1398" to-port="0" />
		<edge from-layer="1397" from-port="0" to-layer="1398" to-port="1" />
		<edge from-layer="1398" from-port="2" to-layer="1399" to-port="1" />
		<edge from-layer="1399" from-port="2" to-layer="1401" to-port="0" />
		<edge from-layer="1400" from-port="0" to-layer="1401" to-port="1" />
		<edge from-layer="1401" from-port="2" to-layer="1402" to-port="0" />
		<edge from-layer="1402" from-port="1" to-layer="1403" to-port="0" />
	</edges>
	<rt_info>
		<MO_version value="2023.0.0-10926-b4452d56304-releases/2023/0" />
		<Runtime_version value="2023.0.0-10926-b4452d56304-releases/2023/0" />
		<conversion_parameters>
			<input value="data" />
			<input_model value="DIR/model_ready.onnx" />
			<input_shape value="[1, 3, 224, 224]" />
			<is_python_api_used value="False" />
			<mean_values value="[123.675, 116.28, 103.53]" />
			<model_name value="model" />
			<output value="logits" />
			<output_dir value="DIR" />
			<reverse_input_channels value="True" />
			<scale_values value="[58.395, 57.12, 57.375]" />
		</conversion_parameters>
		<legacy_frontend value="False" />
		<model_info>
			<confidence_threshold value="0.5" />
			<hierarchical value="False" />
			<hierarchical_config value="{&quot;cls_heads_info&quot;: {&quot;num_multiclass_heads&quot;: 1, &quot;num_multilabel_classes&quot;: 0, &quot;head_idx_to_logits_range&quot;: {&quot;0&quot;: [0, 2]}, &quot;num_single_label_classes&quot;: 2, &quot;class_to_group_idx&quot;: {&quot;bad&quot;: [0, 0], &quot;good&quot;: [0, 1]}, &quot;all_groups&quot;: [[&quot;bad&quot;, &quot;good&quot;]], &quot;label_to_idx&quot;: {&quot;bad&quot;: 0, &quot;good&quot;: 1}, &quot;empty_multiclass_head_indices&quot;: []}, &quot;label_tree_edges&quot;: []}" />
			<labels value="bad good" />
			<model_type value="Classification" />
			<multilabel value="False" />
			<output_raw_scores value="True" />
		</model_info>
		<nncf>
			<quantization>
				<advanced_parameters value="{}" />
				<fast_bias_correction value="True" />
				<ignored_scope value="None" />
				<model_type value="ModelType.TRANSFORMER" />
				<preset value="performance" />
				<subset_size value="80" />
				<target_device value="ANY" />
			</quantization>
		</nncf>
		<otx_config value="{&quot;type_of_model&quot;: &quot;Classification&quot;, &quot;converter_type&quot;: &quot;CLASSIFICATION&quot;, &quot;model_parameters&quot;: {&quot;multilabel&quot;: false, &quot;hierarchical&quot;: false, &quot;multihead_class_info&quot;: {}, &quot;confidence_threshold&quot;: 0.5, &quot;labels&quot;: {&quot;label_tree&quot;: {&quot;type&quot;: &quot;tree&quot;, &quot;directed&quot;: true, &quot;nodes&quot;: [&quot;0&quot;, &quot;1&quot;], &quot;edges&quot;: []}, &quot;label_groups&quot;: [{&quot;_id&quot;: &quot;666c0e082f76c0f2bf82e64e&quot;, &quot;name&quot;: &quot;labels&quot;, &quot;label_ids&quot;: [&quot;0&quot;, &quot;1&quot;], &quot;relation_type&quot;: &quot;EXCLUSIVE&quot;}], &quot;all_labels&quot;: {&quot;0&quot;: {&quot;_id&quot;: &quot;0&quot;, &quot;name&quot;: &quot;bad&quot;, &quot;color&quot;: {&quot;red&quot;: 198, &quot;green&quot;: 172, &quot;blue&quot;: 181, &quot;alpha&quot;: 255}, &quot;hotkey&quot;: &quot;&quot;, &quot;domain&quot;: &quot;CLASSIFICATION&quot;, &quot;creation_date&quot;: &quot;2024-06-14T09:31:52.405000&quot;, &quot;is_empty&quot;: false, &quot;is_anomalous&quot;: false}, &quot;1&quot;: {&quot;_id&quot;: &quot;1&quot;, &quot;name&quot;: &quot;good&quot;, &quot;color&quot;: {&quot;red&quot;: 221, &quot;green&quot;: 82, &quot;blue&quot;: 217, &quot;alpha&quot;: 255}, &quot;hotkey&quot;: &quot;&quot;, &quot;domain&quot;: &quot;CLASSIFICATION&quot;, &quot;creation_date&quot;: &quot;2024-06-14T09:31:52.405000&quot;, &quot;is_empty&quot;: false, &quot;is_anomalous&quot;: false}}}}}" />
	</rt_info>
</net>
