<?xml version="1.0"?>
<net name="torch_jit" version="11">
	<layers>
		<layer id="0" name="data" type="Parameter" version="opset1">
			<data shape="1,3,224,224" element_type="f32" />
			<output>
				<port id="0" precision="FP32" names="data">
					<dim>1</dim>
					<dim>3</dim>
					<dim>224</dim>
					<dim>224</dim>
				</port>
			</output>
		</layer>
		<layer id="1" name="Gather_6296" type="Const" version="opset1">
			<data element_type="f32" shape="1, 3, 1, 1" offset="0" size="12" />
			<rt_info>
				<attribute name="preprocessing" version="0" />
			</rt_info>
			<output>
				<port id="0" precision="FP32">
					<dim>1</dim>
					<dim>3</dim>
					<dim>1</dim>
					<dim>1</dim>
				</port>
			</output>
		</layer>
		<layer id="2" name="Multiply_6095" type="Multiply" version="opset1">
			<data auto_broadcast="numpy" />
			<input>
				<port id="0" precision="FP32">
					<dim>1</dim>
					<dim>3</dim>
					<dim>224</dim>
					<dim>224</dim>
				</port>
				<port id="1" precision="FP32">
					<dim>1</dim>
					<dim>3</dim>
					<dim>1</dim>
					<dim>1</dim>
				</port>
			</input>
			<output>
				<port id="2" precision="FP32">
					<dim>1</dim>
					<dim>3</dim>
					<dim>224</dim>
					<dim>224</dim>
				</port>
			</output>
		</layer>
		<layer id="3" name="Gather_6299" type="Const" version="opset1">
			<data element_type="f32" shape="1, 3, 1, 1" offset="12" size="12" />
			<rt_info>
				<attribute name="preprocessing" version="0" />
			</rt_info>
			<output>
				<port id="0" precision="FP32">
					<dim>1</dim>
					<dim>3</dim>
					<dim>1</dim>
					<dim>1</dim>
				</port>
			</output>
		</layer>
		<layer id="4" name="Divide_2279" type="Add" version="opset1">
			<data auto_broadcast="numpy" />
			<input>
				<port id="0" precision="FP32">
					<dim>1</dim>
					<dim>3</dim>
					<dim>224</dim>
					<dim>224</dim>
				</port>
				<port id="1" precision="FP32">
					<dim>1</dim>
					<dim>3</dim>
					<dim>1</dim>
					<dim>1</dim>
				</port>
			</input>
			<output>
				<port id="2" precision="FP32">
					<dim>1</dim>
					<dim>3</dim>
					<dim>224</dim>
					<dim>224</dim>
				</port>
			</output>
		</layer>
		<layer id="5" name="Gather_6302" type="Const" version="opset1">
			<data element_type="f32" shape="16, 3, 3, 3" offset="24" size="1728" />
			<rt_info>
				<attribute name="preprocessing" version="0" />
			</rt_info>
			<output>
				<port id="0" precision="FP32">
					<dim>16</dim>
					<dim>3</dim>
					<dim>3</dim>
					<dim>3</dim>
				</port>
			</output>
		</layer>
		<layer id="6" name="/backbone/features/features.0/features.0.0/Conv/WithoutBiases" type="Convolution" version="opset1">
			<data strides="2, 2" dilations="1, 1" pads_begin="1, 1" pads_end="1, 1" auto_pad="explicit" />
			<input>
				<port id="0" precision="FP32">
					<dim>1</dim>
					<dim>3</dim>
					<dim>224</dim>
					<dim>224</dim>
				</port>
				<port id="1" precision="FP32">
					<dim>16</dim>
					<dim>3</dim>
					<dim>3</dim>
					<dim>3</dim>
				</port>
			</input>
			<output>
				<port id="2" precision="FP32">
					<dim>1</dim>
					<dim>16</dim>
					<dim>112</dim>
					<dim>112</dim>
				</port>
			</output>
		</layer>
		<layer id="7" name="Reshape_145" type="Const" version="opset1">
			<data element_type="f32" shape="1, 16, 1, 1" offset="1752" size="64" />
			<output>
				<port id="0" precision="FP32">
					<dim>1</dim>
					<dim>16</dim>
					<dim>1</dim>
					<dim>1</dim>
				</port>
			</output>
		</layer>
		<layer id="8" name="/backbone/features/features.0/features.0.0/Conv" type="Add" version="opset1">
			<data auto_broadcast="numpy" />
			<input>
				<port id="0" precision="FP32">
					<dim>1</dim>
					<dim>16</dim>
					<dim>112</dim>
					<dim>112</dim>
				</port>
				<port id="1" precision="FP32">
					<dim>1</dim>
					<dim>16</dim>
					<dim>1</dim>
					<dim>1</dim>
				</port>
			</input>
			<output>
				<port id="2" precision="FP32" names="/backbone/features/features.0/features.0.0/Conv_output_0">
					<dim>1</dim>
					<dim>16</dim>
					<dim>112</dim>
					<dim>112</dim>
				</port>
			</output>
		</layer>
		<layer id="9" name="Constant_6303" type="Const" version="opset1">
			<data element_type="f32" shape="1, 1, 1, 1" offset="1816" size="4" />
			<output>
				<port id="0" precision="FP32">
					<dim>1</dim>
					<dim>1</dim>
					<dim>1</dim>
					<dim>1</dim>
				</port>
			</output>
		</layer>
		<layer id="10" name="/backbone/features/features.0/features.0.2/Add" type="Add" version="opset1">
			<data auto_broadcast="numpy" />
			<input>
				<port id="0" precision="FP32">
					<dim>1</dim>
					<dim>16</dim>
					<dim>112</dim>
					<dim>112</dim>
				</port>
				<port id="1" precision="FP32">
					<dim>1</dim>
					<dim>1</dim>
					<dim>1</dim>
					<dim>1</dim>
				</port>
			</input>
			<output>
				<port id="2" precision="FP32" names="/backbone/features/features.0/features.0.2/Add_output_0">
					<dim>1</dim>
					<dim>16</dim>
					<dim>112</dim>
					<dim>112</dim>
				</port>
			</output>
		</layer>
		<layer id="11" name="/backbone/features/features.0/features.0.2/Relu" type="ReLU" version="opset1">
			<input>
				<port id="0" precision="FP32">
					<dim>1</dim>
					<dim>16</dim>
					<dim>112</dim>
					<dim>112</dim>
				</port>
			</input>
			<output>
				<port id="1" precision="FP32" names="/backbone/features/features.0/features.0.2/Relu_output_0">
					<dim>1</dim>
					<dim>16</dim>
					<dim>112</dim>
					<dim>112</dim>
				</port>
			</output>
		</layer>
		<layer id="12" name="/backbone/features/features.0/features.0.2/Clip" type="Clamp" version="opset1">
			<data min="0" max="6" />
			<input>
				<port id="0" precision="FP32">
					<dim>1</dim>
					<dim>16</dim>
					<dim>112</dim>
					<dim>112</dim>
				</port>
			</input>
			<output>
				<port id="1" precision="FP32" names="/backbone/features/features.0/features.0.2/Clip_output_0">
					<dim>1</dim>
					<dim>16</dim>
					<dim>112</dim>
					<dim>112</dim>
				</port>
			</output>
		</layer>
		<layer id="13" name="/backbone/features/features.0/features.0.2/Mul" type="Multiply" version="opset1">
			<data auto_broadcast="numpy" />
			<input>
				<port id="0" precision="FP32">
					<dim>1</dim>
					<dim>16</dim>
					<dim>112</dim>
					<dim>112</dim>
				</port>
				<port id="1" precision="FP32">
					<dim>1</dim>
					<dim>16</dim>
					<dim>112</dim>
					<dim>112</dim>
				</port>
			</input>
			<output>
				<port id="2" precision="FP32" names="/backbone/features/features.0/features.0.2/Mul_output_0">
					<dim>1</dim>
					<dim>16</dim>
					<dim>112</dim>
					<dim>112</dim>
				</port>
			</output>
		</layer>
		<layer id="14" name="Constant_6304" type="Const" version="opset1">
			<data element_type="f32" shape="1, 1, 1, 1" offset="1820" size="4" />
			<output>
				<port id="0" precision="FP32">
					<dim>1</dim>
					<dim>1</dim>
					<dim>1</dim>
					<dim>1</dim>
				</port>
			</output>
		</layer>
		<layer id="15" name="/backbone/features/features.0/features.0.2/Div" type="Multiply" version="opset1">
			<data auto_broadcast="numpy" />
			<input>
				<port id="0" precision="FP32">
					<dim>1</dim>
					<dim>16</dim>
					<dim>112</dim>
					<dim>112</dim>
				</port>
				<port id="1" precision="FP32">
					<dim>1</dim>
					<dim>1</dim>
					<dim>1</dim>
					<dim>1</dim>
				</port>
			</input>
			<output>
				<port id="2" precision="FP32" names="/backbone/features/features.0/features.0.2/Div_output_0">
					<dim>1</dim>
					<dim>16</dim>
					<dim>112</dim>
					<dim>112</dim>
				</port>
			</output>
		</layer>
		<layer id="16" name="Reshape_166" type="Const" version="opset1">
			<data element_type="f32" shape="16, 1, 1, 3, 3" offset="1824" size="576" />
			<output>
				<port id="0" precision="FP32">
					<dim>16</dim>
					<dim>1</dim>
					<dim>1</dim>
					<dim>3</dim>
					<dim>3</dim>
				</port>
			</output>
		</layer>
		<layer id="17" name="/backbone/features/features.1/conv/conv.0/Conv/WithoutBiases" type="GroupConvolution" version="opset1">
			<data strides="1, 1" pads_begin="1, 1" pads_end="1, 1" dilations="1, 1" auto_pad="explicit" />
			<input>
				<port id="0" precision="FP32">
					<dim>1</dim>
					<dim>16</dim>
					<dim>112</dim>
					<dim>112</dim>
				</port>
				<port id="1" precision="FP32">
					<dim>16</dim>
					<dim>1</dim>
					<dim>1</dim>
					<dim>3</dim>
					<dim>3</dim>
				</port>
			</input>
			<output>
				<port id="2" precision="FP32">
					<dim>1</dim>
					<dim>16</dim>
					<dim>112</dim>
					<dim>112</dim>
				</port>
			</output>
		</layer>
		<layer id="18" name="Reshape_218" type="Const" version="opset1">
			<data element_type="f32" shape="1, 16, 1, 1" offset="2400" size="64" />
			<output>
				<port id="0" precision="FP32">
					<dim>1</dim>
					<dim>16</dim>
					<dim>1</dim>
					<dim>1</dim>
				</port>
			</output>
		</layer>
		<layer id="19" name="/backbone/features/features.1/conv/conv.0/Conv" type="Add" version="opset1">
			<data auto_broadcast="numpy" />
			<input>
				<port id="0" precision="FP32">
					<dim>1</dim>
					<dim>16</dim>
					<dim>112</dim>
					<dim>112</dim>
				</port>
				<port id="1" precision="FP32">
					<dim>1</dim>
					<dim>16</dim>
					<dim>1</dim>
					<dim>1</dim>
				</port>
			</input>
			<output>
				<port id="2" precision="FP32" names="/backbone/features/features.1/conv/conv.0/Conv_output_0">
					<dim>1</dim>
					<dim>16</dim>
					<dim>112</dim>
					<dim>112</dim>
				</port>
			</output>
		</layer>
		<layer id="20" name="/backbone/features/features.1/conv/conv.2/Relu" type="ReLU" version="opset1">
			<input>
				<port id="0" precision="FP32">
					<dim>1</dim>
					<dim>16</dim>
					<dim>112</dim>
					<dim>112</dim>
				</port>
			</input>
			<output>
				<port id="1" precision="FP32" names="/backbone/features/features.1/conv/conv.2/Relu_output_0">
					<dim>1</dim>
					<dim>16</dim>
					<dim>112</dim>
					<dim>112</dim>
				</port>
			</output>
		</layer>
		<layer id="21" name="onnx::Conv_914" type="Const" version="opset1">
			<data element_type="f32" shape="16, 16, 1, 1" offset="2464" size="1024" />
			<output>
				<port id="0" precision="FP32" names="onnx::Conv_914">
					<dim>16</dim>
					<dim>16</dim>
					<dim>1</dim>
					<dim>1</dim>
				</port>
			</output>
		</layer>
		<layer id="22" name="/backbone/features/features.1/conv/conv.4/Conv/WithoutBiases" type="Convolution" version="opset1">
			<data strides="1, 1" dilations="1, 1" pads_begin="0, 0" pads_end="0, 0" auto_pad="explicit" />
			<input>
				<port id="0" precision="FP32">
					<dim>1</dim>
					<dim>16</dim>
					<dim>112</dim>
					<dim>112</dim>
				</port>
				<port id="1" precision="FP32">
					<dim>16</dim>
					<dim>16</dim>
					<dim>1</dim>
					<dim>1</dim>
				</port>
			</input>
			<output>
				<port id="2" precision="FP32">
					<dim>1</dim>
					<dim>16</dim>
					<dim>112</dim>
					<dim>112</dim>
				</port>
			</output>
		</layer>
		<layer id="23" name="Reshape_234" type="Const" version="opset1">
			<data element_type="f32" shape="1, 16, 1, 1" offset="3488" size="64" />
			<output>
				<port id="0" precision="FP32">
					<dim>1</dim>
					<dim>16</dim>
					<dim>1</dim>
					<dim>1</dim>
				</port>
			</output>
		</layer>
		<layer id="24" name="/backbone/features/features.1/conv/conv.4/Conv" type="Add" version="opset1">
			<data auto_broadcast="numpy" />
			<input>
				<port id="0" precision="FP32">
					<dim>1</dim>
					<dim>16</dim>
					<dim>112</dim>
					<dim>112</dim>
				</port>
				<port id="1" precision="FP32">
					<dim>1</dim>
					<dim>16</dim>
					<dim>1</dim>
					<dim>1</dim>
				</port>
			</input>
			<output>
				<port id="2" precision="FP32" names="/backbone/features/features.1/conv/conv.4/Conv_output_0">
					<dim>1</dim>
					<dim>16</dim>
					<dim>112</dim>
					<dim>112</dim>
				</port>
			</output>
		</layer>
		<layer id="25" name="/backbone/features/features.1/Add" type="Add" version="opset1">
			<data auto_broadcast="numpy" />
			<input>
				<port id="0" precision="FP32">
					<dim>1</dim>
					<dim>16</dim>
					<dim>112</dim>
					<dim>112</dim>
				</port>
				<port id="1" precision="FP32">
					<dim>1</dim>
					<dim>16</dim>
					<dim>112</dim>
					<dim>112</dim>
				</port>
			</input>
			<output>
				<port id="2" precision="FP32" names="/backbone/features/features.1/Add_output_0">
					<dim>1</dim>
					<dim>16</dim>
					<dim>112</dim>
					<dim>112</dim>
				</port>
			</output>
		</layer>
		<layer id="26" name="onnx::Conv_917" type="Const" version="opset1">
			<data element_type="f32" shape="64, 16, 1, 1" offset="3552" size="4096" />
			<output>
				<port id="0" precision="FP32" names="onnx::Conv_917">
					<dim>64</dim>
					<dim>16</dim>
					<dim>1</dim>
					<dim>1</dim>
				</port>
			</output>
		</layer>
		<layer id="27" name="/backbone/features/features.2/conv/conv.0/Conv/WithoutBiases" type="Convolution" version="opset1">
			<data strides="1, 1" dilations="1, 1" pads_begin="0, 0" pads_end="0, 0" auto_pad="explicit" />
			<input>
				<port id="0" precision="FP32">
					<dim>1</dim>
					<dim>16</dim>
					<dim>112</dim>
					<dim>112</dim>
				</port>
				<port id="1" precision="FP32">
					<dim>64</dim>
					<dim>16</dim>
					<dim>1</dim>
					<dim>1</dim>
				</port>
			</input>
			<output>
				<port id="2" precision="FP32">
					<dim>1</dim>
					<dim>64</dim>
					<dim>112</dim>
					<dim>112</dim>
				</port>
			</output>
		</layer>
		<layer id="28" name="Reshape_250" type="Const" version="opset1">
			<data element_type="f32" shape="1, 64, 1, 1" offset="7648" size="256" />
			<output>
				<port id="0" precision="FP32">
					<dim>1</dim>
					<dim>64</dim>
					<dim>1</dim>
					<dim>1</dim>
				</port>
			</output>
		</layer>
		<layer id="29" name="/backbone/features/features.2/conv/conv.0/Conv" type="Add" version="opset1">
			<data auto_broadcast="numpy" />
			<input>
				<port id="0" precision="FP32">
					<dim>1</dim>
					<dim>64</dim>
					<dim>112</dim>
					<dim>112</dim>
				</port>
				<port id="1" precision="FP32">
					<dim>1</dim>
					<dim>64</dim>
					<dim>1</dim>
					<dim>1</dim>
				</port>
			</input>
			<output>
				<port id="2" precision="FP32" names="/backbone/features/features.2/conv/conv.0/Conv_output_0">
					<dim>1</dim>
					<dim>64</dim>
					<dim>112</dim>
					<dim>112</dim>
				</port>
			</output>
		</layer>
		<layer id="30" name="/backbone/features/features.2/conv/conv.2/Relu" type="ReLU" version="opset1">
			<input>
				<port id="0" precision="FP32">
					<dim>1</dim>
					<dim>64</dim>
					<dim>112</dim>
					<dim>112</dim>
				</port>
			</input>
			<output>
				<port id="1" precision="FP32" names="/backbone/features/features.2/conv/conv.2/Relu_output_0">
					<dim>1</dim>
					<dim>64</dim>
					<dim>112</dim>
					<dim>112</dim>
				</port>
			</output>
		</layer>
		<layer id="31" name="Reshape_262" type="Const" version="opset1">
			<data element_type="f32" shape="64, 1, 1, 3, 3" offset="7904" size="2304" />
			<output>
				<port id="0" precision="FP32">
					<dim>64</dim>
					<dim>1</dim>
					<dim>1</dim>
					<dim>3</dim>
					<dim>3</dim>
				</port>
			</output>
		</layer>
		<layer id="32" name="/backbone/features/features.2/conv/conv.3/Conv/WithoutBiases" type="GroupConvolution" version="opset1">
			<data strides="2, 2" pads_begin="1, 1" pads_end="1, 1" dilations="1, 1" auto_pad="explicit" />
			<input>
				<port id="0" precision="FP32">
					<dim>1</dim>
					<dim>64</dim>
					<dim>112</dim>
					<dim>112</dim>
				</port>
				<port id="1" precision="FP32">
					<dim>64</dim>
					<dim>1</dim>
					<dim>1</dim>
					<dim>3</dim>
					<dim>3</dim>
				</port>
			</input>
			<output>
				<port id="2" precision="FP32">
					<dim>1</dim>
					<dim>64</dim>
					<dim>56</dim>
					<dim>56</dim>
				</port>
			</output>
		</layer>
		<layer id="33" name="Reshape_314" type="Const" version="opset1">
			<data element_type="f32" shape="1, 64, 1, 1" offset="10208" size="256" />
			<output>
				<port id="0" precision="FP32">
					<dim>1</dim>
					<dim>64</dim>
					<dim>1</dim>
					<dim>1</dim>
				</port>
			</output>
		</layer>
		<layer id="34" name="/backbone/features/features.2/conv/conv.3/Conv" type="Add" version="opset1">
			<data auto_broadcast="numpy" />
			<input>
				<port id="0" precision="FP32">
					<dim>1</dim>
					<dim>64</dim>
					<dim>56</dim>
					<dim>56</dim>
				</port>
				<port id="1" precision="FP32">
					<dim>1</dim>
					<dim>64</dim>
					<dim>1</dim>
					<dim>1</dim>
				</port>
			</input>
			<output>
				<port id="2" precision="FP32" names="/backbone/features/features.2/conv/conv.3/Conv_output_0">
					<dim>1</dim>
					<dim>64</dim>
					<dim>56</dim>
					<dim>56</dim>
				</port>
			</output>
		</layer>
		<layer id="35" name="/backbone/features/features.2/conv/conv.6/Relu" type="ReLU" version="opset1">
			<input>
				<port id="0" precision="FP32">
					<dim>1</dim>
					<dim>64</dim>
					<dim>56</dim>
					<dim>56</dim>
				</port>
			</input>
			<output>
				<port id="1" precision="FP32" names="/backbone/features/features.2/conv/conv.6/Relu_output_0">
					<dim>1</dim>
					<dim>64</dim>
					<dim>56</dim>
					<dim>56</dim>
				</port>
			</output>
		</layer>
		<layer id="36" name="onnx::Conv_923" type="Const" version="opset1">
			<data element_type="f32" shape="24, 64, 1, 1" offset="10464" size="6144" />
			<output>
				<port id="0" precision="FP32" names="onnx::Conv_923">
					<dim>24</dim>
					<dim>64</dim>
					<dim>1</dim>
					<dim>1</dim>
				</port>
			</output>
		</layer>
		<layer id="37" name="/backbone/features/features.2/conv/conv.7/Conv/WithoutBiases" type="Convolution" version="opset1">
			<data strides="1, 1" dilations="1, 1" pads_begin="0, 0" pads_end="0, 0" auto_pad="explicit" />
			<input>
				<port id="0" precision="FP32">
					<dim>1</dim>
					<dim>64</dim>
					<dim>56</dim>
					<dim>56</dim>
				</port>
				<port id="1" precision="FP32">
					<dim>24</dim>
					<dim>64</dim>
					<dim>1</dim>
					<dim>1</dim>
				</port>
			</input>
			<output>
				<port id="2" precision="FP32">
					<dim>1</dim>
					<dim>24</dim>
					<dim>56</dim>
					<dim>56</dim>
				</port>
			</output>
		</layer>
		<layer id="38" name="Reshape_330" type="Const" version="opset1">
			<data element_type="f32" shape="1, 24, 1, 1" offset="16608" size="96" />
			<output>
				<port id="0" precision="FP32">
					<dim>1</dim>
					<dim>24</dim>
					<dim>1</dim>
					<dim>1</dim>
				</port>
			</output>
		</layer>
		<layer id="39" name="/backbone/features/features.2/conv/conv.7/Conv" type="Add" version="opset1">
			<data auto_broadcast="numpy" />
			<input>
				<port id="0" precision="FP32">
					<dim>1</dim>
					<dim>24</dim>
					<dim>56</dim>
					<dim>56</dim>
				</port>
				<port id="1" precision="FP32">
					<dim>1</dim>
					<dim>24</dim>
					<dim>1</dim>
					<dim>1</dim>
				</port>
			</input>
			<output>
				<port id="2" precision="FP32" names="/backbone/features/features.2/conv/conv.7/Conv_output_0">
					<dim>1</dim>
					<dim>24</dim>
					<dim>56</dim>
					<dim>56</dim>
				</port>
			</output>
		</layer>
		<layer id="40" name="onnx::Conv_926" type="Const" version="opset1">
			<data element_type="f32" shape="72, 24, 1, 1" offset="16704" size="6912" />
			<output>
				<port id="0" precision="FP32" names="onnx::Conv_926">
					<dim>72</dim>
					<dim>24</dim>
					<dim>1</dim>
					<dim>1</dim>
				</port>
			</output>
		</layer>
		<layer id="41" name="/backbone/features/features.3/conv/conv.0/Conv/WithoutBiases" type="Convolution" version="opset1">
			<data strides="1, 1" dilations="1, 1" pads_begin="0, 0" pads_end="0, 0" auto_pad="explicit" />
			<input>
				<port id="0" precision="FP32">
					<dim>1</dim>
					<dim>24</dim>
					<dim>56</dim>
					<dim>56</dim>
				</port>
				<port id="1" precision="FP32">
					<dim>72</dim>
					<dim>24</dim>
					<dim>1</dim>
					<dim>1</dim>
				</port>
			</input>
			<output>
				<port id="2" precision="FP32">
					<dim>1</dim>
					<dim>72</dim>
					<dim>56</dim>
					<dim>56</dim>
				</port>
			</output>
		</layer>
		<layer id="42" name="Reshape_345" type="Const" version="opset1">
			<data element_type="f32" shape="1, 72, 1, 1" offset="23616" size="288" />
			<output>
				<port id="0" precision="FP32">
					<dim>1</dim>
					<dim>72</dim>
					<dim>1</dim>
					<dim>1</dim>
				</port>
			</output>
		</layer>
		<layer id="43" name="/backbone/features/features.3/conv/conv.0/Conv" type="Add" version="opset1">
			<data auto_broadcast="numpy" />
			<input>
				<port id="0" precision="FP32">
					<dim>1</dim>
					<dim>72</dim>
					<dim>56</dim>
					<dim>56</dim>
				</port>
				<port id="1" precision="FP32">
					<dim>1</dim>
					<dim>72</dim>
					<dim>1</dim>
					<dim>1</dim>
				</port>
			</input>
			<output>
				<port id="2" precision="FP32" names="/backbone/features/features.3/conv/conv.0/Conv_output_0">
					<dim>1</dim>
					<dim>72</dim>
					<dim>56</dim>
					<dim>56</dim>
				</port>
			</output>
		</layer>
		<layer id="44" name="/backbone/features/features.3/conv/conv.2/Relu" type="ReLU" version="opset1">
			<input>
				<port id="0" precision="FP32">
					<dim>1</dim>
					<dim>72</dim>
					<dim>56</dim>
					<dim>56</dim>
				</port>
			</input>
			<output>
				<port id="1" precision="FP32" names="/backbone/features/features.3/conv/conv.2/Relu_output_0">
					<dim>1</dim>
					<dim>72</dim>
					<dim>56</dim>
					<dim>56</dim>
				</port>
			</output>
		</layer>
		<layer id="45" name="Reshape_357" type="Const" version="opset1">
			<data element_type="f32" shape="72, 1, 1, 3, 3" offset="23904" size="2592" />
			<output>
				<port id="0" precision="FP32">
					<dim>72</dim>
					<dim>1</dim>
					<dim>1</dim>
					<dim>3</dim>
					<dim>3</dim>
				</port>
			</output>
		</layer>
		<layer id="46" name="/backbone/features/features.3/conv/conv.3/Conv/WithoutBiases" type="GroupConvolution" version="opset1">
			<data strides="1, 1" pads_begin="1, 1" pads_end="1, 1" dilations="1, 1" auto_pad="explicit" />
			<input>
				<port id="0" precision="FP32">
					<dim>1</dim>
					<dim>72</dim>
					<dim>56</dim>
					<dim>56</dim>
				</port>
				<port id="1" precision="FP32">
					<dim>72</dim>
					<dim>1</dim>
					<dim>1</dim>
					<dim>3</dim>
					<dim>3</dim>
				</port>
			</input>
			<output>
				<port id="2" precision="FP32">
					<dim>1</dim>
					<dim>72</dim>
					<dim>56</dim>
					<dim>56</dim>
				</port>
			</output>
		</layer>
		<layer id="47" name="Reshape_409" type="Const" version="opset1">
			<data element_type="f32" shape="1, 72, 1, 1" offset="26496" size="288" />
			<output>
				<port id="0" precision="FP32">
					<dim>1</dim>
					<dim>72</dim>
					<dim>1</dim>
					<dim>1</dim>
				</port>
			</output>
		</layer>
		<layer id="48" name="/backbone/features/features.3/conv/conv.3/Conv" type="Add" version="opset1">
			<data auto_broadcast="numpy" />
			<input>
				<port id="0" precision="FP32">
					<dim>1</dim>
					<dim>72</dim>
					<dim>56</dim>
					<dim>56</dim>
				</port>
				<port id="1" precision="FP32">
					<dim>1</dim>
					<dim>72</dim>
					<dim>1</dim>
					<dim>1</dim>
				</port>
			</input>
			<output>
				<port id="2" precision="FP32" names="/backbone/features/features.3/conv/conv.3/Conv_output_0">
					<dim>1</dim>
					<dim>72</dim>
					<dim>56</dim>
					<dim>56</dim>
				</port>
			</output>
		</layer>
		<layer id="49" name="/backbone/features/features.3/conv/conv.6/Relu" type="ReLU" version="opset1">
			<input>
				<port id="0" precision="FP32">
					<dim>1</dim>
					<dim>72</dim>
					<dim>56</dim>
					<dim>56</dim>
				</port>
			</input>
			<output>
				<port id="1" precision="FP32" names="/backbone/features/features.3/conv/conv.6/Relu_output_0">
					<dim>1</dim>
					<dim>72</dim>
					<dim>56</dim>
					<dim>56</dim>
				</port>
			</output>
		</layer>
		<layer id="50" name="onnx::Conv_932" type="Const" version="opset1">
			<data element_type="f32" shape="24, 72, 1, 1" offset="26784" size="6912" />
			<output>
				<port id="0" precision="FP32" names="onnx::Conv_932">
					<dim>24</dim>
					<dim>72</dim>
					<dim>1</dim>
					<dim>1</dim>
				</port>
			</output>
		</layer>
		<layer id="51" name="/backbone/features/features.3/conv/conv.7/Conv/WithoutBiases" type="Convolution" version="opset1">
			<data strides="1, 1" dilations="1, 1" pads_begin="0, 0" pads_end="0, 0" auto_pad="explicit" />
			<input>
				<port id="0" precision="FP32">
					<dim>1</dim>
					<dim>72</dim>
					<dim>56</dim>
					<dim>56</dim>
				</port>
				<port id="1" precision="FP32">
					<dim>24</dim>
					<dim>72</dim>
					<dim>1</dim>
					<dim>1</dim>
				</port>
			</input>
			<output>
				<port id="2" precision="FP32">
					<dim>1</dim>
					<dim>24</dim>
					<dim>56</dim>
					<dim>56</dim>
				</port>
			</output>
		</layer>
		<layer id="52" name="Reshape_425" type="Const" version="opset1">
			<data element_type="f32" shape="1, 24, 1, 1" offset="33696" size="96" />
			<output>
				<port id="0" precision="FP32">
					<dim>1</dim>
					<dim>24</dim>
					<dim>1</dim>
					<dim>1</dim>
				</port>
			</output>
		</layer>
		<layer id="53" name="/backbone/features/features.3/conv/conv.7/Conv" type="Add" version="opset1">
			<data auto_broadcast="numpy" />
			<input>
				<port id="0" precision="FP32">
					<dim>1</dim>
					<dim>24</dim>
					<dim>56</dim>
					<dim>56</dim>
				</port>
				<port id="1" precision="FP32">
					<dim>1</dim>
					<dim>24</dim>
					<dim>1</dim>
					<dim>1</dim>
				</port>
			</input>
			<output>
				<port id="2" precision="FP32" names="/backbone/features/features.3/conv/conv.7/Conv_output_0">
					<dim>1</dim>
					<dim>24</dim>
					<dim>56</dim>
					<dim>56</dim>
				</port>
			</output>
		</layer>
		<layer id="54" name="/backbone/features/features.3/Add" type="Add" version="opset1">
			<data auto_broadcast="numpy" />
			<input>
				<port id="0" precision="FP32">
					<dim>1</dim>
					<dim>24</dim>
					<dim>56</dim>
					<dim>56</dim>
				</port>
				<port id="1" precision="FP32">
					<dim>1</dim>
					<dim>24</dim>
					<dim>56</dim>
					<dim>56</dim>
				</port>
			</input>
			<output>
				<port id="2" precision="FP32" names="/backbone/features/features.3/Add_output_0">
					<dim>1</dim>
					<dim>24</dim>
					<dim>56</dim>
					<dim>56</dim>
				</port>
			</output>
		</layer>
		<layer id="55" name="onnx::Conv_935" type="Const" version="opset1">
			<data element_type="f32" shape="72, 24, 1, 1" offset="33792" size="6912" />
			<output>
				<port id="0" precision="FP32" names="onnx::Conv_935">
					<dim>72</dim>
					<dim>24</dim>
					<dim>1</dim>
					<dim>1</dim>
				</port>
			</output>
		</layer>
		<layer id="56" name="/backbone/features/features.4/conv/conv.0/Conv/WithoutBiases" type="Convolution" version="opset1">
			<data strides="1, 1" dilations="1, 1" pads_begin="0, 0" pads_end="0, 0" auto_pad="explicit" />
			<input>
				<port id="0" precision="FP32">
					<dim>1</dim>
					<dim>24</dim>
					<dim>56</dim>
					<dim>56</dim>
				</port>
				<port id="1" precision="FP32">
					<dim>72</dim>
					<dim>24</dim>
					<dim>1</dim>
					<dim>1</dim>
				</port>
			</input>
			<output>
				<port id="2" precision="FP32">
					<dim>1</dim>
					<dim>72</dim>
					<dim>56</dim>
					<dim>56</dim>
				</port>
			</output>
		</layer>
		<layer id="57" name="Reshape_441" type="Const" version="opset1">
			<data element_type="f32" shape="1, 72, 1, 1" offset="40704" size="288" />
			<output>
				<port id="0" precision="FP32">
					<dim>1</dim>
					<dim>72</dim>
					<dim>1</dim>
					<dim>1</dim>
				</port>
			</output>
		</layer>
		<layer id="58" name="/backbone/features/features.4/conv/conv.0/Conv" type="Add" version="opset1">
			<data auto_broadcast="numpy" />
			<input>
				<port id="0" precision="FP32">
					<dim>1</dim>
					<dim>72</dim>
					<dim>56</dim>
					<dim>56</dim>
				</port>
				<port id="1" precision="FP32">
					<dim>1</dim>
					<dim>72</dim>
					<dim>1</dim>
					<dim>1</dim>
				</port>
			</input>
			<output>
				<port id="2" precision="FP32" names="/backbone/features/features.4/conv/conv.0/Conv_output_0">
					<dim>1</dim>
					<dim>72</dim>
					<dim>56</dim>
					<dim>56</dim>
				</port>
			</output>
		</layer>
		<layer id="59" name="/backbone/features/features.4/conv/conv.2/Relu" type="ReLU" version="opset1">
			<input>
				<port id="0" precision="FP32">
					<dim>1</dim>
					<dim>72</dim>
					<dim>56</dim>
					<dim>56</dim>
				</port>
			</input>
			<output>
				<port id="1" precision="FP32" names="/backbone/features/features.4/conv/conv.2/Relu_output_0">
					<dim>1</dim>
					<dim>72</dim>
					<dim>56</dim>
					<dim>56</dim>
				</port>
			</output>
		</layer>
		<layer id="60" name="Reshape_453" type="Const" version="opset1">
			<data element_type="f32" shape="72, 1, 1, 5, 5" offset="40992" size="7200" />
			<output>
				<port id="0" precision="FP32">
					<dim>72</dim>
					<dim>1</dim>
					<dim>1</dim>
					<dim>5</dim>
					<dim>5</dim>
				</port>
			</output>
		</layer>
		<layer id="61" name="/backbone/features/features.4/conv/conv.3/Conv/WithoutBiases" type="GroupConvolution" version="opset1">
			<data strides="2, 2" pads_begin="2, 2" pads_end="2, 2" dilations="1, 1" auto_pad="explicit" />
			<input>
				<port id="0" precision="FP32">
					<dim>1</dim>
					<dim>72</dim>
					<dim>56</dim>
					<dim>56</dim>
				</port>
				<port id="1" precision="FP32">
					<dim>72</dim>
					<dim>1</dim>
					<dim>1</dim>
					<dim>5</dim>
					<dim>5</dim>
				</port>
			</input>
			<output>
				<port id="2" precision="FP32">
					<dim>1</dim>
					<dim>72</dim>
					<dim>28</dim>
					<dim>28</dim>
				</port>
			</output>
		</layer>
		<layer id="62" name="Reshape_505" type="Const" version="opset1">
			<data element_type="f32" shape="1, 72, 1, 1" offset="48192" size="288" />
			<output>
				<port id="0" precision="FP32">
					<dim>1</dim>
					<dim>72</dim>
					<dim>1</dim>
					<dim>1</dim>
				</port>
			</output>
		</layer>
		<layer id="63" name="/backbone/features/features.4/conv/conv.3/Conv" type="Add" version="opset1">
			<data auto_broadcast="numpy" />
			<input>
				<port id="0" precision="FP32">
					<dim>1</dim>
					<dim>72</dim>
					<dim>28</dim>
					<dim>28</dim>
				</port>
				<port id="1" precision="FP32">
					<dim>1</dim>
					<dim>72</dim>
					<dim>1</dim>
					<dim>1</dim>
				</port>
			</input>
			<output>
				<port id="2" precision="FP32" names="/backbone/features/features.4/conv/conv.3/Conv_output_0">
					<dim>1</dim>
					<dim>72</dim>
					<dim>28</dim>
					<dim>28</dim>
				</port>
			</output>
		</layer>
		<layer id="64" name="Range_523" type="Const" version="opset1">
			<data element_type="i64" shape="2" offset="48480" size="16" />
			<output>
				<port id="0" precision="I64">
					<dim>2</dim>
				</port>
			</output>
		</layer>
		<layer id="65" name="/backbone/features/features.4/conv/conv.5/avg_pool/GlobalAveragePool" type="ReduceMean" version="opset1">
			<data keep_dims="true" />
			<input>
				<port id="0" precision="FP32">
					<dim>1</dim>
					<dim>72</dim>
					<dim>28</dim>
					<dim>28</dim>
				</port>
				<port id="1" precision="I64">
					<dim>2</dim>
				</port>
			</input>
			<output>
				<port id="2" precision="FP32" names="/backbone/features/features.4/conv/conv.5/avg_pool/GlobalAveragePool_output_0">
					<dim>1</dim>
					<dim>72</dim>
					<dim>1</dim>
					<dim>1</dim>
				</port>
			</output>
		</layer>
		<layer id="66" name="/backbone/features/features.4/conv/conv.5/Concat" type="Const" version="opset1">
			<data element_type="i64" shape="2" offset="48496" size="16" />
			<output>
				<port id="0" precision="I64" names="/backbone/features/features.4/conv/conv.5/Concat_output_0">
					<dim>2</dim>
				</port>
			</output>
		</layer>
		<layer id="67" name="/backbone/features/features.4/conv/conv.5/Reshape" type="Reshape" version="opset1">
			<data special_zero="true" />
			<input>
				<port id="0" precision="FP32">
					<dim>1</dim>
					<dim>72</dim>
					<dim>1</dim>
					<dim>1</dim>
				</port>
				<port id="1" precision="I64">
					<dim>2</dim>
				</port>
			</input>
			<output>
				<port id="2" precision="FP32" names="/backbone/features/features.4/conv/conv.5/Reshape_output_0">
					<dim>1</dim>
					<dim>72</dim>
				</port>
			</output>
		</layer>
		<layer id="68" name="features.4.conv.5.fc.0.weight" type="Const" version="opset1">
			<data element_type="f32" shape="24, 72" offset="48512" size="6912" />
			<output>
				<port id="0" precision="FP32" names="features.4.conv.5.fc.0.weight">
					<dim>24</dim>
					<dim>72</dim>
				</port>
			</output>
		</layer>
		<layer id="69" name="/backbone/features/features.4/conv/conv.5/fc/fc.0/Gemm/WithoutBiases" type="MatMul" version="opset1">
			<data transpose_a="false" transpose_b="true" />
			<input>
				<port id="0" precision="FP32">
					<dim>1</dim>
					<dim>72</dim>
				</port>
				<port id="1" precision="FP32">
					<dim>24</dim>
					<dim>72</dim>
				</port>
			</input>
			<output>
				<port id="2" precision="FP32">
					<dim>1</dim>
					<dim>24</dim>
				</port>
			</output>
		</layer>
		<layer id="70" name="Constant_6305" type="Const" version="opset1">
			<data element_type="f32" shape="1, 24" offset="55424" size="96" />
			<output>
				<port id="0" precision="FP32">
					<dim>1</dim>
					<dim>24</dim>
				</port>
			</output>
		</layer>
		<layer id="71" name="/backbone/features/features.4/conv/conv.5/fc/fc.0/Gemm" type="Add" version="opset1">
			<data auto_broadcast="numpy" />
			<input>
				<port id="0" precision="FP32">
					<dim>1</dim>
					<dim>24</dim>
				</port>
				<port id="1" precision="FP32">
					<dim>1</dim>
					<dim>24</dim>
				</port>
			</input>
			<output>
				<port id="2" precision="FP32" names="/backbone/features/features.4/conv/conv.5/fc/fc.0/Gemm_output_0">
					<dim>1</dim>
					<dim>24</dim>
				</port>
			</output>
		</layer>
		<layer id="72" name="/backbone/features/features.4/conv/conv.5/fc/fc.1/Relu" type="ReLU" version="opset1">
			<input>
				<port id="0" precision="FP32">
					<dim>1</dim>
					<dim>24</dim>
				</port>
			</input>
			<output>
				<port id="1" precision="FP32" names="/backbone/features/features.4/conv/conv.5/fc/fc.1/Relu_output_0">
					<dim>1</dim>
					<dim>24</dim>
				</port>
			</output>
		</layer>
		<layer id="73" name="features.4.conv.5.fc.2.weight" type="Const" version="opset1">
			<data element_type="f32" shape="72, 24" offset="55520" size="6912" />
			<output>
				<port id="0" precision="FP32" names="features.4.conv.5.fc.2.weight">
					<dim>72</dim>
					<dim>24</dim>
				</port>
			</output>
		</layer>
		<layer id="74" name="/backbone/features/features.4/conv/conv.5/fc/fc.2/Gemm/WithoutBiases" type="MatMul" version="opset1">
			<data transpose_a="false" transpose_b="true" />
			<input>
				<port id="0" precision="FP32">
					<dim>1</dim>
					<dim>24</dim>
				</port>
				<port id="1" precision="FP32">
					<dim>72</dim>
					<dim>24</dim>
				</port>
			</input>
			<output>
				<port id="2" precision="FP32">
					<dim>1</dim>
					<dim>72</dim>
				</port>
			</output>
		</layer>
		<layer id="75" name="Constant_6306" type="Const" version="opset1">
			<data element_type="f32" shape="1, 72" offset="62432" size="288" />
			<output>
				<port id="0" precision="FP32">
					<dim>1</dim>
					<dim>72</dim>
				</port>
			</output>
		</layer>
		<layer id="76" name="/backbone/features/features.4/conv/conv.5/fc/fc.3/Add" type="Add" version="opset1">
			<data auto_broadcast="numpy" />
			<input>
				<port id="0" precision="FP32">
					<dim>1</dim>
					<dim>72</dim>
				</port>
				<port id="1" precision="FP32">
					<dim>1</dim>
					<dim>72</dim>
				</port>
			</input>
			<output>
				<port id="2" precision="FP32" names="/backbone/features/features.4/conv/conv.5/fc/fc.3/Add_output_0">
					<dim>1</dim>
					<dim>72</dim>
				</port>
			</output>
		</layer>
		<layer id="77" name="/backbone/features/features.4/conv/conv.5/fc/fc.3/Relu" type="ReLU" version="opset1">
			<input>
				<port id="0" precision="FP32">
					<dim>1</dim>
					<dim>72</dim>
				</port>
			</input>
			<output>
				<port id="1" precision="FP32" names="/backbone/features/features.4/conv/conv.5/fc/fc.3/Relu_output_0">
					<dim>1</dim>
					<dim>72</dim>
				</port>
			</output>
		</layer>
		<layer id="78" name="/backbone/features/features.4/conv/conv.5/fc/fc.3/Clip" type="Clamp" version="opset1">
			<data min="0" max="6" />
			<input>
				<port id="0" precision="FP32">
					<dim>1</dim>
					<dim>72</dim>
				</port>
			</input>
			<output>
				<port id="1" precision="FP32" names="/backbone/features/features.4/conv/conv.5/fc/fc.3/Clip_output_0">
					<dim>1</dim>
					<dim>72</dim>
				</port>
			</output>
		</layer>
		<layer id="79" name="Constant_6307" type="Const" version="opset1">
			<data element_type="f32" shape="1, 1" offset="1820" size="4" />
			<output>
				<port id="0" precision="FP32">
					<dim>1</dim>
					<dim>1</dim>
				</port>
			</output>
		</layer>
		<layer id="80" name="/backbone/features/features.4/conv/conv.5/fc/fc.3/Div" type="Multiply" version="opset1">
			<data auto_broadcast="numpy" />
			<input>
				<port id="0" precision="FP32">
					<dim>1</dim>
					<dim>72</dim>
				</port>
				<port id="1" precision="FP32">
					<dim>1</dim>
					<dim>1</dim>
				</port>
			</input>
			<output>
				<port id="2" precision="FP32" names="/backbone/features/features.4/conv/conv.5/fc/fc.3/Div_output_0">
					<dim>1</dim>
					<dim>72</dim>
				</port>
			</output>
		</layer>
		<layer id="81" name="/backbone/features/features.4/conv/conv.5/Shape" type="ShapeOf" version="opset3">
			<data output_type="i64" />
			<input>
				<port id="0" precision="FP32">
					<dim>1</dim>
					<dim>72</dim>
					<dim>28</dim>
					<dim>28</dim>
				</port>
			</input>
			<output>
				<port id="1" precision="I64" names="/backbone/features/features.4/conv/conv.5/Shape_1_output_0,/backbone/features/features.4/conv/conv.5/Shape_output_0">
					<dim>4</dim>
				</port>
			</output>
		</layer>
		<layer id="82" name="Constant_5734" type="Const" version="opset1">
			<data element_type="i64" shape="2" offset="62720" size="16" />
			<output>
				<port id="0" precision="I64">
					<dim>2</dim>
				</port>
			</output>
		</layer>
		<layer id="83" name="Constant_5735" type="Const" version="opset1">
			<data element_type="i64" shape="" offset="62736" size="8" />
			<output>
				<port id="0" precision="I64" />
			</output>
		</layer>
		<layer id="84" name="Gather_5736" type="Gather" version="opset8">
			<data batch_dims="0" />
			<input>
				<port id="0" precision="I64">
					<dim>4</dim>
				</port>
				<port id="1" precision="I64">
					<dim>2</dim>
				</port>
				<port id="2" precision="I64" />
			</input>
			<output>
				<port id="3" precision="I64">
					<dim>2</dim>
				</port>
			</output>
		</layer>
		<layer id="85" name="/backbone/features/features.4/conv/conv.5/Constant_2" type="Const" version="opset1">
			<data element_type="i64" shape="1" offset="62744" size="8" />
			<output>
				<port id="0" precision="I64" names="/backbone/features/features.4/conv/conv.5/Constant_2_output_0">
					<dim>1</dim>
				</port>
			</output>
		</layer>
		<layer id="86" name="/backbone/features/features.4/conv/conv.5/Constant_3" type="Const" version="opset1">
			<data element_type="i64" shape="1" offset="62744" size="8" />
			<output>
				<port id="0" precision="I64" names="/backbone/features/features.4/conv/conv.5/Constant_3_output_0">
					<dim>1</dim>
				</port>
			</output>
		</layer>
		<layer id="87" name="/backbone/features/features.4/conv/conv.5/Concat_1" type="Concat" version="opset1">
			<data axis="0" />
			<input>
				<port id="0" precision="I64">
					<dim>2</dim>
				</port>
				<port id="1" precision="I64">
					<dim>1</dim>
				</port>
				<port id="2" precision="I64">
					<dim>1</dim>
				</port>
			</input>
			<output>
				<port id="3" precision="I64" names="/backbone/features/features.4/conv/conv.5/Concat_1_output_0">
					<dim>4</dim>
				</port>
			</output>
		</layer>
		<layer id="88" name="/backbone/features/features.4/conv/conv.5/Reshape_1" type="Reshape" version="opset1">
			<data special_zero="true" />
			<input>
				<port id="0" precision="FP32">
					<dim>1</dim>
					<dim>72</dim>
				</port>
				<port id="1" precision="I64">
					<dim>4</dim>
				</port>
			</input>
			<output>
				<port id="2" precision="FP32" names="/backbone/features/features.4/conv/conv.5/Reshape_1_output_0">
					<dim>1</dim>
					<dim>72</dim>
					<dim>1</dim>
					<dim>1</dim>
				</port>
			</output>
		</layer>
		<layer id="89" name="/backbone/features/features.4/conv/conv.5/Mul" type="Multiply" version="opset1">
			<data auto_broadcast="numpy" />
			<input>
				<port id="0" precision="FP32">
					<dim>1</dim>
					<dim>72</dim>
					<dim>28</dim>
					<dim>28</dim>
				</port>
				<port id="1" precision="FP32">
					<dim>1</dim>
					<dim>72</dim>
					<dim>1</dim>
					<dim>1</dim>
				</port>
			</input>
			<output>
				<port id="2" precision="FP32" names="/backbone/features/features.4/conv/conv.5/Mul_output_0">
					<dim>1</dim>
					<dim>72</dim>
					<dim>28</dim>
					<dim>28</dim>
				</port>
			</output>
		</layer>
		<layer id="90" name="/backbone/features/features.4/conv/conv.6/Relu" type="ReLU" version="opset1">
			<input>
				<port id="0" precision="FP32">
					<dim>1</dim>
					<dim>72</dim>
					<dim>28</dim>
					<dim>28</dim>
				</port>
			</input>
			<output>
				<port id="1" precision="FP32" names="/backbone/features/features.4/conv/conv.6/Relu_output_0">
					<dim>1</dim>
					<dim>72</dim>
					<dim>28</dim>
					<dim>28</dim>
				</port>
			</output>
		</layer>
		<layer id="91" name="onnx::Conv_941" type="Const" version="opset1">
			<data element_type="f32" shape="40, 72, 1, 1" offset="62752" size="11520" />
			<output>
				<port id="0" precision="FP32" names="onnx::Conv_941">
					<dim>40</dim>
					<dim>72</dim>
					<dim>1</dim>
					<dim>1</dim>
				</port>
			</output>
		</layer>
		<layer id="92" name="/backbone/features/features.4/conv/conv.7/Conv/WithoutBiases" type="Convolution" version="opset1">
			<data strides="1, 1" dilations="1, 1" pads_begin="0, 0" pads_end="0, 0" auto_pad="explicit" />
			<input>
				<port id="0" precision="FP32">
					<dim>1</dim>
					<dim>72</dim>
					<dim>28</dim>
					<dim>28</dim>
				</port>
				<port id="1" precision="FP32">
					<dim>40</dim>
					<dim>72</dim>
					<dim>1</dim>
					<dim>1</dim>
				</port>
			</input>
			<output>
				<port id="2" precision="FP32">
					<dim>1</dim>
					<dim>40</dim>
					<dim>28</dim>
					<dim>28</dim>
				</port>
			</output>
		</layer>
		<layer id="93" name="Reshape_580" type="Const" version="opset1">
			<data element_type="f32" shape="1, 40, 1, 1" offset="74272" size="160" />
			<output>
				<port id="0" precision="FP32">
					<dim>1</dim>
					<dim>40</dim>
					<dim>1</dim>
					<dim>1</dim>
				</port>
			</output>
		</layer>
		<layer id="94" name="/backbone/features/features.4/conv/conv.7/Conv" type="Add" version="opset1">
			<data auto_broadcast="numpy" />
			<input>
				<port id="0" precision="FP32">
					<dim>1</dim>
					<dim>40</dim>
					<dim>28</dim>
					<dim>28</dim>
				</port>
				<port id="1" precision="FP32">
					<dim>1</dim>
					<dim>40</dim>
					<dim>1</dim>
					<dim>1</dim>
				</port>
			</input>
			<output>
				<port id="2" precision="FP32" names="/backbone/features/features.4/conv/conv.7/Conv_output_0">
					<dim>1</dim>
					<dim>40</dim>
					<dim>28</dim>
					<dim>28</dim>
				</port>
			</output>
		</layer>
		<layer id="95" name="onnx::Conv_944" type="Const" version="opset1">
			<data element_type="f32" shape="120, 40, 1, 1" offset="74432" size="19200" />
			<output>
				<port id="0" precision="FP32" names="onnx::Conv_944">
					<dim>120</dim>
					<dim>40</dim>
					<dim>1</dim>
					<dim>1</dim>
				</port>
			</output>
		</layer>
		<layer id="96" name="/backbone/features/features.5/conv/conv.0/Conv/WithoutBiases" type="Convolution" version="opset1">
			<data strides="1, 1" dilations="1, 1" pads_begin="0, 0" pads_end="0, 0" auto_pad="explicit" />
			<input>
				<port id="0" precision="FP32">
					<dim>1</dim>
					<dim>40</dim>
					<dim>28</dim>
					<dim>28</dim>
				</port>
				<port id="1" precision="FP32">
					<dim>120</dim>
					<dim>40</dim>
					<dim>1</dim>
					<dim>1</dim>
				</port>
			</input>
			<output>
				<port id="2" precision="FP32">
					<dim>1</dim>
					<dim>120</dim>
					<dim>28</dim>
					<dim>28</dim>
				</port>
			</output>
		</layer>
		<layer id="97" name="Reshape_595" type="Const" version="opset1">
			<data element_type="f32" shape="1, 120, 1, 1" offset="93632" size="480" />
			<output>
				<port id="0" precision="FP32">
					<dim>1</dim>
					<dim>120</dim>
					<dim>1</dim>
					<dim>1</dim>
				</port>
			</output>
		</layer>
		<layer id="98" name="/backbone/features/features.5/conv/conv.0/Conv" type="Add" version="opset1">
			<data auto_broadcast="numpy" />
			<input>
				<port id="0" precision="FP32">
					<dim>1</dim>
					<dim>120</dim>
					<dim>28</dim>
					<dim>28</dim>
				</port>
				<port id="1" precision="FP32">
					<dim>1</dim>
					<dim>120</dim>
					<dim>1</dim>
					<dim>1</dim>
				</port>
			</input>
			<output>
				<port id="2" precision="FP32" names="/backbone/features/features.5/conv/conv.0/Conv_output_0">
					<dim>1</dim>
					<dim>120</dim>
					<dim>28</dim>
					<dim>28</dim>
				</port>
			</output>
		</layer>
		<layer id="99" name="/backbone/features/features.5/conv/conv.2/Relu" type="ReLU" version="opset1">
			<input>
				<port id="0" precision="FP32">
					<dim>1</dim>
					<dim>120</dim>
					<dim>28</dim>
					<dim>28</dim>
				</port>
			</input>
			<output>
				<port id="1" precision="FP32" names="/backbone/features/features.5/conv/conv.2/Relu_output_0">
					<dim>1</dim>
					<dim>120</dim>
					<dim>28</dim>
					<dim>28</dim>
				</port>
			</output>
		</layer>
		<layer id="100" name="Reshape_607" type="Const" version="opset1">
			<data element_type="f32" shape="120, 1, 1, 5, 5" offset="94112" size="12000" />
			<output>
				<port id="0" precision="FP32">
					<dim>120</dim>
					<dim>1</dim>
					<dim>1</dim>
					<dim>5</dim>
					<dim>5</dim>
				</port>
			</output>
		</layer>
		<layer id="101" name="/backbone/features/features.5/conv/conv.3/Conv/WithoutBiases" type="GroupConvolution" version="opset1">
			<data strides="1, 1" pads_begin="2, 2" pads_end="2, 2" dilations="1, 1" auto_pad="explicit" />
			<input>
				<port id="0" precision="FP32">
					<dim>1</dim>
					<dim>120</dim>
					<dim>28</dim>
					<dim>28</dim>
				</port>
				<port id="1" precision="FP32">
					<dim>120</dim>
					<dim>1</dim>
					<dim>1</dim>
					<dim>5</dim>
					<dim>5</dim>
				</port>
			</input>
			<output>
				<port id="2" precision="FP32">
					<dim>1</dim>
					<dim>120</dim>
					<dim>28</dim>
					<dim>28</dim>
				</port>
			</output>
		</layer>
		<layer id="102" name="Reshape_659" type="Const" version="opset1">
			<data element_type="f32" shape="1, 120, 1, 1" offset="106112" size="480" />
			<output>
				<port id="0" precision="FP32">
					<dim>1</dim>
					<dim>120</dim>
					<dim>1</dim>
					<dim>1</dim>
				</port>
			</output>
		</layer>
		<layer id="103" name="/backbone/features/features.5/conv/conv.3/Conv" type="Add" version="opset1">
			<data auto_broadcast="numpy" />
			<input>
				<port id="0" precision="FP32">
					<dim>1</dim>
					<dim>120</dim>
					<dim>28</dim>
					<dim>28</dim>
				</port>
				<port id="1" precision="FP32">
					<dim>1</dim>
					<dim>120</dim>
					<dim>1</dim>
					<dim>1</dim>
				</port>
			</input>
			<output>
				<port id="2" precision="FP32" names="/backbone/features/features.5/conv/conv.3/Conv_output_0">
					<dim>1</dim>
					<dim>120</dim>
					<dim>28</dim>
					<dim>28</dim>
				</port>
			</output>
		</layer>
		<layer id="104" name="Range_677" type="Const" version="opset1">
			<data element_type="i64" shape="2" offset="48480" size="16" />
			<output>
				<port id="0" precision="I64">
					<dim>2</dim>
				</port>
			</output>
		</layer>
		<layer id="105" name="/backbone/features/features.5/conv/conv.5/avg_pool/GlobalAveragePool" type="ReduceMean" version="opset1">
			<data keep_dims="true" />
			<input>
				<port id="0" precision="FP32">
					<dim>1</dim>
					<dim>120</dim>
					<dim>28</dim>
					<dim>28</dim>
				</port>
				<port id="1" precision="I64">
					<dim>2</dim>
				</port>
			</input>
			<output>
				<port id="2" precision="FP32" names="/backbone/features/features.5/conv/conv.5/avg_pool/GlobalAveragePool_output_0">
					<dim>1</dim>
					<dim>120</dim>
					<dim>1</dim>
					<dim>1</dim>
				</port>
			</output>
		</layer>
		<layer id="106" name="/backbone/features/features.5/conv/conv.5/Concat" type="Const" version="opset1">
			<data element_type="i64" shape="2" offset="106592" size="16" />
			<output>
				<port id="0" precision="I64" names="/backbone/features/features.5/conv/conv.5/Concat_output_0">
					<dim>2</dim>
				</port>
			</output>
		</layer>
		<layer id="107" name="/backbone/features/features.5/conv/conv.5/Reshape" type="Reshape" version="opset1">
			<data special_zero="true" />
			<input>
				<port id="0" precision="FP32">
					<dim>1</dim>
					<dim>120</dim>
					<dim>1</dim>
					<dim>1</dim>
				</port>
				<port id="1" precision="I64">
					<dim>2</dim>
				</port>
			</input>
			<output>
				<port id="2" precision="FP32" names="/backbone/features/features.5/conv/conv.5/Reshape_output_0">
					<dim>1</dim>
					<dim>120</dim>
				</port>
			</output>
		</layer>
		<layer id="108" name="features.5.conv.5.fc.0.weight" type="Const" version="opset1">
			<data element_type="f32" shape="32, 120" offset="106608" size="15360" />
			<output>
				<port id="0" precision="FP32" names="features.5.conv.5.fc.0.weight">
					<dim>32</dim>
					<dim>120</dim>
				</port>
			</output>
		</layer>
		<layer id="109" name="/backbone/features/features.5/conv/conv.5/fc/fc.0/Gemm/WithoutBiases" type="MatMul" version="opset1">
			<data transpose_a="false" transpose_b="true" />
			<input>
				<port id="0" precision="FP32">
					<dim>1</dim>
					<dim>120</dim>
				</port>
				<port id="1" precision="FP32">
					<dim>32</dim>
					<dim>120</dim>
				</port>
			</input>
			<output>
				<port id="2" precision="FP32">
					<dim>1</dim>
					<dim>32</dim>
				</port>
			</output>
		</layer>
		<layer id="110" name="Constant_6308" type="Const" version="opset1">
			<data element_type="f32" shape="1, 32" offset="121968" size="128" />
			<output>
				<port id="0" precision="FP32">
					<dim>1</dim>
					<dim>32</dim>
				</port>
			</output>
		</layer>
		<layer id="111" name="/backbone/features/features.5/conv/conv.5/fc/fc.0/Gemm" type="Add" version="opset1">
			<data auto_broadcast="numpy" />
			<input>
				<port id="0" precision="FP32">
					<dim>1</dim>
					<dim>32</dim>
				</port>
				<port id="1" precision="FP32">
					<dim>1</dim>
					<dim>32</dim>
				</port>
			</input>
			<output>
				<port id="2" precision="FP32" names="/backbone/features/features.5/conv/conv.5/fc/fc.0/Gemm_output_0">
					<dim>1</dim>
					<dim>32</dim>
				</port>
			</output>
		</layer>
		<layer id="112" name="/backbone/features/features.5/conv/conv.5/fc/fc.1/Relu" type="ReLU" version="opset1">
			<input>
				<port id="0" precision="FP32">
					<dim>1</dim>
					<dim>32</dim>
				</port>
			</input>
			<output>
				<port id="1" precision="FP32" names="/backbone/features/features.5/conv/conv.5/fc/fc.1/Relu_output_0">
					<dim>1</dim>
					<dim>32</dim>
				</port>
			</output>
		</layer>
		<layer id="113" name="features.5.conv.5.fc.2.weight" type="Const" version="opset1">
			<data element_type="f32" shape="120, 32" offset="122096" size="15360" />
			<output>
				<port id="0" precision="FP32" names="features.5.conv.5.fc.2.weight">
					<dim>120</dim>
					<dim>32</dim>
				</port>
			</output>
		</layer>
		<layer id="114" name="/backbone/features/features.5/conv/conv.5/fc/fc.2/Gemm/WithoutBiases" type="MatMul" version="opset1">
			<data transpose_a="false" transpose_b="true" />
			<input>
				<port id="0" precision="FP32">
					<dim>1</dim>
					<dim>32</dim>
				</port>
				<port id="1" precision="FP32">
					<dim>120</dim>
					<dim>32</dim>
				</port>
			</input>
			<output>
				<port id="2" precision="FP32">
					<dim>1</dim>
					<dim>120</dim>
				</port>
			</output>
		</layer>
		<layer id="115" name="Constant_6309" type="Const" version="opset1">
			<data element_type="f32" shape="1, 120" offset="137456" size="480" />
			<output>
				<port id="0" precision="FP32">
					<dim>1</dim>
					<dim>120</dim>
				</port>
			</output>
		</layer>
		<layer id="116" name="/backbone/features/features.5/conv/conv.5/fc/fc.3/Add" type="Add" version="opset1">
			<data auto_broadcast="numpy" />
			<input>
				<port id="0" precision="FP32">
					<dim>1</dim>
					<dim>120</dim>
				</port>
				<port id="1" precision="FP32">
					<dim>1</dim>
					<dim>120</dim>
				</port>
			</input>
			<output>
				<port id="2" precision="FP32" names="/backbone/features/features.5/conv/conv.5/fc/fc.3/Add_output_0">
					<dim>1</dim>
					<dim>120</dim>
				</port>
			</output>
		</layer>
		<layer id="117" name="/backbone/features/features.5/conv/conv.5/fc/fc.3/Relu" type="ReLU" version="opset1">
			<input>
				<port id="0" precision="FP32">
					<dim>1</dim>
					<dim>120</dim>
				</port>
			</input>
			<output>
				<port id="1" precision="FP32" names="/backbone/features/features.5/conv/conv.5/fc/fc.3/Relu_output_0">
					<dim>1</dim>
					<dim>120</dim>
				</port>
			</output>
		</layer>
		<layer id="118" name="/backbone/features/features.5/conv/conv.5/fc/fc.3/Clip" type="Clamp" version="opset1">
			<data min="0" max="6" />
			<input>
				<port id="0" precision="FP32">
					<dim>1</dim>
					<dim>120</dim>
				</port>
			</input>
			<output>
				<port id="1" precision="FP32" names="/backbone/features/features.5/conv/conv.5/fc/fc.3/Clip_output_0">
					<dim>1</dim>
					<dim>120</dim>
				</port>
			</output>
		</layer>
		<layer id="119" name="Constant_6310" type="Const" version="opset1">
			<data element_type="f32" shape="1, 1" offset="1820" size="4" />
			<output>
				<port id="0" precision="FP32">
					<dim>1</dim>
					<dim>1</dim>
				</port>
			</output>
		</layer>
		<layer id="120" name="/backbone/features/features.5/conv/conv.5/fc/fc.3/Div" type="Multiply" version="opset1">
			<data auto_broadcast="numpy" />
			<input>
				<port id="0" precision="FP32">
					<dim>1</dim>
					<dim>120</dim>
				</port>
				<port id="1" precision="FP32">
					<dim>1</dim>
					<dim>1</dim>
				</port>
			</input>
			<output>
				<port id="2" precision="FP32" names="/backbone/features/features.5/conv/conv.5/fc/fc.3/Div_output_0">
					<dim>1</dim>
					<dim>120</dim>
				</port>
			</output>
		</layer>
		<layer id="121" name="/backbone/features/features.5/conv/conv.5/Shape" type="ShapeOf" version="opset3">
			<data output_type="i64" />
			<input>
				<port id="0" precision="FP32">
					<dim>1</dim>
					<dim>120</dim>
					<dim>28</dim>
					<dim>28</dim>
				</port>
			</input>
			<output>
				<port id="1" precision="I64" names="/backbone/features/features.5/conv/conv.5/Shape_1_output_0,/backbone/features/features.5/conv/conv.5/Shape_output_0">
					<dim>4</dim>
				</port>
			</output>
		</layer>
		<layer id="122" name="Constant_5739" type="Const" version="opset1">
			<data element_type="i64" shape="2" offset="62720" size="16" />
			<output>
				<port id="0" precision="I64">
					<dim>2</dim>
				</port>
			</output>
		</layer>
		<layer id="123" name="Constant_5740" type="Const" version="opset1">
			<data element_type="i64" shape="" offset="62736" size="8" />
			<output>
				<port id="0" precision="I64" />
			</output>
		</layer>
		<layer id="124" name="Gather_5741" type="Gather" version="opset8">
			<data batch_dims="0" />
			<input>
				<port id="0" precision="I64">
					<dim>4</dim>
				</port>
				<port id="1" precision="I64">
					<dim>2</dim>
				</port>
				<port id="2" precision="I64" />
			</input>
			<output>
				<port id="3" precision="I64">
					<dim>2</dim>
				</port>
			</output>
		</layer>
		<layer id="125" name="/backbone/features/features.5/conv/conv.5/Constant_2" type="Const" version="opset1">
			<data element_type="i64" shape="1" offset="62744" size="8" />
			<output>
				<port id="0" precision="I64" names="/backbone/features/features.5/conv/conv.5/Constant_2_output_0">
					<dim>1</dim>
				</port>
			</output>
		</layer>
		<layer id="126" name="/backbone/features/features.5/conv/conv.5/Constant_3" type="Const" version="opset1">
			<data element_type="i64" shape="1" offset="62744" size="8" />
			<output>
				<port id="0" precision="I64" names="/backbone/features/features.5/conv/conv.5/Constant_3_output_0">
					<dim>1</dim>
				</port>
			</output>
		</layer>
		<layer id="127" name="/backbone/features/features.5/conv/conv.5/Concat_1" type="Concat" version="opset1">
			<data axis="0" />
			<input>
				<port id="0" precision="I64">
					<dim>2</dim>
				</port>
				<port id="1" precision="I64">
					<dim>1</dim>
				</port>
				<port id="2" precision="I64">
					<dim>1</dim>
				</port>
			</input>
			<output>
				<port id="3" precision="I64" names="/backbone/features/features.5/conv/conv.5/Concat_1_output_0">
					<dim>4</dim>
				</port>
			</output>
		</layer>
		<layer id="128" name="/backbone/features/features.5/conv/conv.5/Reshape_1" type="Reshape" version="opset1">
			<data special_zero="true" />
			<input>
				<port id="0" precision="FP32">
					<dim>1</dim>
					<dim>120</dim>
				</port>
				<port id="1" precision="I64">
					<dim>4</dim>
				</port>
			</input>
			<output>
				<port id="2" precision="FP32" names="/backbone/features/features.5/conv/conv.5/Reshape_1_output_0">
					<dim>1</dim>
					<dim>120</dim>
					<dim>1</dim>
					<dim>1</dim>
				</port>
			</output>
		</layer>
		<layer id="129" name="/backbone/features/features.5/conv/conv.5/Mul" type="Multiply" version="opset1">
			<data auto_broadcast="numpy" />
			<input>
				<port id="0" precision="FP32">
					<dim>1</dim>
					<dim>120</dim>
					<dim>28</dim>
					<dim>28</dim>
				</port>
				<port id="1" precision="FP32">
					<dim>1</dim>
					<dim>120</dim>
					<dim>1</dim>
					<dim>1</dim>
				</port>
			</input>
			<output>
				<port id="2" precision="FP32" names="/backbone/features/features.5/conv/conv.5/Mul_output_0">
					<dim>1</dim>
					<dim>120</dim>
					<dim>28</dim>
					<dim>28</dim>
				</port>
			</output>
		</layer>
		<layer id="130" name="/backbone/features/features.5/conv/conv.6/Relu" type="ReLU" version="opset1">
			<input>
				<port id="0" precision="FP32">
					<dim>1</dim>
					<dim>120</dim>
					<dim>28</dim>
					<dim>28</dim>
				</port>
			</input>
			<output>
				<port id="1" precision="FP32" names="/backbone/features/features.5/conv/conv.6/Relu_output_0">
					<dim>1</dim>
					<dim>120</dim>
					<dim>28</dim>
					<dim>28</dim>
				</port>
			</output>
		</layer>
		<layer id="131" name="onnx::Conv_950" type="Const" version="opset1">
			<data element_type="f32" shape="40, 120, 1, 1" offset="137936" size="19200" />
			<output>
				<port id="0" precision="FP32" names="onnx::Conv_950">
					<dim>40</dim>
					<dim>120</dim>
					<dim>1</dim>
					<dim>1</dim>
				</port>
			</output>
		</layer>
		<layer id="132" name="/backbone/features/features.5/conv/conv.7/Conv/WithoutBiases" type="Convolution" version="opset1">
			<data strides="1, 1" dilations="1, 1" pads_begin="0, 0" pads_end="0, 0" auto_pad="explicit" />
			<input>
				<port id="0" precision="FP32">
					<dim>1</dim>
					<dim>120</dim>
					<dim>28</dim>
					<dim>28</dim>
				</port>
				<port id="1" precision="FP32">
					<dim>40</dim>
					<dim>120</dim>
					<dim>1</dim>
					<dim>1</dim>
				</port>
			</input>
			<output>
				<port id="2" precision="FP32">
					<dim>1</dim>
					<dim>40</dim>
					<dim>28</dim>
					<dim>28</dim>
				</port>
			</output>
		</layer>
		<layer id="133" name="Reshape_734" type="Const" version="opset1">
			<data element_type="f32" shape="1, 40, 1, 1" offset="157136" size="160" />
			<output>
				<port id="0" precision="FP32">
					<dim>1</dim>
					<dim>40</dim>
					<dim>1</dim>
					<dim>1</dim>
				</port>
			</output>
		</layer>
		<layer id="134" name="/backbone/features/features.5/conv/conv.7/Conv" type="Add" version="opset1">
			<data auto_broadcast="numpy" />
			<input>
				<port id="0" precision="FP32">
					<dim>1</dim>
					<dim>40</dim>
					<dim>28</dim>
					<dim>28</dim>
				</port>
				<port id="1" precision="FP32">
					<dim>1</dim>
					<dim>40</dim>
					<dim>1</dim>
					<dim>1</dim>
				</port>
			</input>
			<output>
				<port id="2" precision="FP32" names="/backbone/features/features.5/conv/conv.7/Conv_output_0">
					<dim>1</dim>
					<dim>40</dim>
					<dim>28</dim>
					<dim>28</dim>
				</port>
			</output>
		</layer>
		<layer id="135" name="/backbone/features/features.5/Add" type="Add" version="opset1">
			<data auto_broadcast="numpy" />
			<input>
				<port id="0" precision="FP32">
					<dim>1</dim>
					<dim>40</dim>
					<dim>28</dim>
					<dim>28</dim>
				</port>
				<port id="1" precision="FP32">
					<dim>1</dim>
					<dim>40</dim>
					<dim>28</dim>
					<dim>28</dim>
				</port>
			</input>
			<output>
				<port id="2" precision="FP32" names="/backbone/features/features.5/Add_output_0">
					<dim>1</dim>
					<dim>40</dim>
					<dim>28</dim>
					<dim>28</dim>
				</port>
			</output>
		</layer>
		<layer id="136" name="onnx::Conv_953" type="Const" version="opset1">
			<data element_type="f32" shape="120, 40, 1, 1" offset="157296" size="19200" />
			<output>
				<port id="0" precision="FP32" names="onnx::Conv_953">
					<dim>120</dim>
					<dim>40</dim>
					<dim>1</dim>
					<dim>1</dim>
				</port>
			</output>
		</layer>
		<layer id="137" name="/backbone/features/features.6/conv/conv.0/Conv/WithoutBiases" type="Convolution" version="opset1">
			<data strides="1, 1" dilations="1, 1" pads_begin="0, 0" pads_end="0, 0" auto_pad="explicit" />
			<input>
				<port id="0" precision="FP32">
					<dim>1</dim>
					<dim>40</dim>
					<dim>28</dim>
					<dim>28</dim>
				</port>
				<port id="1" precision="FP32">
					<dim>120</dim>
					<dim>40</dim>
					<dim>1</dim>
					<dim>1</dim>
				</port>
			</input>
			<output>
				<port id="2" precision="FP32">
					<dim>1</dim>
					<dim>120</dim>
					<dim>28</dim>
					<dim>28</dim>
				</port>
			</output>
		</layer>
		<layer id="138" name="Reshape_750" type="Const" version="opset1">
			<data element_type="f32" shape="1, 120, 1, 1" offset="176496" size="480" />
			<output>
				<port id="0" precision="FP32">
					<dim>1</dim>
					<dim>120</dim>
					<dim>1</dim>
					<dim>1</dim>
				</port>
			</output>
		</layer>
		<layer id="139" name="/backbone/features/features.6/conv/conv.0/Conv" type="Add" version="opset1">
			<data auto_broadcast="numpy" />
			<input>
				<port id="0" precision="FP32">
					<dim>1</dim>
					<dim>120</dim>
					<dim>28</dim>
					<dim>28</dim>
				</port>
				<port id="1" precision="FP32">
					<dim>1</dim>
					<dim>120</dim>
					<dim>1</dim>
					<dim>1</dim>
				</port>
			</input>
			<output>
				<port id="2" precision="FP32" names="/backbone/features/features.6/conv/conv.0/Conv_output_0">
					<dim>1</dim>
					<dim>120</dim>
					<dim>28</dim>
					<dim>28</dim>
				</port>
			</output>
		</layer>
		<layer id="140" name="/backbone/features/features.6/conv/conv.2/Relu" type="ReLU" version="opset1">
			<input>
				<port id="0" precision="FP32">
					<dim>1</dim>
					<dim>120</dim>
					<dim>28</dim>
					<dim>28</dim>
				</port>
			</input>
			<output>
				<port id="1" precision="FP32" names="/backbone/features/features.6/conv/conv.2/Relu_output_0">
					<dim>1</dim>
					<dim>120</dim>
					<dim>28</dim>
					<dim>28</dim>
				</port>
			</output>
		</layer>
		<layer id="141" name="Reshape_762" type="Const" version="opset1">
			<data element_type="f32" shape="120, 1, 1, 5, 5" offset="176976" size="12000" />
			<output>
				<port id="0" precision="FP32">
					<dim>120</dim>
					<dim>1</dim>
					<dim>1</dim>
					<dim>5</dim>
					<dim>5</dim>
				</port>
			</output>
		</layer>
		<layer id="142" name="/backbone/features/features.6/conv/conv.3/Conv/WithoutBiases" type="GroupConvolution" version="opset1">
			<data strides="1, 1" pads_begin="2, 2" pads_end="2, 2" dilations="1, 1" auto_pad="explicit" />
			<input>
				<port id="0" precision="FP32">
					<dim>1</dim>
					<dim>120</dim>
					<dim>28</dim>
					<dim>28</dim>
				</port>
				<port id="1" precision="FP32">
					<dim>120</dim>
					<dim>1</dim>
					<dim>1</dim>
					<dim>5</dim>
					<dim>5</dim>
				</port>
			</input>
			<output>
				<port id="2" precision="FP32">
					<dim>1</dim>
					<dim>120</dim>
					<dim>28</dim>
					<dim>28</dim>
				</port>
			</output>
		</layer>
		<layer id="143" name="Reshape_814" type="Const" version="opset1">
			<data element_type="f32" shape="1, 120, 1, 1" offset="188976" size="480" />
			<output>
				<port id="0" precision="FP32">
					<dim>1</dim>
					<dim>120</dim>
					<dim>1</dim>
					<dim>1</dim>
				</port>
			</output>
		</layer>
		<layer id="144" name="/backbone/features/features.6/conv/conv.3/Conv" type="Add" version="opset1">
			<data auto_broadcast="numpy" />
			<input>
				<port id="0" precision="FP32">
					<dim>1</dim>
					<dim>120</dim>
					<dim>28</dim>
					<dim>28</dim>
				</port>
				<port id="1" precision="FP32">
					<dim>1</dim>
					<dim>120</dim>
					<dim>1</dim>
					<dim>1</dim>
				</port>
			</input>
			<output>
				<port id="2" precision="FP32" names="/backbone/features/features.6/conv/conv.3/Conv_output_0">
					<dim>1</dim>
					<dim>120</dim>
					<dim>28</dim>
					<dim>28</dim>
				</port>
			</output>
		</layer>
		<layer id="145" name="Range_832" type="Const" version="opset1">
			<data element_type="i64" shape="2" offset="48480" size="16" />
			<output>
				<port id="0" precision="I64">
					<dim>2</dim>
				</port>
			</output>
		</layer>
		<layer id="146" name="/backbone/features/features.6/conv/conv.5/avg_pool/GlobalAveragePool" type="ReduceMean" version="opset1">
			<data keep_dims="true" />
			<input>
				<port id="0" precision="FP32">
					<dim>1</dim>
					<dim>120</dim>
					<dim>28</dim>
					<dim>28</dim>
				</port>
				<port id="1" precision="I64">
					<dim>2</dim>
				</port>
			</input>
			<output>
				<port id="2" precision="FP32" names="/backbone/features/features.6/conv/conv.5/avg_pool/GlobalAveragePool_output_0">
					<dim>1</dim>
					<dim>120</dim>
					<dim>1</dim>
					<dim>1</dim>
				</port>
			</output>
		</layer>
		<layer id="147" name="/backbone/features/features.6/conv/conv.5/Concat" type="Const" version="opset1">
			<data element_type="i64" shape="2" offset="106592" size="16" />
			<output>
				<port id="0" precision="I64" names="/backbone/features/features.6/conv/conv.5/Concat_output_0">
					<dim>2</dim>
				</port>
			</output>
		</layer>
		<layer id="148" name="/backbone/features/features.6/conv/conv.5/Reshape" type="Reshape" version="opset1">
			<data special_zero="true" />
			<input>
				<port id="0" precision="FP32">
					<dim>1</dim>
					<dim>120</dim>
					<dim>1</dim>
					<dim>1</dim>
				</port>
				<port id="1" precision="I64">
					<dim>2</dim>
				</port>
			</input>
			<output>
				<port id="2" precision="FP32" names="/backbone/features/features.6/conv/conv.5/Reshape_output_0">
					<dim>1</dim>
					<dim>120</dim>
				</port>
			</output>
		</layer>
		<layer id="149" name="features.6.conv.5.fc.0.weight" type="Const" version="opset1">
			<data element_type="f32" shape="32, 120" offset="189456" size="15360" />
			<output>
				<port id="0" precision="FP32" names="features.6.conv.5.fc.0.weight">
					<dim>32</dim>
					<dim>120</dim>
				</port>
			</output>
		</layer>
		<layer id="150" name="/backbone/features/features.6/conv/conv.5/fc/fc.0/Gemm/WithoutBiases" type="MatMul" version="opset1">
			<data transpose_a="false" transpose_b="true" />
			<input>
				<port id="0" precision="FP32">
					<dim>1</dim>
					<dim>120</dim>
				</port>
				<port id="1" precision="FP32">
					<dim>32</dim>
					<dim>120</dim>
				</port>
			</input>
			<output>
				<port id="2" precision="FP32">
					<dim>1</dim>
					<dim>32</dim>
				</port>
			</output>
		</layer>
		<layer id="151" name="Constant_6311" type="Const" version="opset1">
			<data element_type="f32" shape="1, 32" offset="204816" size="128" />
			<output>
				<port id="0" precision="FP32">
					<dim>1</dim>
					<dim>32</dim>
				</port>
			</output>
		</layer>
		<layer id="152" name="/backbone/features/features.6/conv/conv.5/fc/fc.0/Gemm" type="Add" version="opset1">
			<data auto_broadcast="numpy" />
			<input>
				<port id="0" precision="FP32">
					<dim>1</dim>
					<dim>32</dim>
				</port>
				<port id="1" precision="FP32">
					<dim>1</dim>
					<dim>32</dim>
				</port>
			</input>
			<output>
				<port id="2" precision="FP32" names="/backbone/features/features.6/conv/conv.5/fc/fc.0/Gemm_output_0">
					<dim>1</dim>
					<dim>32</dim>
				</port>
			</output>
		</layer>
		<layer id="153" name="/backbone/features/features.6/conv/conv.5/fc/fc.1/Relu" type="ReLU" version="opset1">
			<input>
				<port id="0" precision="FP32">
					<dim>1</dim>
					<dim>32</dim>
				</port>
			</input>
			<output>
				<port id="1" precision="FP32" names="/backbone/features/features.6/conv/conv.5/fc/fc.1/Relu_output_0">
					<dim>1</dim>
					<dim>32</dim>
				</port>
			</output>
		</layer>
		<layer id="154" name="features.6.conv.5.fc.2.weight" type="Const" version="opset1">
			<data element_type="f32" shape="120, 32" offset="204944" size="15360" />
			<output>
				<port id="0" precision="FP32" names="features.6.conv.5.fc.2.weight">
					<dim>120</dim>
					<dim>32</dim>
				</port>
			</output>
		</layer>
		<layer id="155" name="/backbone/features/features.6/conv/conv.5/fc/fc.2/Gemm/WithoutBiases" type="MatMul" version="opset1">
			<data transpose_a="false" transpose_b="true" />
			<input>
				<port id="0" precision="FP32">
					<dim>1</dim>
					<dim>32</dim>
				</port>
				<port id="1" precision="FP32">
					<dim>120</dim>
					<dim>32</dim>
				</port>
			</input>
			<output>
				<port id="2" precision="FP32">
					<dim>1</dim>
					<dim>120</dim>
				</port>
			</output>
		</layer>
		<layer id="156" name="Constant_6312" type="Const" version="opset1">
			<data element_type="f32" shape="1, 120" offset="220304" size="480" />
			<output>
				<port id="0" precision="FP32">
					<dim>1</dim>
					<dim>120</dim>
				</port>
			</output>
		</layer>
		<layer id="157" name="/backbone/features/features.6/conv/conv.5/fc/fc.3/Add" type="Add" version="opset1">
			<data auto_broadcast="numpy" />
			<input>
				<port id="0" precision="FP32">
					<dim>1</dim>
					<dim>120</dim>
				</port>
				<port id="1" precision="FP32">
					<dim>1</dim>
					<dim>120</dim>
				</port>
			</input>
			<output>
				<port id="2" precision="FP32" names="/backbone/features/features.6/conv/conv.5/fc/fc.3/Add_output_0">
					<dim>1</dim>
					<dim>120</dim>
				</port>
			</output>
		</layer>
		<layer id="158" name="/backbone/features/features.6/conv/conv.5/fc/fc.3/Relu" type="ReLU" version="opset1">
			<input>
				<port id="0" precision="FP32">
					<dim>1</dim>
					<dim>120</dim>
				</port>
			</input>
			<output>
				<port id="1" precision="FP32" names="/backbone/features/features.6/conv/conv.5/fc/fc.3/Relu_output_0">
					<dim>1</dim>
					<dim>120</dim>
				</port>
			</output>
		</layer>
		<layer id="159" name="/backbone/features/features.6/conv/conv.5/fc/fc.3/Clip" type="Clamp" version="opset1">
			<data min="0" max="6" />
			<input>
				<port id="0" precision="FP32">
					<dim>1</dim>
					<dim>120</dim>
				</port>
			</input>
			<output>
				<port id="1" precision="FP32" names="/backbone/features/features.6/conv/conv.5/fc/fc.3/Clip_output_0">
					<dim>1</dim>
					<dim>120</dim>
				</port>
			</output>
		</layer>
		<layer id="160" name="Constant_6313" type="Const" version="opset1">
			<data element_type="f32" shape="1, 1" offset="1820" size="4" />
			<output>
				<port id="0" precision="FP32">
					<dim>1</dim>
					<dim>1</dim>
				</port>
			</output>
		</layer>
		<layer id="161" name="/backbone/features/features.6/conv/conv.5/fc/fc.3/Div" type="Multiply" version="opset1">
			<data auto_broadcast="numpy" />
			<input>
				<port id="0" precision="FP32">
					<dim>1</dim>
					<dim>120</dim>
				</port>
				<port id="1" precision="FP32">
					<dim>1</dim>
					<dim>1</dim>
				</port>
			</input>
			<output>
				<port id="2" precision="FP32" names="/backbone/features/features.6/conv/conv.5/fc/fc.3/Div_output_0">
					<dim>1</dim>
					<dim>120</dim>
				</port>
			</output>
		</layer>
		<layer id="162" name="/backbone/features/features.6/conv/conv.5/Shape" type="ShapeOf" version="opset3">
			<data output_type="i64" />
			<input>
				<port id="0" precision="FP32">
					<dim>1</dim>
					<dim>120</dim>
					<dim>28</dim>
					<dim>28</dim>
				</port>
			</input>
			<output>
				<port id="1" precision="I64" names="/backbone/features/features.6/conv/conv.5/Shape_1_output_0,/backbone/features/features.6/conv/conv.5/Shape_output_0">
					<dim>4</dim>
				</port>
			</output>
		</layer>
		<layer id="163" name="Constant_5744" type="Const" version="opset1">
			<data element_type="i64" shape="2" offset="62720" size="16" />
			<output>
				<port id="0" precision="I64">
					<dim>2</dim>
				</port>
			</output>
		</layer>
		<layer id="164" name="Constant_5745" type="Const" version="opset1">
			<data element_type="i64" shape="" offset="62736" size="8" />
			<output>
				<port id="0" precision="I64" />
			</output>
		</layer>
		<layer id="165" name="Gather_5746" type="Gather" version="opset8">
			<data batch_dims="0" />
			<input>
				<port id="0" precision="I64">
					<dim>4</dim>
				</port>
				<port id="1" precision="I64">
					<dim>2</dim>
				</port>
				<port id="2" precision="I64" />
			</input>
			<output>
				<port id="3" precision="I64">
					<dim>2</dim>
				</port>
			</output>
		</layer>
		<layer id="166" name="/backbone/features/features.6/conv/conv.5/Constant_2" type="Const" version="opset1">
			<data element_type="i64" shape="1" offset="62744" size="8" />
			<output>
				<port id="0" precision="I64" names="/backbone/features/features.6/conv/conv.5/Constant_2_output_0">
					<dim>1</dim>
				</port>
			</output>
		</layer>
		<layer id="167" name="/backbone/features/features.6/conv/conv.5/Constant_3" type="Const" version="opset1">
			<data element_type="i64" shape="1" offset="62744" size="8" />
			<output>
				<port id="0" precision="I64" names="/backbone/features/features.6/conv/conv.5/Constant_3_output_0">
					<dim>1</dim>
				</port>
			</output>
		</layer>
		<layer id="168" name="/backbone/features/features.6/conv/conv.5/Concat_1" type="Concat" version="opset1">
			<data axis="0" />
			<input>
				<port id="0" precision="I64">
					<dim>2</dim>
				</port>
				<port id="1" precision="I64">
					<dim>1</dim>
				</port>
				<port id="2" precision="I64">
					<dim>1</dim>
				</port>
			</input>
			<output>
				<port id="3" precision="I64" names="/backbone/features/features.6/conv/conv.5/Concat_1_output_0">
					<dim>4</dim>
				</port>
			</output>
		</layer>
		<layer id="169" name="/backbone/features/features.6/conv/conv.5/Reshape_1" type="Reshape" version="opset1">
			<data special_zero="true" />
			<input>
				<port id="0" precision="FP32">
					<dim>1</dim>
					<dim>120</dim>
				</port>
				<port id="1" precision="I64">
					<dim>4</dim>
				</port>
			</input>
			<output>
				<port id="2" precision="FP32" names="/backbone/features/features.6/conv/conv.5/Reshape_1_output_0">
					<dim>1</dim>
					<dim>120</dim>
					<dim>1</dim>
					<dim>1</dim>
				</port>
			</output>
		</layer>
		<layer id="170" name="/backbone/features/features.6/conv/conv.5/Mul" type="Multiply" version="opset1">
			<data auto_broadcast="numpy" />
			<input>
				<port id="0" precision="FP32">
					<dim>1</dim>
					<dim>120</dim>
					<dim>28</dim>
					<dim>28</dim>
				</port>
				<port id="1" precision="FP32">
					<dim>1</dim>
					<dim>120</dim>
					<dim>1</dim>
					<dim>1</dim>
				</port>
			</input>
			<output>
				<port id="2" precision="FP32" names="/backbone/features/features.6/conv/conv.5/Mul_output_0">
					<dim>1</dim>
					<dim>120</dim>
					<dim>28</dim>
					<dim>28</dim>
				</port>
			</output>
		</layer>
		<layer id="171" name="/backbone/features/features.6/conv/conv.6/Relu" type="ReLU" version="opset1">
			<input>
				<port id="0" precision="FP32">
					<dim>1</dim>
					<dim>120</dim>
					<dim>28</dim>
					<dim>28</dim>
				</port>
			</input>
			<output>
				<port id="1" precision="FP32" names="/backbone/features/features.6/conv/conv.6/Relu_output_0">
					<dim>1</dim>
					<dim>120</dim>
					<dim>28</dim>
					<dim>28</dim>
				</port>
			</output>
		</layer>
		<layer id="172" name="onnx::Conv_959" type="Const" version="opset1">
			<data element_type="f32" shape="40, 120, 1, 1" offset="220784" size="19200" />
			<output>
				<port id="0" precision="FP32" names="onnx::Conv_959">
					<dim>40</dim>
					<dim>120</dim>
					<dim>1</dim>
					<dim>1</dim>
				</port>
			</output>
		</layer>
		<layer id="173" name="/backbone/features/features.6/conv/conv.7/Conv/WithoutBiases" type="Convolution" version="opset1">
			<data strides="1, 1" dilations="1, 1" pads_begin="0, 0" pads_end="0, 0" auto_pad="explicit" />
			<input>
				<port id="0" precision="FP32">
					<dim>1</dim>
					<dim>120</dim>
					<dim>28</dim>
					<dim>28</dim>
				</port>
				<port id="1" precision="FP32">
					<dim>40</dim>
					<dim>120</dim>
					<dim>1</dim>
					<dim>1</dim>
				</port>
			</input>
			<output>
				<port id="2" precision="FP32">
					<dim>1</dim>
					<dim>40</dim>
					<dim>28</dim>
					<dim>28</dim>
				</port>
			</output>
		</layer>
		<layer id="174" name="Reshape_889" type="Const" version="opset1">
			<data element_type="f32" shape="1, 40, 1, 1" offset="239984" size="160" />
			<output>
				<port id="0" precision="FP32">
					<dim>1</dim>
					<dim>40</dim>
					<dim>1</dim>
					<dim>1</dim>
				</port>
			</output>
		</layer>
		<layer id="175" name="/backbone/features/features.6/conv/conv.7/Conv" type="Add" version="opset1">
			<data auto_broadcast="numpy" />
			<input>
				<port id="0" precision="FP32">
					<dim>1</dim>
					<dim>40</dim>
					<dim>28</dim>
					<dim>28</dim>
				</port>
				<port id="1" precision="FP32">
					<dim>1</dim>
					<dim>40</dim>
					<dim>1</dim>
					<dim>1</dim>
				</port>
			</input>
			<output>
				<port id="2" precision="FP32" names="/backbone/features/features.6/conv/conv.7/Conv_output_0">
					<dim>1</dim>
					<dim>40</dim>
					<dim>28</dim>
					<dim>28</dim>
				</port>
			</output>
		</layer>
		<layer id="176" name="/backbone/features/features.6/Add" type="Add" version="opset1">
			<data auto_broadcast="numpy" />
			<input>
				<port id="0" precision="FP32">
					<dim>1</dim>
					<dim>40</dim>
					<dim>28</dim>
					<dim>28</dim>
				</port>
				<port id="1" precision="FP32">
					<dim>1</dim>
					<dim>40</dim>
					<dim>28</dim>
					<dim>28</dim>
				</port>
			</input>
			<output>
				<port id="2" precision="FP32" names="/backbone/features/features.6/Add_output_0">
					<dim>1</dim>
					<dim>40</dim>
					<dim>28</dim>
					<dim>28</dim>
				</port>
			</output>
		</layer>
		<layer id="177" name="onnx::Conv_962" type="Const" version="opset1">
			<data element_type="f32" shape="240, 40, 1, 1" offset="240144" size="38400" />
			<output>
				<port id="0" precision="FP32" names="onnx::Conv_962">
					<dim>240</dim>
					<dim>40</dim>
					<dim>1</dim>
					<dim>1</dim>
				</port>
			</output>
		</layer>
		<layer id="178" name="/backbone/features/features.7/conv/conv.0/Conv/WithoutBiases" type="Convolution" version="opset1">
			<data strides="1, 1" dilations="1, 1" pads_begin="0, 0" pads_end="0, 0" auto_pad="explicit" />
			<input>
				<port id="0" precision="FP32">
					<dim>1</dim>
					<dim>40</dim>
					<dim>28</dim>
					<dim>28</dim>
				</port>
				<port id="1" precision="FP32">
					<dim>240</dim>
					<dim>40</dim>
					<dim>1</dim>
					<dim>1</dim>
				</port>
			</input>
			<output>
				<port id="2" precision="FP32">
					<dim>1</dim>
					<dim>240</dim>
					<dim>28</dim>
					<dim>28</dim>
				</port>
			</output>
		</layer>
		<layer id="179" name="Reshape_905" type="Const" version="opset1">
			<data element_type="f32" shape="1, 240, 1, 1" offset="278544" size="960" />
			<output>
				<port id="0" precision="FP32">
					<dim>1</dim>
					<dim>240</dim>
					<dim>1</dim>
					<dim>1</dim>
				</port>
			</output>
		</layer>
		<layer id="180" name="/backbone/features/features.7/conv/conv.0/Conv" type="Add" version="opset1">
			<data auto_broadcast="numpy" />
			<input>
				<port id="0" precision="FP32">
					<dim>1</dim>
					<dim>240</dim>
					<dim>28</dim>
					<dim>28</dim>
				</port>
				<port id="1" precision="FP32">
					<dim>1</dim>
					<dim>240</dim>
					<dim>1</dim>
					<dim>1</dim>
				</port>
			</input>
			<output>
				<port id="2" precision="FP32" names="/backbone/features/features.7/conv/conv.0/Conv_output_0">
					<dim>1</dim>
					<dim>240</dim>
					<dim>28</dim>
					<dim>28</dim>
				</port>
			</output>
		</layer>
		<layer id="181" name="Constant_6314" type="Const" version="opset1">
			<data element_type="f32" shape="1, 1, 1, 1" offset="1816" size="4" />
			<output>
				<port id="0" precision="FP32">
					<dim>1</dim>
					<dim>1</dim>
					<dim>1</dim>
					<dim>1</dim>
				</port>
			</output>
		</layer>
		<layer id="182" name="/backbone/features/features.7/conv/conv.2/Add" type="Add" version="opset1">
			<data auto_broadcast="numpy" />
			<input>
				<port id="0" precision="FP32">
					<dim>1</dim>
					<dim>240</dim>
					<dim>28</dim>
					<dim>28</dim>
				</port>
				<port id="1" precision="FP32">
					<dim>1</dim>
					<dim>1</dim>
					<dim>1</dim>
					<dim>1</dim>
				</port>
			</input>
			<output>
				<port id="2" precision="FP32" names="/backbone/features/features.7/conv/conv.2/Add_output_0">
					<dim>1</dim>
					<dim>240</dim>
					<dim>28</dim>
					<dim>28</dim>
				</port>
			</output>
		</layer>
		<layer id="183" name="/backbone/features/features.7/conv/conv.2/Relu" type="ReLU" version="opset1">
			<input>
				<port id="0" precision="FP32">
					<dim>1</dim>
					<dim>240</dim>
					<dim>28</dim>
					<dim>28</dim>
				</port>
			</input>
			<output>
				<port id="1" precision="FP32" names="/backbone/features/features.7/conv/conv.2/Relu_output_0">
					<dim>1</dim>
					<dim>240</dim>
					<dim>28</dim>
					<dim>28</dim>
				</port>
			</output>
		</layer>
		<layer id="184" name="/backbone/features/features.7/conv/conv.2/Clip" type="Clamp" version="opset1">
			<data min="0" max="6" />
			<input>
				<port id="0" precision="FP32">
					<dim>1</dim>
					<dim>240</dim>
					<dim>28</dim>
					<dim>28</dim>
				</port>
			</input>
			<output>
				<port id="1" precision="FP32" names="/backbone/features/features.7/conv/conv.2/Clip_output_0">
					<dim>1</dim>
					<dim>240</dim>
					<dim>28</dim>
					<dim>28</dim>
				</port>
			</output>
		</layer>
		<layer id="185" name="/backbone/features/features.7/conv/conv.2/Mul" type="Multiply" version="opset1">
			<data auto_broadcast="numpy" />
			<input>
				<port id="0" precision="FP32">
					<dim>1</dim>
					<dim>240</dim>
					<dim>28</dim>
					<dim>28</dim>
				</port>
				<port id="1" precision="FP32">
					<dim>1</dim>
					<dim>240</dim>
					<dim>28</dim>
					<dim>28</dim>
				</port>
			</input>
			<output>
				<port id="2" precision="FP32" names="/backbone/features/features.7/conv/conv.2/Mul_output_0">
					<dim>1</dim>
					<dim>240</dim>
					<dim>28</dim>
					<dim>28</dim>
				</port>
			</output>
		</layer>
		<layer id="186" name="Constant_6134" type="Const" version="opset1">
			<data element_type="f32" shape="240, 1, 1, 3, 3" offset="279504" size="8640" />
			<output>
				<port id="0" precision="FP32">
					<dim>240</dim>
					<dim>1</dim>
					<dim>1</dim>
					<dim>3</dim>
					<dim>3</dim>
				</port>
			</output>
		</layer>
		<layer id="187" name="/backbone/features/features.7/conv/conv.3/Conv/WithoutBiases" type="GroupConvolution" version="opset1">
			<data strides="2, 2" pads_begin="1, 1" pads_end="1, 1" dilations="1, 1" auto_pad="explicit" />
			<input>
				<port id="0" precision="FP32">
					<dim>1</dim>
					<dim>240</dim>
					<dim>28</dim>
					<dim>28</dim>
				</port>
				<port id="1" precision="FP32">
					<dim>240</dim>
					<dim>1</dim>
					<dim>1</dim>
					<dim>3</dim>
					<dim>3</dim>
				</port>
			</input>
			<output>
				<port id="2" precision="FP32">
					<dim>1</dim>
					<dim>240</dim>
					<dim>14</dim>
					<dim>14</dim>
				</port>
			</output>
		</layer>
		<layer id="188" name="Reshape_978" type="Const" version="opset1">
			<data element_type="f32" shape="1, 240, 1, 1" offset="288144" size="960" />
			<output>
				<port id="0" precision="FP32">
					<dim>1</dim>
					<dim>240</dim>
					<dim>1</dim>
					<dim>1</dim>
				</port>
			</output>
		</layer>
		<layer id="189" name="/backbone/features/features.7/conv/conv.3/Conv" type="Add" version="opset1">
			<data auto_broadcast="numpy" />
			<input>
				<port id="0" precision="FP32">
					<dim>1</dim>
					<dim>240</dim>
					<dim>14</dim>
					<dim>14</dim>
				</port>
				<port id="1" precision="FP32">
					<dim>1</dim>
					<dim>240</dim>
					<dim>1</dim>
					<dim>1</dim>
				</port>
			</input>
			<output>
				<port id="2" precision="FP32" names="/backbone/features/features.7/conv/conv.3/Conv_output_0">
					<dim>1</dim>
					<dim>240</dim>
					<dim>14</dim>
					<dim>14</dim>
				</port>
			</output>
		</layer>
		<layer id="190" name="Constant_6315" type="Const" version="opset1">
			<data element_type="f32" shape="1, 1, 1, 1" offset="1816" size="4" />
			<output>
				<port id="0" precision="FP32">
					<dim>1</dim>
					<dim>1</dim>
					<dim>1</dim>
					<dim>1</dim>
				</port>
			</output>
		</layer>
		<layer id="191" name="/backbone/features/features.7/conv/conv.6/Add" type="Add" version="opset1">
			<data auto_broadcast="numpy" />
			<input>
				<port id="0" precision="FP32">
					<dim>1</dim>
					<dim>240</dim>
					<dim>14</dim>
					<dim>14</dim>
				</port>
				<port id="1" precision="FP32">
					<dim>1</dim>
					<dim>1</dim>
					<dim>1</dim>
					<dim>1</dim>
				</port>
			</input>
			<output>
				<port id="2" precision="FP32" names="/backbone/features/features.7/conv/conv.6/Add_output_0">
					<dim>1</dim>
					<dim>240</dim>
					<dim>14</dim>
					<dim>14</dim>
				</port>
			</output>
		</layer>
		<layer id="192" name="/backbone/features/features.7/conv/conv.6/Relu" type="ReLU" version="opset1">
			<input>
				<port id="0" precision="FP32">
					<dim>1</dim>
					<dim>240</dim>
					<dim>14</dim>
					<dim>14</dim>
				</port>
			</input>
			<output>
				<port id="1" precision="FP32" names="/backbone/features/features.7/conv/conv.6/Relu_output_0">
					<dim>1</dim>
					<dim>240</dim>
					<dim>14</dim>
					<dim>14</dim>
				</port>
			</output>
		</layer>
		<layer id="193" name="/backbone/features/features.7/conv/conv.6/Clip" type="Clamp" version="opset1">
			<data min="0" max="6" />
			<input>
				<port id="0" precision="FP32">
					<dim>1</dim>
					<dim>240</dim>
					<dim>14</dim>
					<dim>14</dim>
				</port>
			</input>
			<output>
				<port id="1" precision="FP32" names="/backbone/features/features.7/conv/conv.6/Clip_output_0">
					<dim>1</dim>
					<dim>240</dim>
					<dim>14</dim>
					<dim>14</dim>
				</port>
			</output>
		</layer>
		<layer id="194" name="/backbone/features/features.7/conv/conv.6/Mul" type="Multiply" version="opset1">
			<data auto_broadcast="numpy" />
			<input>
				<port id="0" precision="FP32">
					<dim>1</dim>
					<dim>240</dim>
					<dim>14</dim>
					<dim>14</dim>
				</port>
				<port id="1" precision="FP32">
					<dim>1</dim>
					<dim>240</dim>
					<dim>14</dim>
					<dim>14</dim>
				</port>
			</input>
			<output>
				<port id="2" precision="FP32" names="/backbone/features/features.7/conv/conv.6/Mul_output_0">
					<dim>1</dim>
					<dim>240</dim>
					<dim>14</dim>
					<dim>14</dim>
				</port>
			</output>
		</layer>
		<layer id="195" name="Constant_6137" type="Const" version="opset1">
			<data element_type="f32" shape="80, 240, 1, 1" offset="289104" size="76800" />
			<output>
				<port id="0" precision="FP32">
					<dim>80</dim>
					<dim>240</dim>
					<dim>1</dim>
					<dim>1</dim>
				</port>
			</output>
		</layer>
		<layer id="196" name="/backbone/features/features.7/conv/conv.7/Conv/WithoutBiases" type="Convolution" version="opset1">
			<data strides="1, 1" dilations="1, 1" pads_begin="0, 0" pads_end="0, 0" auto_pad="explicit" />
			<input>
				<port id="0" precision="FP32">
					<dim>1</dim>
					<dim>240</dim>
					<dim>14</dim>
					<dim>14</dim>
				</port>
				<port id="1" precision="FP32">
					<dim>80</dim>
					<dim>240</dim>
					<dim>1</dim>
					<dim>1</dim>
				</port>
			</input>
			<output>
				<port id="2" precision="FP32">
					<dim>1</dim>
					<dim>80</dim>
					<dim>14</dim>
					<dim>14</dim>
				</port>
			</output>
		</layer>
		<layer id="197" name="Reshape_1003" type="Const" version="opset1">
			<data element_type="f32" shape="1, 80, 1, 1" offset="365904" size="320" />
			<output>
				<port id="0" precision="FP32">
					<dim>1</dim>
					<dim>80</dim>
					<dim>1</dim>
					<dim>1</dim>
				</port>
			</output>
		</layer>
		<layer id="198" name="/backbone/features/features.7/conv/conv.7/Conv" type="Add" version="opset1">
			<data auto_broadcast="numpy" />
			<input>
				<port id="0" precision="FP32">
					<dim>1</dim>
					<dim>80</dim>
					<dim>14</dim>
					<dim>14</dim>
				</port>
				<port id="1" precision="FP32">
					<dim>1</dim>
					<dim>80</dim>
					<dim>1</dim>
					<dim>1</dim>
				</port>
			</input>
			<output>
				<port id="2" precision="FP32" names="/backbone/features/features.7/conv/conv.7/Conv_output_0">
					<dim>1</dim>
					<dim>80</dim>
					<dim>14</dim>
					<dim>14</dim>
				</port>
			</output>
		</layer>
		<layer id="199" name="onnx::Conv_971" type="Const" version="opset1">
			<data element_type="f32" shape="200, 80, 1, 1" offset="366224" size="64000" />
			<output>
				<port id="0" precision="FP32" names="onnx::Conv_971">
					<dim>200</dim>
					<dim>80</dim>
					<dim>1</dim>
					<dim>1</dim>
				</port>
			</output>
		</layer>
		<layer id="200" name="/backbone/features/features.8/conv/conv.0/Conv/WithoutBiases" type="Convolution" version="opset1">
			<data strides="1, 1" dilations="1, 1" pads_begin="0, 0" pads_end="0, 0" auto_pad="explicit" />
			<input>
				<port id="0" precision="FP32">
					<dim>1</dim>
					<dim>80</dim>
					<dim>14</dim>
					<dim>14</dim>
				</port>
				<port id="1" precision="FP32">
					<dim>200</dim>
					<dim>80</dim>
					<dim>1</dim>
					<dim>1</dim>
				</port>
			</input>
			<output>
				<port id="2" precision="FP32">
					<dim>1</dim>
					<dim>200</dim>
					<dim>14</dim>
					<dim>14</dim>
				</port>
			</output>
		</layer>
		<layer id="201" name="Reshape_1018" type="Const" version="opset1">
			<data element_type="f32" shape="1, 200, 1, 1" offset="430224" size="800" />
			<output>
				<port id="0" precision="FP32">
					<dim>1</dim>
					<dim>200</dim>
					<dim>1</dim>
					<dim>1</dim>
				</port>
			</output>
		</layer>
		<layer id="202" name="/backbone/features/features.8/conv/conv.0/Conv" type="Add" version="opset1">
			<data auto_broadcast="numpy" />
			<input>
				<port id="0" precision="FP32">
					<dim>1</dim>
					<dim>200</dim>
					<dim>14</dim>
					<dim>14</dim>
				</port>
				<port id="1" precision="FP32">
					<dim>1</dim>
					<dim>200</dim>
					<dim>1</dim>
					<dim>1</dim>
				</port>
			</input>
			<output>
				<port id="2" precision="FP32" names="/backbone/features/features.8/conv/conv.0/Conv_output_0">
					<dim>1</dim>
					<dim>200</dim>
					<dim>14</dim>
					<dim>14</dim>
				</port>
			</output>
		</layer>
		<layer id="203" name="Constant_6316" type="Const" version="opset1">
			<data element_type="f32" shape="1, 1, 1, 1" offset="1816" size="4" />
			<output>
				<port id="0" precision="FP32">
					<dim>1</dim>
					<dim>1</dim>
					<dim>1</dim>
					<dim>1</dim>
				</port>
			</output>
		</layer>
		<layer id="204" name="/backbone/features/features.8/conv/conv.2/Add" type="Add" version="opset1">
			<data auto_broadcast="numpy" />
			<input>
				<port id="0" precision="FP32">
					<dim>1</dim>
					<dim>200</dim>
					<dim>14</dim>
					<dim>14</dim>
				</port>
				<port id="1" precision="FP32">
					<dim>1</dim>
					<dim>1</dim>
					<dim>1</dim>
					<dim>1</dim>
				</port>
			</input>
			<output>
				<port id="2" precision="FP32" names="/backbone/features/features.8/conv/conv.2/Add_output_0">
					<dim>1</dim>
					<dim>200</dim>
					<dim>14</dim>
					<dim>14</dim>
				</port>
			</output>
		</layer>
		<layer id="205" name="/backbone/features/features.8/conv/conv.2/Relu" type="ReLU" version="opset1">
			<input>
				<port id="0" precision="FP32">
					<dim>1</dim>
					<dim>200</dim>
					<dim>14</dim>
					<dim>14</dim>
				</port>
			</input>
			<output>
				<port id="1" precision="FP32" names="/backbone/features/features.8/conv/conv.2/Relu_output_0">
					<dim>1</dim>
					<dim>200</dim>
					<dim>14</dim>
					<dim>14</dim>
				</port>
			</output>
		</layer>
		<layer id="206" name="/backbone/features/features.8/conv/conv.2/Clip" type="Clamp" version="opset1">
			<data min="0" max="6" />
			<input>
				<port id="0" precision="FP32">
					<dim>1</dim>
					<dim>200</dim>
					<dim>14</dim>
					<dim>14</dim>
				</port>
			</input>
			<output>
				<port id="1" precision="FP32" names="/backbone/features/features.8/conv/conv.2/Clip_output_0">
					<dim>1</dim>
					<dim>200</dim>
					<dim>14</dim>
					<dim>14</dim>
				</port>
			</output>
		</layer>
		<layer id="207" name="/backbone/features/features.8/conv/conv.2/Mul" type="Multiply" version="opset1">
			<data auto_broadcast="numpy" />
			<input>
				<port id="0" precision="FP32">
					<dim>1</dim>
					<dim>200</dim>
					<dim>14</dim>
					<dim>14</dim>
				</port>
				<port id="1" precision="FP32">
					<dim>1</dim>
					<dim>200</dim>
					<dim>14</dim>
					<dim>14</dim>
				</port>
			</input>
			<output>
				<port id="2" precision="FP32" names="/backbone/features/features.8/conv/conv.2/Mul_output_0">
					<dim>1</dim>
					<dim>200</dim>
					<dim>14</dim>
					<dim>14</dim>
				</port>
			</output>
		</layer>
		<layer id="208" name="Constant_6140" type="Const" version="opset1">
			<data element_type="f32" shape="200, 1, 1, 3, 3" offset="431024" size="7200" />
			<output>
				<port id="0" precision="FP32">
					<dim>200</dim>
					<dim>1</dim>
					<dim>1</dim>
					<dim>3</dim>
					<dim>3</dim>
				</port>
			</output>
		</layer>
		<layer id="209" name="/backbone/features/features.8/conv/conv.3/Conv/WithoutBiases" type="GroupConvolution" version="opset1">
			<data strides="1, 1" pads_begin="1, 1" pads_end="1, 1" dilations="1, 1" auto_pad="explicit" />
			<input>
				<port id="0" precision="FP32">
					<dim>1</dim>
					<dim>200</dim>
					<dim>14</dim>
					<dim>14</dim>
				</port>
				<port id="1" precision="FP32">
					<dim>200</dim>
					<dim>1</dim>
					<dim>1</dim>
					<dim>3</dim>
					<dim>3</dim>
				</port>
			</input>
			<output>
				<port id="2" precision="FP32">
					<dim>1</dim>
					<dim>200</dim>
					<dim>14</dim>
					<dim>14</dim>
				</port>
			</output>
		</layer>
		<layer id="210" name="Reshape_1091" type="Const" version="opset1">
			<data element_type="f32" shape="1, 200, 1, 1" offset="438224" size="800" />
			<output>
				<port id="0" precision="FP32">
					<dim>1</dim>
					<dim>200</dim>
					<dim>1</dim>
					<dim>1</dim>
				</port>
			</output>
		</layer>
		<layer id="211" name="/backbone/features/features.8/conv/conv.3/Conv" type="Add" version="opset1">
			<data auto_broadcast="numpy" />
			<input>
				<port id="0" precision="FP32">
					<dim>1</dim>
					<dim>200</dim>
					<dim>14</dim>
					<dim>14</dim>
				</port>
				<port id="1" precision="FP32">
					<dim>1</dim>
					<dim>200</dim>
					<dim>1</dim>
					<dim>1</dim>
				</port>
			</input>
			<output>
				<port id="2" precision="FP32" names="/backbone/features/features.8/conv/conv.3/Conv_output_0">
					<dim>1</dim>
					<dim>200</dim>
					<dim>14</dim>
					<dim>14</dim>
				</port>
			</output>
		</layer>
		<layer id="212" name="Constant_6317" type="Const" version="opset1">
			<data element_type="f32" shape="1, 1, 1, 1" offset="1816" size="4" />
			<output>
				<port id="0" precision="FP32">
					<dim>1</dim>
					<dim>1</dim>
					<dim>1</dim>
					<dim>1</dim>
				</port>
			</output>
		</layer>
		<layer id="213" name="/backbone/features/features.8/conv/conv.6/Add" type="Add" version="opset1">
			<data auto_broadcast="numpy" />
			<input>
				<port id="0" precision="FP32">
					<dim>1</dim>
					<dim>200</dim>
					<dim>14</dim>
					<dim>14</dim>
				</port>
				<port id="1" precision="FP32">
					<dim>1</dim>
					<dim>1</dim>
					<dim>1</dim>
					<dim>1</dim>
				</port>
			</input>
			<output>
				<port id="2" precision="FP32" names="/backbone/features/features.8/conv/conv.6/Add_output_0">
					<dim>1</dim>
					<dim>200</dim>
					<dim>14</dim>
					<dim>14</dim>
				</port>
			</output>
		</layer>
		<layer id="214" name="/backbone/features/features.8/conv/conv.6/Relu" type="ReLU" version="opset1">
			<input>
				<port id="0" precision="FP32">
					<dim>1</dim>
					<dim>200</dim>
					<dim>14</dim>
					<dim>14</dim>
				</port>
			</input>
			<output>
				<port id="1" precision="FP32" names="/backbone/features/features.8/conv/conv.6/Relu_output_0">
					<dim>1</dim>
					<dim>200</dim>
					<dim>14</dim>
					<dim>14</dim>
				</port>
			</output>
		</layer>
		<layer id="215" name="/backbone/features/features.8/conv/conv.6/Clip" type="Clamp" version="opset1">
			<data min="0" max="6" />
			<input>
				<port id="0" precision="FP32">
					<dim>1</dim>
					<dim>200</dim>
					<dim>14</dim>
					<dim>14</dim>
				</port>
			</input>
			<output>
				<port id="1" precision="FP32" names="/backbone/features/features.8/conv/conv.6/Clip_output_0">
					<dim>1</dim>
					<dim>200</dim>
					<dim>14</dim>
					<dim>14</dim>
				</port>
			</output>
		</layer>
		<layer id="216" name="/backbone/features/features.8/conv/conv.6/Mul" type="Multiply" version="opset1">
			<data auto_broadcast="numpy" />
			<input>
				<port id="0" precision="FP32">
					<dim>1</dim>
					<dim>200</dim>
					<dim>14</dim>
					<dim>14</dim>
				</port>
				<port id="1" precision="FP32">
					<dim>1</dim>
					<dim>200</dim>
					<dim>14</dim>
					<dim>14</dim>
				</port>
			</input>
			<output>
				<port id="2" precision="FP32" names="/backbone/features/features.8/conv/conv.6/Mul_output_0">
					<dim>1</dim>
					<dim>200</dim>
					<dim>14</dim>
					<dim>14</dim>
				</port>
			</output>
		</layer>
		<layer id="217" name="Constant_6143" type="Const" version="opset1">
			<data element_type="f32" shape="80, 200, 1, 1" offset="439024" size="64000" />
			<output>
				<port id="0" precision="FP32">
					<dim>80</dim>
					<dim>200</dim>
					<dim>1</dim>
					<dim>1</dim>
				</port>
			</output>
		</layer>
		<layer id="218" name="/backbone/features/features.8/conv/conv.7/Conv/WithoutBiases" type="Convolution" version="opset1">
			<data strides="1, 1" dilations="1, 1" pads_begin="0, 0" pads_end="0, 0" auto_pad="explicit" />
			<input>
				<port id="0" precision="FP32">
					<dim>1</dim>
					<dim>200</dim>
					<dim>14</dim>
					<dim>14</dim>
				</port>
				<port id="1" precision="FP32">
					<dim>80</dim>
					<dim>200</dim>
					<dim>1</dim>
					<dim>1</dim>
				</port>
			</input>
			<output>
				<port id="2" precision="FP32">
					<dim>1</dim>
					<dim>80</dim>
					<dim>14</dim>
					<dim>14</dim>
				</port>
			</output>
		</layer>
		<layer id="219" name="Reshape_1116" type="Const" version="opset1">
			<data element_type="f32" shape="1, 80, 1, 1" offset="503024" size="320" />
			<output>
				<port id="0" precision="FP32">
					<dim>1</dim>
					<dim>80</dim>
					<dim>1</dim>
					<dim>1</dim>
				</port>
			</output>
		</layer>
		<layer id="220" name="/backbone/features/features.8/conv/conv.7/Conv" type="Add" version="opset1">
			<data auto_broadcast="numpy" />
			<input>
				<port id="0" precision="FP32">
					<dim>1</dim>
					<dim>80</dim>
					<dim>14</dim>
					<dim>14</dim>
				</port>
				<port id="1" precision="FP32">
					<dim>1</dim>
					<dim>80</dim>
					<dim>1</dim>
					<dim>1</dim>
				</port>
			</input>
			<output>
				<port id="2" precision="FP32" names="/backbone/features/features.8/conv/conv.7/Conv_output_0">
					<dim>1</dim>
					<dim>80</dim>
					<dim>14</dim>
					<dim>14</dim>
				</port>
			</output>
		</layer>
		<layer id="221" name="/backbone/features/features.8/Add" type="Add" version="opset1">
			<data auto_broadcast="numpy" />
			<input>
				<port id="0" precision="FP32">
					<dim>1</dim>
					<dim>80</dim>
					<dim>14</dim>
					<dim>14</dim>
				</port>
				<port id="1" precision="FP32">
					<dim>1</dim>
					<dim>80</dim>
					<dim>14</dim>
					<dim>14</dim>
				</port>
			</input>
			<output>
				<port id="2" precision="FP32" names="/backbone/features/features.8/Add_output_0">
					<dim>1</dim>
					<dim>80</dim>
					<dim>14</dim>
					<dim>14</dim>
				</port>
			</output>
		</layer>
		<layer id="222" name="onnx::Conv_980" type="Const" version="opset1">
			<data element_type="f32" shape="184, 80, 1, 1" offset="503344" size="58880" />
			<output>
				<port id="0" precision="FP32" names="onnx::Conv_980">
					<dim>184</dim>
					<dim>80</dim>
					<dim>1</dim>
					<dim>1</dim>
				</port>
			</output>
		</layer>
		<layer id="223" name="/backbone/features/features.9/conv/conv.0/Conv/WithoutBiases" type="Convolution" version="opset1">
			<data strides="1, 1" dilations="1, 1" pads_begin="0, 0" pads_end="0, 0" auto_pad="explicit" />
			<input>
				<port id="0" precision="FP32">
					<dim>1</dim>
					<dim>80</dim>
					<dim>14</dim>
					<dim>14</dim>
				</port>
				<port id="1" precision="FP32">
					<dim>184</dim>
					<dim>80</dim>
					<dim>1</dim>
					<dim>1</dim>
				</port>
			</input>
			<output>
				<port id="2" precision="FP32">
					<dim>1</dim>
					<dim>184</dim>
					<dim>14</dim>
					<dim>14</dim>
				</port>
			</output>
		</layer>
		<layer id="224" name="Reshape_1132" type="Const" version="opset1">
			<data element_type="f32" shape="1, 184, 1, 1" offset="562224" size="736" />
			<output>
				<port id="0" precision="FP32">
					<dim>1</dim>
					<dim>184</dim>
					<dim>1</dim>
					<dim>1</dim>
				</port>
			</output>
		</layer>
		<layer id="225" name="/backbone/features/features.9/conv/conv.0/Conv" type="Add" version="opset1">
			<data auto_broadcast="numpy" />
			<input>
				<port id="0" precision="FP32">
					<dim>1</dim>
					<dim>184</dim>
					<dim>14</dim>
					<dim>14</dim>
				</port>
				<port id="1" precision="FP32">
					<dim>1</dim>
					<dim>184</dim>
					<dim>1</dim>
					<dim>1</dim>
				</port>
			</input>
			<output>
				<port id="2" precision="FP32" names="/backbone/features/features.9/conv/conv.0/Conv_output_0">
					<dim>1</dim>
					<dim>184</dim>
					<dim>14</dim>
					<dim>14</dim>
				</port>
			</output>
		</layer>
		<layer id="226" name="Constant_6318" type="Const" version="opset1">
			<data element_type="f32" shape="1, 1, 1, 1" offset="1816" size="4" />
			<output>
				<port id="0" precision="FP32">
					<dim>1</dim>
					<dim>1</dim>
					<dim>1</dim>
					<dim>1</dim>
				</port>
			</output>
		</layer>
		<layer id="227" name="/backbone/features/features.9/conv/conv.2/Add" type="Add" version="opset1">
			<data auto_broadcast="numpy" />
			<input>
				<port id="0" precision="FP32">
					<dim>1</dim>
					<dim>184</dim>
					<dim>14</dim>
					<dim>14</dim>
				</port>
				<port id="1" precision="FP32">
					<dim>1</dim>
					<dim>1</dim>
					<dim>1</dim>
					<dim>1</dim>
				</port>
			</input>
			<output>
				<port id="2" precision="FP32" names="/backbone/features/features.9/conv/conv.2/Add_output_0">
					<dim>1</dim>
					<dim>184</dim>
					<dim>14</dim>
					<dim>14</dim>
				</port>
			</output>
		</layer>
		<layer id="228" name="/backbone/features/features.9/conv/conv.2/Relu" type="ReLU" version="opset1">
			<input>
				<port id="0" precision="FP32">
					<dim>1</dim>
					<dim>184</dim>
					<dim>14</dim>
					<dim>14</dim>
				</port>
			</input>
			<output>
				<port id="1" precision="FP32" names="/backbone/features/features.9/conv/conv.2/Relu_output_0">
					<dim>1</dim>
					<dim>184</dim>
					<dim>14</dim>
					<dim>14</dim>
				</port>
			</output>
		</layer>
		<layer id="229" name="/backbone/features/features.9/conv/conv.2/Clip" type="Clamp" version="opset1">
			<data min="0" max="6" />
			<input>
				<port id="0" precision="FP32">
					<dim>1</dim>
					<dim>184</dim>
					<dim>14</dim>
					<dim>14</dim>
				</port>
			</input>
			<output>
				<port id="1" precision="FP32" names="/backbone/features/features.9/conv/conv.2/Clip_output_0">
					<dim>1</dim>
					<dim>184</dim>
					<dim>14</dim>
					<dim>14</dim>
				</port>
			</output>
		</layer>
		<layer id="230" name="/backbone/features/features.9/conv/conv.2/Mul" type="Multiply" version="opset1">
			<data auto_broadcast="numpy" />
			<input>
				<port id="0" precision="FP32">
					<dim>1</dim>
					<dim>184</dim>
					<dim>14</dim>
					<dim>14</dim>
				</port>
				<port id="1" precision="FP32">
					<dim>1</dim>
					<dim>184</dim>
					<dim>14</dim>
					<dim>14</dim>
				</port>
			</input>
			<output>
				<port id="2" precision="FP32" names="/backbone/features/features.9/conv/conv.2/Mul_output_0">
					<dim>1</dim>
					<dim>184</dim>
					<dim>14</dim>
					<dim>14</dim>
				</port>
			</output>
		</layer>
		<layer id="231" name="Constant_6146" type="Const" version="opset1">
			<data element_type="f32" shape="184, 1, 1, 3, 3" offset="562960" size="6624" />
			<output>
				<port id="0" precision="FP32">
					<dim>184</dim>
					<dim>1</dim>
					<dim>1</dim>
					<dim>3</dim>
					<dim>3</dim>
				</port>
			</output>
		</layer>
		<layer id="232" name="/backbone/features/features.9/conv/conv.3/Conv/WithoutBiases" type="GroupConvolution" version="opset1">
			<data strides="1, 1" pads_begin="1, 1" pads_end="1, 1" dilations="1, 1" auto_pad="explicit" />
			<input>
				<port id="0" precision="FP32">
					<dim>1</dim>
					<dim>184</dim>
					<dim>14</dim>
					<dim>14</dim>
				</port>
				<port id="1" precision="FP32">
					<dim>184</dim>
					<dim>1</dim>
					<dim>1</dim>
					<dim>3</dim>
					<dim>3</dim>
				</port>
			</input>
			<output>
				<port id="2" precision="FP32">
					<dim>1</dim>
					<dim>184</dim>
					<dim>14</dim>
					<dim>14</dim>
				</port>
			</output>
		</layer>
		<layer id="233" name="Reshape_1205" type="Const" version="opset1">
			<data element_type="f32" shape="1, 184, 1, 1" offset="569584" size="736" />
			<output>
				<port id="0" precision="FP32">
					<dim>1</dim>
					<dim>184</dim>
					<dim>1</dim>
					<dim>1</dim>
				</port>
			</output>
		</layer>
		<layer id="234" name="/backbone/features/features.9/conv/conv.3/Conv" type="Add" version="opset1">
			<data auto_broadcast="numpy" />
			<input>
				<port id="0" precision="FP32">
					<dim>1</dim>
					<dim>184</dim>
					<dim>14</dim>
					<dim>14</dim>
				</port>
				<port id="1" precision="FP32">
					<dim>1</dim>
					<dim>184</dim>
					<dim>1</dim>
					<dim>1</dim>
				</port>
			</input>
			<output>
				<port id="2" precision="FP32" names="/backbone/features/features.9/conv/conv.3/Conv_output_0">
					<dim>1</dim>
					<dim>184</dim>
					<dim>14</dim>
					<dim>14</dim>
				</port>
			</output>
		</layer>
		<layer id="235" name="Constant_6319" type="Const" version="opset1">
			<data element_type="f32" shape="1, 1, 1, 1" offset="1816" size="4" />
			<output>
				<port id="0" precision="FP32">
					<dim>1</dim>
					<dim>1</dim>
					<dim>1</dim>
					<dim>1</dim>
				</port>
			</output>
		</layer>
		<layer id="236" name="/backbone/features/features.9/conv/conv.6/Add" type="Add" version="opset1">
			<data auto_broadcast="numpy" />
			<input>
				<port id="0" precision="FP32">
					<dim>1</dim>
					<dim>184</dim>
					<dim>14</dim>
					<dim>14</dim>
				</port>
				<port id="1" precision="FP32">
					<dim>1</dim>
					<dim>1</dim>
					<dim>1</dim>
					<dim>1</dim>
				</port>
			</input>
			<output>
				<port id="2" precision="FP32" names="/backbone/features/features.9/conv/conv.6/Add_output_0">
					<dim>1</dim>
					<dim>184</dim>
					<dim>14</dim>
					<dim>14</dim>
				</port>
			</output>
		</layer>
		<layer id="237" name="/backbone/features/features.9/conv/conv.6/Relu" type="ReLU" version="opset1">
			<input>
				<port id="0" precision="FP32">
					<dim>1</dim>
					<dim>184</dim>
					<dim>14</dim>
					<dim>14</dim>
				</port>
			</input>
			<output>
				<port id="1" precision="FP32" names="/backbone/features/features.9/conv/conv.6/Relu_output_0">
					<dim>1</dim>
					<dim>184</dim>
					<dim>14</dim>
					<dim>14</dim>
				</port>
			</output>
		</layer>
		<layer id="238" name="/backbone/features/features.9/conv/conv.6/Clip" type="Clamp" version="opset1">
			<data min="0" max="6" />
			<input>
				<port id="0" precision="FP32">
					<dim>1</dim>
					<dim>184</dim>
					<dim>14</dim>
					<dim>14</dim>
				</port>
			</input>
			<output>
				<port id="1" precision="FP32" names="/backbone/features/features.9/conv/conv.6/Clip_output_0">
					<dim>1</dim>
					<dim>184</dim>
					<dim>14</dim>
					<dim>14</dim>
				</port>
			</output>
		</layer>
		<layer id="239" name="/backbone/features/features.9/conv/conv.6/Mul" type="Multiply" version="opset1">
			<data auto_broadcast="numpy" />
			<input>
				<port id="0" precision="FP32">
					<dim>1</dim>
					<dim>184</dim>
					<dim>14</dim>
					<dim>14</dim>
				</port>
				<port id="1" precision="FP32">
					<dim>1</dim>
					<dim>184</dim>
					<dim>14</dim>
					<dim>14</dim>
				</port>
			</input>
			<output>
				<port id="2" precision="FP32" names="/backbone/features/features.9/conv/conv.6/Mul_output_0">
					<dim>1</dim>
					<dim>184</dim>
					<dim>14</dim>
					<dim>14</dim>
				</port>
			</output>
		</layer>
		<layer id="240" name="Constant_6149" type="Const" version="opset1">
			<data element_type="f32" shape="80, 184, 1, 1" offset="570320" size="58880" />
			<output>
				<port id="0" precision="FP32">
					<dim>80</dim>
					<dim>184</dim>
					<dim>1</dim>
					<dim>1</dim>
				</port>
			</output>
		</layer>
		<layer id="241" name="/backbone/features/features.9/conv/conv.7/Conv/WithoutBiases" type="Convolution" version="opset1">
			<data strides="1, 1" dilations="1, 1" pads_begin="0, 0" pads_end="0, 0" auto_pad="explicit" />
			<input>
				<port id="0" precision="FP32">
					<dim>1</dim>
					<dim>184</dim>
					<dim>14</dim>
					<dim>14</dim>
				</port>
				<port id="1" precision="FP32">
					<dim>80</dim>
					<dim>184</dim>
					<dim>1</dim>
					<dim>1</dim>
				</port>
			</input>
			<output>
				<port id="2" precision="FP32">
					<dim>1</dim>
					<dim>80</dim>
					<dim>14</dim>
					<dim>14</dim>
				</port>
			</output>
		</layer>
		<layer id="242" name="Reshape_1230" type="Const" version="opset1">
			<data element_type="f32" shape="1, 80, 1, 1" offset="629200" size="320" />
			<output>
				<port id="0" precision="FP32">
					<dim>1</dim>
					<dim>80</dim>
					<dim>1</dim>
					<dim>1</dim>
				</port>
			</output>
		</layer>
		<layer id="243" name="/backbone/features/features.9/conv/conv.7/Conv" type="Add" version="opset1">
			<data auto_broadcast="numpy" />
			<input>
				<port id="0" precision="FP32">
					<dim>1</dim>
					<dim>80</dim>
					<dim>14</dim>
					<dim>14</dim>
				</port>
				<port id="1" precision="FP32">
					<dim>1</dim>
					<dim>80</dim>
					<dim>1</dim>
					<dim>1</dim>
				</port>
			</input>
			<output>
				<port id="2" precision="FP32" names="/backbone/features/features.9/conv/conv.7/Conv_output_0">
					<dim>1</dim>
					<dim>80</dim>
					<dim>14</dim>
					<dim>14</dim>
				</port>
			</output>
		</layer>
		<layer id="244" name="/backbone/features/features.9/Add" type="Add" version="opset1">
			<data auto_broadcast="numpy" />
			<input>
				<port id="0" precision="FP32">
					<dim>1</dim>
					<dim>80</dim>
					<dim>14</dim>
					<dim>14</dim>
				</port>
				<port id="1" precision="FP32">
					<dim>1</dim>
					<dim>80</dim>
					<dim>14</dim>
					<dim>14</dim>
				</port>
			</input>
			<output>
				<port id="2" precision="FP32" names="/backbone/features/features.9/Add_output_0">
					<dim>1</dim>
					<dim>80</dim>
					<dim>14</dim>
					<dim>14</dim>
				</port>
			</output>
		</layer>
		<layer id="245" name="onnx::Conv_989" type="Const" version="opset1">
			<data element_type="f32" shape="184, 80, 1, 1" offset="629520" size="58880" />
			<output>
				<port id="0" precision="FP32" names="onnx::Conv_989">
					<dim>184</dim>
					<dim>80</dim>
					<dim>1</dim>
					<dim>1</dim>
				</port>
			</output>
		</layer>
		<layer id="246" name="/backbone/features/features.10/conv/conv.0/Conv/WithoutBiases" type="Convolution" version="opset1">
			<data strides="1, 1" dilations="1, 1" pads_begin="0, 0" pads_end="0, 0" auto_pad="explicit" />
			<input>
				<port id="0" precision="FP32">
					<dim>1</dim>
					<dim>80</dim>
					<dim>14</dim>
					<dim>14</dim>
				</port>
				<port id="1" precision="FP32">
					<dim>184</dim>
					<dim>80</dim>
					<dim>1</dim>
					<dim>1</dim>
				</port>
			</input>
			<output>
				<port id="2" precision="FP32">
					<dim>1</dim>
					<dim>184</dim>
					<dim>14</dim>
					<dim>14</dim>
				</port>
			</output>
		</layer>
		<layer id="247" name="Reshape_1246" type="Const" version="opset1">
			<data element_type="f32" shape="1, 184, 1, 1" offset="688400" size="736" />
			<output>
				<port id="0" precision="FP32">
					<dim>1</dim>
					<dim>184</dim>
					<dim>1</dim>
					<dim>1</dim>
				</port>
			</output>
		</layer>
		<layer id="248" name="/backbone/features/features.10/conv/conv.0/Conv" type="Add" version="opset1">
			<data auto_broadcast="numpy" />
			<input>
				<port id="0" precision="FP32">
					<dim>1</dim>
					<dim>184</dim>
					<dim>14</dim>
					<dim>14</dim>
				</port>
				<port id="1" precision="FP32">
					<dim>1</dim>
					<dim>184</dim>
					<dim>1</dim>
					<dim>1</dim>
				</port>
			</input>
			<output>
				<port id="2" precision="FP32" names="/backbone/features/features.10/conv/conv.0/Conv_output_0">
					<dim>1</dim>
					<dim>184</dim>
					<dim>14</dim>
					<dim>14</dim>
				</port>
			</output>
		</layer>
		<layer id="249" name="Constant_6320" type="Const" version="opset1">
			<data element_type="f32" shape="1, 1, 1, 1" offset="1816" size="4" />
			<output>
				<port id="0" precision="FP32">
					<dim>1</dim>
					<dim>1</dim>
					<dim>1</dim>
					<dim>1</dim>
				</port>
			</output>
		</layer>
		<layer id="250" name="/backbone/features/features.10/conv/conv.2/Add" type="Add" version="opset1">
			<data auto_broadcast="numpy" />
			<input>
				<port id="0" precision="FP32">
					<dim>1</dim>
					<dim>184</dim>
					<dim>14</dim>
					<dim>14</dim>
				</port>
				<port id="1" precision="FP32">
					<dim>1</dim>
					<dim>1</dim>
					<dim>1</dim>
					<dim>1</dim>
				</port>
			</input>
			<output>
				<port id="2" precision="FP32" names="/backbone/features/features.10/conv/conv.2/Add_output_0">
					<dim>1</dim>
					<dim>184</dim>
					<dim>14</dim>
					<dim>14</dim>
				</port>
			</output>
		</layer>
		<layer id="251" name="/backbone/features/features.10/conv/conv.2/Relu" type="ReLU" version="opset1">
			<input>
				<port id="0" precision="FP32">
					<dim>1</dim>
					<dim>184</dim>
					<dim>14</dim>
					<dim>14</dim>
				</port>
			</input>
			<output>
				<port id="1" precision="FP32" names="/backbone/features/features.10/conv/conv.2/Relu_output_0">
					<dim>1</dim>
					<dim>184</dim>
					<dim>14</dim>
					<dim>14</dim>
				</port>
			</output>
		</layer>
		<layer id="252" name="/backbone/features/features.10/conv/conv.2/Clip" type="Clamp" version="opset1">
			<data min="0" max="6" />
			<input>
				<port id="0" precision="FP32">
					<dim>1</dim>
					<dim>184</dim>
					<dim>14</dim>
					<dim>14</dim>
				</port>
			</input>
			<output>
				<port id="1" precision="FP32" names="/backbone/features/features.10/conv/conv.2/Clip_output_0">
					<dim>1</dim>
					<dim>184</dim>
					<dim>14</dim>
					<dim>14</dim>
				</port>
			</output>
		</layer>
		<layer id="253" name="/backbone/features/features.10/conv/conv.2/Mul" type="Multiply" version="opset1">
			<data auto_broadcast="numpy" />
			<input>
				<port id="0" precision="FP32">
					<dim>1</dim>
					<dim>184</dim>
					<dim>14</dim>
					<dim>14</dim>
				</port>
				<port id="1" precision="FP32">
					<dim>1</dim>
					<dim>184</dim>
					<dim>14</dim>
					<dim>14</dim>
				</port>
			</input>
			<output>
				<port id="2" precision="FP32" names="/backbone/features/features.10/conv/conv.2/Mul_output_0">
					<dim>1</dim>
					<dim>184</dim>
					<dim>14</dim>
					<dim>14</dim>
				</port>
			</output>
		</layer>
		<layer id="254" name="Constant_6152" type="Const" version="opset1">
			<data element_type="f32" shape="184, 1, 1, 3, 3" offset="689136" size="6624" />
			<output>
				<port id="0" precision="FP32">
					<dim>184</dim>
					<dim>1</dim>
					<dim>1</dim>
					<dim>3</dim>
					<dim>3</dim>
				</port>
			</output>
		</layer>
		<layer id="255" name="/backbone/features/features.10/conv/conv.3/Conv/WithoutBiases" type="GroupConvolution" version="opset1">
			<data strides="1, 1" pads_begin="1, 1" pads_end="1, 1" dilations="1, 1" auto_pad="explicit" />
			<input>
				<port id="0" precision="FP32">
					<dim>1</dim>
					<dim>184</dim>
					<dim>14</dim>
					<dim>14</dim>
				</port>
				<port id="1" precision="FP32">
					<dim>184</dim>
					<dim>1</dim>
					<dim>1</dim>
					<dim>3</dim>
					<dim>3</dim>
				</port>
			</input>
			<output>
				<port id="2" precision="FP32">
					<dim>1</dim>
					<dim>184</dim>
					<dim>14</dim>
					<dim>14</dim>
				</port>
			</output>
		</layer>
		<layer id="256" name="Reshape_1319" type="Const" version="opset1">
			<data element_type="f32" shape="1, 184, 1, 1" offset="695760" size="736" />
			<output>
				<port id="0" precision="FP32">
					<dim>1</dim>
					<dim>184</dim>
					<dim>1</dim>
					<dim>1</dim>
				</port>
			</output>
		</layer>
		<layer id="257" name="/backbone/features/features.10/conv/conv.3/Conv" type="Add" version="opset1">
			<data auto_broadcast="numpy" />
			<input>
				<port id="0" precision="FP32">
					<dim>1</dim>
					<dim>184</dim>
					<dim>14</dim>
					<dim>14</dim>
				</port>
				<port id="1" precision="FP32">
					<dim>1</dim>
					<dim>184</dim>
					<dim>1</dim>
					<dim>1</dim>
				</port>
			</input>
			<output>
				<port id="2" precision="FP32" names="/backbone/features/features.10/conv/conv.3/Conv_output_0">
					<dim>1</dim>
					<dim>184</dim>
					<dim>14</dim>
					<dim>14</dim>
				</port>
			</output>
		</layer>
		<layer id="258" name="Constant_6321" type="Const" version="opset1">
			<data element_type="f32" shape="1, 1, 1, 1" offset="1816" size="4" />
			<output>
				<port id="0" precision="FP32">
					<dim>1</dim>
					<dim>1</dim>
					<dim>1</dim>
					<dim>1</dim>
				</port>
			</output>
		</layer>
		<layer id="259" name="/backbone/features/features.10/conv/conv.6/Add" type="Add" version="opset1">
			<data auto_broadcast="numpy" />
			<input>
				<port id="0" precision="FP32">
					<dim>1</dim>
					<dim>184</dim>
					<dim>14</dim>
					<dim>14</dim>
				</port>
				<port id="1" precision="FP32">
					<dim>1</dim>
					<dim>1</dim>
					<dim>1</dim>
					<dim>1</dim>
				</port>
			</input>
			<output>
				<port id="2" precision="FP32" names="/backbone/features/features.10/conv/conv.6/Add_output_0">
					<dim>1</dim>
					<dim>184</dim>
					<dim>14</dim>
					<dim>14</dim>
				</port>
			</output>
		</layer>
		<layer id="260" name="/backbone/features/features.10/conv/conv.6/Relu" type="ReLU" version="opset1">
			<input>
				<port id="0" precision="FP32">
					<dim>1</dim>
					<dim>184</dim>
					<dim>14</dim>
					<dim>14</dim>
				</port>
			</input>
			<output>
				<port id="1" precision="FP32" names="/backbone/features/features.10/conv/conv.6/Relu_output_0">
					<dim>1</dim>
					<dim>184</dim>
					<dim>14</dim>
					<dim>14</dim>
				</port>
			</output>
		</layer>
		<layer id="261" name="/backbone/features/features.10/conv/conv.6/Clip" type="Clamp" version="opset1">
			<data min="0" max="6" />
			<input>
				<port id="0" precision="FP32">
					<dim>1</dim>
					<dim>184</dim>
					<dim>14</dim>
					<dim>14</dim>
				</port>
			</input>
			<output>
				<port id="1" precision="FP32" names="/backbone/features/features.10/conv/conv.6/Clip_output_0">
					<dim>1</dim>
					<dim>184</dim>
					<dim>14</dim>
					<dim>14</dim>
				</port>
			</output>
		</layer>
		<layer id="262" name="/backbone/features/features.10/conv/conv.6/Mul" type="Multiply" version="opset1">
			<data auto_broadcast="numpy" />
			<input>
				<port id="0" precision="FP32">
					<dim>1</dim>
					<dim>184</dim>
					<dim>14</dim>
					<dim>14</dim>
				</port>
				<port id="1" precision="FP32">
					<dim>1</dim>
					<dim>184</dim>
					<dim>14</dim>
					<dim>14</dim>
				</port>
			</input>
			<output>
				<port id="2" precision="FP32" names="/backbone/features/features.10/conv/conv.6/Mul_output_0">
					<dim>1</dim>
					<dim>184</dim>
					<dim>14</dim>
					<dim>14</dim>
				</port>
			</output>
		</layer>
		<layer id="263" name="Constant_6155" type="Const" version="opset1">
			<data element_type="f32" shape="80, 184, 1, 1" offset="696496" size="58880" />
			<output>
				<port id="0" precision="FP32">
					<dim>80</dim>
					<dim>184</dim>
					<dim>1</dim>
					<dim>1</dim>
				</port>
			</output>
		</layer>
		<layer id="264" name="/backbone/features/features.10/conv/conv.7/Conv/WithoutBiases" type="Convolution" version="opset1">
			<data strides="1, 1" dilations="1, 1" pads_begin="0, 0" pads_end="0, 0" auto_pad="explicit" />
			<input>
				<port id="0" precision="FP32">
					<dim>1</dim>
					<dim>184</dim>
					<dim>14</dim>
					<dim>14</dim>
				</port>
				<port id="1" precision="FP32">
					<dim>80</dim>
					<dim>184</dim>
					<dim>1</dim>
					<dim>1</dim>
				</port>
			</input>
			<output>
				<port id="2" precision="FP32">
					<dim>1</dim>
					<dim>80</dim>
					<dim>14</dim>
					<dim>14</dim>
				</port>
			</output>
		</layer>
		<layer id="265" name="Reshape_1344" type="Const" version="opset1">
			<data element_type="f32" shape="1, 80, 1, 1" offset="755376" size="320" />
			<output>
				<port id="0" precision="FP32">
					<dim>1</dim>
					<dim>80</dim>
					<dim>1</dim>
					<dim>1</dim>
				</port>
			</output>
		</layer>
		<layer id="266" name="/backbone/features/features.10/conv/conv.7/Conv" type="Add" version="opset1">
			<data auto_broadcast="numpy" />
			<input>
				<port id="0" precision="FP32">
					<dim>1</dim>
					<dim>80</dim>
					<dim>14</dim>
					<dim>14</dim>
				</port>
				<port id="1" precision="FP32">
					<dim>1</dim>
					<dim>80</dim>
					<dim>1</dim>
					<dim>1</dim>
				</port>
			</input>
			<output>
				<port id="2" precision="FP32" names="/backbone/features/features.10/conv/conv.7/Conv_output_0">
					<dim>1</dim>
					<dim>80</dim>
					<dim>14</dim>
					<dim>14</dim>
				</port>
			</output>
		</layer>
		<layer id="267" name="/backbone/features/features.10/Add" type="Add" version="opset1">
			<data auto_broadcast="numpy" />
			<input>
				<port id="0" precision="FP32">
					<dim>1</dim>
					<dim>80</dim>
					<dim>14</dim>
					<dim>14</dim>
				</port>
				<port id="1" precision="FP32">
					<dim>1</dim>
					<dim>80</dim>
					<dim>14</dim>
					<dim>14</dim>
				</port>
			</input>
			<output>
				<port id="2" precision="FP32" names="/backbone/features/features.10/Add_output_0">
					<dim>1</dim>
					<dim>80</dim>
					<dim>14</dim>
					<dim>14</dim>
				</port>
			</output>
		</layer>
		<layer id="268" name="onnx::Conv_998" type="Const" version="opset1">
			<data element_type="f32" shape="480, 80, 1, 1" offset="755696" size="153600" />
			<output>
				<port id="0" precision="FP32" names="onnx::Conv_998">
					<dim>480</dim>
					<dim>80</dim>
					<dim>1</dim>
					<dim>1</dim>
				</port>
			</output>
		</layer>
		<layer id="269" name="/backbone/features/features.11/conv/conv.0/Conv/WithoutBiases" type="Convolution" version="opset1">
			<data strides="1, 1" dilations="1, 1" pads_begin="0, 0" pads_end="0, 0" auto_pad="explicit" />
			<input>
				<port id="0" precision="FP32">
					<dim>1</dim>
					<dim>80</dim>
					<dim>14</dim>
					<dim>14</dim>
				</port>
				<port id="1" precision="FP32">
					<dim>480</dim>
					<dim>80</dim>
					<dim>1</dim>
					<dim>1</dim>
				</port>
			</input>
			<output>
				<port id="2" precision="FP32">
					<dim>1</dim>
					<dim>480</dim>
					<dim>14</dim>
					<dim>14</dim>
				</port>
			</output>
		</layer>
		<layer id="270" name="Reshape_1360" type="Const" version="opset1">
			<data element_type="f32" shape="1, 480, 1, 1" offset="909296" size="1920" />
			<output>
				<port id="0" precision="FP32">
					<dim>1</dim>
					<dim>480</dim>
					<dim>1</dim>
					<dim>1</dim>
				</port>
			</output>
		</layer>
		<layer id="271" name="/backbone/features/features.11/conv/conv.0/Conv" type="Add" version="opset1">
			<data auto_broadcast="numpy" />
			<input>
				<port id="0" precision="FP32">
					<dim>1</dim>
					<dim>480</dim>
					<dim>14</dim>
					<dim>14</dim>
				</port>
				<port id="1" precision="FP32">
					<dim>1</dim>
					<dim>480</dim>
					<dim>1</dim>
					<dim>1</dim>
				</port>
			</input>
			<output>
				<port id="2" precision="FP32" names="/backbone/features/features.11/conv/conv.0/Conv_output_0">
					<dim>1</dim>
					<dim>480</dim>
					<dim>14</dim>
					<dim>14</dim>
				</port>
			</output>
		</layer>
		<layer id="272" name="Constant_6322" type="Const" version="opset1">
			<data element_type="f32" shape="1, 1, 1, 1" offset="1816" size="4" />
			<output>
				<port id="0" precision="FP32">
					<dim>1</dim>
					<dim>1</dim>
					<dim>1</dim>
					<dim>1</dim>
				</port>
			</output>
		</layer>
		<layer id="273" name="/backbone/features/features.11/conv/conv.2/Add" type="Add" version="opset1">
			<data auto_broadcast="numpy" />
			<input>
				<port id="0" precision="FP32">
					<dim>1</dim>
					<dim>480</dim>
					<dim>14</dim>
					<dim>14</dim>
				</port>
				<port id="1" precision="FP32">
					<dim>1</dim>
					<dim>1</dim>
					<dim>1</dim>
					<dim>1</dim>
				</port>
			</input>
			<output>
				<port id="2" precision="FP32" names="/backbone/features/features.11/conv/conv.2/Add_output_0">
					<dim>1</dim>
					<dim>480</dim>
					<dim>14</dim>
					<dim>14</dim>
				</port>
			</output>
		</layer>
		<layer id="274" name="/backbone/features/features.11/conv/conv.2/Relu" type="ReLU" version="opset1">
			<input>
				<port id="0" precision="FP32">
					<dim>1</dim>
					<dim>480</dim>
					<dim>14</dim>
					<dim>14</dim>
				</port>
			</input>
			<output>
				<port id="1" precision="FP32" names="/backbone/features/features.11/conv/conv.2/Relu_output_0">
					<dim>1</dim>
					<dim>480</dim>
					<dim>14</dim>
					<dim>14</dim>
				</port>
			</output>
		</layer>
		<layer id="275" name="/backbone/features/features.11/conv/conv.2/Clip" type="Clamp" version="opset1">
			<data min="0" max="6" />
			<input>
				<port id="0" precision="FP32">
					<dim>1</dim>
					<dim>480</dim>
					<dim>14</dim>
					<dim>14</dim>
				</port>
			</input>
			<output>
				<port id="1" precision="FP32" names="/backbone/features/features.11/conv/conv.2/Clip_output_0">
					<dim>1</dim>
					<dim>480</dim>
					<dim>14</dim>
					<dim>14</dim>
				</port>
			</output>
		</layer>
		<layer id="276" name="/backbone/features/features.11/conv/conv.2/Mul" type="Multiply" version="opset1">
			<data auto_broadcast="numpy" />
			<input>
				<port id="0" precision="FP32">
					<dim>1</dim>
					<dim>480</dim>
					<dim>14</dim>
					<dim>14</dim>
				</port>
				<port id="1" precision="FP32">
					<dim>1</dim>
					<dim>480</dim>
					<dim>14</dim>
					<dim>14</dim>
				</port>
			</input>
			<output>
				<port id="2" precision="FP32" names="/backbone/features/features.11/conv/conv.2/Mul_output_0">
					<dim>1</dim>
					<dim>480</dim>
					<dim>14</dim>
					<dim>14</dim>
				</port>
			</output>
		</layer>
		<layer id="277" name="Constant_6158" type="Const" version="opset1">
			<data element_type="f32" shape="480, 1, 1, 3, 3" offset="911216" size="17280" />
			<output>
				<port id="0" precision="FP32">
					<dim>480</dim>
					<dim>1</dim>
					<dim>1</dim>
					<dim>3</dim>
					<dim>3</dim>
				</port>
			</output>
		</layer>
		<layer id="278" name="/backbone/features/features.11/conv/conv.3/Conv/WithoutBiases" type="GroupConvolution" version="opset1">
			<data strides="1, 1" pads_begin="1, 1" pads_end="1, 1" dilations="1, 1" auto_pad="explicit" />
			<input>
				<port id="0" precision="FP32">
					<dim>1</dim>
					<dim>480</dim>
					<dim>14</dim>
					<dim>14</dim>
				</port>
				<port id="1" precision="FP32">
					<dim>480</dim>
					<dim>1</dim>
					<dim>1</dim>
					<dim>3</dim>
					<dim>3</dim>
				</port>
			</input>
			<output>
				<port id="2" precision="FP32">
					<dim>1</dim>
					<dim>480</dim>
					<dim>14</dim>
					<dim>14</dim>
				</port>
			</output>
		</layer>
		<layer id="279" name="Reshape_1433" type="Const" version="opset1">
			<data element_type="f32" shape="1, 480, 1, 1" offset="928496" size="1920" />
			<output>
				<port id="0" precision="FP32">
					<dim>1</dim>
					<dim>480</dim>
					<dim>1</dim>
					<dim>1</dim>
				</port>
			</output>
		</layer>
		<layer id="280" name="/backbone/features/features.11/conv/conv.3/Conv" type="Add" version="opset1">
			<data auto_broadcast="numpy" />
			<input>
				<port id="0" precision="FP32">
					<dim>1</dim>
					<dim>480</dim>
					<dim>14</dim>
					<dim>14</dim>
				</port>
				<port id="1" precision="FP32">
					<dim>1</dim>
					<dim>480</dim>
					<dim>1</dim>
					<dim>1</dim>
				</port>
			</input>
			<output>
				<port id="2" precision="FP32" names="/backbone/features/features.11/conv/conv.3/Conv_output_0">
					<dim>1</dim>
					<dim>480</dim>
					<dim>14</dim>
					<dim>14</dim>
				</port>
			</output>
		</layer>
		<layer id="281" name="Range_1451" type="Const" version="opset1">
			<data element_type="i64" shape="2" offset="48480" size="16" />
			<output>
				<port id="0" precision="I64">
					<dim>2</dim>
				</port>
			</output>
		</layer>
		<layer id="282" name="/backbone/features/features.11/conv/conv.5/avg_pool/GlobalAveragePool" type="ReduceMean" version="opset1">
			<data keep_dims="true" />
			<input>
				<port id="0" precision="FP32">
					<dim>1</dim>
					<dim>480</dim>
					<dim>14</dim>
					<dim>14</dim>
				</port>
				<port id="1" precision="I64">
					<dim>2</dim>
				</port>
			</input>
			<output>
				<port id="2" precision="FP32" names="/backbone/features/features.11/conv/conv.5/avg_pool/GlobalAveragePool_output_0">
					<dim>1</dim>
					<dim>480</dim>
					<dim>1</dim>
					<dim>1</dim>
				</port>
			</output>
		</layer>
		<layer id="283" name="/backbone/features/features.11/conv/conv.5/Concat" type="Const" version="opset1">
			<data element_type="i64" shape="2" offset="930416" size="16" />
			<output>
				<port id="0" precision="I64" names="/backbone/features/features.11/conv/conv.5/Concat_output_0">
					<dim>2</dim>
				</port>
			</output>
		</layer>
		<layer id="284" name="/backbone/features/features.11/conv/conv.5/Reshape" type="Reshape" version="opset1">
			<data special_zero="true" />
			<input>
				<port id="0" precision="FP32">
					<dim>1</dim>
					<dim>480</dim>
					<dim>1</dim>
					<dim>1</dim>
				</port>
				<port id="1" precision="I64">
					<dim>2</dim>
				</port>
			</input>
			<output>
				<port id="2" precision="FP32" names="/backbone/features/features.11/conv/conv.5/Reshape_output_0">
					<dim>1</dim>
					<dim>480</dim>
				</port>
			</output>
		</layer>
		<layer id="285" name="features.11.conv.5.fc.0.weight" type="Const" version="opset1">
			<data element_type="f32" shape="120, 480" offset="930432" size="230400" />
			<output>
				<port id="0" precision="FP32" names="features.11.conv.5.fc.0.weight">
					<dim>120</dim>
					<dim>480</dim>
				</port>
			</output>
		</layer>
		<layer id="286" name="/backbone/features/features.11/conv/conv.5/fc/fc.0/Gemm/WithoutBiases" type="MatMul" version="opset1">
			<data transpose_a="false" transpose_b="true" />
			<input>
				<port id="0" precision="FP32">
					<dim>1</dim>
					<dim>480</dim>
				</port>
				<port id="1" precision="FP32">
					<dim>120</dim>
					<dim>480</dim>
				</port>
			</input>
			<output>
				<port id="2" precision="FP32">
					<dim>1</dim>
					<dim>120</dim>
				</port>
			</output>
		</layer>
		<layer id="287" name="Constant_6323" type="Const" version="opset1">
			<data element_type="f32" shape="1, 120" offset="1160832" size="480" />
			<output>
				<port id="0" precision="FP32">
					<dim>1</dim>
					<dim>120</dim>
				</port>
			</output>
		</layer>
		<layer id="288" name="/backbone/features/features.11/conv/conv.5/fc/fc.0/Gemm" type="Add" version="opset1">
			<data auto_broadcast="numpy" />
			<input>
				<port id="0" precision="FP32">
					<dim>1</dim>
					<dim>120</dim>
				</port>
				<port id="1" precision="FP32">
					<dim>1</dim>
					<dim>120</dim>
				</port>
			</input>
			<output>
				<port id="2" precision="FP32" names="/backbone/features/features.11/conv/conv.5/fc/fc.0/Gemm_output_0">
					<dim>1</dim>
					<dim>120</dim>
				</port>
			</output>
		</layer>
		<layer id="289" name="/backbone/features/features.11/conv/conv.5/fc/fc.1/Relu" type="ReLU" version="opset1">
			<input>
				<port id="0" precision="FP32">
					<dim>1</dim>
					<dim>120</dim>
				</port>
			</input>
			<output>
				<port id="1" precision="FP32" names="/backbone/features/features.11/conv/conv.5/fc/fc.1/Relu_output_0">
					<dim>1</dim>
					<dim>120</dim>
				</port>
			</output>
		</layer>
		<layer id="290" name="features.11.conv.5.fc.2.weight" type="Const" version="opset1">
			<data element_type="f32" shape="480, 120" offset="1161312" size="230400" />
			<output>
				<port id="0" precision="FP32" names="features.11.conv.5.fc.2.weight">
					<dim>480</dim>
					<dim>120</dim>
				</port>
			</output>
		</layer>
		<layer id="291" name="/backbone/features/features.11/conv/conv.5/fc/fc.2/Gemm/WithoutBiases" type="MatMul" version="opset1">
			<data transpose_a="false" transpose_b="true" />
			<input>
				<port id="0" precision="FP32">
					<dim>1</dim>
					<dim>120</dim>
				</port>
				<port id="1" precision="FP32">
					<dim>480</dim>
					<dim>120</dim>
				</port>
			</input>
			<output>
				<port id="2" precision="FP32">
					<dim>1</dim>
					<dim>480</dim>
				</port>
			</output>
		</layer>
		<layer id="292" name="Constant_6324" type="Const" version="opset1">
			<data element_type="f32" shape="1, 480" offset="1391712" size="1920" />
			<output>
				<port id="0" precision="FP32">
					<dim>1</dim>
					<dim>480</dim>
				</port>
			</output>
		</layer>
		<layer id="293" name="/backbone/features/features.11/conv/conv.5/fc/fc.3/Add" type="Add" version="opset1">
			<data auto_broadcast="numpy" />
			<input>
				<port id="0" precision="FP32">
					<dim>1</dim>
					<dim>480</dim>
				</port>
				<port id="1" precision="FP32">
					<dim>1</dim>
					<dim>480</dim>
				</port>
			</input>
			<output>
				<port id="2" precision="FP32" names="/backbone/features/features.11/conv/conv.5/fc/fc.3/Add_output_0">
					<dim>1</dim>
					<dim>480</dim>
				</port>
			</output>
		</layer>
		<layer id="294" name="/backbone/features/features.11/conv/conv.5/fc/fc.3/Relu" type="ReLU" version="opset1">
			<input>
				<port id="0" precision="FP32">
					<dim>1</dim>
					<dim>480</dim>
				</port>
			</input>
			<output>
				<port id="1" precision="FP32" names="/backbone/features/features.11/conv/conv.5/fc/fc.3/Relu_output_0">
					<dim>1</dim>
					<dim>480</dim>
				</port>
			</output>
		</layer>
		<layer id="295" name="/backbone/features/features.11/conv/conv.5/fc/fc.3/Clip" type="Clamp" version="opset1">
			<data min="0" max="6" />
			<input>
				<port id="0" precision="FP32">
					<dim>1</dim>
					<dim>480</dim>
				</port>
			</input>
			<output>
				<port id="1" precision="FP32" names="/backbone/features/features.11/conv/conv.5/fc/fc.3/Clip_output_0">
					<dim>1</dim>
					<dim>480</dim>
				</port>
			</output>
		</layer>
		<layer id="296" name="Constant_6325" type="Const" version="opset1">
			<data element_type="f32" shape="1, 1" offset="1820" size="4" />
			<output>
				<port id="0" precision="FP32">
					<dim>1</dim>
					<dim>1</dim>
				</port>
			</output>
		</layer>
		<layer id="297" name="/backbone/features/features.11/conv/conv.5/fc/fc.3/Div" type="Multiply" version="opset1">
			<data auto_broadcast="numpy" />
			<input>
				<port id="0" precision="FP32">
					<dim>1</dim>
					<dim>480</dim>
				</port>
				<port id="1" precision="FP32">
					<dim>1</dim>
					<dim>1</dim>
				</port>
			</input>
			<output>
				<port id="2" precision="FP32" names="/backbone/features/features.11/conv/conv.5/fc/fc.3/Div_output_0">
					<dim>1</dim>
					<dim>480</dim>
				</port>
			</output>
		</layer>
		<layer id="298" name="/backbone/features/features.11/conv/conv.5/Shape" type="ShapeOf" version="opset3">
			<data output_type="i64" />
			<input>
				<port id="0" precision="FP32">
					<dim>1</dim>
					<dim>480</dim>
					<dim>14</dim>
					<dim>14</dim>
				</port>
			</input>
			<output>
				<port id="1" precision="I64" names="/backbone/features/features.11/conv/conv.5/Shape_1_output_0,/backbone/features/features.11/conv/conv.5/Shape_output_0">
					<dim>4</dim>
				</port>
			</output>
		</layer>
		<layer id="299" name="Constant_5749" type="Const" version="opset1">
			<data element_type="i64" shape="2" offset="62720" size="16" />
			<output>
				<port id="0" precision="I64">
					<dim>2</dim>
				</port>
			</output>
		</layer>
		<layer id="300" name="Constant_5750" type="Const" version="opset1">
			<data element_type="i64" shape="" offset="62736" size="8" />
			<output>
				<port id="0" precision="I64" />
			</output>
		</layer>
		<layer id="301" name="Gather_5751" type="Gather" version="opset8">
			<data batch_dims="0" />
			<input>
				<port id="0" precision="I64">
					<dim>4</dim>
				</port>
				<port id="1" precision="I64">
					<dim>2</dim>
				</port>
				<port id="2" precision="I64" />
			</input>
			<output>
				<port id="3" precision="I64">
					<dim>2</dim>
				</port>
			</output>
		</layer>
		<layer id="302" name="/backbone/features/features.11/conv/conv.5/Constant_2" type="Const" version="opset1">
			<data element_type="i64" shape="1" offset="62744" size="8" />
			<output>
				<port id="0" precision="I64" names="/backbone/features/features.11/conv/conv.5/Constant_2_output_0">
					<dim>1</dim>
				</port>
			</output>
		</layer>
		<layer id="303" name="/backbone/features/features.11/conv/conv.5/Constant_3" type="Const" version="opset1">
			<data element_type="i64" shape="1" offset="62744" size="8" />
			<output>
				<port id="0" precision="I64" names="/backbone/features/features.11/conv/conv.5/Constant_3_output_0">
					<dim>1</dim>
				</port>
			</output>
		</layer>
		<layer id="304" name="/backbone/features/features.11/conv/conv.5/Concat_1" type="Concat" version="opset1">
			<data axis="0" />
			<input>
				<port id="0" precision="I64">
					<dim>2</dim>
				</port>
				<port id="1" precision="I64">
					<dim>1</dim>
				</port>
				<port id="2" precision="I64">
					<dim>1</dim>
				</port>
			</input>
			<output>
				<port id="3" precision="I64" names="/backbone/features/features.11/conv/conv.5/Concat_1_output_0">
					<dim>4</dim>
				</port>
			</output>
		</layer>
		<layer id="305" name="/backbone/features/features.11/conv/conv.5/Reshape_1" type="Reshape" version="opset1">
			<data special_zero="true" />
			<input>
				<port id="0" precision="FP32">
					<dim>1</dim>
					<dim>480</dim>
				</port>
				<port id="1" precision="I64">
					<dim>4</dim>
				</port>
			</input>
			<output>
				<port id="2" precision="FP32" names="/backbone/features/features.11/conv/conv.5/Reshape_1_output_0">
					<dim>1</dim>
					<dim>480</dim>
					<dim>1</dim>
					<dim>1</dim>
				</port>
			</output>
		</layer>
		<layer id="306" name="/backbone/features/features.11/conv/conv.5/Mul" type="Multiply" version="opset1">
			<data auto_broadcast="numpy" />
			<input>
				<port id="0" precision="FP32">
					<dim>1</dim>
					<dim>480</dim>
					<dim>14</dim>
					<dim>14</dim>
				</port>
				<port id="1" precision="FP32">
					<dim>1</dim>
					<dim>480</dim>
					<dim>1</dim>
					<dim>1</dim>
				</port>
			</input>
			<output>
				<port id="2" precision="FP32" names="/backbone/features/features.11/conv/conv.5/Mul_output_0">
					<dim>1</dim>
					<dim>480</dim>
					<dim>14</dim>
					<dim>14</dim>
				</port>
			</output>
		</layer>
		<layer id="307" name="Constant_6326" type="Const" version="opset1">
			<data element_type="f32" shape="1, 1, 1, 1" offset="1816" size="4" />
			<output>
				<port id="0" precision="FP32">
					<dim>1</dim>
					<dim>1</dim>
					<dim>1</dim>
					<dim>1</dim>
				</port>
			</output>
		</layer>
		<layer id="308" name="/backbone/features/features.11/conv/conv.6/Add" type="Add" version="opset1">
			<data auto_broadcast="numpy" />
			<input>
				<port id="0" precision="FP32">
					<dim>1</dim>
					<dim>480</dim>
					<dim>14</dim>
					<dim>14</dim>
				</port>
				<port id="1" precision="FP32">
					<dim>1</dim>
					<dim>1</dim>
					<dim>1</dim>
					<dim>1</dim>
				</port>
			</input>
			<output>
				<port id="2" precision="FP32" names="/backbone/features/features.11/conv/conv.6/Add_output_0">
					<dim>1</dim>
					<dim>480</dim>
					<dim>14</dim>
					<dim>14</dim>
				</port>
			</output>
		</layer>
		<layer id="309" name="/backbone/features/features.11/conv/conv.6/Relu" type="ReLU" version="opset1">
			<input>
				<port id="0" precision="FP32">
					<dim>1</dim>
					<dim>480</dim>
					<dim>14</dim>
					<dim>14</dim>
				</port>
			</input>
			<output>
				<port id="1" precision="FP32" names="/backbone/features/features.11/conv/conv.6/Relu_output_0">
					<dim>1</dim>
					<dim>480</dim>
					<dim>14</dim>
					<dim>14</dim>
				</port>
			</output>
		</layer>
		<layer id="310" name="/backbone/features/features.11/conv/conv.6/Clip" type="Clamp" version="opset1">
			<data min="0" max="6" />
			<input>
				<port id="0" precision="FP32">
					<dim>1</dim>
					<dim>480</dim>
					<dim>14</dim>
					<dim>14</dim>
				</port>
			</input>
			<output>
				<port id="1" precision="FP32" names="/backbone/features/features.11/conv/conv.6/Clip_output_0">
					<dim>1</dim>
					<dim>480</dim>
					<dim>14</dim>
					<dim>14</dim>
				</port>
			</output>
		</layer>
		<layer id="311" name="/backbone/features/features.11/conv/conv.6/Mul" type="Multiply" version="opset1">
			<data auto_broadcast="numpy" />
			<input>
				<port id="0" precision="FP32">
					<dim>1</dim>
					<dim>480</dim>
					<dim>14</dim>
					<dim>14</dim>
				</port>
				<port id="1" precision="FP32">
					<dim>1</dim>
					<dim>480</dim>
					<dim>14</dim>
					<dim>14</dim>
				</port>
			</input>
			<output>
				<port id="2" precision="FP32" names="/backbone/features/features.11/conv/conv.6/Mul_output_0">
					<dim>1</dim>
					<dim>480</dim>
					<dim>14</dim>
					<dim>14</dim>
				</port>
			</output>
		</layer>
		<layer id="312" name="Constant_6161" type="Const" version="opset1">
			<data element_type="f32" shape="112, 480, 1, 1" offset="1393632" size="215040" />
			<output>
				<port id="0" precision="FP32">
					<dim>112</dim>
					<dim>480</dim>
					<dim>1</dim>
					<dim>1</dim>
				</port>
			</output>
		</layer>
		<layer id="313" name="/backbone/features/features.11/conv/conv.7/Conv/WithoutBiases" type="Convolution" version="opset1">
			<data strides="1, 1" dilations="1, 1" pads_begin="0, 0" pads_end="0, 0" auto_pad="explicit" />
			<input>
				<port id="0" precision="FP32">
					<dim>1</dim>
					<dim>480</dim>
					<dim>14</dim>
					<dim>14</dim>
				</port>
				<port id="1" precision="FP32">
					<dim>112</dim>
					<dim>480</dim>
					<dim>1</dim>
					<dim>1</dim>
				</port>
			</input>
			<output>
				<port id="2" precision="FP32">
					<dim>1</dim>
					<dim>112</dim>
					<dim>14</dim>
					<dim>14</dim>
				</port>
			</output>
		</layer>
		<layer id="314" name="Reshape_1517" type="Const" version="opset1">
			<data element_type="f32" shape="1, 112, 1, 1" offset="1608672" size="448" />
			<output>
				<port id="0" precision="FP32">
					<dim>1</dim>
					<dim>112</dim>
					<dim>1</dim>
					<dim>1</dim>
				</port>
			</output>
		</layer>
		<layer id="315" name="/backbone/features/features.11/conv/conv.7/Conv" type="Add" version="opset1">
			<data auto_broadcast="numpy" />
			<input>
				<port id="0" precision="FP32">
					<dim>1</dim>
					<dim>112</dim>
					<dim>14</dim>
					<dim>14</dim>
				</port>
				<port id="1" precision="FP32">
					<dim>1</dim>
					<dim>112</dim>
					<dim>1</dim>
					<dim>1</dim>
				</port>
			</input>
			<output>
				<port id="2" precision="FP32" names="/backbone/features/features.11/conv/conv.7/Conv_output_0">
					<dim>1</dim>
					<dim>112</dim>
					<dim>14</dim>
					<dim>14</dim>
				</port>
			</output>
		</layer>
		<layer id="316" name="onnx::Conv_1007" type="Const" version="opset1">
			<data element_type="f32" shape="672, 112, 1, 1" offset="1609120" size="301056" />
			<output>
				<port id="0" precision="FP32" names="onnx::Conv_1007">
					<dim>672</dim>
					<dim>112</dim>
					<dim>1</dim>
					<dim>1</dim>
				</port>
			</output>
		</layer>
		<layer id="317" name="/backbone/features/features.12/conv/conv.0/Conv/WithoutBiases" type="Convolution" version="opset1">
			<data strides="1, 1" dilations="1, 1" pads_begin="0, 0" pads_end="0, 0" auto_pad="explicit" />
			<input>
				<port id="0" precision="FP32">
					<dim>1</dim>
					<dim>112</dim>
					<dim>14</dim>
					<dim>14</dim>
				</port>
				<port id="1" precision="FP32">
					<dim>672</dim>
					<dim>112</dim>
					<dim>1</dim>
					<dim>1</dim>
				</port>
			</input>
			<output>
				<port id="2" precision="FP32">
					<dim>1</dim>
					<dim>672</dim>
					<dim>14</dim>
					<dim>14</dim>
				</port>
			</output>
		</layer>
		<layer id="318" name="Reshape_1532" type="Const" version="opset1">
			<data element_type="f32" shape="1, 672, 1, 1" offset="1910176" size="2688" />
			<output>
				<port id="0" precision="FP32">
					<dim>1</dim>
					<dim>672</dim>
					<dim>1</dim>
					<dim>1</dim>
				</port>
			</output>
		</layer>
		<layer id="319" name="/backbone/features/features.12/conv/conv.0/Conv" type="Add" version="opset1">
			<data auto_broadcast="numpy" />
			<input>
				<port id="0" precision="FP32">
					<dim>1</dim>
					<dim>672</dim>
					<dim>14</dim>
					<dim>14</dim>
				</port>
				<port id="1" precision="FP32">
					<dim>1</dim>
					<dim>672</dim>
					<dim>1</dim>
					<dim>1</dim>
				</port>
			</input>
			<output>
				<port id="2" precision="FP32" names="/backbone/features/features.12/conv/conv.0/Conv_output_0">
					<dim>1</dim>
					<dim>672</dim>
					<dim>14</dim>
					<dim>14</dim>
				</port>
			</output>
		</layer>
		<layer id="320" name="Constant_6327" type="Const" version="opset1">
			<data element_type="f32" shape="1, 1, 1, 1" offset="1816" size="4" />
			<output>
				<port id="0" precision="FP32">
					<dim>1</dim>
					<dim>1</dim>
					<dim>1</dim>
					<dim>1</dim>
				</port>
			</output>
		</layer>
		<layer id="321" name="/backbone/features/features.12/conv/conv.2/Add" type="Add" version="opset1">
			<data auto_broadcast="numpy" />
			<input>
				<port id="0" precision="FP32">
					<dim>1</dim>
					<dim>672</dim>
					<dim>14</dim>
					<dim>14</dim>
				</port>
				<port id="1" precision="FP32">
					<dim>1</dim>
					<dim>1</dim>
					<dim>1</dim>
					<dim>1</dim>
				</port>
			</input>
			<output>
				<port id="2" precision="FP32" names="/backbone/features/features.12/conv/conv.2/Add_output_0">
					<dim>1</dim>
					<dim>672</dim>
					<dim>14</dim>
					<dim>14</dim>
				</port>
			</output>
		</layer>
		<layer id="322" name="/backbone/features/features.12/conv/conv.2/Relu" type="ReLU" version="opset1">
			<input>
				<port id="0" precision="FP32">
					<dim>1</dim>
					<dim>672</dim>
					<dim>14</dim>
					<dim>14</dim>
				</port>
			</input>
			<output>
				<port id="1" precision="FP32" names="/backbone/features/features.12/conv/conv.2/Relu_output_0">
					<dim>1</dim>
					<dim>672</dim>
					<dim>14</dim>
					<dim>14</dim>
				</port>
			</output>
		</layer>
		<layer id="323" name="/backbone/features/features.12/conv/conv.2/Clip" type="Clamp" version="opset1">
			<data min="0" max="6" />
			<input>
				<port id="0" precision="FP32">
					<dim>1</dim>
					<dim>672</dim>
					<dim>14</dim>
					<dim>14</dim>
				</port>
			</input>
			<output>
				<port id="1" precision="FP32" names="/backbone/features/features.12/conv/conv.2/Clip_output_0">
					<dim>1</dim>
					<dim>672</dim>
					<dim>14</dim>
					<dim>14</dim>
				</port>
			</output>
		</layer>
		<layer id="324" name="/backbone/features/features.12/conv/conv.2/Mul" type="Multiply" version="opset1">
			<data auto_broadcast="numpy" />
			<input>
				<port id="0" precision="FP32">
					<dim>1</dim>
					<dim>672</dim>
					<dim>14</dim>
					<dim>14</dim>
…
		</layer>
		<layer id="520" name="Constant_6348" type="Const" version="opset1">
			<data element_type="f32" shape="1, 1, 1, 1" offset="1820" size="4" />
			<output>
				<port id="0" precision="FP32">
					<dim>1</dim>
					<dim>1</dim>
					<dim>1</dim>
					<dim>1</dim>
				</port>
			</output>
		</layer>
		<layer id="521" name="/backbone/conv/conv.2/Div" type="Multiply" version="opset1">
			<data auto_broadcast="numpy" />
			<input>
				<port id="0" precision="FP32">
					<dim>1</dim>
					<dim>960</dim>
					<dim>7</dim>
					<dim>7</dim>
				</port>
				<port id="1" precision="FP32">
					<dim>1</dim>
					<dim>1</dim>
					<dim>1</dim>
					<dim>1</dim>
				</port>
			</input>
			<output>
				<port id="2" precision="FP32" names="/backbone/conv/conv.2/Div_output_0">
					<dim>1</dim>
					<dim>960</dim>
					<dim>7</dim>
					<dim>7</dim>
				</port>
			</output>
		</layer>
		<layer id="522" name="Range_2243" type="Const" version="opset1">
			<data element_type="i64" shape="2" offset="48480" size="16" />
			<output>
				<port id="0" precision="I64">
					<dim>2</dim>
				</port>
			</output>
		</layer>
		<layer id="523" name="/neck/gap/GlobalAveragePool" type="ReduceMean" version="opset1">
			<data keep_dims="true" />
			<input>
				<port id="0" precision="FP32">
					<dim>1</dim>
					<dim>960</dim>
					<dim>7</dim>
					<dim>7</dim>
				</port>
				<port id="1" precision="I64">
					<dim>2</dim>
				</port>
			</input>
			<output>
				<port id="2" precision="FP32" names="/neck/gap/GlobalAveragePool_output_0">
					<dim>1</dim>
					<dim>960</dim>
					<dim>1</dim>
					<dim>1</dim>
				</port>
			</output>
		</layer>
		<layer id="524" name="Constant_2247" type="Const" version="opset1">
			<data element_type="i64" shape="2" offset="5576752" size="16" />
			<output>
				<port id="0" precision="I64">
					<dim>2</dim>
				</port>
			</output>
		</layer>
		<layer id="525" name="/neck/Flatten" type="Reshape" version="opset1">
			<data special_zero="true" />
			<input>
				<port id="0" precision="FP32">
					<dim>1</dim>
					<dim>960</dim>
					<dim>1</dim>
					<dim>1</dim>
				</port>
				<port id="1" precision="I64">
					<dim>2</dim>
				</port>
			</input>
			<output>
				<port id="2" precision="FP32" names="/neck/Flatten_output_0">
					<dim>1</dim>
					<dim>960</dim>
				</port>
			</output>
		</layer>
		<layer id="526" name="Constant_6191" type="Const" version="opset1">
			<data element_type="f32" shape="1280, 960" offset="11839168" size="4915200" />
			<output>
				<port id="0" precision="FP32">
					<dim>1280</dim>
					<dim>960</dim>
				</port>
			</output>
		</layer>
		<layer id="527" name="Multiply_6126" type="MatMul" version="opset1">
			<data transpose_a="false" transpose_b="true" />
			<input>
				<port id="0" precision="FP32">
					<dim>1</dim>
					<dim>960</dim>
				</port>
				<port id="1" precision="FP32">
					<dim>1280</dim>
					<dim>960</dim>
				</port>
			</input>
			<output>
				<port id="2" precision="FP32">
					<dim>1</dim>
					<dim>1280</dim>
				</port>
			</output>
		</layer>
		<layer id="528" name="Constant_6131" type="Const" version="opset1">
			<data element_type="f32" shape="1, 1280" offset="16754368" size="5120" />
			<output>
				<port id="0" precision="FP32">
					<dim>1</dim>
					<dim>1280</dim>
				</port>
			</output>
		</layer>
		<layer id="529" name="/classifier/classifier.1/BatchNormalization" type="Add" version="opset1">
			<data auto_broadcast="numpy" />
			<input>
				<port id="0" precision="FP32">
					<dim>1</dim>
					<dim>1280</dim>
				</port>
				<port id="1" precision="FP32">
					<dim>1</dim>
					<dim>1280</dim>
				</port>
			</input>
			<output>
				<port id="2" precision="FP32" names="/classifier/classifier.1/BatchNormalization_output_0">
					<dim>1</dim>
					<dim>1280</dim>
				</port>
			</output>
		</layer>
		<layer id="530" name="Constant_2258" type="Const" version="opset1">
			<data element_type="f32" shape="" offset="1820" size="4" />
			<output>
				<port id="0" precision="FP32" />
			</output>
		</layer>
		<layer id="531" name="Constant_2259" type="Const" version="opset1">
			<data element_type="f32" shape="" offset="16759488" size="4" />
			<output>
				<port id="0" precision="FP32" />
			</output>
		</layer>
		<layer id="532" name="/classifier/act/HardSigmoid" type="HardSigmoid" version="opset1">
			<input>
				<port id="0" precision="FP32">
					<dim>1</dim>
					<dim>1280</dim>
				</port>
				<port id="1" precision="FP32" />
				<port id="2" precision="FP32" />
			</input>
			<output>
				<port id="3" precision="FP32" names="/classifier/act/HardSigmoid_output_0">
					<dim>1</dim>
					<dim>1280</dim>
				</port>
			</output>
		</layer>
		<layer id="533" name="/classifier/act/Mul" type="Multiply" version="opset1">
			<data auto_broadcast="numpy" />
			<input>
				<port id="0" precision="FP32">
					<dim>1</dim>
					<dim>1280</dim>
				</port>
				<port id="1" precision="FP32">
					<dim>1</dim>
					<dim>1280</dim>
				</port>
			</input>
			<output>
				<port id="2" precision="FP32" names="/classifier/act/Mul_output_0">
					<dim>1</dim>
					<dim>1280</dim>
				</port>
			</output>
		</layer>
		<layer id="534" name="classifier.4.weight" type="Const" version="opset1">
			<data element_type="f32" shape="2, 1280" offset="16759492" size="10240" />
			<output>
				<port id="0" precision="FP32" names="classifier.4.weight">
					<dim>2</dim>
					<dim>1280</dim>
				</port>
			</output>
		</layer>
		<layer id="535" name="/classifier/classifier.3/Gemm/WithoutBiases" type="MatMul" version="opset1">
			<data transpose_a="false" transpose_b="true" />
			<input>
				<port id="0" precision="FP32">
					<dim>1</dim>
					<dim>1280</dim>
				</port>
				<port id="1" precision="FP32">
					<dim>2</dim>
					<dim>1280</dim>
				</port>
			</input>
			<output>
				<port id="2" precision="FP32">
					<dim>1</dim>
					<dim>2</dim>
				</port>
			</output>
		</layer>
		<layer id="536" name="Constant_6349" type="Const" version="opset1">
			<data element_type="f32" shape="1, 2" offset="16769732" size="8" />
			<output>
				<port id="0" precision="FP32">
					<dim>1</dim>
					<dim>2</dim>
				</port>
			</output>
		</layer>
		<layer id="537" name="logits" type="Add" version="opset1">
			<data auto_broadcast="numpy" />
			<input>
				<port id="0" precision="FP32">
					<dim>1</dim>
					<dim>2</dim>
				</port>
				<port id="1" precision="FP32">
					<dim>1</dim>
					<dim>2</dim>
				</port>
			</input>
			<output>
				<port id="2" precision="FP32" names="logits">
					<dim>1</dim>
					<dim>2</dim>
				</port>
			</output>
		</layer>
		<layer id="538" name="logits/sink_port_0" type="Result" version="opset1">
			<input>
				<port id="0" precision="FP32">
					<dim>1</dim>
					<dim>2</dim>
				</port>
			</input>
		</layer>
	</layers>
	<edges>
		<edge from-layer="0" from-port="0" to-layer="2" to-port="0" />
		<edge from-layer="1" from-port="0" to-layer="2" to-port="1" />
		<edge from-layer="2" from-port="2" to-layer="4" to-port="0" />
		<edge from-layer="3" from-port="0" to-layer="4" to-port="1" />
		<edge from-layer="4" from-port="2" to-layer="6" to-port="0" />
		<edge from-layer="5" from-port="0" to-layer="6" to-port="1" />
		<edge from-layer="6" from-port="2" to-layer="8" to-port="0" />
		<edge from-layer="7" from-port="0" to-layer="8" to-port="1" />
		<edge from-layer="8" from-port="2" to-layer="10" to-port="0" />
		<edge from-layer="8" from-port="2" to-layer="13" to-port="0" />
		<edge from-layer="9" from-port="0" to-layer="10" to-port="1" />
		<edge from-layer="10" from-port="2" to-layer="11" to-port="0" />
		<edge from-layer="11" from-port="1" to-layer="12" to-port="0" />
		<edge from-layer="12" from-port="1" to-layer="13" to-port="1" />
		<edge from-layer="13" from-port="2" to-layer="15" to-port="0" />
		<edge from-layer="14" from-port="0" to-layer="15" to-port="1" />
		<edge from-layer="15" from-port="2" to-layer="17" to-port="0" />
		<edge from-layer="15" from-port="2" to-layer="25" to-port="0" />
		<edge from-layer="16" from-port="0" to-layer="17" to-port="1" />
		<edge from-layer="17" from-port="2" to-layer="19" to-port="0" />
		<edge from-layer="18" from-port="0" to-layer="19" to-port="1" />
		<edge from-layer="19" from-port="2" to-layer="20" to-port="0" />
		<edge from-layer="20" from-port="1" to-layer="22" to-port="0" />
		<edge from-layer="21" from-port="0" to-layer="22" to-port="1" />
		<edge from-layer="22" from-port="2" to-layer="24" to-port="0" />
		<edge from-layer="23" from-port="0" to-layer="24" to-port="1" />
		<edge from-layer="24" from-port="2" to-layer="25" to-port="1" />
		<edge from-layer="25" from-port="2" to-layer="27" to-port="0" />
		<edge from-layer="26" from-port="0" to-layer="27" to-port="1" />
		<edge from-layer="27" from-port="2" to-layer="29" to-port="0" />
		<edge from-layer="28" from-port="0" to-layer="29" to-port="1" />
		<edge from-layer="29" from-port="2" to-layer="30" to-port="0" />
		<edge from-layer="30" from-port="1" to-layer="32" to-port="0" />
		<edge from-layer="31" from-port="0" to-layer="32" to-port="1" />
		<edge from-layer="32" from-port="2" to-layer="34" to-port="0" />
		<edge from-layer="33" from-port="0" to-layer="34" to-port="1" />
		<edge from-layer="34" from-port="2" to-layer="35" to-port="0" />
		<edge from-layer="35" from-port="1" to-layer="37" to-port="0" />
		<edge from-layer="36" from-port="0" to-layer="37" to-port="1" />
		<edge from-layer="37" from-port="2" to-layer="39" to-port="0" />
		<edge from-layer="38" from-port="0" to-layer="39" to-port="1" />
		<edge from-layer="39" from-port="2" to-layer="41" to-port="0" />
		<edge from-layer="39" from-port="2" to-layer="54" to-port="0" />
		<edge from-layer="40" from-port="0" to-layer="41" to-port="1" />
		<edge from-layer="41" from-port="2" to-layer="43" to-port="0" />
		<edge from-layer="42" from-port="0" to-layer="43" to-port="1" />
		<edge from-layer="43" from-port="2" to-layer="44" to-port="0" />
		<edge from-layer="44" from-port="1" to-layer="46" to-port="0" />
		<edge from-layer="45" from-port="0" to-layer="46" to-port="1" />
		<edge from-layer="46" from-port="2" to-layer="48" to-port="0" />
		<edge from-layer="47" from-port="0" to-layer="48" to-port="1" />
		<edge from-layer="48" from-port="2" to-layer="49" to-port="0" />
		<edge from-layer="49" from-port="1" to-layer="51" to-port="0" />
		<edge from-layer="50" from-port="0" to-layer="51" to-port="1" />
		<edge from-layer="51" from-port="2" to-layer="53" to-port="0" />
		<edge from-layer="52" from-port="0" to-layer="53" to-port="1" />
		<edge from-layer="53" from-port="2" to-layer="54" to-port="1" />
		<edge from-layer="54" from-port="2" to-layer="56" to-port="0" />
		<edge from-layer="55" from-port="0" to-layer="56" to-port="1" />
		<edge from-layer="56" from-port="2" to-layer="58" to-port="0" />
		<edge from-layer="57" from-port="0" to-layer="58" to-port="1" />
		<edge from-layer="58" from-port="2" to-layer="59" to-port="0" />
		<edge from-layer="59" from-port="1" to-layer="61" to-port="0" />
		<edge from-layer="60" from-port="0" to-layer="61" to-port="1" />
		<edge from-layer="61" from-port="2" to-layer="63" to-port="0" />
		<edge from-layer="62" from-port="0" to-layer="63" to-port="1" />
		<edge from-layer="63" from-port="2" to-layer="81" to-port="0" />
		<edge from-layer="63" from-port="2" to-layer="89" to-port="0" />
		<edge from-layer="63" from-port="2" to-layer="65" to-port="0" />
		<edge from-layer="64" from-port="0" to-layer="65" to-port="1" />
		<edge from-layer="65" from-port="2" to-layer="67" to-port="0" />
		<edge from-layer="66" from-port="0" to-layer="67" to-port="1" />
		<edge from-layer="67" from-port="2" to-layer="69" to-port="0" />
		<edge from-layer="68" from-port="0" to-layer="69" to-port="1" />
		<edge from-layer="69" from-port="2" to-layer="71" to-port="0" />
		<edge from-layer="70" from-port="0" to-layer="71" to-port="1" />
		<edge from-layer="71" from-port="2" to-layer="72" to-port="0" />
		<edge from-layer="72" from-port="1" to-layer="74" to-port="0" />
		<edge from-layer="73" from-port="0" to-layer="74" to-port="1" />
		<edge from-layer="74" from-port="2" to-layer="76" to-port="0" />
		<edge from-layer="75" from-port="0" to-layer="76" to-port="1" />
		<edge from-layer="76" from-port="2" to-layer="77" to-port="0" />
		<edge from-layer="77" from-port="1" to-layer="78" to-port="0" />
		<edge from-layer="78" from-port="1" to-layer="80" to-port="0" />
		<edge from-layer="79" from-port="0" to-layer="80" to-port="1" />
		<edge from-layer="80" from-port="2" to-layer="88" to-port="0" />
		<edge from-layer="81" from-port="1" to-layer="84" to-port="0" />
		<edge from-layer="82" from-port="0" to-layer="84" to-port="1" />
		<edge from-layer="83" from-port="0" to-layer="84" to-port="2" />
		<edge from-layer="84" from-port="3" to-layer="87" to-port="0" />
		<edge from-layer="85" from-port="0" to-layer="87" to-port="1" />
		<edge from-layer="86" from-port="0" to-layer="87" to-port="2" />
		<edge from-layer="87" from-port="3" to-layer="88" to-port="1" />
		<edge from-layer="88" from-port="2" to-layer="89" to-port="1" />
		<edge from-layer="89" from-port="2" to-layer="90" to-port="0" />
		<edge from-layer="90" from-port="1" to-layer="92" to-port="0" />
		<edge from-layer="91" from-port="0" to-layer="92" to-port="1" />
		<edge from-layer="92" from-port="2" to-layer="94" to-port="0" />
		<edge from-layer="93" from-port="0" to-layer="94" to-port="1" />
		<edge from-layer="94" from-port="2" to-layer="96" to-port="0" />
		<edge from-layer="94" from-port="2" to-layer="135" to-port="0" />
		<edge from-layer="95" from-port="0" to-layer="96" to-port="1" />
		<edge from-layer="96" from-port="2" to-layer="98" to-port="0" />
		<edge from-layer="97" from-port="0" to-layer="98" to-port="1" />
		<edge from-layer="98" from-port="2" to-layer="99" to-port="0" />
		<edge from-layer="99" from-port="1" to-layer="101" to-port="0" />
		<edge from-layer="100" from-port="0" to-layer="101" to-port="1" />
		<edge from-layer="101" from-port="2" to-layer="103" to-port="0" />
		<edge from-layer="102" from-port="0" to-layer="103" to-port="1" />
		<edge from-layer="103" from-port="2" to-layer="105" to-port="0" />
		<edge from-layer="103" from-port="2" to-layer="129" to-port="0" />
		<edge from-layer="103" from-port="2" to-layer="121" to-port="0" />
		<edge from-layer="104" from-port="0" to-layer="105" to-port="1" />
		<edge from-layer="105" from-port="2" to-layer="107" to-port="0" />
		<edge from-layer="106" from-port="0" to-layer="107" to-port="1" />
		<edge from-layer="107" from-port="2" to-layer="109" to-port="0" />
		<edge from-layer="108" from-port="0" to-layer="109" to-port="1" />
		<edge from-layer="109" from-port="2" to-layer="111" to-port="0" />
		<edge from-layer="110" from-port="0" to-layer="111" to-port="1" />
		<edge from-layer="111" from-port="2" to-layer="112" to-port="0" />
		<edge from-layer="112" from-port="1" to-layer="114" to-port="0" />
		<edge from-layer="113" from-port="0" to-layer="114" to-port="1" />
		<edge from-layer="114" from-port="2" to-layer="116" to-port="0" />
		<edge from-layer="115" from-port="0" to-layer="116" to-port="1" />
		<edge from-layer="116" from-port="2" to-layer="117" to-port="0" />
		<edge from-layer="117" from-port="1" to-layer="118" to-port="0" />
		<edge from-layer="118" from-port="1" to-layer="120" to-port="0" />
		<edge from-layer="119" from-port="0" to-layer="120" to-port="1" />
		<edge from-layer="120" from-port="2" to-layer="128" to-port="0" />
		<edge from-layer="121" from-port="1" to-layer="124" to-port="0" />
		<edge from-layer="122" from-port="0" to-layer="124" to-port="1" />
		<edge from-layer="123" from-port="0" to-layer="124" to-port="2" />
		<edge from-layer="124" from-port="3" to-layer="127" to-port="0" />
		<edge from-layer="125" from-port="0" to-layer="127" to-port="1" />
		<edge from-layer="126" from-port="0" to-layer="127" to-port="2" />
		<edge from-layer="127" from-port="3" to-layer="128" to-port="1" />
		<edge from-layer="128" from-port="2" to-layer="129" to-port="1" />
		<edge from-layer="129" from-port="2" to-layer="130" to-port="0" />
		<edge from-layer="130" from-port="1" to-layer="132" to-port="0" />
		<edge from-layer="131" from-port="0" to-layer="132" to-port="1" />
		<edge from-layer="132" from-port="2" to-layer="134" to-port="0" />
		<edge from-layer="133" from-port="0" to-layer="134" to-port="1" />
		<edge from-layer="134" from-port="2" to-layer="135" to-port="1" />
		<edge from-layer="135" from-port="2" to-layer="137" to-port="0" />
		<edge from-layer="135" from-port="2" to-layer="176" to-port="0" />
		<edge from-layer="136" from-port="0" to-layer="137" to-port="1" />
		<edge from-layer="137" from-port="2" to-layer="139" to-port="0" />
		<edge from-layer="138" from-port="0" to-layer="139" to-port="1" />
		<edge from-layer="139" from-port="2" to-layer="140" to-port="0" />
		<edge from-layer="140" from-port="1" to-layer="142" to-port="0" />
		<edge from-layer="141" from-port="0" to-layer="142" to-port="1" />
		<edge from-layer="142" from-port="2" to-layer="144" to-port="0" />
		<edge from-layer="143" from-port="0" to-layer="144" to-port="1" />
		<edge from-layer="144" from-port="2" to-layer="146" to-port="0" />
		<edge from-layer="144" from-port="2" to-layer="170" to-port="0" />
		<edge from-layer="144" from-port="2" to-layer="162" to-port="0" />
		<edge from-layer="145" from-port="0" to-layer="146" to-port="1" />
		<edge from-layer="146" from-port="2" to-layer="148" to-port="0" />
		<edge from-layer="147" from-port="0" to-layer="148" to-port="1" />
		<edge from-layer="148" from-port="2" to-layer="150" to-port="0" />
		<edge from-layer="149" from-port="0" to-layer="150" to-port="1" />
		<edge from-layer="150" from-port="2" to-layer="152" to-port="0" />
		<edge from-layer="151" from-port="0" to-layer="152" to-port="1" />
		<edge from-layer="152" from-port="2" to-layer="153" to-port="0" />
		<edge from-layer="153" from-port="1" to-layer="155" to-port="0" />
		<edge from-layer="154" from-port="0" to-layer="155" to-port="1" />
		<edge from-layer="155" from-port="2" to-layer="157" to-port="0" />
		<edge from-layer="156" from-port="0" to-layer="157" to-port="1" />
		<edge from-layer="157" from-port="2" to-layer="158" to-port="0" />
		<edge from-layer="158" from-port="1" to-layer="159" to-port="0" />
		<edge from-layer="159" from-port="1" to-layer="161" to-port="0" />
		<edge from-layer="160" from-port="0" to-layer="161" to-port="1" />
		<edge from-layer="161" from-port="2" to-layer="169" to-port="0" />
		<edge from-layer="162" from-port="1" to-layer="165" to-port="0" />
		<edge from-layer="163" from-port="0" to-layer="165" to-port="1" />
		<edge from-layer="164" from-port="0" to-layer="165" to-port="2" />
		<edge from-layer="165" from-port="3" to-layer="168" to-port="0" />
		<edge from-layer="166" from-port="0" to-layer="168" to-port="1" />
		<edge from-layer="167" from-port="0" to-layer="168" to-port="2" />
		<edge from-layer="168" from-port="3" to-layer="169" to-port="1" />
		<edge from-layer="169" from-port="2" to-layer="170" to-port="1" />
		<edge from-layer="170" from-port="2" to-layer="171" to-port="0" />
		<edge from-layer="171" from-port="1" to-layer="173" to-port="0" />
		<edge from-layer="172" from-port="0" to-layer="173" to-port="1" />
		<edge from-layer="173" from-port="2" to-layer="175" to-port="0" />
		<edge from-layer="174" from-port="0" to-layer="175" to-port="1" />
		<edge from-layer="175" from-port="2" to-layer="176" to-port="1" />
		<edge from-layer="176" from-port="2" to-layer="178" to-port="0" />
		<edge from-layer="177" from-port="0" to-layer="178" to-port="1" />
		<edge from-layer="178" from-port="2" to-layer="180" to-port="0" />
		<edge from-layer="179" from-port="0" to-layer="180" to-port="1" />
		<edge from-layer="180" from-port="2" to-layer="182" to-port="0" />
		<edge from-layer="180" from-port="2" to-layer="185" to-port="0" />
		<edge from-layer="181" from-port="0" to-layer="182" to-port="1" />
		<edge from-layer="182" from-port="2" to-layer="183" to-port="0" />
		<edge from-layer="183" from-port="1" to-layer="184" to-port="0" />
		<edge from-layer="184" from-port="1" to-layer="185" to-port="1" />
		<edge from-layer="185" from-port="2" to-layer="187" to-port="0" />
		<edge from-layer="186" from-port="0" to-layer="187" to-port="1" />
		<edge from-layer="187" from-port="2" to-layer="189" to-port="0" />
		<edge from-layer="188" from-port="0" to-layer="189" to-port="1" />
		<edge from-layer="189" from-port="2" to-layer="194" to-port="0" />
		<edge from-layer="189" from-port="2" to-layer="191" to-port="0" />
		<edge from-layer="190" from-port="0" to-layer="191" to-port="1" />
		<edge from-layer="191" from-port="2" to-layer="192" to-port="0" />
		<edge from-layer="192" from-port="1" to-layer="193" to-port="0" />
		<edge from-layer="193" from-port="1" to-layer="194" to-port="1" />
		<edge from-layer="194" from-port="2" to-layer="196" to-port="0" />
		<edge from-layer="195" from-port="0" to-layer="196" to-port="1" />
		<edge from-layer="196" from-port="2" to-layer="198" to-port="0" />
		<edge from-layer="197" from-port="0" to-layer="198" to-port="1" />
		<edge from-layer="198" from-port="2" to-layer="221" to-port="0" />
		<edge from-layer="198" from-port="2" to-layer="200" to-port="0" />
		<edge from-layer="199" from-port="0" to-layer="200" to-port="1" />
		<edge from-layer="200" from-port="2" to-layer="202" to-port="0" />
		<edge from-layer="201" from-port="0" to-layer="202" to-port="1" />
		<edge from-layer="202" from-port="2" to-layer="204" to-port="0" />
		<edge from-layer="202" from-port="2" to-layer="207" to-port="0" />
		<edge from-layer="203" from-port="0" to-layer="204" to-port="1" />
		<edge from-layer="204" from-port="2" to-layer="205" to-port="0" />
		<edge from-layer="205" from-port="1" to-layer="206" to-port="0" />
		<edge from-layer="206" from-port="1" to-layer="207" to-port="1" />
		<edge from-layer="207" from-port="2" to-layer="209" to-port="0" />
		<edge from-layer="208" from-port="0" to-layer="209" to-port="1" />
		<edge from-layer="209" from-port="2" to-layer="211" to-port="0" />
		<edge from-layer="210" from-port="0" to-layer="211" to-port="1" />
		<edge from-layer="211" from-port="2" to-layer="213" to-port="0" />
		<edge from-layer="211" from-port="2" to-layer="216" to-port="0" />
		<edge from-layer="212" from-port="0" to-layer="213" to-port="1" />
		<edge from-layer="213" from-port="2" to-layer="214" to-port="0" />
		<edge from-layer="214" from-port="1" to-layer="215" to-port="0" />
		<edge from-layer="215" from-port="1" to-layer="216" to-port="1" />
		<edge from-layer="216" from-port="2" to-layer="218" to-port="0" />
		<edge from-layer="217" from-port="0" to-layer="218" to-port="1" />
		<edge from-layer="218" from-port="2" to-layer="220" to-port="0" />
		<edge from-layer="219" from-port="0" to-layer="220" to-port="1" />
		<edge from-layer="220" from-port="2" to-layer="221" to-port="1" />
		<edge from-layer="221" from-port="2" to-layer="244" to-port="0" />
		<edge from-layer="221" from-port="2" to-layer="223" to-port="0" />
		<edge from-layer="222" from-port="0" to-layer="223" to-port="1" />
		<edge from-layer="223" from-port="2" to-layer="225" to-port="0" />
		<edge from-layer="224" from-port="0" to-layer="225" to-port="1" />
		<edge from-layer="225" from-port="2" to-layer="227" to-port="0" />
		<edge from-layer="225" from-port="2" to-layer="230" to-port="0" />
		<edge from-layer="226" from-port="0" to-layer="227" to-port="1" />
		<edge from-layer="227" from-port="2" to-layer="228" to-port="0" />
		<edge from-layer="228" from-port="1" to-layer="229" to-port="0" />
		<edge from-layer="229" from-port="1" to-layer="230" to-port="1" />
		<edge from-layer="230" from-port="2" to-layer="232" to-port="0" />
		<edge from-layer="231" from-port="0" to-layer="232" to-port="1" />
		<edge from-layer="232" from-port="2" to-layer="234" to-port="0" />
		<edge from-layer="233" from-port="0" to-layer="234" to-port="1" />
		<edge from-layer="234" from-port="2" to-layer="236" to-port="0" />
		<edge from-layer="234" from-port="2" to-layer="239" to-port="0" />
		<edge from-layer="235" from-port="0" to-layer="236" to-port="1" />
		<edge from-layer="236" from-port="2" to-layer="237" to-port="0" />
		<edge from-layer="237" from-port="1" to-layer="238" to-port="0" />
		<edge from-layer="238" from-port="1" to-layer="239" to-port="1" />
		<edge from-layer="239" from-port="2" to-layer="241" to-port="0" />
		<edge from-layer="240" from-port="0" to-layer="241" to-port="1" />
		<edge from-layer="241" from-port="2" to-layer="243" to-port="0" />
		<edge from-layer="242" from-port="0" to-layer="243" to-port="1" />
		<edge from-layer="243" from-port="2" to-layer="244" to-port="1" />
		<edge from-layer="244" from-port="2" to-layer="267" to-port="0" />
		<edge from-layer="244" from-port="2" to-layer="246" to-port="0" />
		<edge from-layer="245" from-port="0" to-layer="246" to-port="1" />
		<edge from-layer="246" from-port="2" to-layer="248" to-port="0" />
		<edge from-layer="247" from-port="0" to-layer="248" to-port="1" />
		<edge from-layer="248" from-port="2" to-layer="250" to-port="0" />
		<edge from-layer="248" from-port="2" to-layer="253" to-port="0" />
		<edge from-layer="249" from-port="0" to-layer="250" to-port="1" />
		<edge from-layer="250" from-port="2" to-layer="251" to-port="0" />
		<edge from-layer="251" from-port="1" to-layer="252" to-port="0" />
		<edge from-layer="252" from-port="1" to-layer="253" to-port="1" />
		<edge from-layer="253" from-port="2" to-layer="255" to-port="0" />
		<edge from-layer="254" from-port="0" to-layer="255" to-port="1" />
		<edge from-layer="255" from-port="2" to-layer="257" to-port="0" />
		<edge from-layer="256" from-port="0" to-layer="257" to-port="1" />
		<edge from-layer="257" from-port="2" to-layer="262" to-port="0" />
		<edge from-layer="257" from-port="2" to-layer="259" to-port="0" />
		<edge from-layer="258" from-port="0" to-layer="259" to-port="1" />
		<edge from-layer="259" from-port="2" to-layer="260" to-port="0" />
		<edge from-layer="260" from-port="1" to-layer="261" to-port="0" />
		<edge from-layer="261" from-port="1" to-layer="262" to-port="1" />
		<edge from-layer="262" from-port="2" to-layer="264" to-port="0" />
		<edge from-layer="263" from-port="0" to-layer="264" to-port="1" />
		<edge from-layer="264" from-port="2" to-layer="266" to-port="0" />
		<edge from-layer="265" from-port="0" to-layer="266" to-port="1" />
		<edge from-layer="266" from-port="2" to-layer="267" to-port="1" />
		<edge from-layer="267" from-port="2" to-layer="269" to-port="0" />
		<edge from-layer="268" from-port="0" to-layer="269" to-port="1" />
		<edge from-layer="269" from-port="2" to-layer="271" to-port="0" />
		<edge from-layer="270" from-port="0" to-layer="271" to-port="1" />
		<edge from-layer="271" from-port="2" to-layer="276" to-port="0" />
		<edge from-layer="271" from-port="2" to-layer="273" to-port="0" />
		<edge from-layer="272" from-port="0" to-layer="273" to-port="1" />
		<edge from-layer="273" from-port="2" to-layer="274" to-port="0" />
		<edge from-layer="274" from-port="1" to-layer="275" to-port="0" />
		<edge from-layer="275" from-port="1" to-layer="276" to-port="1" />
		<edge from-layer="276" from-port="2" to-layer="278" to-port="0" />
		<edge from-layer="277" from-port="0" to-layer="278" to-port="1" />
		<edge from-layer="278" from-port="2" to-layer="280" to-port="0" />
		<edge from-layer="279" from-port="0" to-layer="280" to-port="1" />
		<edge from-layer="280" from-port="2" to-layer="298" to-port="0" />
		<edge from-layer="280" from-port="2" to-layer="306" to-port="0" />
		<edge from-layer="280" from-port="2" to-layer="282" to-port="0" />
		<edge from-layer="281" from-port="0" to-layer="282" to-port="1" />
		<edge from-layer="282" from-port="2" to-layer="284" to-port="0" />
		<edge from-layer="283" from-port="0" to-layer="284" to-port="1" />
		<edge from-layer="284" from-port="2" to-layer="286" to-port="0" />
		<edge from-layer="285" from-port="0" to-layer="286" to-port="1" />
		<edge from-layer="286" from-port="2" to-layer="288" to-port="0" />
		<edge from-layer="287" from-port="0" to-layer="288" to-port="1" />
		<edge from-layer="288" from-port="2" to-layer="289" to-port="0" />
		<edge from-layer="289" from-port="1" to-layer="291" to-port="0" />
		<edge from-layer="290" from-port="0" to-layer="291" to-port="1" />
		<edge from-layer="291" from-port="2" to-layer="293" to-port="0" />
		<edge from-layer="292" from-port="0" to-layer="293" to-port="1" />
		<edge from-layer="293" from-port="2" to-layer="294" to-port="0" />
		<edge from-layer="294" from-port="1" to-layer="295" to-port="0" />
		<edge from-layer="295" from-port="1" to-layer="297" to-port="0" />
		<edge from-layer="296" from-port="0" to-layer="297" to-port="1" />
		<edge from-layer="297" from-port="2" to-layer="305" to-port="0" />
		<edge from-layer="298" from-port="1" to-layer="301" to-port="0" />
		<edge from-layer="299" from-port="0" to-layer="301" to-port="1" />
		<edge from-layer="300" from-port="0" to-layer="301" to-port="2" />
		<edge from-layer="301" from-port="3" to-layer="304" to-port="0" />
		<edge from-layer="302" from-port="0" to-layer="304" to-port="1" />
		<edge from-layer="303" from-port="0" to-layer="304" to-port="2" />
		<edge from-layer="304" from-port="3" to-layer="305" to-port="1" />
		<edge from-layer="305" from-port="2" to-layer="306" to-port="1" />
		<edge from-layer="306" from-port="2" to-layer="308" to-port="0" />
		<edge from-layer="306" from-port="2" to-layer="311" to-port="0" />
		<edge from-layer="307" from-port="0" to-layer="308" to-port="1" />
		<edge from-layer="308" from-port="2" to-layer="309" to-port="0" />
		<edge from-layer="309" from-port="1" to-layer="310" to-port="0" />
		<edge from-layer="310" from-port="1" to-layer="311" to-port="1" />
		<edge from-layer="311" from-port="2" to-layer="313" to-port="0" />
		<edge from-layer="312" from-port="0" to-layer="313" to-port="1" />
		<edge from-layer="313" from-port="2" to-layer="315" to-port="0" />
		<edge from-layer="314" from-port="0" to-layer="315" to-port="1" />
		<edge from-layer="315" from-port="2" to-layer="364" to-port="0" />
		<edge from-layer="315" from-port="2" to-layer="317" to-port="0" />
		<edge from-layer="316" from-port="0" to-layer="317" to-port="1" />
		<edge from-layer="317" from-port="2" to-layer="319" to-port="0" />
		<edge from-layer="318" from-port="0" to-layer="319" to-port="1" />
		<edge from-layer="319" from-port="2" to-layer="321" to-port="0" />
		<edge from-layer="319" from-port="2" to-layer="324" to-port="0" />
		<edge from-layer="320" from-port="0" to-layer="321" to-port="1" />
		<edge from-layer="321" from-port="2" to-layer="322" to-port="0" />
		<edge from-layer="322" from-port="1" to-layer="323" to-port="0" />
		<edge from-layer="323" from-port="1" to-layer="324" to-port="1" />
		<edge from-layer="324" from-port="2" to-layer="326" to-port="0" />
		<edge from-layer="325" from-port="0" to-layer="326" to-port="1" />
		<edge from-layer="326" from-port="2" to-layer="328" to-port="0" />
		<edge from-layer="327" from-port="0" to-layer="328" to-port="1" />
		<edge from-layer="328" from-port="2" to-layer="330" to-port="0" />
		<edge from-layer="328" from-port="2" to-layer="346" to-port="0" />
		<edge from-layer="328" from-port="2" to-layer="354" to-port="0" />
		<edge from-layer="329" from-port="0" to-layer="330" to-port="1" />
		<edge from-layer="330" from-port="2" to-layer="332" to-port="0" />
		<edge from-layer="331" from-port="0" to-layer="332" to-port="1" />
		<edge from-layer="332" from-port="2" to-layer="334" to-port="0" />
		<edge from-layer="333" from-port="0" to-layer="334" to-port="1" />
		<edge from-layer="334" from-port="2" to-layer="336" to-port="0" />
		<edge from-layer="335" from-port="0" to-layer="336" to-port="1" />
		<edge from-layer="336" from-port="2" to-layer="337" to-port="0" />
		<edge from-layer="337" from-port="1" to-layer="339" to-port="0" />
		<edge from-layer="338" from-port="0" to-layer="339" to-port="1" />
		<edge from-layer="339" from-port="2" to-layer="341" to-port="0" />
		<edge from-layer="340" from-port="0" to-layer="341" to-port="1" />
		<edge from-layer="341" from-port="2" to-layer="342" to-port="0" />
		<edge from-layer="342" from-port="1" to-layer="343" to-port="0" />
		<edge from-layer="343" from-port="1" to-layer="345" to-port="0" />
		<edge from-layer="344" from-port="0" to-layer="345" to-port="1" />
		<edge from-layer="345" from-port="2" to-layer="353" to-port="0" />
		<edge from-layer="346" from-port="1" to-layer="349" to-port="0" />
		<edge from-layer="347" from-port="0" to-layer="349" to-port="1" />
		<edge from-layer="348" from-port="0" to-layer="349" to-port="2" />
		<edge from-layer="349" from-port="3" to-layer="352" to-port="0" />
		<edge from-layer="350" from-port="0" to-layer="352" to-port="1" />
		<edge from-layer="351" from-port="0" to-layer="352" to-port="2" />
		<edge from-layer="352" from-port="3" to-layer="353" to-port="1" />
		<edge from-layer="353" from-port="2" to-layer="354" to-port="1" />
		<edge from-layer="354" from-port="2" to-layer="356" to-port="0" />
		<edge from-layer="354" from-port="2" to-layer="359" to-port="0" />
		<edge from-layer="355" from-port="0" to-layer="356" to-port="1" />
		<edge from-layer="356" from-port="2" to-layer="357" to-port="0" />
		<edge from-layer="357" from-port="1" to-layer="358" to-port="0" />
		<edge from-layer="358" from-port="1" to-layer="359" to-port="1" />
		<edge from-layer="359" from-port="2" to-layer="361" to-port="0" />
		<edge from-layer="360" from-port="0" to-layer="361" to-port="1" />
		<edge from-layer="361" from-port="2" to-layer="363" to-port="0" />
		<edge from-layer="362" from-port="0" to-layer="363" to-port="1" />
		<edge from-layer="363" from-port="2" to-layer="364" to-port="1" />
		<edge from-layer="364" from-port="2" to-layer="366" to-port="0" />
		<edge from-layer="365" from-port="0" to-layer="366" to-port="1" />
		<edge from-layer="366" from-port="2" to-layer="368" to-port="0" />
		<edge from-layer="367" from-port="0" to-layer="368" to-port="1" />
		<edge from-layer="368" from-port="2" to-layer="370" to-port="0" />
		<edge from-layer="368" from-port="2" to-layer="373" to-port="0" />
		<edge from-layer="369" from-port="0" to-layer="370" to-port="1" />
		<edge from-layer="370" from-port="2" to-layer="371" to-port="0" />
		<edge from-layer="371" from-port="1" to-layer="372" to-port="0" />
		<edge from-layer="372" from-port="1" to-layer="373" to-port="1" />
		<edge from-layer="373" from-port="2" to-layer="375" to-port="0" />
		<edge from-layer="374" from-port="0" to-layer="375" to-port="1" />
		<edge from-layer="375" from-port="2" to-layer="377" to-port="0" />
		<edge from-layer="376" from-port="0" to-layer="377" to-port="1" />
		<edge from-layer="377" from-port="2" to-layer="395" to-port="0" />
		<edge from-layer="377" from-port="2" to-layer="403" to-port="0" />
		<edge from-layer="377" from-port="2" to-layer="379" to-port="0" />
		<edge from-layer="378" from-port="0" to-layer="379" to-port="1" />
		<edge from-layer="379" from-port="2" to-layer="381" to-port="0" />
		<edge from-layer="380" from-port="0" to-layer="381" to-port="1" />
		<edge from-layer="381" from-port="2" to-layer="383" to-port="0" />
		<edge from-layer="382" from-port="0" to-layer="383" to-port="1" />
		<edge from-layer="383" from-port="2" to-layer="385" to-port="0" />
		<edge from-layer="384" from-port="0" to-layer="385" to-port="1" />
		<edge from-layer="385" from-port="2" to-layer="386" to-port="0" />
		<edge from-layer="386" from-port="1" to-layer="388" to-port="0" />
		<edge from-layer="387" from-port="0" to-layer="388" to-port="1" />
		<edge from-layer="388" from-port="2" to-layer="390" to-port="0" />
		<edge from-layer="389" from-port="0" to-layer="390" to-port="1" />
		<edge from-layer="390" from-port="2" to-layer="391" to-port="0" />
		<edge from-layer="391" from-port="1" to-layer="392" to-port="0" />
		<edge from-layer="392" from-port="1" to-layer="394" to-port="0" />
		<edge from-layer="393" from-port="0" to-layer="394" to-port="1" />
		<edge from-layer="394" from-port="2" to-layer="402" to-port="0" />
		<edge from-layer="395" from-port="1" to-layer="398" to-port="0" />
		<edge from-layer="396" from-port="0" to-layer="398" to-port="1" />
		<edge from-layer="397" from-port="0" to-layer="398" to-port="2" />
		<edge from-layer="398" from-port="3" to-layer="401" to-port="0" />
		<edge from-layer="399" from-port="0" to-layer="401" to-port="1" />
		<edge from-layer="400" from-port="0" to-layer="401" to-port="2" />
		<edge from-layer="401" from-port="3" to-layer="402" to-port="1" />
		<edge from-layer="402" from-port="2" to-layer="403" to-port="1" />
		<edge from-layer="403" from-port="2" to-layer="405" to-port="0" />
		<edge from-layer="403" from-port="2" to-layer="408" to-port="0" />
		<edge from-layer="404" from-port="0" to-layer="405" to-port="1" />
		<edge from-layer="405" from-port="2" to-layer="406" to-port="0" />
		<edge from-layer="406" from-port="1" to-layer="407" to-port="0" />
		<edge from-layer="407" from-port="1" to-layer="408" to-port="1" />
		<edge from-layer="408" from-port="2" to-layer="410" to-port="0" />
		<edge from-layer="409" from-port="0" to-layer="410" to-port="1" />
		<edge from-layer="410" from-port="2" to-layer="412" to-port="0" />
		<edge from-layer="411" from-port="0" to-layer="412" to-port="1" />
		<edge from-layer="412" from-port="2" to-layer="414" to-port="0" />
		<edge from-layer="412" from-port="2" to-layer="461" to-port="0" />
		<edge from-layer="413" from-port="0" to-layer="414" to-port="1" />
		<edge from-layer="414" from-port="2" to-layer="416" to-port="0" />
		<edge from-layer="415" from-port="0" to-layer="416" to-port="1" />
		<edge from-layer="416" from-port="2" to-layer="418" to-port="0" />
		<edge from-layer="416" from-port="2" to-layer="421" to-port="0" />
		<edge from-layer="417" from-port="0" to-layer="418" to-port="1" />
		<edge from-layer="418" from-port="2" to-layer="419" to-port="0" />
		<edge from-layer="419" from-port="1" to-layer="420" to-port="0" />
		<edge from-layer="420" from-port="1" to-layer="421" to-port="1" />
		<edge from-layer="421" from-port="2" to-layer="423" to-port="0" />
		<edge from-layer="422" from-port="0" to-layer="423" to-port="1" />
		<edge from-layer="423" from-port="2" to-layer="425" to-port="0" />
		<edge from-layer="424" from-port="0" to-layer="425" to-port="1" />
		<edge from-layer="425" from-port="2" to-layer="443" to-port="0" />
		<edge from-layer="425" from-port="2" to-layer="451" to-port="0" />
		<edge from-layer="425" from-port="2" to-layer="427" to-port="0" />
		<edge from-layer="426" from-port="0" to-layer="427" to-port="1" />
		<edge from-layer="427" from-port="2" to-layer="429" to-port="0" />
		<edge from-layer="428" from-port="0" to-layer="429" to-port="1" />
		<edge from-layer="429" from-port="2" to-layer="431" to-port="0" />
		<edge from-layer="430" from-port="0" to-layer="431" to-port="1" />
		<edge from-layer="431" from-port="2" to-layer="433" to-port="0" />
		<edge from-layer="432" from-port="0" to-layer="433" to-port="1" />
		<edge from-layer="433" from-port="2" to-layer="434" to-port="0" />
		<edge from-layer="434" from-port="1" to-layer="436" to-port="0" />
		<edge from-layer="435" from-port="0" to-layer="436" to-port="1" />
		<edge from-layer="436" from-port="2" to-layer="438" to-port="0" />
		<edge from-layer="437" from-port="0" to-layer="438" to-port="1" />
		<edge from-layer="438" from-port="2" to-layer="439" to-port="0" />
		<edge from-layer="439" from-port="1" to-layer="440" to-port="0" />
		<edge from-layer="440" from-port="1" to-layer="442" to-port="0" />
		<edge from-layer="441" from-port="0" to-layer="442" to-port="1" />
		<edge from-layer="442" from-port="2" to-layer="450" to-port="0" />
		<edge from-layer="443" from-port="1" to-layer="446" to-port="0" />
		<edge from-layer="444" from-port="0" to-layer="446" to-port="1" />
		<edge from-layer="445" from-port="0" to-layer="446" to-port="2" />
		<edge from-layer="446" from-port="3" to-layer="449" to-port="0" />
		<edge from-layer="447" from-port="0" to-layer="449" to-port="1" />
		<edge from-layer="448" from-port="0" to-layer="449" to-port="2" />
		<edge from-layer="449" from-port="3" to-layer="450" to-port="1" />
		<edge from-layer="450" from-port="2" to-layer="451" to-port="1" />
		<edge from-layer="451" from-port="2" to-layer="453" to-port="0" />
		<edge from-layer="451" from-port="2" to-layer="456" to-port="0" />
		<edge from-layer="452" from-port="0" to-layer="453" to-port="1" />
		<edge from-layer="453" from-port="2" to-layer="454" to-port="0" />
		<edge from-layer="454" from-port="1" to-layer="455" to-port="0" />
		<edge from-layer="455" from-port="1" to-layer="456" to-port="1" />
		<edge from-layer="456" from-port="2" to-layer="458" to-port="0" />
		<edge from-layer="457" from-port="0" to-layer="458" to-port="1" />
		<edge from-layer="458" from-port="2" to-layer="460" to-port="0" />
		<edge from-layer="459" from-port="0" to-layer="460" to-port="1" />
		<edge from-layer="460" from-port="2" to-layer="461" to-port="1" />
		<edge from-layer="461" from-port="2" to-layer="510" to-port="0" />
		<edge from-layer="461" from-port="2" to-layer="463" to-port="0" />
		<edge from-layer="462" from-port="0" to-layer="463" to-port="1" />
		<edge from-layer="463" from-port="2" to-layer="465" to-port="0" />
		<edge from-layer="464" from-port="0" to-layer="465" to-port="1" />
		<edge from-layer="465" from-port="2" to-layer="467" to-port="0" />
		<edge from-layer="465" from-port="2" to-layer="470" to-port="0" />
		<edge from-layer="466" from-port="0" to-layer="467" to-port="1" />
		<edge from-layer="467" from-port="2" to-layer="468" to-port="0" />
		<edge from-layer="468" from-port="1" to-layer="469" to-port="0" />
		<edge from-layer="469" from-port="1" to-layer="470" to-port="1" />
		<edge from-layer="470" from-port="2" to-layer="472" to-port="0" />
		<edge from-layer="471" from-port="0" to-layer="472" to-port="1" />
		<edge from-layer="472" from-port="2" to-layer="474" to-port="0" />
		<edge from-layer="473" from-port="0" to-layer="474" to-port="1" />
		<edge from-layer="474" from-port="2" to-layer="476" to-port="0" />
		<edge from-layer="474" from-port="2" to-layer="500" to-port="0" />
		<edge from-layer="474" from-port="2" to-layer="492" to-port="0" />
		<edge from-layer="475" from-port="0" to-layer="476" to-port="1" />
		<edge from-layer="476" from-port="2" to-layer="478" to-port="0" />
		<edge from-layer="477" from-port="0" to-layer="478" to-port="1" />
		<edge from-layer="478" from-port="2" to-layer="480" to-port="0" />
		<edge from-layer="479" from-port="0" to-layer="480" to-port="1" />
		<edge from-layer="480" from-port="2" to-layer="482" to-port="0" />
		<edge from-layer="481" from-port="0" to-layer="482" to-port="1" />
		<edge from-layer="482" from-port="2" to-layer="483" to-port="0" />
		<edge from-layer="483" from-port="1" to-layer="485" to-port="0" />
		<edge from-layer="484" from-port="0" to-layer="485" to-port="1" />
		<edge from-layer="485" from-port="2" to-layer="487" to-port="0" />
		<edge from-layer="486" from-port="0" to-layer="487" to-port="1" />
		<edge from-layer="487" from-port="2" to-layer="488" to-port="0" />
		<edge from-layer="488" from-port="1" to-layer="489" to-port="0" />
		<edge from-layer="489" from-port="1" to-layer="491" to-port="0" />
		<edge from-layer="490" from-port="0" to-layer="491" to-port="1" />
		<edge from-layer="491" from-port="2" to-layer="499" to-port="0" />
		<edge from-layer="492" from-port="1" to-layer="495" to-port="0" />
		<edge from-layer="493" from-port="0" to-layer="495" to-port="1" />
		<edge from-layer="494" from-port="0" to-layer="495" to-port="2" />
		<edge from-layer="495" from-port="3" to-layer="498" to-port="0" />
		<edge from-layer="496" from-port="0" to-layer="498" to-port="1" />
		<edge from-layer="497" from-port="0" to-layer="498" to-port="2" />
		<edge from-layer="498" from-port="3" to-layer="499" to-port="1" />
		<edge from-layer="499" from-port="2" to-layer="500" to-port="1" />
		<edge from-layer="500" from-port="2" to-layer="502" to-port="0" />
		<edge from-layer="500" from-port="2" to-layer="505" to-port="0" />
		<edge from-layer="501" from-port="0" to-layer="502" to-port="1" />
		<edge from-layer="502" from-port="2" to-layer="503" to-port="0" />
		<edge from-layer="503" from-port="1" to-layer="504" to-port="0" />
		<edge from-layer="504" from-port="1" to-layer="505" to-port="1" />
		<edge from-layer="505" from-port="2" to-layer="507" to-port="0" />
		<edge from-layer="506" from-port="0" to-layer="507" to-port="1" />
		<edge from-layer="507" from-port="2" to-layer="509" to-port="0" />
		<edge from-layer="508" from-port="0" to-layer="509" to-port="1" />
		<edge from-layer="509" from-port="2" to-layer="510" to-port="1" />
		<edge from-layer="510" from-port="2" to-layer="512" to-port="0" />
		<edge from-layer="511" from-port="0" to-layer="512" to-port="1" />
		<edge from-layer="512" from-port="2" to-layer="514" to-port="0" />
		<edge from-layer="513" from-port="0" to-layer="514" to-port="1" />
		<edge from-layer="514" from-port="2" to-layer="516" to-port="0" />
		<edge from-layer="514" from-port="2" to-layer="519" to-port="0" />
		<edge from-layer="515" from-port="0" to-layer="516" to-port="1" />
		<edge from-layer="516" from-port="2" to-layer="517" to-port="0" />
		<edge from-layer="517" from-port="1" to-layer="518" to-port="0" />
		<edge from-layer="518" from-port="1" to-layer="519" to-port="1" />
		<edge from-layer="519" from-port="2" to-layer="521" to-port="0" />
		<edge from-layer="520" from-port="0" to-layer="521" to-port="1" />
		<edge from-layer="521" from-port="2" to-layer="523" to-port="0" />
		<edge from-layer="522" from-port="0" to-layer="523" to-port="1" />
		<edge from-layer="523" from-port="2" to-layer="525" to-port="0" />
		<edge from-layer="524" from-port="0" to-layer="525" to-port="1" />
		<edge from-layer="525" from-port="2" to-layer="527" to-port="0" />
		<edge from-layer="526" from-port="0" to-layer="527" to-port="1" />
		<edge from-layer="527" from-port="2" to-layer="529" to-port="0" />
		<edge from-layer="528" from-port="0" to-layer="529" to-port="1" />
		<edge from-layer="529" from-port="2" to-layer="532" to-port="0" />
		<edge from-layer="529" from-port="2" to-layer="533" to-port="0" />
		<edge from-layer="530" from-port="0" to-layer="532" to-port="1" />
		<edge from-layer="531" from-port="0" to-layer="532" to-port="2" />
		<edge from-layer="532" from-port="3" to-layer="533" to-port="1" />
		<edge from-layer="533" from-port="2" to-layer="535" to-port="0" />
		<edge from-layer="534" from-port="0" to-layer="535" to-port="1" />
		<edge from-layer="535" from-port="2" to-layer="537" to-port="0" />
		<edge from-layer="536" from-port="0" to-layer="537" to-port="1" />
		<edge from-layer="537" from-port="2" to-layer="538" to-port="0" />
	</edges>
	<rt_info>
		<MO_version value="2023.0.0-10926-b4452d56304-releases/2023/0" />
		<Runtime_version value="2023.0.0-10926-b4452d56304-releases/2023/0" />
		<conversion_parameters>
			<input value="data" />
			<input_model value="DIR/model_ready.onnx" />
			<input_shape value="[1, 3, 224, 224]" />
			<is_python_api_used value="False" />
			<mean_values value="[123.675, 116.28, 103.53]" />
			<model_name value="model" />
			<output value="logits" />
			<output_dir value="DIR" />
			<reverse_input_channels value="True" />
			<scale_values value="[58.395, 57.12, 57.375]" />
		</conversion_parameters>
		<legacy_frontend value="False" />
		<model_info>
			<confidence_threshold value="0.5" />
			<hierarchical value="False" />
			<hierarchical_config value="{&quot;cls_heads_info&quot;: {&quot;num_multiclass_heads&quot;: 1, &quot;num_multilabel_classes&quot;: 0, &quot;head_idx_to_logits_range&quot;: {&quot;0&quot;: [0, 2]}, &quot;num_single_label_classes&quot;: 2, &quot;class_to_group_idx&quot;: {&quot;bad&quot;: [0, 0], &quot;good&quot;: [0, 1]}, &quot;all_groups&quot;: [[&quot;bad&quot;, &quot;good&quot;]], &quot;label_to_idx&quot;: {&quot;bad&quot;: 0, &quot;good&quot;: 1}, &quot;empty_multiclass_head_indices&quot;: []}, &quot;label_tree_edges&quot;: []}" />
			<labels value="bad good" />
			<model_type value="Classification" />
			<multilabel value="False" />
			<output_raw_scores value="True" />
		</model_info>
		<otx_config value="{&quot;type_of_model&quot;: &quot;Classification&quot;, &quot;converter_type&quot;: &quot;CLASSIFICATION&quot;, &quot;model_parameters&quot;: {&quot;multilabel&quot;: false, &quot;hierarchical&quot;: false, &quot;multihead_class_info&quot;: {}, &quot;confidence_threshold&quot;: 0.5, &quot;labels&quot;: {&quot;label_tree&quot;: {&quot;type&quot;: &quot;tree&quot;, &quot;directed&quot;: true, &quot;nodes&quot;: [&quot;0&quot;, &quot;1&quot;], &quot;edges&quot;: []}, &quot;label_groups&quot;: [{&quot;_id&quot;: &quot;666bfb5c183f09ef658fc72a&quot;, &quot;name&quot;: &quot;labels&quot;, &quot;label_ids&quot;: [&quot;0&quot;, &quot;1&quot;], &quot;relation_type&quot;: &quot;EXCLUSIVE&quot;}], &quot;all_labels&quot;: {&quot;0&quot;: {&quot;_id&quot;: &quot;0&quot;, &quot;name&quot;: &quot;bad&quot;, &quot;color&quot;: {&quot;red&quot;: 236, &quot;green&quot;: 197, &quot;blue&quot;: 170, &quot;alpha&quot;: 255}, &quot;hotkey&quot;: &quot;&quot;, &quot;domain&quot;: &quot;CLASSIFICATION&quot;, &quot;creation_date&quot;: &quot;2024-06-14T08:12:12.480000&quot;, &quot;is_empty&quot;: false, &quot;is_anomalous&quot;: false}, &quot;1&quot;: {&quot;_id&quot;: &quot;1&quot;, &quot;name&quot;: &quot;good&quot;, &quot;color&quot;: {&quot;red&quot;: 189, &quot;green&quot;: 248, &quot;blue&quot;: 156, &quot;alpha&quot;: 255}, &quot;hotkey&quot;: &quot;&quot;, &quot;domain&quot;: &quot;CLASSIFICATION&quot;, &quot;creation_date&quot;: &quot;2024-06-14T08:12:12.480000&quot;, &quot;is_empty&quot;: false, &quot;is_anomalous&quot;: false}}}}}" />
	</rt_info>
</net>
